Compression_Test_CNN/models/model06_base_qat.pth (torch, 495846 bytes, 16 tensors)

cpu f8 [32]
0.002273470861837268 0.0023931970354169607 0.0027154760900884867 0.0020901986863464117 0.0018535931594669819 0.002607440110296011 0.0022532574366778135 0.001917053945362568
0.002709259744733572 0.0019867613445967436 0.0022901026532053947 0.0023461091332137585 0.0025536278262734413 0.002115597715601325 0.002120410557836294 0.0019353694515302777
0.0028893512208014727 0.00204932177439332 0.0018796308431774378 0.0024198617320507765 0.0022748387418687344 0.0022495738230645657 0.0026476874481886625 0.0019123577512800694
0.001949560479260981 0.00250062788836658 0.002604495035484433 0.0021209849510341883 0.0022504415828734636 0.002692979294806719 0.0023202195297926664 0.0026185729075223207
00000000: 0000 0060 d09f 623f 0000 00e0 e59a 633f
00000010: 0000 0020 c43e 663f 0000 00e0 761f 613f
00000020: 0000 0080 885e 5e3f 0000 00c0 325c 653f
00000030: 0000 0060 6c75 623f 0000 0000 b568 5f3f
00000040: 0000 00c0 ba31 663f 0000 0060 8a46 603f
00000050: 0000 0080 b1c2 623f 0000 00c0 2538 633f
00000060: 0000 0080 58eb 643f 0000 00e0 ba54 613f
00000070: 0000 00c0 d25e 613f 0000 0020 87b5 5f3f
00000080: 0000 00a0 68ab 673f 0000 0040 bdc9 603f
00000090: 0000 0040 becb 5e3f 0000 0060 d1d2 633f
000000a0: 0000 00c0 aea2 623f 0000 00c0 b26d 623f
000000b0: 0000 0060 9ab0 653f 0000 0080 0255 5f3f
000000c0: 0000 00a0 0cf1 5f3f 0000 0060 327c 643f
000000d0: 0000 00a0 0556 653f 0000 0020 0760 613f
000000e0: 0000 00a0 846f 623f 0000 0040 960f 663f
000000f0: 0000 0060 da01 633f 0000 00a0 8b73 653f

conv1.bias f4 [32]
0.13371475 -0.20755681 0.113833964 0.08635872 0.04048434 -0.1180133 0.10171857 0.0874399
0.14636675 -0.14146346 -0.1335692 0.13158333 0.12985533 0.055509068 -0.060110886 -0.11879386
0.087617345 -0.043651726 0.04297578 0.089077644 0.066719234 0.16093232 0.08361384 0.04900483
-0.057499032 0.12756138 -0.20604035 -0.07343973 -0.09027657 0.005237851 0.09791093 0.048167583
00000000: 85ec 083e c689 54be c821 e93d d7dc b03d
00000010: e8d2 253d f5b0 f1bd d351 d03d b113 b33d
00000020: 2ae1 153e ccdb 10be 5dc6 08be c8bd 063e
00000030: ccf8 043e 7a5d 633d d536 76bd 324a f3bd
00000040: b970 b33d 27cc 32bd 5f07 303d 576e b63d
00000050: 18a4 883d 71cb 243e bc3d ab3d 4ab9 483d
00000060: 1b84 6bbd 739f 023e 3efc 52be 9267 96bd
00000070: ece2 b8bd 47a2 ab3b 8785 c83d 5f4b 453d

cpu f8 [64]
0.002003665314987302 0.001724587636999786 0.0021159069146960974 0.0020086541771888733 0.0016384851187467575 0.0022144096437841654 0.002196925226598978 0.0020130318589508533
0.0016258686082437634 0.0009147712262347341 0.0008430088055320084 0.0018664791714400053 0.0006182087236084044 0.0020941696129739285 0.001994713442400098 0.001754006720148027
0.0015441407449543476 0.001812359201721847 0.0017967983148992062 0.0016807632055133581 0.0017065367428585887 0.0015307768480852246 0.002069345908239484 0.0012016904074698687
0.00210770801641047 0.0017086752923205495 0.002045909408479929 0.0006905937916599214 0.001892123487778008 0.0022689637262374163 0.0006088727968744934 0.0018140996107831597
0.0021084502805024385 0.0018060177098959684 0.0019048055401071906 0.0005947884637862444 0.0020480009261518717 0.002407201798632741 0.0008707848028279841 0.0019759810529649258
0.0022224378772079945 0.0016992203891277313 0.0018117590807378292 0.001749342423863709 0.0016251530032604933 0.0006075791316106915 0.0005877859657630324 0.0015958406729623675
0.002064547035843134 0.001453628996387124 0.002404779428616166 0.0010637498926371336 0.0007724380702711642 0.0017262002220377326 0.000523602357134223 0.00156589993275702
0.0015154059510678053 0.0021881924476474524 0.0019220487447455525 0.0019295806996524334 0.0015359575627371669 0.0017028521979227662 0.0021479346323758364 0.0011495251674205065
00000000: 0000 00a0 fd69 603f 0000 00e0 7141 5c3f
00000010: 0000 00e0 6055 613f 0000 0000 7474 603f
00000020: 0000 0000 4ed8 5a3f 0000 0020 f423 623f
00000030: 0000 0040 49ff 613f 0000 0040 a27d 603f
00000040: 0000 0020 63a3 5a3f 0000 0040 a8f9 4d3f
00000050: 0000 00a0 ab9f 4b3f 0000 00c0 9494 5e3f
00000060: 0000 0020 e941 443f 0000 00c0 ca27 613f
00000070: 0000 00a0 3757 603f 0000 0060 d6bc 5c3f
00000080: 0000 0080 984c 593f 0000 00e0 95b1 5d3f
00000090: 0000 0080 5170 5d3f 0000 00c0 a189 5b3f
000000a0: 0000 00e0 bbf5 5b3f 0000 0020 8b14 593f
000000b0: 0000 00a0 bbf3 603f 0000 0040 41b0 533f
000000c0: 0000 0020 2f44 613f 0000 0020 b4fe 5b3f
000000d0: 0000 0040 95c2 603f 0000 00e0 1ea1 463f
000000e0: 0000 0020 2400 5f3f 0000 00a0 5c96 623f
000000f0: 0000 0060 98f3 433f 0000 00a0 e2b8 5d3f
00000100: 0000 00a0 bd45 613f 0000 00c0 fc96 5d3f
00000110: 0000 0060 5535 5f3f 0000 0080 727d 433f
00000120: 0000 0020 f8c6 603f 0000 00a0 44b8 633f
00000130: 0000 0020 ac88 4c3f 0000 00c0 ee2f 603f
00000140: 0000 0040 ca34 623f 0000 0000 0cd7 5b3f
00000150: 0000 0080 11af 5d3f 0000 0020 46a9 5c3f
00000160: 0000 00c0 62a0 5a3f 0000 0040 bee8 433f
00000170: 0000 00c0 b442 433f 0000 00e0 7025 5a3f
00000180: 0000 0040 abe9 603f 0000 0040 f6d0 573f
00000190: 0000 0020 30b3 633f 0000 00c0 b06d 513f
000001a0: 0000 0020 ae4f 493f 0000 0060 3548 5c3f
000001b0: 0000 0080 4b28 413f 0000 0040 dca7 593f
000001c0: 0000 00c0 12d4 583f 0000 00e0 f8ec 613f
000001d0: 0000 0020 a87d 5f3f 0000 0080 3f9d 5f3f
000001e0: 0000 00e0 452a 593f 0000 00a0 47e6 5b3f
000001f0: 0000 00a0 8b98 613f 0000 0040 75d5 523f

conv2.bias f4 [64]
-0.07362717 -0.07239165 -0.03281057 -0.03846613 -0.04763346 0.03326312 0.0014299407 0.03498837
-0.021368094 0.0021415807 0.009566114 0.026964927 0.015296426 0.02001707 -0.04171561 -0.0024465322
0.06635743 -0.064789526 0.07943687 -0.041065615 -0.08949796 -0.023613548 0.039871946 0.0034636061
0.0027394514 0.029214114 -0.11266731 -0.05568139 -0.06477536 -0.056381233 -0.03507489 0.0009524536
-0.01969717 0.08276315 -0.06846426 0.01075976 0.0055165156 -0.036871362 -0.058160983 0.038778856
0.008779311 -0.012508644 0.09631593 0.012826747 -0.006417269 -0.041456673 0.0016602754 -0.09146409
0.11249928 -0.06902727 -0.029438622 -0.041775603 -0.00063144235 0.07332964 -0.018263116 -0.12002854
0.05119525 -0.0076839672 0.040090315 0.029986707 -0.028421378 -0.06425785 0.0045206198 -0.05658953
00000000: d7c9 96bd 1342 94bd 6064 06bd a98e 1dbd
00000010: 4e1b 43bd e93e 083d d96c bb3a f74f 0f3d
00000020: 240c afbc c359 0c3b 31bb 1c3c 8de5 dc3c
00000030: dc9d 7a3c d7fa a33c fddd 2abd 0056 20bb
00000040: 67e6 873d 5fb0 84bd ccaf a23d 6b34 28bd
00000050: b54a b7bd 3371 c1bc c450 233d abfd 623b
00000060: 5e88 333b 7052 ef3c 1ebe e6bd 2b12 64bd
00000070: f2a8 84bd 02f0 66bd b0aa 0fbd 14ae 793a
00000080: f65b a1bc ba7f a93d fd36 8cbd b449 303c
00000090: e3c3 b43b 6d06 17bd 363a 6ebd 94d6 1e3d
000000a0: 19d7 0f3c 0ef1 4cbc 4941 c53d 4727 523c
000000b0: f447 d2bb 79ce 29bd 999d d93a 8651 bbbd
000000c0: 0666 e63d 2b5e 8dbd 4429 f1bc e51c 2bbd
000000d0: 6187 25ba da2d 963d 889c 95bc 86d1 f5bd
000000e0: 1cb2 513d cac9 fbbb be35 243d afa6 f53c
000000f0: f3d3 e8bc 9f99 83bd b521 943b 6cca 67bd

cpu f8 [128]
0.002118272241204977 0.002372142393141985 0.0022735390812158585 0.002648012014105916 0.0005787359550595284 0.0017791917780414224 0.0018487221095710993 0.001926580211147666
0.0020926890429109335 0.0027851280756294727 0.0005698961322195828 0.002323635620996356 0.0024400001857429743 0.0005004801205359399 0.0020614629611372948 0.0025392670650035143
0.000647303881123662 0.0024491967633366585 0.002036468358710408 0.0020668990910053253 0.002786613767966628 0.0025967357214540243 0.0019944049417972565 0.0019104228122159839
0.0005487716407515109 0.0023102066479623318 0.0024134356062859297 0.002267572795972228 0.0019191178726032376 0.0006182303768582642 0.0021683317609131336 0.0022937592584639788
0.002455070847645402 0.0019715274684131145 0.0021228394471108913 0.0005564065650105476 0.001964899245649576 0.000632213952485472 0.001976537285372615 0.0017030253075063229
0.0017492494080215693 0.002452914835885167 0.0018622858915477991 0.0021634313743561506 0.0019125225953757763 0.0004417888121679425 0.0020321684423834085 0.0005090697086416185
0.002221287926658988 0.0023785769008100033 0.002463002922013402 0.0021623088978230953 0.0023092981427907944 0.002079607918858528 0.0020851390436291695 0.002205795142799616
0.002192253014072776 0.002019770909100771 0.002254432300105691 0.002388275694102049 0.0017324110958725214 0.00047134055057540536 0.0006083378684706986 0.0011664198245853186
0.0023120359983295202 0.002367631299421191 0.002417956246063113 0.0020859658252447844 0.0021994663402438164 0.0015276357298716903 0.0018839117838069797 0.0017163098091259599
0.0018670841818675399 0.0018610339611768723 0.0026440357323735952 0.0019173973705619574 0.0017794565064832568 0.0019030889961868525 0.0023478169459849596 0.0021853058133274317
0.00244492432102561 0.002031132811680436 0.0017980057746171951 0.002812016988173127 0.0007728153723292053 0.002303970279172063 0.0022083516232669353 0.0020560133270919323
0.0022885161451995373 0.002053464762866497 0.002193824388086796 0.0023960291873663664 0.00211441982537508 0.0023216656409204006 0.000601056613959372 0.0018912560772150755
0.0020778519101440907 0.001570029417052865 0.0014122462598606944 0.0019587259739637375 0.0018126805080100894 0.002170136198401451 0.002164579462260008 0.0018024519085884094
0.0017805076204240322 0.0020404732786118984 0.0020378732588142157 0.0020077938679605722 0.002165979938581586 0.0018285206751897931 0.002060763305053115 0.00185469223652035
0.0005228552035987377 0.002654777839779854 0.001967380754649639 0.0023936014622449875 0.0018103050533682108 0.0018410058692097664 0.0006492009270004928 0.002164798555895686
0.001974026672542095 0.002113098744302988 0.0027060015127062798 0.0017125395825132728 0.002656084019690752 0.002018299186602235 0.0017676816787570715 0.001975375460460782
00000000: 0000 00c0 565a 613f 0000 0040 be6e 633f
00000010: 0000 0000 f59f 623f 0000 00a0 48b1 653f
00000020: 0000 0000 caf6 423f 0000 00a0 7826 5d3f
00000030: 0000 0040 1a4a 5e3f 0000 00c0 a990 5f3f
00000040: 0000 00e0 af24 613f 0000 0040 d6d0 663f
00000050: 0000 00a0 a2ac 423f 0000 0060 0409 633f
00000060: 0000 0020 0dfd 633f 0000 00e0 5466 403f
00000070: 0000 0080 33e3 603f 0000 00a0 3acd 643f
00000080: 0000 0080 fa35 453f 0000 0080 5610 643f
00000090: 0000 00a0 c8ae 603f 0000 0000 9aee 603f
000000a0: 0000 00e0 f3d3 663f 0000 00e0 bf45 653f
000000b0: 0000 0000 9256 603f 0000 00e0 e44c 5f3f
000000c0: 0000 0020 6efb 413f 0000 00c0 daec 623f
000000d0: 0000 0060 57c5 633f 0000 00e0 7193 623f
000000e0: 0000 0020 5d71 5f3f 0000 00a0 1742 443f
000000f0: 0000 0040 52c3 613f 0000 00a0 5cca 623f
00000100: 0000 0020 a81c 643f 0000 00c0 9726 603f
00000110: 0000 00c0 ea63 613f 0000 0000 7a3b 423f
00000120: 0000 0040 b118 603f 0000 0020 65b7 443f
00000130: 0000 0060 1931 603f 0000 0080 01e7 5b3f
00000140: 0000 0040 e2a8 5c3f 0000 00a0 2218 643f
00000150: 0000 0040 fe82 5e3f 0000 0060 0bb9 613f
00000160: 0000 0080 b355 5f3f 0000 0080 fcf3 3c3f
00000170: 0000 0020 c4a5 603f 0000 00e0 62ae 403f
00000180: 0000 00e0 6032 623f 0000 00c0 3c7c 633f
00000190: 0000 00a0 4a2d 643f 0000 00c0 b0b6 613f
000001a0: 0000 0000 f3ea 623f 0000 0000 4109 613f
000001b0: 0000 0080 da14 613f 0000 0040 e311 623f
000001c0: 0000 00e0 7cf5 613f 0000 0040 c48b 603f
000001d0: 0000 0020 e377 623f 0000 00c0 9390 633f
000001e0: 0000 0040 4262 5c3f 0000 0040 c8e3 3e3f
000001f0: 0000 00a0 1bef 433f 0000 00c0 511c 533f
00000200: 0000 00e0 b0f0 623f 0000 0060 4865 633f
00000210: 0000 0060 d2ce 633f 0000 0060 9616 613f
00000220: 0000 0080 9d04 623f 0000 0060 5e07 593f
00000230: 0000 00e0 b2dd 5e3f 0000 00a0 b91e 5c3f
00000240: 0000 0060 1e97 5e3f 0000 0000 be7d 5e3f
00000250: 0000 00e0 f1a8 653f 0000 00c0 256a 5f3f
00000260: 0000 00e0 9427 5d3f 0000 0040 222e 5f3f
00000270: 0000 00a0 ba3b 633f 0000 0020 ebe6 613f
00000280: 0000 00c0 6007 643f 0000 0020 98a3 603f
00000290: 0000 0000 6275 5d3f 0000 0020 3a09 673f
000002a0: 0000 0060 d852 493f 0000 00a0 c6df 623f
000002b0: 0000 00c0 3f17 623f 0000 00c0 c5d7 603f
000002c0: 0000 00c0 5dbf 623f 0000 0080 6dd2 603f
000002d0: 0000 0080 c8f8 613f 0000 0060 d6a0 633f
000002e0: 0000 0080 4252 613f 0000 00c0 e204 633f
000002f0: 0000 0040 07b2 433f 0000 00c0 80fc 5e3f
00000300: 0000 0040 9205 613f 0000 0040 2eb9 593f
00000310: 0000 00e0 6323 573f 0000 0000 bf0b 603f
00000320: 0000 00e0 eeb2 5d3f 0000 0000 1bc7 613f
00000330: 0000 00c0 73bb 613f 0000 0000 0888 5d3f
00000340: 0000 0080 fd2b 5d3f 0000 00c0 2eb7 603f
00000350: 0000 00e0 bab1 603f 0000 0020 a672 603f
00000360: 0000 00a0 63be 613f 0000 0020 5ff5 5d3f
00000370: 0000 00e0 bbe1 603f 0000 00a0 2463 5e3f
00000380: 0000 0000 0722 413f 0000 0000 79bf 653f
00000390: 0000 0080 e51d 603f 0000 0000 bf9b 633f
000003a0: 0000 0040 f8a8 5d3f 0000 0000 bd29 5e3f
000003b0: 0000 0060 e445 453f 0000 0060 e9bb 613f
000003c0: 0000 0080 d52b 603f 0000 0040 7d4f 613f
000003d0: 0000 0080 e52a 663f 0000 0060 e90e 5c3f
000003e0: 0000 0040 36c2 653f 0000 0020 ae88 603f
000003f0: 0000 00c0 31f6 5c3f 0000 00a0 a92e 603f

conv3.bias f4 [128]
-0.053067725 0.13818878 -0.0530174 -0.0852962 -0.05999246 0.0073222434 -0.1506657 0.0775423
0.06527754 0.0035165627 -0.029006721 0.11018543 0.12867086 -0.06972777 -0.025306799 0.06281181
-0.037268028 0.04047792 0.0515817 -0.03127019 0.09976126 0.082868025 0.04307843 -0.12026214
-0.03386995 0.043876816 0.01917923 -0.047392063 0.02760536 -0.0647387 0.115584455 0.046748053
0.023777356 -0.04362128 -0.07518798 -0.030662332 0.14166011 -0.025441438 -0.10390699 0.08139602
0.039466612 -0.074515395 -0.021518908 -0.016948508 0.07648296 -0.045632534 0.10743666 -0.047953166
-0.12909195 -0.03950893 -0.08485661 0.03194283 -0.026927074 0.06759542 0.09220404 0.079903685
0.046710894 0.049562093 -0.003549505 0.10488423 -0.11357181 -0.058739293 -0.028658029 -0.10625536
0.05606221 0.12796566 0.028405476 -0.0659729 0.024436293 0.0071811387 0.11494442 0.018501006
0.012869148 -0.073643096 0.05774658 0.10584386 -0.09833937 -0.09747386 0.12749948 0.02059083
0.095763996 0.098858096 -0.015475104 0.012691618 -0.012373101 0.07678236 0.076547086 0.07535967
0.114707075 0.12431047 0.116409026 0.065198645 0.033666223 0.08192534 -0.024330994 0.08218491
0.11564707 -0.12576462 -0.1299553 0.13651076 -0.034612373 -0.083501965 0.009089698 -0.051119596
-0.034818005 0.08206699 0.04934446 0.042485364 0.042276632 0.1304575 0.116547294 -0.011318509
-0.03604199 0.11417054 0.08493222 0.07391857 0.08665814 -0.012839528 -0.023731861 0.091808796
0.008581371 -0.10513384 -0.084749825 0.003780693 0.1160527 -0.09809165 -0.0135735925 0.0847847
00000000: 8b5d 59bd 5c81 0d3e c628 59bd c6af aebd
00000010: a7ba 75bd 6eef ef3b 1c48 1abe 7fce 9e3d
00000020: 3bb0 853d 2276 663b 819f edbc e6a8 e13d
00000030: 4bc2 033e 6fcd 8ebd 3450 cfbc 7aa3 803d
00000040: 5ca6 18bd 2dcc 253d 5547 533d 2c15 00bd
00000050: a24f cc3d b6b6 a93d 0273 303d ff4b f6bd
00000060: 37bb 0abd 2db8 333d c31d 9d3c 2e1e 42bd
00000070: a324 e23c b995 84bd 8bb7 ec3d e37a 3f3d
00000080: bbc8 c23c 3aac 32bd 28fc 99bd 922f fbbc
00000090: 590f 113e 906a d0bc 30cd d4bd f5b2 a63d
000000a0: bea7 213d 879b 98bd 6c48 b0bc 99d7 8abc
000000b0: 19a3 9c3d 2ee9 3abd c007 dc3d 8a6a 44bd
000000c0: ae30 04be 1ed4 21bd 4dc9 adbd 7cd6 023d
000000d0: 2b96 dcbc 786f 8a3d 79d5 bc3d 8ba4 a33d
000000e0: ec53 3f3d 9f01 4b3d d09e 68bb 8bcd d63d
000000f0: 5698 e8bd 9d98 70bd 3ec4 eabc 699c d9bd
00000100: 7da1 653d 6e09 033e 9ab2 e83c cd1c 87bd
00000110: 9f2e c83c c24f eb3b fb67 eb3d 6c8f 973c
00000120: 1ed9 523c 31d2 96bd ae87 6c3d aac4 d83d
00000130: 2766 c9bd 60a0 c7bd 398f 023e 1aae a83c
00000140: ea1f c43d 1d76 ca3d 4a8b 7dbc 81f0 4f3c
00000150: 8cb8 4abc 1240 9d3d b8c4 9c3d 2c56 9a3d
00000160: 8beb ea3d 7d96 fe3d db67 ee3d de86 853d
00000170: 98e5 093d 79c8 a73d cb51 c7bc 9050 a83d
00000180: 5fd8 ec3d 71c8 00be 0113 05be 7ac9 0b3e
00000190: b4c5 0dbd 1403 abbd f5ec 143c c862 51bd
000001a0: 539d 0ebd bd12 a83d 6b1d 4a3d 2205 2e3d
000001b0: 432a 2d3d a796 053e 59b0 ee3d 4471 39bc
000001c0: c4a0 13bd 3ed2 e93d f2f0 ad3d 9f62 973d
000001d0: d379 b13d e25c 52bc 5269 c2bc 4006 bc3d
000001e0: e198 0c3c 6950 d7bd 5191 adbd 81c5 773b
000001f0: 0aad ed3d 46e4 c8bd c663 5ebc 9aa3 ad3d

cpu f8 [128]
0.00048340560169890523 0.0018378783715888858 0.002394061302766204 0.0004836798761971295 0.0006593030411750078 0.00044745084596797824 0.0004840893379878253 0.0022613091859966516
0.003026127116754651 0.002467805752530694 0.0024366138968616724 0.002298243110999465 0.0022505938541144133 0.0005552470684051514 0.0024960690643638372 0.0027535278350114822
0.0023339856415987015 0.0006744958809576929 0.0021808554884046316 0.002174846827983856 0.0025237335357815027 0.001985230715945363 0.002502930350601673 0.002437305636703968
0.0028902410995215178 0.0004524309770204127 0.00246596522629261 0.0025071795098483562 0.0004259776324033737 0.0021360062528401613 0.0023614484816789627 0.0027359509840607643
0.00046664869296364486 0.002547281561419368 0.0021920432336628437 0.0023393970914185047 0.001979239284992218 0.0023662096355110407 0.001048418809659779 0.0026049199514091015
0.0005219432641752064 0.0006579915643669665 0.0006256535998545587 0.002489429200068116 0.00047431892016902566 0.0025758137926459312 0.0005743889487348497 0.0007578593795187771
0.000705222541000694 0.0005705746007151902 0.0021804978605359793 0.00042630877578631043 0.0024089307989925146 0.002376846270635724 0.00220731389708817 0.0004731224325951189
0.002207063604146242 0.0004780766903422773 0.0004391789552755654 0.0025004930794239044 0.002361961407586932 0.0005350939463824034 0.002470259787514806 0.00045154467807151377
0.0003465245827101171 0.002103222068399191 0.00220699911005795 0.0004972724127583206 0.0024552377872169018 0.002343202708289027 0.002273987280204892 0.0006109230453148484
0.0024759278167039156 0.00048611205420456827 0.0024502351880073547 0.0004577062209136784 0.002261370187625289 0.002408790634945035 0.0023182302247732878 0.0006377503159455955
0.0024469911586493254 0.0005037595401518047 0.0025283703580498695 0.0011158428387716413 0.002549427095800638 0.0008472588961012661 0.002294632140547037 0.00071739312261343
0.0008048597373999655 0.0020817953627556562 0.002768524456769228 0.0005499417893588543 0.002323446562513709 0.0023550577461719513 0.002502561081200838 0.0024334341287612915
0.0018250644207000732 0.000424252706579864 0.000621399434749037 0.0024530813097953796 0.00042002112604677677 0.002551682060584426 0.002450040075927973 0.0005386877455748618
0.0005017780931666493 0.002716297283768654 0.0022571319714188576 0.002364874118939042 0.002539609791710973 0.002237839624285698 0.0004648521717172116 0.0005192130338400602
0.002215213142335415 0.0023326098453253508 0.0010017739841714501 0.0023381770588457584 0.002547146985307336 0.0026327415835112333 0.0004203120188321918 0.0005359764327295125
0.0004946253029629588 0.0023084552958607674 0.0005363539094105363 0.0006829681224189699 0.0022684175055474043 0.00048600503941997886 0.0004859117907471955 0.002413924550637603
00000000: 0000 0040 33ae 3f3f 0000 00e0 9e1c 5e3f
00000010: 0000 00e0 b59c 633f 0000 0040 cdb2 3f3f
00000020: 0000 0080 a29a 453f 0000 00c0 fa52 3d3f
00000030: 0000 00e0 abb9 3f3f 0000 0020 4f86 623f
00000040: 0000 00a0 3fca 683f 0000 0020 5d37 643f
00000050: 0000 0020 f3f5 633f 0000 00e0 c3d3 623f
00000060: 0000 0060 d66f 623f 0000 0000 c031 423f
00000070: 0000 00e0 a272 643f 0000 0000 918e 663f
00000080: 0000 0000 b91e 633f 0000 00e0 141a 463f
00000090: 0000 00e0 95dd 613f 0000 0000 fcd0 613f
000000a0: 0000 0020 a7ac 643f 0000 00a0 5443 603f
000000b0: 0000 0080 0681 643f 0000 0080 66f7 633f
000000c0: 0000 0060 46ad 673f 0000 0040 88a6 3d3f
000000d0: 0000 0000 8133 643f 0000 00c0 ef89 643f
000000e0: 0000 0000 b8ea 3b3f 0000 00a0 877f 613f
000000f0: 0000 0000 5158 633f 0000 0080 b469 663f
00000100: 0000 00e0 1095 3e3f 0000 0060 09de 643f
00000110: 0000 0040 0cf5 613f 0000 0040 122a 633f
00000120: 0000 0000 c436 603f 0000 0020 4d62 633f
00000130: 0000 0020 632d 513f 0000 00c0 e956 653f
00000140: 0000 00a0 601a 413f 0000 0020 a28f 453f
00000150: 0000 00e0 5c80 443f 0000 0020 b664 643f
00000160: 0000 0040 c015 3f3f 0000 0080 df19 653f
00000170: 0000 00e0 52d2 423f 0000 00a0 62d5 483f
00000180: 0000 00e0 d51b 473f 0000 00a0 53b2 423f
00000190: 0000 00e0 d5dc 613f 0000 0040 46f0 3b3f
000001a0: 0000 00e0 e4bb 633f 0000 00a0 9b78 633f
000001b0: 0000 00a0 1215 623f 0000 0060 ad01 3f3f
000001c0: 0000 0040 8c14 623f 0000 00c0 cb54 3f3f
000001d0: 0000 0040 33c8 3c3f 0000 0000 ea7b 643f
000001e0: 0000 0060 6459 633f 0000 0080 b188 413f
000001f0: 0000 00a0 823c 643f 0000 00a0 a997 3d3f
00000200: 0000 00c0 b7b5 363f 0000 00c0 c63a 613f
00000210: 0000 00a0 6914 623f 0000 0060 6c4b 403f
00000220: 0000 00c0 011d 643f 0000 0060 0d32 633f
00000230: 0000 00a0 e5a0 623f 0000 0040 cb04 443f
00000240: 0000 00a0 6548 643f 0000 0060 9bdb 3f3f
00000250: 0000 0000 8412 643f 0000 0040 09ff 3d3f
00000260: 0000 00e0 6f86 623f 0000 00a0 99bb 633f
00000270: 0000 0060 aefd 623f 0000 0060 d6e5 443f
00000280: 0000 0060 b60b 643f 0000 0060 d781 403f
00000290: 0000 0080 60b6 643f 0000 0020 2f48 523f
000002a0: 0000 0040 89e2 643f 0000 00a0 52c3 4b3f
000002b0: 0000 0040 31cc 623f 0000 0000 ee81 473f
000002c0: 0000 0020 a75f 4a3f 0000 0060 d70d 613f
000002d0: 0000 0040 04ae 663f 0000 0000 3f05 423f
000002e0: 0000 00e0 9e08 633f 0000 0000 ea4a 633f
000002f0: 0000 0040 4080 643f 0000 0000 48ef 633f
00000300: 0000 0000 e0e6 5d3f 0000 0080 c7cd 3b3f
00000310: 0000 0020 ad5c 443f 0000 0000 7c18 643f
00000320: 0000 0000 c986 3b3f 0000 00e0 43e7 643f
00000330: 0000 0040 1b12 643f 0000 0020 d7a6 413f
00000340: 0000 0040 3871 403f 0000 0000 7d40 663f
00000350: 0000 0080 8c7d 623f 0000 0020 805f 633f
00000360: 0000 00a0 f2cd 643f 0000 0000 1755 623f
00000370: 0000 00e0 ec76 3e3f 0000 0080 7903 413f
00000380: 0000 0080 a325 623f 0000 0060 d61b 633f
00000390: 0000 00a0 be69 503f 0000 0040 8327 633f
000003a0: 0000 0020 c1dd 643f 0000 0060 4291 653f
000003b0: 0000 0060 aa8b 3b3f 0000 00a0 1890 413f
000003c0: 0000 00c0 3735 403f 0000 0080 2ee9 623f
000003d0: 0000 0040 4393 413f 0000 00e0 2661 463f
000003e0: 0000 0060 3795 623f 0000 00c0 cfd9 3f3f
000003f0: 0000 0040 3fd8 3f3f 0000 00e0 5dc6 633f

conv4.bias f4 [128]
-0.009853849 -0.0024254688 0.07759998 -0.002774655 -0.008996537 -0.035133056 -0.002230674 0.095105164
-0.014520324 -0.04230398 0.07613626 0.14763786 0.10335824 -0.021639332 0.0013635614 0.13957486
0.041213803 -0.0655892 0.11100425 0.0468864 0.1450434 -0.034490272 -0.0010787672 0.10215002
-0.026141506 -0.049019493 0.006860136 0.11151416 -0.039907955 0.10505907 0.10249572 -0.01702843
-0.03355888 0.023322392 0.021203194 0.084227376 0.10004335 0.08712562 -0.033490155 0.002911471
-0.014306348 -0.04942307 -0.060971618 0.01931815 -0.056369603 0.059703875 -0.04194953 -0.072985485
-0.084796555 -0.038464688 0.028967975 -0.020494169 -0.032887496 0.039320365 0.017304292 -0.05609275
0.08007441 -0.02335368 -0.010173906 0.0042107827 0.015789198 -0.027312685 0.0724182 -0.035741586
-0.030583244 0.15963864 0.042094953 -0.029983755 0.022446834 0.027966755 0.06408351 -0.07584134
0.08074171 0.0012777403 0.09096249 -0.034814622 -0.038522255 0.14286637 0.0038942045 -0.045420576
0.042202245 -0.0044657523 0.13843118 -0.032121263 0.05565383 -0.053822085 0.16935587 -0.050243188
-0.07971771 -0.048155647 0.03687822 -0.0041414658 0.11117751 0.13791013 0.12819304 0.05201769
-0.08171666 -0.02684807 -0.028823767 0.013646491 -0.016717711 0.010804848 0.08728308 -0.07118534
-0.05514921 0.08848733 0.12013826 0.052586976 0.04489288 0.076039724 -0.015457927 -0.050396595
0.071357906 0.13198103 -0.08398843 -0.01969083 0.06692403 -0.0037372042 0.0055550723 -0.0027595044
0.0040902765 0.033086147 0.0046476126 -0.0612443 -0.009017212 -0.025747718 -0.026899107 0.11625735
00000000: 0a72 21bc 9df4 1ebb bdec 9e3d fcd6 35bb
00000010: 3666 13bc aee7 0fbd 8030 12bb 7fc6 c23d
00000020: a7e6 6dbc f046 2dbd 54ed 9b3d 612e 173e
00000030: 7cad d33d f844 b1bc 87b9 b23a b6ec 0e3e
00000040: cecf 283d a153 86bd 3256 e33d f40b 403d
00000050: 4286 143e ac45 0dbd 6c65 8dba 0834 d13d
00000060: b626 d6bc aac8 48bd feca e03b 8961 e43d
00000070: 8676 23bd 3629 d73d 47e9 d13d 357f 8bbc
00000080: 0975 09bd 9a0e bf3c 52b2 ad3c 677f ac3d
00000090: 87e3 cc3d eb6e b23d f92c 09bd 61ce 3e3b
000000a0: 2c65 6abc d86f 4abd 60bd 79bd 1941 9e3c
000000b0: d0e3 66bd 0d8c 743d 45d3 2bbd 6a79 95bd
000000c0: d1a9 adbd 268d 1dbd 3f4e ed3c 63e3 a7bc
000000d0: 0ab5 06bd 640e 213d bbc1 8d3c 83c1 65bd
000000e0: 0dfe a33d 3750 bfbc 74b0 26bc 9bfa 893b
000000f0: 5958 813c dabe dfbc fe4f 943d c565 12bd
00000100: b689 fabc 5078 233e c26b 2c3d 7ea0 f5bc
00000110: 6ce2 b73c 891a e53c 373e 833d b452 9bbd
00000120: e95b a53d da79 a73a 8b4a ba3d c799 0ebd
00000130: 83c9 1dbd 904b 123e e935 7f3b ed0a 3abd
00000140: 43dc 2c3d 7255 92bb e7c0 0d3e 9691 03bd
00000150: 45f5 633d 8c74 5cbd a06b 2d3e cdcb 4dbd
00000160: 0a43 a3bd db3e 45bd 9e0d 173d 22b5 87bb
00000170: 09b1 e33d 5038 0d3e 0945 033e 8010 553d
00000180: 105b a7bd 7cf0 dbbc d21f ecbc 8895 5f3c
00000190: 95f3 88bc d106 313c 79c1 b23d 9fc9 91bd
000001a0: 23e4 61bd d838 b53d 0c0b f63d 7165 573d
000001b0: 99e1 373d b7ba 9b3d 3f43 7dbc a96c 4ebd
000001c0: 1824 923d 0926 073e 2002 acbd aa4e a1bc
000001d0: 770f 893d e2eb 74bb 5307 b63b cdd8 34bb
000001e0: ba07 863b 5785 073d 004b 983b 4edb 7abd
000001f0: eebc 13bc e1ec d2bc 845b dcbc 5518 ee3d

cpu f8 [64]
0.000431106542237103 0.0019862577319145203 0.001966484123840928 0.0019699439872056246 0.002008565701544285 0.002089319285005331 0.0005473162746056914 0.0018994652200490236
0.00029608566546812654 0.0021439138799905777 0.0004169104213360697 0.002516297623515129 0.0020704856142401695 0.002147343475371599 0.00047910967259667814 0.0023226593621075153
0.0004197552625555545 0.00040701808757148683 0.0004892846336588264 0.001100530382245779 0.0019873231649398804 0.0021124272607266903 0.00044301847810857 0.0024481206201016903
0.0005685833166353405 0.0005500257248058915 0.0016533444868400693 0.0026095956563949585 0.0015386537415906787 0.002372017130255699 0.0004533508908934891 0.002358692931011319
0.0012763307895511389 0.002547399839386344 0.002584777306765318 0.00041271786903962493 0.002373000141233206 0.0006327343871816993 0.0005642320611514151 0.002062204061076045
0.0006829831982031465 0.0020332871936261654 0.0005105342715978622 0.0004235543601680547 0.00212659384123981 0.0022686694283038378 0.0007826057262718678 0.002472109626978636
0.0003947232326027006 0.0006539549212902784 0.0019773475360125303 0.0007003549253568053 0.00037707528099417686 0.002046013716608286 0.0019554614555090666 0.002487891586497426
0.0005008666194044054 0.002306769834831357 0.0018926701741293073 0.0023029728326946497 0.0022809088695794344 0.0010780319571495056 0.002075488679111004 0.00224515818990767
00000000: 0000 0080 c440 3c3f 0000 0000 7c45 603f
00000010: 0000 0020 041c 603f 0000 00a0 4523 603f
00000020: 0000 0080 4474 603f 0000 00c0 9e1d 613f
00000030: 0000 00c0 38ef 413f 0000 0040 ef1e 5f3f
00000040: 0000 0040 7e67 333f 0000 0000 1d90 613f
00000050: 0000 00a0 9852 3b3f 0000 0000 0f9d 643f
00000060: 0000 0080 1ff6 603f 0000 0040 4e97 613f
00000070: 0000 0060 2066 3f3f 0000 0040 f806 633f
00000080: 0000 0020 5382 3b3f 0000 0060 a1ac 3a3f
00000090: 0000 00c0 6a08 403f 0000 0080 f507 523f
000000a0: 0000 0000 b847 603f 0000 00c0 144e 613f
000000b0: 0000 00e0 9d08 3d3f 0000 00c0 140e 643f
000000c0: 0000 0060 9fa1 423f 0000 0040 f305 423f
000000d0: 0000 0020 a116 5b3f 0000 0000 b860 653f
000000e0: 0000 00e0 9435 593f 0000 0000 7b6e 633f
000000f0: 0000 0040 f7b5 3d3f 0000 00a0 8952 633f
00000100: 0000 00c0 51e9 543f 0000 00e0 48de 643f
00000110: 0000 00c0 ab2c 653f 0000 00c0 410c 3b3f
00000120: 0000 00c0 8a70 633f 0000 00c0 c2bb 443f
00000130: 0000 0020 1f7d 423f 0000 0060 c1e4 603f
00000140: 0000 0040 4761 463f 0000 00c0 1ca8 603f
00000150: 0000 0000 acba 403f 0000 0020 10c2 3b3f
00000160: 0000 0060 ca6b 613f 0000 00a0 be95 623f
00000170: 0000 0000 f9a4 493f 0000 00c0 6340 643f
00000180: 0000 0060 5bde 393f 0000 0080 c56d 453f
00000190: 0000 0060 cc32 603f 0000 00c0 00f3 463f
000001a0: 0000 0000 46b6 383f 0000 0040 cdc2 603f
000001b0: 0000 0060 e604 603f 0000 00a0 7c61 643f
000001c0: 0000 00e0 9269 403f 0000 00a0 a5e5 623f
000001d0: 0000 0020 6f02 5f3f 0000 0020 afdd 623f
000001e0: 0000 00a0 69af 623f 0000 0000 98a9 513f
000001f0: 0000 0080 9d00 613f 0000 0020 7064 623f

conv5.bias f4 [64]
-0.024832759 0.06938227 -0.011693313 0.046034187 0.031370156 0.006608069 -0.03647538 -0.076399855
0.015053988 -0.047559027 -0.0114532 0.00030656898 0.0921239 0.102536984 -0.06406934 0.047946535
-0.019538745 -0.021739427 -0.028187817 -0.035247367 0.07691241 0.07780644 -0.007578838 -0.042657897
-0.03133246 -0.025224194 -0.042502254 0.065165855 -0.036614206 0.09005404 -0.038468037 0.09031951
-0.04600656 0.076119 0.087966286 -0.015444236 0.0022676971 -0.044742636 -0.06496218 -0.031963937
-0.042645067 0.064890996 -0.012550496 -0.022533573 0.13347805 0.065815695 -0.060240537 0.14362271
-0.03909753 0.00522675 0.10157646 -0.033015106 0.0014403932 -0.1037548 0.06923618 0.1061069
-0.00021645942 0.046073627 -0.026957052 -0.0063070585 0.08206075 -0.05515684 0.1052744 -0.02618805
00000000: 126e cbbc 4b18 8e3d 4f95 3fbc 588e 3c3d
00000010: fe7d 003d 8088 d83b 3567 15bd 8777 9cbd
00000020: 01a5 763c 41cd 42bd 34a6 3bbc feba a039
00000030: 75ab bc3d e9fe d13d c936 83bd 9663 443d
00000040: b80f a0bc e216 b2bc 23ea e6bc 8b5f 10bd
00000050: 4184 9d3d fc58 9f3d e757 f8bb 0cba 2ebd
00000060: 7756 00bd f8a2 cebc d816 2ebd ad75 853d
00000070: c7f8 15bd 416e b83d a990 1dbd 6ff9 b83d
00000080: 6071 3cbd 47e4 9b3d ab27 b43d d209 7dbc
00000090: a59d 143b 0e44 37bd e40a 85bd 9eec 02bd
000000a0: 98ac 2ebd 92e5 843d 98a0 4dbc 5498 b8bc
000000b0: 78ae 083e 61ca 863d c8be 76bd d511 133e
000000c0: bb24 20bd 2845 ab3b 5207 d03d d93a 07bd
000000d0: 93cb bc3a 667d d4bd b3cb 8d3d 934e d93d
000000e0: 62f9 62b9 b3b7 3c3d 09d5 dcbc 71ab cebb
000000f0: 770f a83d 23ec 61bd 1b9a d73d 5288 d6bc

cpu f8 [32]
0.0006939270533621311 0.0006265387637540698 0.0020413827151060104 0.0020557993557304144 0.001674392493441701 0.0018854622030630708 0.002404819941148162 0.0019797866698354483
0.0006799687398597598 0.002056621480733156 0.002273880410939455 0.002202953677624464 0.0008193905814550817 0.0018083814065903425 0.0018788924207910895 0.0018082166789099574
0.0018154813442379236 0.0018642573850229383 0.0017917109653353691 0.001854710397310555 0.0021282979287207127 0.0022958703339099884 0.0020831988658756018 0.0021567153744399548
0.0019110488938167691 0.0021562445908784866 0.002054189797490835 0.0008467449806630611 0.0025253777857869864 0.0005546971806325018 0.002072641160339117 0.0018228580011054873
00000000: 0000 0000 15bd 463f 0000 00c0 c987 443f
00000010: 0000 0000 17b9 603f 0000 00e0 52d7 603f
00000020: 0000 0040 e96e 5b3f 0000 00a0 33e4 5e3f
00000030: 0000 00e0 45b3 633f 0000 00e0 e937 603f
00000040: 0000 00c0 fd47 463f 0000 0040 0cd9 603f
00000050: 0000 0040 aca0 623f 0000 00c0 ed0b 623f
00000060: 0000 00e0 8bd9 4a3f 0000 00c0 e6a0 5d3f
00000070: 0000 0060 a5c8 5e3f 0000 00e0 35a0 5d3f
00000080: 0000 0040 aebe 5d3f 0000 0020 438b 5e3f
00000090: 0000 0000 fb5a 5d3f 0000 0020 3863 5e3f
000000a0: 0000 0040 5d6f 613f 0000 0000 cace 623f
000000b0: 0000 00e0 c810 613f 0000 00c0 f5aa 613f
000000c0: 0000 0020 854f 5f3f 0000 0000 f9a9 613f
000000d0: 0000 00c0 f2d3 603f 0000 0000 03bf 4b3f
000000e0: 0000 00e0 19b0 643f 0000 0020 232d 423f
000000f0: 0000 00c0 a4fa 603f 0000 00e0 9edd 5d3f

conv6.bias f4 [32]
-0.10472452 -0.0641782 -0.0682015 0.10363722 0.018268734 0.060310937 0.11738905 0.0684873
-0.038744356 -0.056779183 0.047394834 -0.019900573 -0.042079356 0.06474953 -0.11089096 0.083900355
-0.12727901 -0.090316266 -0.035532415 0.07474396 -0.016950406 -0.078985035 -0.11109476 0.03626369
0.07063987 0.09585034 0.11250847 -0.009276994 -0.091756076 -0.050265748 0.15737146 0.046816252
00000000: cf79 d6bd dc6f 83bd 3aad 8bbd c03f d43d
00000010: 50a8 953c 9a08 773d ac69 f03d 1243 8c3d
00000020: 67b2 1ebd 4a91 68bd 1621 423d 8706 a3bc
00000030: 675b 2cbd 679b 843d cd1a e3bd f3d3 ab3d
00000040: 6e55 02be bcf7 b8bd 708a 11bd 5c13 993d
00000050: 94db 8abc e8c2 a1bd a685 e3bd 3c89 143d
00000060: a3ab 903d 2f4d c43d d76a e63d 88fe 17bc
00000070: 9cea bbbd 75e3 4dbd fc25 213e 66c2 3f3d

cpu f8 [256]
0.0006375580560415983 0.0009663485107012093 0.0020670786034315825 0.002248015021905303 0.0020634597167372704 0.002264245878905058 0.0019782385788857937 0.0020430637523531914
0.000637533375993371 0.002096406649798155 0.0005902135162614286 0.001871769200079143 0.002313437405973673 0.00044557463843375444 0.0023714271374046803 0.0022018628660589457
0.002147046383470297 0.0005861434037797153 0.002592917298898101 0.000488326302729547 0.0005749057163484395 0.0024261369835585356 0.0005438594380393624 0.00182608503382653
0.0006422630976885557 0.0005089291371405125 0.0021572094410657883 0.0005013191257603467 0.001991830300539732 0.001965208677574992 0.0019951569847762585 0.0021539924200624228
0.0009638783521950245 0.0004968498251400888 0.0004462421638891101 0.0021213178988546133 0.0021472731605172157 0.0007278600241988897 0.001955051440745592 0.00198374898172915
0.0004748235223814845 0.0005871995817869902 0.001649124315008521 0.0018380229594185948 0.002463397802785039 0.0017709445673972368 0.0006696351338177919 0.0024913442321121693
0.0005399417714215815 0.0005699954926967621 0.0020332192070782185 0.001909940387122333 0.002056764205917716 0.0022336512338370085 0.002014219993725419 0.0005693112034350634
0.00047342103789560497 0.0020279057789593935 0.002043216722086072 0.0020994581282138824 0.0020135457161813974 0.0020476749632507563 0.0006288617150858045 0.0011481037363409996
0.002081235172227025 0.0006015694816596806 0.0021142961923033 0.0005932210478931665 0.0018432562937960029 0.001979656284675002 0.0019145606784150004 0.0019774865359067917
0.002176990732550621 0.002174455439671874 0.0020933174528181553 0.0019315590616315603 0.0007192513439804316 0.001978505402803421 0.0018028217600658536 0.0008942615240812302
0.001919151283800602 0.0006823198636993766 0.0006868527270853519 0.0006936881109140813 0.002120265271514654 0.0006177964387461543 0.0005731190904043615 0.0019218444358557463
0.0006339118699543178 0.0017711455002427101 0.0020679463632404804 0.001798418234102428 0.0006328882882371545 0.002066943095996976 0.0005952802603133023 0.002020793966948986
0.0006049572257325053 0.0020864743273705244 0.0021062230225652456 0.0020103936549276114 0.0021554757840931416 0.0005451710894703865 0.0006658098427578807 0.002034575678408146
0.0012368386378511786 0.0005894102505408227 0.002005481394007802 0.0021336532663553953 0.0016301076393574476 0.0020303528290241957 0.0004487516125664115 0.001694106264039874
0.00044772823457606137 0.0021205206867307425 0.0022602747194468975 0.0022105909883975983 0.0021528794895857573 0.0018628634279593825 0.000712352164555341 0.0019731372594833374
0.0004790355742443353 0.0017850323347374797 0.0024757329374551773 0.002039032755419612 0.000565175898373127 0.0005477588274516165 0.0018762842519208789 0.0020083459094166756
0.002212305087596178 0.002192253014072776 0.001446629292331636 0.0018414015648886561 0.0006214715540409088 0.0006777510279789567 0.0020684858318418264 0.000506170850712806
0.0006785261793993413 0.0006823086296208203 0.0006370355258695781 0.0018687936244532466 0.0005405406118370593 0.00048398729995824397 0.0006061721360310912 0.0005106950411573052
0.0017361462814733386 0.0023322126362472773 0.0019198550144210458 0.0009517346043139696 0.0019767319317907095 0.002143747638911009 0.0009898118441924453 0.000458474358310923
0.0005898736417293549 0.0018648100085556507 0.00214029336348176 0.0019175618654116988 0.0005192550015635788 0.002135305665433407 0.0007448583492077887 0.0018499200232326984
0.0019517459440976381 0.0005507423775270581 0.0020471748430281878 0.0022289876360446215 0.002118318574503064 0.0021159027237445116 0.001992200966924429 0.00047234570956788957
0.0020597868133336306 0.00044426124077290297 0.0007020531920716166 0.0005452149198390543 0.0020824733655899763 0.0019091290887445211 0.001990729011595249 0.002178274793550372
0.0020301879849284887 0.002074428368359804 0.0006178799667395651 0.0008883025147952139 0.001341837807558477 0.0006078108563087881 0.002273282967507839 0.0022615932393819094
0.0020199751015752554 0.0020041202660650015 0.0022389793302863836 0.0005664665950462222 0.0019221875118091702 0.0004419796750880778 0.0004759810690302402 0.0021947966888546944
0.002028651535511017 0.0020876354537904263 0.0021943249739706516 0.001974662533029914 0.0005103009752929211 0.0017360916826874018 0.0018802282866090536 0.0005565491155721247
0.0005014619673602283 0.0017971782945096493 0.0020882023964077234 0.0022945962846279144 0.002293172525241971 0.0020361547358334064 0.002174431225284934 0.0009528514929115772
0.0019959071651101112 0.0015713353641331196 0.001953733153641224 0.0004235373344272375 0.00236310251057148 0.0021299668587744236 0.0019444214412942529 0.002205680124461651
0.0005981577560305595 0.0005138349370099604 0.0021668188273906708 0.0023397007025778294 0.0016875870060175657 0.0005336171016097069 0.0005728885298594832 0.0018692874582484365
0.0005912439664825797 0.0006849371711723506 0.0019505630480125546 0.0005836088093928993 0.0006060053128749132 0.002379580633714795 0.001957097090780735 0.0022289720363914967
0.00048340417561121285 0.002137350384145975 0.0019718788098543882 0.0020725445356220007 0.0020373365841805935 0.002212816383689642 0.002031856682151556 0.00047795509453862906
0.0021405245643109083 0.0022865773644298315 0.002428053878247738 0.002124639693647623 0.0020381086505949497 0.0005688730161637068 0.00046195235336199403 0.0004560957313515246
0.0016541420482099056 0.0005302300560288131 0.0019622454419732094 0.0005407818243838847 0.00047209105105139315 0.0006029748474247754 0.00046872871462255716 0.0019107830012217164
00000000: 0000 0080 39e4 443f 0000 00a0 51aa 4f3f
00000010: 0000 0060 faee 603f 0000 00e0 6d6a 623f
00000020: 0000 0080 63e7 603f 0000 00c0 778c 623f
00000030: 0000 00c0 aa34 603f 0000 0080 9dbc 603f
00000040: 0000 0080 04e4 443f 0000 00c0 7b2c 613f
00000050: 0000 00e0 1157 433f 0000 00e0 c4aa 5e3f
00000060: 0000 0040 a1f3 623f 0000 0080 8033 3d3f
00000070: 0000 0040 3e6d 633f 0000 0020 a409 623f
00000080: 0000 00c0 ae96 613f 0000 0060 ed34 433f
00000090: 0000 00e0 bd3d 653f 0000 00c0 6000 403f
000000a0: 0000 00a0 a8d6 423f 0000 0060 fadf 633f
000000b0: 0000 0040 39d2 413f 0000 00e0 27eb 5d3f
000000c0: 0000 0080 b10b 453f 0000 0000 35ad 403f
000000d0: 0000 0000 ffab 613f 0000 00a0 5e6d 403f
000000e0: 0000 00c0 2b51 603f 0000 0060 5719 603f
000000f0: 0000 00c0 2558 603f 0000 00e0 3fa5 613f
00000100: 0000 0000 9995 4f3f 0000 00e0 e047 403f
00000110: 0000 0080 b33e 3d3f 0000 00e0 b960 613f
00000120: 0000 0080 2897 613f 0000 0080 bbd9 473f
00000130: 0000 0040 0a04 603f 0000 0020 3940 603f
00000140: 0000 0080 371e 3f3f 0000 0080 c93d 433f
00000150: 0000 00c0 ed04 5b3f 0000 0020 3a1d 5e3f
00000160: 0000 00a0 1e2e 643f 0000 0040 e103 5d3f
00000170: 0000 0080 4ef1 453f 0000 0040 ba68 643f
00000180: 0000 0020 5cb1 413f 0000 0000 78ad 423f
00000190: 0000 0040 f8a7 603f 0000 00e0 de4a 5f3f
000001a0: 0000 00e0 58d9 603f 0000 0060 4e4c 623f
000001b0: 0000 0020 2080 603f 0000 0080 baa7 423f
000001c0: 0000 00e0 af06 3f3f 0000 00a0 d39c 603f
000001d0: 0000 00a0 efbc 603f 0000 0000 e232 613f
000001e0: 0000 0020 b67e 603f 0000 0020 49c6 603f
000001f0: 0000 0040 469b 443f 0000 0000 7fcf 523f
00000200: 0000 00a0 aa0c 613f 0000 00a0 54b6 433f
00000210: 0000 0020 0052 613f 0000 0080 4c70 433f
00000220: 0000 0060 2d33 5e3f 0000 00e0 a337 603f
00000230: 0000 00e0 3f5e 5f3f 0000 0000 1733 603f
00000240: 0000 0000 7bd5 613f 0000 00e0 29d0 613f
00000250: 0000 0040 0126 613f 0000 00c0 8ba5 5f3f
00000260: 0000 0080 8491 473f 0000 0000 3a35 603f
00000270: 0000 0020 9589 5d3f 0000 0000 9c4d 4d3f
00000280: 0000 0000 8171 5f3f 0000 00c0 b65b 463f
00000290: 0000 0000 bd81 463f 0000 00e0 13bb 463f
000002a0: 0000 00c0 845e 613f 0000 00c0 733e 443f
000002b0: 0000 00e0 abc7 423f 0000 00c0 cc7c 5f3f
000002c0: 0000 0060 a3c5 443f 0000 0000 b904 5d3f
000002d0: 0000 0040 ccf0 603f 0000 00e0 1c77 5d3f
000002e0: 0000 0040 0dbd 443f 0000 00a0 b1ee 603f
000002f0: 0000 00a0 9281 433f 0000 0080 e98d 603f
00000300: 0000 00c0 bfd2 433f 0000 0060 a717 613f
00000310: 0000 00e0 1141 613f 0000 00e0 1978 603f
00000320: 0000 0040 5ca8 613f 0000 0000 3add 413f
00000330: 0000 00c0 37d1 453f 0000 0080 d0aa 603f
00000340: 0000 0060 ad43 543f 0000 00e0 5450 433f
00000350: 0000 00a0 cc6d 603f 0000 0060 987a 613f
00000360: 0000 00c0 2ab5 5a3f 0000 0060 f5a1 603f
00000370: 0000 0080 cd68 3d3f 0000 00c0 98c1 5b3f
00000380: 0000 0020 a257 3d3f 0000 00e0 0d5f 613f
00000390: 0000 00c0 2384 623f 0000 0000 f21b 623f
000003a0: 0000 0060 eaa2 613f 0000 0060 6a85 5e3f
000003b0: 0000 00a0 a457 473f 0000 0000 f829 603f
000003c0: 0000 0020 e264 3f3f 0000 00e0 f73e 5d3f
000003d0: 0000 0000 fd47 643f 0000 0060 29b4 603f
000003e0: 0000 0000 0a85 423f 0000 0020 eff2 413f
000003f0: 0000 00e0 b4bd 5e3f 0000 0080 ce73 603f
00000400: 0000 0040 8a1f 623f 0000 00e0 7cf5 613f
00000410: 0000 0060 9ab3 573f 0000 00e0 652b 5e3f
00000420: 0000 0000 485d 443f 0000 0040 6335 463f
00000430: 0000 00e0 edf1 603f 0000 00a0 1196 403f
00000440: 0000 00e0 e33b 463f 0000 00a0 9e5b 463f
00000450: 0000 0060 d7df 443f 0000 00e0 499e 5e3f
00000460: 0000 0020 62b6 413f 0000 00a0 f5b7 3f3f
00000470: 0000 00c0 f0dc 433f 0000 0040 05bc 403f
00000480: 0000 00e0 ec71 5c3f 0000 0020 011b 633f
00000490: 0000 00a0 7474 5f3f 0000 0080 ba2f 4f3f
000004a0: 0000 00e0 8131 603f 0000 00c0 c38f 613f
000004b0: 0000 0060 9237 503f 0000 0060 ec0b 3e3f
000004c0: 0000 0000 3854 433f 0000 0080 948d 5e3f
000004d0: 0000 0040 8588 613f 0000 0060 d66a 5f3f
000004e0: 0000 00a0 d303 413f 0000 0080 0f7e 613f
000004f0: 0000 0020 5368 483f 0000 0080 204f 5e3f
00000500: 0000 0040 37fa 5f3f 0000 0040 f60b 423f
00000510: 0000 00a0 3cc5 603f 0000 00a0 8642 623f
00000520: 0000 00a0 6f5a 613f 0000 00a0 5e55 613f
00000530: 0000 00c0 f251 603f 0000 0060 a5f4 3e3f
00000540: 0000 00a0 afdf 603f 0000 0080 771d 3d3f
00000550: 0000 00c0 3f01 473f 0000 0020 98dd 413f
00000560: 0000 0060 430f 613f 0000 00c0 7747 5f3f
00000570: 0000 0080 dc4e 603f 0000 0060 2cd8 613f
00000580: 0000 00e0 9ca1 603f 0000 0040 64fe 603f
00000590: 0000 0020 273f 443f 0000 0020 9f1b 4d3f
000005a0: 0000 0060 13fc 553f 0000 00e0 afea 433f
000005b0: 0000 0080 6b9f 623f 0000 00a0 e786 623f
000005c0: 0000 00e0 318c 603f 0000 00e0 f16a 603f
000005d0: 0000 00e0 7a57 623f 0000 00c0 dd8f 423f
000005e0: 0000 0020 3d7e 5f3f 0000 0040 30f7 3c3f
000005f0: 0000 0020 a331 3f3f 0000 0080 d2fa 613f
00000600: 0000 0000 649e 603f 0000 00c0 161a 613f
00000610: 0000 0040 d5f9 613f 0000 00e0 2a2d 603f
00000620: 0000 0000 b7b8 403f 0000 0040 b271 5c3f
00000630: 0000 00c0 3fce 5e3f 0000 0020 ac3c 423f
00000640: 0000 0060 916e 403f 0000 0080 e971 5d3f
00000650: 0000 0020 471b 613f 0000 0000 1ecc 623f
00000660: 0000 00a0 21c9 623f 0000 0040 20ae 603f
00000670: 0000 00e0 1cd0 613f 0000 0000 1939 4f3f
00000680: 0000 0080 b859 603f 0000 0080 a8be 593f
00000690: 0000 0080 4601 603f 0000 0000 c7c1 3b3f
000006a0: 0000 0000 c95b 633f 0000 0040 dd72 613f
000006b0: 0000 00a0 7edb 5f3f 0000 0080 a511 623f
000006c0: 0000 0000 b699 433f 0000 0020 5cd6 403f
000006d0: 0000 0000 26c0 613f 0000 0040 b52a 633f
000006e0: 0000 00c0 40a6 5b3f 0000 0000 4e7c 413f
000006f0: 0000 00c0 bcc5 423f 0000 0020 5ca0 5e3f
00000700: 0000 00c0 b65f 433f 0000 0060 ab71 463f
00000710: 0000 0020 41f5 5f3f 0000 0060 aa1f 433f
00000720: 0000 0080 8adb 433f 0000 00a0 577e 633f
00000730: 0000 0080 5408 603f 0000 0040 7e42 623f
00000740: 0000 0020 2dae 3f3f 0000 0040 5982 613f
00000750: 0000 0060 5427 603f 0000 00e0 70fa 603f
00000760: 0000 00c0 9ab0 603f 0000 00c0 9c20 623f
00000770: 0000 00c0 1ca5 603f 0000 0080 c152 3f3f
00000780: 0000 0060 0189 613f 0000 00e0 4cbb 623f
00000790: 0000 0080 ffe3 633f 0000 0040 b167 613f
000007a0: 0000 0040 39b2 603f 0000 0080 0da4 423f
000007b0: 0000 0040 4646 3e3f 0000 0040 04e4 3d3f
000007c0: 0000 0080 f919 5b3f 0000 0060 e45f 413f
000007d0: 0000 0080 2013 603f 0000 0020 68b8 413f
000007e0: 0000 00a0 5ff0 3e3f 0000 00a0 1ec2 433f
000007f0: 0000 0080 f6b7 3e3f 0000 00a0 674e 5f3f
