Simulation_MLP/models_AME/base_mlp_reduced.pth (torch, 255170 bytes, 11 tensors)

model.0.weight f4 [128, 246]
000000 9b 5d 83 bd d1 1b 97 bb 1d 27 69 bc a9 e0 0c bd
       -0.06414338 -0.0046114703 -0.014230517 -0.03439394
000010 18 b7 20 3d 52 03 17 3d 9f fb 6f 3d 55 e9 f1 3c
       0.03923711 0.0368684 0.058589574 0.029530207
000020 6c b2 57 3c 60 2f 39 bc 90 4e 29 3d 85 12 c7 3c
       0.013165098 -0.011302799 0.04133469 0.024300823
000030 df aa 6e 3c a5 2e d6 bc 52 c2 0a 3d 52 be 3d 3c
       0.014567106 -0.026145289 0.033876725 0.01158102
000040 cc 8e af 3d 68 e0 1c 3d 64 dc 87 bd f5 22 3b 3d
       0.08572158 0.038299948 -0.06633833 0.045687634
000050 ce dc e6 bc d9 24 d8 3c 51 5d 81 bc 3a c3 6d 3d
       -0.02818146 0.026384758 -0.015791567 0.05804751
000060 cb 4f f2 3c b7 54 71 3c 06 d2 08 3d 5b c2 2e 3d
       0.029579064 0.01472967 0.03340342 0.04266582
000070 c3 11 03 bc 29 2f f3 bc e3 1c 65 bd 52 f5 25 3c
       -0.00799984 -0.029685574 -0.05593575 0.01012929
000080 9d 08 f1 3c 79 f2 85 bc 46 57 aa bc 62 ed 75 3d
       0.029423052 -0.016350972 -0.020793568 0.06004084
000090 79 02 81 bd af b4 91 bc f6 37 ec bc bf be d9 3c
       -0.062993 -0.017786352 -0.028835278 0.026580213
0000a0 99 90 87 3c 29 54 dd 3c 2a b2 86 bd f8 0e 09 3d
       0.016548442 0.02701767 -0.06576951 0.03346154
0000b0 29 da 19 3d 95 b2 0f 3d 67 24 39 3d 88 40 37 3d
       0.03756157 0.03508242 0.04520073 0.044739276
0000c0 3c 89 a8 3c bd 3a 93 bb 95 f4 c7 3c 13 5d 0c 3d
       0.020573251 -0.004493086 0.024408618 0.03426845
0000d0 3f 0f 0f bd 29 f3 42 3c ed 22 fb bc 11 c0 52 bc
       -0.03492665 0.011898794 -0.030656302 -0.012863175
0000e0 61 9c d3 3c 62 5b c1 3c 54 76 01 bc 11 70 e8 3c
       0.025831403 0.023603145 -0.007901747 0.02837375
0000f0 ce 48 a3 bb 69 06 cb bb 39 a7 87 bd b3 54 e0 3b
       -0.004983044 -0.0061958325 -0.06623692 0.0068460344
000100 52 97 c7 3b 5c e6 2b bd c8 ad 82 3b 6c b7 db bc
       0.006091037 -0.041967735 0.0039880015 -0.02682086
000110 b7 f9 46 3c f7 a9 54 bc 76 65 30 3d 0e fa c0 3c
       0.012144498 -0.012979976 0.04306551 0.023556735
000120 05 69 9b bc 9e 7a 81 3c 16 05 e6 bb ae e5 43 ba
       -0.018970976 0.015805539 -0.0070196493 -0.00074728846
000130 a9 87 5b 3c 52 81 0d bd 5e 1a 0c bd c6 97 8e 3c
       0.013399043 -0.034547158 -0.034204833 0.017406356
000140 dc 4c 3b bd dc 53 01 3d 9a 44 d0 3c e4 4d a7 bd
       -0.045727596 0.031574115 0.025423337 -0.08169153
000150 82 1a 09 ba 37 18 88 bc 0e 5e 24 bc 04 d0 30 3d
       -0.0005230085 -0.016613109 -0.01003219 0.04316713
000160 f6 50 4f 3a 3f e1 7f 3d 89 94 36 3c 46 43 da bc
       0.00079084875 0.06247067 0.011143812 -0.026643407
000170 60 8a f8 bb 7d 20 96 3b 55 2b d9 bb df 10 62 bd
       -0.007584855 0.0045815096 -0.00662748 -0.05519187
000180 d5 af f9 bc 7a 7a 79 bd 4a 6c 87 bb fe 08 d3 3c
       -0.030479351 -0.06090782 -0.004132782 0.025761124
000190 5f 28 72 3c a8 8f 80 bd c9 05 61 3d 9c 53 46 3d
       0.014780133 -0.062774 0.054937158 0.04841958
0001a0 a1 b8 2f bd 57 7a 8d bc f0 27 5e 3c 8c c9 cc bb
       -0.042900685 -0.01727025 0.0135593265 -0.006249612
0001b0 2e 5d 8b 3d f3 39 20 bc 88 d8 ea bb 49 63 77 3d
       0.06804882 -0.009779441 -0.007166926 0.06039742
0001c0 cd 23 49 3b d0 90 66 3b c0 de 94 39 ba 10 36 bd
       0.0030691505 0.003518153 0.0002839472 -0.044449545
0001d0 49 8a 26 3c 1d 9e 7c 3d e1 db 1b bd d4 2b a9 bb
       0.010164806 0.061674226 -0.03805149 -0.0051626954
0001e0 8d ce 37 bc a1 8b 1c bd bd 8d 69 bb b0 d2 09 3d
       -0.011218679 -0.038219098 -0.003563746 0.033648193
0001f0 43 34 55 bd 63 22 47 3d a9 92 7c bd bd 38 11 bd
       -0.052051794 0.048616778 -0.061663304 -0.0354545
000200 e5 c4 4b 3d f1 e0 07 3c 58 58 6e 3b c7 cb 62 bd
       0.04974832 0.008293376 0.0036368575 -0.05537012
000210 45 16 0c 3d 58 3a 0f 3d aa b0 40 bd e8 e5 74 bc
       0.034200925 0.03496775 -0.04704348 -0.014947392
000220 6b fb ed 3c dc 29 0f 3d 83 2b 93 3d 09 dc d0 ba
       0.02905055 0.03495203 0.071860336 -0.0015934716
000230 53 07 53 bc 6f 3d 32 bd 7e ad c3 bc 0f c4 87 bd
       -0.012880164 -0.04351562 -0.023886438 -0.06629192
000240 54 7c 8c 3c 29 6b 0b 3d 83 e4 1a 3d 4d 9c 8b 3d
       0.017149128 0.034037743 0.037815582 0.068169214
000250 60 65 b1 bc ae cf 07 3d 88 59 35 bd f6 ff a7 3b
       -0.021654785 0.033157043 -0.044274837 0.0051269485
000260 ec 29 0e 3d 5a 26 a2 bc c4 f1 12 3d 2d e7 b9 bb
       0.03470795 -0.019793678 0.035875097 -0.0056733103
000270 77 0a 11 bd dd 2a 2e bc 29 82 36 3c 38 b6 17 bc
       -0.03541037 -0.010630337 0.011139431 -0.009259753
000280 5c d8 1b bd 24 ec 40 bc 9f 58 05 3c c7 cf 0f 3d
       -0.038048133 -0.01177505 0.008138805 0.03511026
000290 6e 84 8a 3c bc 44 8b bc be 27 75 bc 73 dd 5d 3d
       0.01690885 -0.017000549 -0.014963089 0.05416627
0002a0 eb 5e c7 bc d7 8f 3c 3d c4 26 ca bb 54 a5 a7 3c
       -0.024337253 0.046035614 -0.006169172 0.020464577
0002b0 38 f6 4c 3d 7f 56 85 bd 97 84 7c 3d 8d 75 c2 3c
       0.0500395 -0.065106384 0.061649885 0.023737693
0002c0 ea a5 53 3c 14 e1 6c 3c 1c 1b 74 bd b7 28 af bb
       0.012917975 0.01445796 -0.059596166 -0.0053454298
0002d0 3d ea 03 bc 03 44 1e bd 2a 03 57 3d d8 3f 84 3c
       -0.008051452 -0.03863908 0.05249325 0.016143724
0002e0 09 d3 2c bc b2 ef b0 3c 89 24 2e 3d 23 b2 b2 bc
       -0.010548362 0.02159867 0.04251531 -0.021813458
0002f0 75 ed fb bb d9 46 85 bc 2b 37 0d bd b3 86 d2 bc
       -0.007688219 -0.016269134 -0.03447644 -0.025698995
000300 ea eb 7b bb 4b 53 19 3c c9 58 fa 3c 02 f9 1a 3d
       -0.0038440176 0.0093582375 0.030559914 0.03783513
000310 74 70 24 3d b7 c1 4e bd 52 ba 27 3c 8d 89 d8 bc
       0.040146306 -0.05047771 0.010237293 -0.026432777
000320 60 f4 0a 3d 98 33 22 3d cb 2e 8b bb af ef 1f 3d
       0.03392446 0.039599985 -0.0042475215 0.03904694
000330 64 ed 3e bc 0a 2d 1f 3d d1 5b 5b 3c 1d 4d 40 3d
       -0.011653278 0.038861312 0.01338859 0.04694854
000340 6f 63 50 bc ed a5 69 3d 5f e1 fc bc d0 57 32 bc
       -0.012719019 0.057043005 -0.030869184 -0.010885194
000350 5e 10 fc bc 49 4f 88 bd b3 88 ab 3a c3 9a d2 3b
       -0.030769523 -0.066557474 0.0013087004 0.0064271404
000360 46 27 7a 3a 5e 47 cd 3c af f7 6c 3c 83 15 7e bc
       0.00095425954 0.025058445 0.014463349 -0.0155080585
000370 64 a8 35 bd be c4 5f 3b 2f 41 97 3c 6d f5 d3 bb
       -0.044350043 0.0034144367 0.0184637 -0.006468466
000380 7a 1f 06 3d 20 ee 29 3c e6 ce 00 ba 76 f6 d3 bc
       0.032744862 0.010371715 -0.0004913643 -0.025874358
000390 90 14 38 3d cc c3 a7 3b 95 1e ed 3c 7a 5b 86 bd
       0.044941485 0.0051197764 0.028945247 -0.065604165
0003a0 8f 1b 8c bc 36 1b 60 3d c5 2a d9 bc eb b6 bb 3c
       -0.017102985 0.05471345 -0.026509652 0.02291437
0003b0 f6 6f fe bc b3 58 1a 3d d8 a5 38 3d 34 66 2d 3b
       -0.031059247 0.037682246 0.045080036 0.0026458623
0003c0 b7 82 29 3d ca 8b 28 39 f7 ff 86 bb 6f 65 ce bc
       0.041384425 0.00016073804 -0.004119869 -0.025194852
0003d0 4a 16 09 bd f3 17 68 bd 53 6d b9 bd 41 a9 8b 3d
       -0.033468522 -0.056663465 -0.09054055 0.06819392
0003e0 80 37 0b 3d fd e1 da bc 04 f9 85 bb 7d 40 00 bd
       0.033988476 -0.026719088 -0.004088523 -0.0313115
0003f0 0e 09 6e bd db e3 1d 3b 7c 1e 47 bd 99 c4 98 3d
       -0.058114104 0.0024092111 -0.048613057 0.07459373

model.0.bias f4 [128]
000000 d9 99 f8 bb 6d 99 53 bd 78 f4 5e bd 4c 5b 82 bc
       -0.0075866994 -0.05165999 -0.054432362 -0.015912674
000010 be fd d1 bc a2 f1 b1 3c 49 3a 4d 3c 20 7b d3 bc
       -0.025633689 0.021721665 0.012526103 -0.025815547
000020 01 de a0 3d 79 9f f1 3c 44 6e 28 bd b3 6c 66 bc
       0.07854844 0.029494988 -0.041120782 -0.014064002
000030 c6 70 72 bb f7 c4 00 3d 2c 31 79 bc b8 a1 23 bd
       -0.0036993488 0.03143784 -0.015209477 -0.03994915
000040 59 0f 8a bc 0d e8 12 bd 81 01 6f bd 16 c6 38 3d
       -0.016853021 -0.035865832 -0.058351044 0.045110784
000050 e7 fc 93 bc 78 17 c9 bc c9 7f cb bb 51 1e e3 3c
       -0.01806493 -0.024547324 -0.0062103015 0.027724417
000060 a3 f3 ab bc 78 5b ac bd c4 cf 20 bd 34 44 d0 3c
       -0.020990198 -0.08415884 -0.03926064 0.025423147
000070 c8 f8 d8 3c 88 d2 04 3d 87 fd 87 3d 0c 72 a6 bc
       0.026485816 0.03242734 0.066401534 -0.020318054
000080 c7 00 0f 3d a8 77 07 3d c6 56 79 bd d6 17 bb bd
       0.03491285 0.033073097 -0.06087377 -0.09135406
000090 43 1a ca bc ac 33 96 bd 1c 66 20 bd 93 29 55 bb
       -0.024670726 -0.073340744 -0.03915988 -0.0032526
0000a0 eb db 1f bd cb 10 dc 3c 57 b3 b7 3c 6a c2 8e 3c
       -0.03902809 0.026863476 0.022424383 0.017426688
0000b0 55 3e 45 bd a1 10 3c bd c8 5b cb bd 27 31 2c 3d
       -0.048155148 -0.045914296 -0.09929615 0.042039063
0000c0 ba 8a 44 3d 56 2c 33 3d ab 5a 1c bc d5 f0 24 3a
       0.047983862 0.043743454 -0.009543101 0.000629199
0000d0 72 5b 8c 3d 70 22 fc bc a7 14 04 3d ae 5c 90 3b
       0.06853379 -0.03077814 0.032246258 0.0044055795
0000e0 84 da cf bb c2 d7 36 bd 65 2b 99 bc 1a 59 77 bd
       -0.0063431878 -0.044639356 -0.01869745 -0.06038771
0000f0 1a cc a5 bd 76 c2 88 bd f5 5d 1a bc 0a 24 60 3d
       -0.0809557 -0.066777155 -0.009421815 0.05472187
000100 0f ff df 3c 57 43 31 3d 45 7b 3d 3d f0 b6 64 3d
       0.027343301 0.04327711 0.046260137 0.055838525
000110 e0 6c 8d 3c 27 9d 04 bb 37 e5 50 3d 27 92 b8 3c
       0.01726383 -0.0020235272 0.050999846 0.022530628
000120 6d bc 2d bd c2 e3 71 bc 54 be 50 bd 17 43 00 3d
       -0.042416025 -0.014763774 -0.05096276 0.03131398
000130 a8 2a 68 3d f4 23 0f 3d 6d e0 a2 bd 17 5f cc bc
       0.056681305 0.034946397 -0.07952962 -0.024947686
000140 55 fa 61 3d fb 01 99 3b bd 42 b0 bd 8d 2f 6d 3c
       0.055170376 0.0046694255 -0.08606479 0.014476669
000150 06 f1 45 3d a0 48 7d bd 42 2b 89 bc 17 ed 0d 3d
       0.04832556 -0.06183684 -0.01674426 0.034649935
000160 44 9d 05 bc 08 0e 48 3d 98 c7 ce bc f2 e5 c5 bb
       -0.008155171 0.048841506 -0.025241658 -0.0060393745
000170 cb 29 82 bd 2f 69 0e bd e6 71 50 bd 21 13 43 bc
       -0.063556276 -0.03476828 -0.050889872 -0.011906416
000180 76 41 5c bd 51 de 0c 3d 4b 20 5e ba 0b b6 da b9
       -0.053773366 0.034391705 -0.000847344 -0.00041715833
000190 a7 c2 27 bd ae 22 87 3d b7 04 10 bd 47 9f a8 bc
       -0.04095712 0.065984115 -0.035160746 -0.020583762
0001a0 63 04 3e 3b 4c 2f 7b bc 48 fe 2e bd ca 03 26 3d
       0.0028994314 -0.015331101 -0.04272297 0.040530957
0001b0 bb 83 93 bd 3a c3 e5 3c 15 fa cb bc d7 0d 6e bd
       -0.0720286 0.028047193 -0.024899522 -0.058118667
0001c0 a0 f8 36 bc b2 a6 e7 3c 4b 6c 17 bd e5 de 4b 3d
       -0.011167675 0.028277729 -0.03696851 0.049773116
0001d0 5f b7 9f 3d 39 e9 36 3a 0f 89 d1 bc d3 a4 30 bd
       0.07798647 0.0006977502 -0.02557805 -0.04312594
0001e0 62 63 2d bd c5 da b1 bc 90 d1 ac bc 76 78 b9 3c
       -0.042331107 -0.021710763 -0.021096021 0.022640448
0001f0 b5 63 0c 3d c4 01 47 3d 0e 5b 0b 3d c4 59 d6 3c
       0.034274776 0.04858567 0.034022383 0.02616585

model.2.weight f4 [128, 128]
000000 84 eb a7 3d 6a bf 61 3d 75 99 20 3c 0e 7e f9 3c
       0.08199218 0.055114187 0.009802212 0.030455615
000010 f7 13 d5 bd c8 43 b9 3c 94 9f 24 bd 39 82 cd 3c
       -0.104041986 0.022615328 -0.040191248 0.025086509
000020 df 7c 14 bd 94 38 68 bc 8a 7d 41 bd 51 6e 6c 3b
       -0.0362519 -0.0141736455 -0.047238864 0.0036076496
000030 0d bd 79 bd e4 aa 40 3d 93 8c 9d bd 77 c1 78 3d
       -0.06097131 0.047037974 -0.07692828 0.060731377
000040 f2 37 14 3c f2 40 2c 3d 98 ac 3a 3d 1b fa 59 3c
       0.0090465415 0.042054124 0.045574754 0.013304259
000050 73 4f 85 bc b0 a2 e4 3c 6c d6 39 3c e5 5e ec 3c
       -0.016273236 0.027909607 0.011342626 0.028853843
000060 1c 25 62 bd a5 bd 78 3d da 23 eb bc 8d e5 61 bd
       -0.05521117 0.060727734 -0.028703619 -0.055150557
000070 9f 17 12 3c 17 81 fa 3c 9f 7b 89 3d d9 0d 93 3d
       0.0089167645 0.030579133 0.06713032 0.071803756
000080 b1 be 34 3d 86 b5 40 bd b0 6d 76 3d 95 ae b2 bd
       0.04412717 -0.047048114 0.0601632 -0.08724705
000090 31 0c 6e 3d a5 7d 42 3d 3d ff 8f bd db 6f 87 3d
       0.058117095 0.047483105 -0.07031105 0.066131316
0000a0 5f e6 16 bd c0 0f 0e 3d 28 9d 77 bd 5c ed 82 3d
       -0.036840793 0.03468299 -0.06045261 0.06392929
0000b0 9c ee 15 3d b8 d9 86 3c 02 0a ce 3d d6 09 9b bd
       0.03660451 0.016461238 0.100605026 -0.075702354
0000c0 97 fe 62 bd af e5 73 3d 0c a2 5f 3b 46 2a 1d 3b
       -0.055418577 0.059545215 0.0034123687 0.0023981496
0000d0 43 2e 22 bd 9a 0d f0 3c 5c 34 02 3d fb 9a 22 39
       -0.0395949 0.02930336 0.031788215 0.00015507259
0000e0 86 82 f4 bc 12 04 2c 3d 6f e5 bb bb 9f 25 ce bd
       -0.029847395 0.04199607 -0.0057341377 -0.100657694
0000f0 7f cf 40 bd 05 5b 05 3d e7 2a 3c 3c ae 08 fa bc
       -0.047072884 0.032557506 0.011484838 -0.030521717
000100 bc f4 cf bd b3 5e 05 3d bf 18 cf 3c a0 d3 31 3d
       -0.10154101 0.032561015 0.025280355 0.043414712
000110 5e 5f 99 bd d7 f4 28 bd 1d 01 ac bd bf 41 fb ba
       -0.07488893 -0.041249122 -0.0839865 -0.0019169374
000120 32 20 9f 3d 0d aa a8 3d 84 3b de 3b b1 ed 47 bd
       0.07769813 0.082355596 0.006781997 -0.048810665
000130 ea 9b cd bd 2c 39 37 3d 7e 34 8d 3d 20 61 a4 bd
       -0.10039504 0.044732258 0.06894778 -0.080263376
000140 24 95 35 3d 91 bd 23 3d 78 34 47 3d 38 5e 4d bd
       0.044331685 0.039975706 0.048634022 -0.050138682
000150 f8 c0 86 bd b7 8b c3 3c 49 fd 19 bd 3b 0d b7 bd
       -0.065797746 0.023870332 -0.037595067 -0.089380704
000160 6b ac d9 bb 27 fd 48 3c 01 48 a0 bd 10 e6 49 bd
       -0.0066428683 0.0122673875 -0.07826234 -0.04929167
000170 04 86 b4 3c 14 f7 36 bd 98 e5 46 3d 62 5e b3 3c
       0.02203656 -0.044669226 0.0485588 0.021895591
000180 38 89 65 bc 8b 52 04 3d 0c 73 3a bd c2 cc 48 3d
       -0.014009766 0.03230528 -0.045519873 0.049023397
000190 dc 71 95 3d 23 09 e2 bb b9 2d f0 3d 6c f3 ad 3d
       0.072971076 -0.006898062 0.11727471 0.08493695
0001a0 2e 1b 29 3d 84 b5 29 bd ae 36 82 bd e9 a7 0b 3d
       0.041285686 -0.041432872 -0.063580856 0.03409568
0001b0 45 01 24 bd e3 51 b2 3d 5a 64 7b 3d 53 b6 05 3d
       -0.040040273 0.08707025 0.061375 0.03264458
0001c0 1e fc bf 3d 20 64 da bc 6e 51 a5 3d cc a4 85 bd
       0.093742594 -0.026659071 0.08072172 -0.06525573
0001d0 1b dc 4a 3d 21 b7 7c bd 7d f6 83 bd 1f a5 8c 3d
       0.049526315 -0.061698083 -0.06443498 0.06867432
0001e0 2b 2f ca bc 21 5d 3d bd 2f 12 80 bd e7 6f 18 3d
       -0.024680695 -0.046231393 -0.06253468 0.037216093
0001f0 b9 3e 6d 3d 49 e3 05 3d 91 ad 26 3d 65 47 12 3c
       0.057921145 0.03268746 0.04069287 0.008928155
000200 2f f6 79 bd 22 05 36 3d b4 dc e6 3c a5 89 0c 3d
       -0.061025795 0.04443849 0.028181411 0.034310956
000210 bf 5b 9e bd bf 77 6d 3b cc fc 52 bc 12 90 f2 3c
       -0.07732343 0.0036234704 -0.012877654 0.029609714
000220 d9 57 1d bc db 9f 17 bd 7d 44 78 3c ee 23 e2 bc
       -0.009603464 -0.037017684 0.015153048 -0.027605023
000230 ab fe f4 bc c1 bd 5f 3d f8 83 43 3d 76 71 31 3d
       -0.029906591 0.054624323 0.047733277 0.043321095
000240 11 8f 90 3c 6a c6 af 3c 29 ed 9c 3c 94 f3 88 bd
       0.017646344 0.021456916 0.019156056 -0.06687084
000250 f0 3c dd 3c 85 4a 82 3d 7f 2c c5 3c e8 2a 07 3d
       0.027006596 0.0636187 0.024069069 0.032999903
000260 81 52 0d 3d 06 5e 21 bd 8c 65 ce 3c c1 80 a4 ba
       0.03450251 -0.03939631 0.025194906 -0.0012550579
000270 2e 29 56 bd cc cf 7b bd 45 d4 b1 3d 11 2c 04 bd
       -0.052285366 -0.061477467 0.08683065 -0.032268587
000280 81 25 6c bd d3 db 5a bd 1f 3e 80 bd 8b e2 15 3d
       -0.057652954 -0.053432297 -0.06261849 0.036593
000290 de f3 9a bb 76 17 2b bd 37 89 3d 3d 5d d7 4c bd
       -0.0047287783 -0.04177042 0.046273436 -0.050010074
0002a0 f2 4c 82 bd 6b 01 7b bd 19 ff af 3d 72 34 71 3c
       -0.063623324 -0.06128065 0.08593578 0.014721977
0002b0 43 bf 1d bd a9 93 4e bd 02 fb 22 3d ef d6 db 3b
       -0.03851248 -0.05043379 0.03979016 0.0067089717
0002c0 cc e7 eb bc 9e d3 3d bd 03 91 74 3d 6a 3e 93 bd
       -0.028797053 -0.046344392 0.059708606 -0.07189639
0002d0 ba 5c 70 3d a8 e0 d8 bc 07 95 78 bb 6d 34 96 3c
       0.05868218 -0.026474312 -0.0037930624 0.018335545
0002e0 37 c4 d2 bc 2f 4e 20 3c 67 31 67 bd 6f 6f 01 3c
       -0.025728328 0.009784265 -0.056443598 0.007900103
0002f0 b5 04 75 bd 04 96 95 bd d9 50 82 bd 23 70 b6 bd
       -0.059818942 -0.07304004 -0.06363077 -0.08908107
000300 78 40 bf bd f9 97 56 bd 46 6c 2d bd 20 57 6b 3d
       -0.09338468 -0.052391026 -0.042339586 0.057456136
000310 67 db 8c bc a4 a1 4c bd b8 60 f1 3c 93 fa dd bb
       -0.017194463 -0.04995884 0.029465064 -0.0067742555
000320 0d ce 1e 3d db e9 8b 3d 8f f6 53 3d a2 f5 50 3c
       0.038770724 0.06831714 0.05174881 0.012753876
000330 5d 6b 3f bb 8e 68 4b 3d 14 99 7b 3d 98 26 cb 3d
       -0.002920828 0.049660258 0.061425284 0.099194705
000340 aa 9c 58 bc f4 0c 92 3d e1 77 c3 bc 96 48 cf 3d
       -0.013220945 0.07131377 -0.023860874 0.101212665
000350 22 f5 e1 ba f8 7d 95 bc e9 72 4b 3c b4 24 6e 3d
       -0.0017239193 -0.018248543 0.012417533 0.05814047
000360 65 30 7a bc 7b 43 f9 3b fe a9 85 bd 25 dc 43 bd
       -0.015270327 0.0076069213 -0.06526564 -0.047817368
000370 8f 70 02 3d 2a a4 45 3d d6 68 3c bc 5b 18 23 3c
       0.031845625 0.048252262 -0.011499604 0.009954537
000380 c9 61 a4 3c 47 59 82 3d 8d 7d 9f 3c 88 6c 90 bd
       0.020066159 0.063646846 0.019469047 -0.07051951
000390 6a 27 0e bd dd 4d 84 bc 3d 0d 42 bd 76 37 a6 bc
       -0.034705557 -0.01615041 -0.047375906 -0.020290118
0003a0 c9 42 8f bb 8a 70 c0 bc 66 7b 0e 3d 47 b8 1c 3c
       -0.004371975 -0.023491163 0.03478565 0.0095654195
0003b0 84 0d 77 bd dd a1 d0 3c 40 29 c3 3c 60 ab 94 3c
       -0.060315624 0.025467807 0.02382338 0.018148124
0003c0 e4 b9 b2 bb e3 71 59 bc 27 2a 84 3d bd 6f 8b 3c
       -0.005454289 -0.013271782 0.064533524 0.017021054
0003d0 2a 0b 6b 3d 07 27 77 3c ad b8 d0 bc f8 63 32 bd
       0.057383694 0.015084988 -0.025478685 -0.04355237
0003e0 0b b8 40 bd f6 1c ff bc f2 f2 44 bd 98 b5 fe 3a
       -0.047050517 -0.03114174 -0.048083253 0.0019432781
0003f0 e1 bd ee 3c 94 18 ea 3c 1f 0e 94 bc 58 d1 c0 3c
       0.029143276 0.028576173 -0.01807314 0.023537323

model.2.bias f4 [128]
000000 99 82 07 3d 53 eb aa 3c 0d d3 5e bd 57 6a a2 bd
       0.033083532 0.020864164 -0.054400492 -0.07930439
000010 45 6b 3a 3d 50 f8 ed bc 4c 77 72 bd 43 9f 98 bb
       0.045512456 -0.029049069 -0.0591958 -0.0046576574
000020 fa b6 04 3d db 46 bc 3c b8 3e c4 3a fe 19 2b bd
       0.032401063 0.022983005 0.0014972305 -0.041772835
000030 ff b1 1f 3c cc 93 93 bd 27 ed 5f 3d 92 09 88 bb
       0.009747027 -0.072059244 0.054669525 -0.0041515315
000040 74 2d 9f 3d 8b e1 a0 3d a3 2f 28 3c 6e 3f 91 bd
       0.07772341 0.07855519 0.010265264 -0.070921764
000050 63 ac d1 3c 7a 21 46 bc c6 fa 7e bc 16 5f 78 bd
       0.025594896 -0.012092942 -0.015562719 -0.060637556
000060 9a 4b 89 bb b3 de 82 3d ee 2e 98 3d ee 11 b2 3a
       -0.0041899206 0.06390133 0.07430826 0.0013585666
000070 a7 f0 b9 3c 39 19 7f 3d 37 8a 75 3d d4 ba 26 3d
       0.02269776 0.062279914 0.059946265 0.040705517
000080 c9 8f 6a bd 73 68 23 bd 72 9c ae bd 75 f6 91 bd
       -0.05726603 -0.039894532 -0.08525933 -0.07127086
000090 6c 6b 54 3d 38 41 c8 3c cf 67 2c bc 36 fe 5f 3d
       0.051860258 0.024445161 -0.010522797 0.054685794
0000a0 15 c3 d4 3c 5c d2 b5 3c 0f be e5 bb 09 e6 b1 3d
       0.025971929 0.022195034 -0.007011182 0.08686454
0000b0 e8 f3 d7 bc 78 cb 55 3c 80 1c ae bc 25 2d 46 bc
       -0.02636142 0.013048999 -0.021253824 -0.012095724
0000c0 63 92 c4 3a 40 8d 21 bc ad 97 98 3c 4d 21 5f 3d
       0.001499724 -0.009860337 0.018627012 0.054475117
0000d0 e4 f1 88 3d 49 f4 8a bd 74 10 f3 bb e7 5a 89 bd
       0.06686762 -0.06784875 -0.007417733 -0.06706791
0000e0 2d 11 be 3b d6 30 07 bc a7 d3 1f bd 3c 8e f8 3c
       0.0058003874 -0.0082513895 -0.039020207 0.03034126
0000f0 dc b8 90 bd 30 33 30 3d c5 94 00 bd 81 34 70 bd
       -0.07066509 0.043017566 -0.031391878 -0.05864382
000100 01 55 db bb 5f 81 4a 3d 40 48 62 3d c6 30 c6 3d
       -0.006693483 0.049439784 0.055244684 0.096772715
000110 95 38 5d bc ec 2b 17 bb fe 51 ba bc 40 99 6b 3d
       -0.01350226 -0.002306695 -0.022744175 0.057519197
000120 00 7f 12 3c 67 a8 25 bd 5f b1 d4 bc 28 53 45 3c
       0.008941412 -0.040443804 -0.025963483 0.012043752
000130 b8 e5 30 3d 82 d8 81 bd 29 06 4b bd 25 fb 71 3d
       0.043187827 -0.06340124 -0.04956642 0.0590774
000140 76 6b 4b bd b7 fd 70 bd db f1 1b ba 5c 52 13 3d
       -0.04966303 -0.05883571 -0.000594882 0.035967216
000150 91 eb 82 bc 61 3a eb bc 32 ff 2d bd 6f 7d 22 bd
       -0.015981467 -0.02871436 -0.0424797 -0.039670404
000160 81 17 8c 3d db 73 95 3d 04 c0 8d 3d 49 2a 45 3c
       0.068404205 0.07297488 0.0692139 0.012034007
000170 a4 33 a6 bb b9 75 fa bc 64 8d 3c bc ee 55 af 3d
       -0.005072074 -0.030573713 -0.0115083195 0.08561312
000180 49 05 f2 bc be 8a a8 3c fa c5 0b 3d df 85 2a bd
       -0.029543536 0.02057397 0.034124352 -0.041631576
000190 8e 57 87 3d 9d 43 3d bd a7 20 c8 bc 7a 98 36 bd
       0.066084966 -0.04620706 -0.024429632 -0.044579007
0001a0 6b 4f 71 bd 08 0b 77 bd 95 96 78 bc 69 85 c7 bd
       -0.05891363 -0.060313255 -0.01517262 -0.09742243
0001b0 32 93 de bc d7 27 d2 3c da 90 da bc 39 8d 97 3d
       -0.027169798 0.025653763 -0.026680399 0.07399983
0001c0 3f 43 69 3d 1c d2 0b 3d fc 15 1c 3d de 06 3d 3d
       0.056948896 0.034135923 0.038106903 0.046149127
0001d0 7d 16 03 bc 87 5b d6 3a 8c 76 8b 3d ab 8b b8 ba
       -0.008000967 0.0016354182 0.068097204 -0.001407971
0001e0 79 b9 a7 3d 60 87 73 bd db fb 92 bc 93 a9 25 bb
       0.08189673 -0.059455276 -0.01794236 -0.0025278076
0001f0 5f 85 8b 3c 07 9f a1 3d a8 d8 1c 3c 2b 17 e9 3b
       0.01703137 0.0789166 0.009573139 0.0071133575

model.4.weight f4 [64, 128]
000000 bd 80 56 3d 22 bc fc bb 9d f0 79 3d 29 18 57 bd
       0.05236887 -0.007712857 0.061020482 -0.052513275
000010 4e 8c 7b bd ce ae e0 3c c4 f7 b2 3d 18 3b a5 bc
       -0.0614131 0.027427103 0.08738664 -0.02016978
000020 46 2b e1 bc 84 55 27 3d 71 e0 21 3d 73 f6 c4 bc
       -0.027486455 0.04085304 0.039520685 -0.024043297
000030 c0 56 30 bc 59 89 22 bd 84 c8 b2 3d 1d 7d 9c 3a
       -0.01076287 -0.039681766 0.087296516 0.0011939142
000040 ba 14 74 3d 42 6e a2 bd e5 74 c8 3d f7 d6 aa bd
       0.05959008 -0.07931186 0.09787921 -0.083417825
000050 05 d8 89 3c 73 79 8d 3d c1 ad bf bb 30 c3 9d 3d
       0.016826639 0.0690793 -0.0058495705 0.07703245
000060 d8 35 a6 bd 36 2a 94 3d 7e a3 b6 3d 05 5c 80 bd
       -0.08115739 0.072346136 0.089179024 -0.06267551
000070 a4 66 20 bc c9 3c 6f 3d 12 5f 4a bd d8 d3 07 bd
       -0.009790096 0.05840758 -0.049407072 -0.033161014
000080 6f e2 82 bd 49 6b 91 3c 23 8a e6 bc b4 aa 86 3d
       -0.06390845 0.017751353 -0.02814204 0.06575528
000090 11 9b b4 3d 94 ff 9a 3d ff c3 26 3d fb a8 70 3d
       0.08818639 0.07568279 0.04071426 0.058754902
0000a0 8c 19 ee bc 3d d1 45 bd 5f 95 8f 3d c2 e9 13 bd
       -0.029064916 -0.04829525 0.07010912 -0.0361116
0000b0 fb 8f bb bc bf 9c 77 3d 31 35 64 bc 32 a2 1d 3d
       -0.022895804 0.06045222 -0.013928697 0.03848476
0000c0 52 78 2a 3c 1e 39 51 bd d1 d4 08 3d 70 cf 03 3e
       0.010404663 -0.05107986 0.033406083 0.128721
0000d0 a9 ac d7 3d 31 8f 7c bc 7c 3e 27 bd 3a 40 78 3b
       0.10530979 -0.015414999 -0.040831074 0.003788008
0000e0 12 d8 99 3d a9 88 3e 3d 19 4e 1d bc b7 0e a4 3d
       0.07511915 0.046517048 -0.009601139 0.08010619
0000f0 b0 3e 99 3d c1 5e 8c 3d 21 18 8b 3c 65 dd 8a bd
       0.0748266 0.068540104 0.016979279 -0.06780509
000100 e3 52 55 bd 04 3f bb 3d f6 a0 b8 3d e6 a8 63 3c
       -0.052081 0.09142879 0.09015076 0.013895249
000110 5e 15 a4 bb 15 51 b5 bb a2 0a 7d 3c 59 b7 7e 3d
       -0.00500743 -0.0055333474 0.01544443 0.062186573
000120 5c 10 f8 bc 8b ad 97 3d 3b 9a 9a 3d 89 e0 11 bc
       -0.030281238 0.074061476 0.075489484 -0.008903631
000130 85 83 e1 ba e8 ae 7a 3d 67 6f 93 3c 8f 42 e4 3d
       -0.0017205334 0.06120196 0.017997457 0.111455075
000140 3a 2d 09 bd e3 33 a8 3d 9f f6 52 bb 1f d2 bf bc
       -0.033490397 0.082130216 -0.0032190455 -0.023415623
000150 8a 58 4a 3d 1f 2d f9 bc 15 17 72 3c 1a 67 2d bd
       0.049400844 -0.030417023 0.014776011 -0.042334653
000160 1b 78 0e bd d3 61 03 bb b6 77 82 bd 97 2f b2 bc
       -0.03478251 -0.0020047321 -0.06370489 -0.021751208
000170 d7 bf da b6 74 94 a1 bc f1 d0 00 bb 80 c6 8a 3d
       -6.5192394e-06 -0.019724108 -0.0019655789 0.06776142
000180 e0 c7 8c 3c 6f 21 c3 bc ae be 86 3d 72 32 db 3c
       0.017185152 -0.023819653 0.06579338 0.026757453
000190 6e c8 f5 3c 63 72 b2 3d a4 77 37 bc 2d 3c 96 3d
       0.030002799 0.08713224 -0.011197958 0.07335696
0001a0 a6 01 69 bd 29 60 6b 3d bb 73 92 bd eb 15 7d bd
       -0.056886338 0.057464752 -0.0715098 -0.06178848
0001b0 46 16 7a 3b 8c cf 56 bc 1c 1c 47 3c a6 a5 9c 3d
       0.0038160249 -0.0131110065 0.012152698 0.076487824
0001c0 01 9d 8f 3d a6 a0 83 bd 44 fb 8b 3d d2 1c 1d 3c
       0.07012368 -0.06427126 0.068350345 0.009589391
0001d0 d6 f3 58 3d 95 7d 5b bc 36 47 1c 3d fa 3e f6 3c
       0.052966915 -0.01339664 0.03815385 0.030059326
0001e0 b7 b5 8b 3d b8 a1 28 3d 52 85 0f 3c 2b d6 a0 3d
       0.06821769 0.041169852 0.008759813 0.07853349
0001f0 c1 4d f7 3c 9d 38 93 3c f3 af 9a bd 56 93 19 3d
       0.030188443 0.017971331 -0.07553091 0.037494026
000200 8a 08 b3 3d dc 36 87 bc 0e 14 01 bd 98 0f cf 3d
       0.08741863 -0.016505651 -0.031513266 0.10110396
000210 60 e6 f5 bc f0 99 fb bc eb 9e 80 bc 3c 55 a7 3d
       -0.030017078 -0.030713052 -0.015700778 0.08170554
000220 68 3b ee 3c d9 b5 99 3c 38 bb 27 3c ff 9f 27 3d
       0.029081061 0.01876347 0.0102375075 0.04092407
000230 78 ea c9 3b 0c 21 d8 3d 1d fc 80 bd 15 bf 44 3b
       0.006161984 0.10553178 -0.06298087 0.003002112
000240 23 86 c6 bc 0e 5b 3d b9 50 bf 40 bc 2a e0 c2 3d
       -0.024233883 -0.00018058365 -0.011764362 0.09515412
000250 04 7f 1b 3b f1 56 2d bc 62 47 4b bc 6c 05 a6 3d
       0.002372683 -0.0105798105 -0.012407156 0.08106503
000260 13 f8 57 3c bc d5 6d bd b0 43 85 bd 21 94 ae bc
       0.013181704 -0.05806516 -0.06507051 -0.021310868
000270 ae 52 d4 bc 35 1e 73 bd 41 76 c9 bb d0 77 4b 3d
       -0.025918331 -0.05935498 -0.00614813 0.04967481
000280 80 51 23 3d 4a 14 10 3b 65 cf 0c bd 09 ca 1f bc
       0.039872646 0.002198475 -0.034377474 -0.009752759
000290 a6 67 c6 3d 4b 3e df bc ec ef 45 3b 77 3b bc bd
       0.09687738 -0.027251383 0.003020282 -0.091910295
0002a0 84 ed 31 bd eb 1c 25 bd f4 99 36 bc 9a a3 24 bd
       -0.043439403 -0.04031078 -0.011145104 -0.040195085
0002b0 e5 d3 fd 3c ff 31 2d bd 07 ab 46 bd 86 9d 9c 3c
       0.030984828 -0.042284008 -0.048502948 0.019118082
0002c0 6c 02 8b bc 25 31 13 3d a9 56 81 bc cf 3a 0f 3d
       -0.016968928 0.03593554 -0.015788393 0.034968194
0002d0 8a 0e be 3c 3e 0f cc 3d 3b f4 da 3c c1 70 28 bd
       0.023200292 0.09963845 0.026727786 -0.041123156
0002e0 ff df 2a bd eb ee e7 3b b8 92 9d ba eb f6 40 bd
       -0.041717526 0.007078042 -0.0012021875 -0.04711048
0002f0 2f 31 32 ba d7 43 99 bc 30 cf 4b bd 2e c1 46 bc
       -0.000679749 -0.018709106 -0.049758136 -0.012131019
000300 a5 9c c8 3d 6f 9f aa bb 64 ff 76 ba 9d 12 15 3d
       0.097955026 -0.0052069942 -0.00094222114 0.036394704
000310 f3 12 34 bb 06 2c b2 bd a7 38 81 bc 29 f7 96 3a
       -0.0027477115 -0.08699803 -0.015774084 0.0011517751
000320 93 a3 b6 3c 26 51 33 bc 9d c0 53 bd 82 86 80 bd
       0.022294795 -0.01094464 -0.051697362 -0.06275655
000330 32 eb 4e bd 68 8f 0a 3d 1b 7e 00 bd 09 49 b5 3b
       -0.05051727 0.03382817 -0.031370264 0.005532388
000340 6f f2 82 b9 60 f3 6c bd 5e c1 11 3c 0a 7f 36 bd
       -0.0002497616 -0.057849288 0.0088962 -0.044554748
000350 e8 3a 76 3c 79 b2 76 bd ae 31 6f 3d 68 db 5a 3d
       0.015028693 -0.0602288 0.058396988 0.0534319
000360 10 7a 4d bd 3f d9 06 3d 8c 7f 35 bd 72 10 2f 3b
       -0.050165236 0.032922026 -0.04431109 0.0026712683
000370 2a 69 ca 27 7c 22 cf 3a d3 49 18 bd c7 77 6c bd
       5.618028e-15 0.0015803124 -0.03717978 -0.057731416
000380 61 d0 30 bd b6 75 98 3d d3 05 e3 bd b2 ae 38 3c
       -0.043167476 0.074443266 -0.11085095 0.011272119
000390 f7 5f ab 3d 92 9b 26 3c f1 d2 f5 bc 85 e5 2e bd
       0.08367913 0.010168927 -0.030007811 -0.042699356
0003a0 3f 20 1f bd 91 fe 70 3b 0a 73 4c bd 88 2c c4 3d
       -0.03884911 0.0036772827 -0.049914397 0.09578806
0003b0 1f 63 79 bb 71 ff f0 bc 2d 4e 58 3b 5e 4d d7 3b
       -0.0038053466 -0.029418679 0.003300558 0.006570502
0003c0 0e 64 1f bc a2 11 fd bc da 3a 0e bd 0f 95 44 3d
       -0.009728445 -0.030892197 -0.034724094 0.047993716
0003d0 4e d9 56 bc 3d e6 57 3d c8 b3 2e 3d 0d 85 13 bd
       -0.013113333 0.052709807 0.04265192 -0.03601556
0003e0 5b c8 7c 3d 38 c0 74 ba 2b a4 f9 bb 87 69 ea bd
       0.06171451 -0.0009336504 -0.0076184473 -0.11445909
0003f0 4f 91 a2 3d 10 7c 5b bd c9 3b bd 3d 01 c2 84 3d
       0.07937872 -0.053585112 0.09239919 0.06482316

model.4.bias f4 [64]
000000 a2 5e 45 3d f1 09 d2 3c d9 90 3d bd c3 ab e5 bc
       0.048185952 0.025639506 -0.046280716 -0.028036004
000010 3a ae 65 bd 11 36 99 3a 68 d5 7c 3c 6d 00 c6 3c
       -0.05607436 0.0011689087 0.015431739 0.024170125
000020 ba cd 01 3d 67 b6 85 ba 1d 8f 3a 3d 72 23 72 bc
       0.031690337 -0.0010201455 0.04554664 -0.014778959
000030 4d a5 e0 3d bf 42 6d 3d 72 dd ab bc 95 5e 82 bc
       0.109690286 0.057924982 -0.020979617 -0.01591424
000040 ca 4c 05 3c a1 09 91 bc b0 0d a1 3d c4 fe 1d bd
       0.008135984 -0.017704787 0.07863939 -0.03857304
000050 3a 37 13 bd 16 95 87 3d ba 09 34 3c 66 74 67 bd
       -0.03594134 0.06620233 0.010988647 -0.05650749
000060 cd 7e a6 bc 55 28 75 3d e8 02 93 bc a2 6a 1f bb
       -0.020324135 0.059852917 -0.017945722 -0.0024325033
000070 96 33 95 3c d9 fa 90 3c 1d f5 f7 bc 2d 2b 08 bd
       0.018213075 0.017697738 -0.030268246 -0.0332443
000080 f6 61 c0 3d 0e c2 e6 bb 2a 18 5f 3c c2 32 3b 3d
       0.093936846 -0.007042176 0.013616601 0.045702703
000090 e7 15 a6 bc f3 d5 ca bc d3 14 b2 3d 56 76 82 3d
       -0.020274116 -0.024760222 0.08695378 0.06370227
0000a0 d2 62 00 3d d8 a0 81 3d e1 9d 4c bd 51 2e 17 bd
       0.031344242 0.06329507 -0.049955253 -0.036909405
0000b0 24 d2 e2 bc 04 fa 90 3d c3 b7 0f 3d bd 55 11 bc
       -0.027688093 0.07078937 0.03508736 -0.008870539
0000c0 51 55 6d 3d 2f 1d 59 3d ea 4c 96 3d a0 2c 1a bd
       0.057942692 0.053006347 0.07338889 -0.037640214
0000d0 98 02 19 ba 8d db 80 3d d1 1e 13 3d 9c a5 53 bd
       -0.00058368733 0.06291876 0.03591806 -0.05167161
0000e0 6a 0f f2 bc a6 6e b8 3b 49 f1 83 bc 74 cb 4a 3d
       -0.029548366 0.0056284247 -0.016106265 0.049510434
0000f0 02 cf a9 bc 0d 64 df 3c 8f ca 25 bd 70 90 7f bc
       -0.020728592 0.027269388 -0.040476378 -0.015598401

model.6.weight f4 [64, 64]
000000 76 85 27 3b 67 a6 15 bd ad 0f 4d 3b 7f 6f 16 3c
       0.0025561727 -0.036535647 0.003128986 0.009181856
000010 d7 7e a9 3d 9d a4 87 bd 70 23 86 3d 3b 9b b1 3c
       0.08276146 -0.06623194 0.06549728 0.021680465
000020 2c 77 0e 3d 79 22 ca b9 fd 24 d4 3d 00 ab dd bc
       0.03478162 -0.00038554127 0.103586175 -0.027059078
000030 15 25 92 bd a9 a1 46 3c 0b 24 e3 bb 8d 63 4a bc
       -0.07135979 0.012123504 -0.006931787 -0.012352836
000040 e4 9d f9 3c a1 d1 ab bd 16 23 1a 3a cb 09 3d bd
       0.030470796 -0.08389593 0.0005879862 -0.046151917
000050 1c a0 77 3d 5a 95 9a 3c 2d ea 1b 3d 3b 94 b1 3b
       0.060455427 0.018870044 0.038065124 0.005419282
000060 6f 3a 80 bd 27 cd 4c bc 36 e7 a3 3d a3 db 7d a2
       -0.06261145 -0.012500084 0.08003084 -3.4404168e-18
000070 bf 99 c9 3c 7c 52 19 bd c1 bc 13 bd ae 2c 07 38
       0.024609445 -0.03743218 -0.03606868 3.222812e-05
000080 52 71 c6 bd 09 3b 8f 3c 3c f4 58 3d 81 5f 27 3d
       -0.09689583 0.017484205 0.052967295 0.040862564
000090 e6 2f 09 be 23 b6 12 3d 3a 36 8d bd 98 ce c0 3d
       -0.13397178 0.03581823 -0.068951085 0.09414405
0000a0 0f 44 84 ba 34 6f 03 3d 54 80 8c bd 90 c2 46 3b
       -0.0010091084 0.032088473 -0.06860414 0.003032837
0000b0 c9 0f a5 3c 72 29 cc bc 79 76 af 3c 60 e6 d4 37
       0.020149129 -0.024922106 0.021418797 2.5379646e-05
0000c0 ce 21 f6 bd af 1f 11 bd 5e 46 96 3d c4 8b 4d bd
       -0.120181665 -0.035430606 0.0733764 -0.05018212
0000d0 6b 76 8f 3d 05 4f 36 bb d7 89 0f 3c f0 c9 85 3c
       0.07005008 -0.0027818095 0.008760891 0.016331643
0000e0 d5 18 65 3a 69 f0 4b 3d 21 5c a3 bd e3 91 d0 bb
       0.0008739357 0.04978982 -0.079765566 -0.0063650473
0000f0 9b 2b 0c ad 39 66 dd 3b 84 4f f4 3c ff dc 5e b7
       -7.967761e-12 0.0067565707 0.029823072 -1.3283686e-05
000100 0a 20 20 bc 16 a4 59 b9 ac ea 83 bc ea f4 ce 32
       -0.009773264 -0.0002075586 -0.016103111 2.409293e-08
000110 f8 57 8b bb 74 3f 0b ba 15 34 85 bd a0 90 24 bb
       -0.00425243 -0.00053118845 -0.065040745 -0.0025110617
000120 ec 08 ec 3c cc f3 23 a7 e8 cd a3 bd 51 80 1c bb
       0.028812848 -2.2752957e-15 -0.07998258 -0.0023880193
000130 4b f9 e9 3a 03 8d 7a ba e9 62 24 9b 95 70 12 ba
       0.0017850784 -0.00095577555 -1.3597722e-22 -0.0005586234
000140 be 7f 4b bb cb 7a 88 b8 35 5c 0a ba 67 dd 87 ba
       -0.0031051482 -6.507857e-05 -0.0005278022 -0.0010365666
000150 09 41 77 38 1f 2b af b1 8f 56 92 3b d4 4f e1 b2
       5.8949958e-05 -5.0980726e-09 0.004465885 -2.6229749e-08
000160 53 09 c1 39 67 de 00 ba ad cf 06 ba 8f af 11 20
       0.00036818776 -0.0004915953 -0.00051426404 1.2340065e-19
000170 1e b8 8d b9 36 19 0a 3d 77 fb cd bc 18 0d 03 a7
       -0.00027030794 0.03371545 -0.025144322 -1.8187e-15
000180 af dd ad 3d eb da 26 bd ac f0 81 bd 89 d7 a4 b7
       0.084895484 -0.04073612 -0.06344733 -1.965069e-05
000190 9e 43 8c bb 56 82 a3 bd c2 06 d8 b9 e5 af f7 3c
       -0.0042805215 -0.07983844 -0.00041203765 0.03023524
0001a0 d1 a4 be a0 76 b4 ef 3a f9 a3 f5 3c 42 d3 0f ab
       -3.2296318e-19 0.0018288034 0.029985415 -5.1096985e-13
0001b0 de 6d e2 bc f5 cb 24 bd d8 97 b5 3a 46 6a c4 17
       -0.02764028 -0.04023357 0.0013854457 1.269303e-24
0001c0 c7 85 82 ba bc 98 d7 b9 d2 66 da ba 76 c9 5a b5
       -0.0009958082 -0.00041121792 -0.0016662723 -8.150449e-07
0001d0 03 b0 a1 3d c1 b5 34 3d 9a 09 a2 3a d1 d9 72 30
       0.078949 0.044118647 0.0012362481 8.8348623e-10
0001e0 4d 54 0d b8 d2 c5 f0 bc df 2b bd 37 85 62 09 3b
       -3.369553e-05 -0.029391203 2.2550985e-05 0.0020963263
0001f0 8e 0a 04 23 aa 4d f2 3c 92 89 98 39 8a 42 39 18
       7.157969e-18 0.029578049 0.00029094197 2.3944283e-24
000200 92 e4 a1 bd b4 da 02 be c1 81 0b 3e fb 86 2e 3c
       -0.079049245 -0.12778741 0.13623716 0.010652299
000210 b2 c1 7c 3d e5 7e 52 bc ac 19 10 3e 44 bc cf 3d
       0.06170816 -0.012847637 0.14072293 0.10143331
000220 55 23 00 3d 75 13 0c bb a6 3d ce ba cf 5f 2a 3c
       0.031283695 -0.0021373902 -0.0015734925 0.010398819
000230 48 0a cb bd ac 03 95 bd 0d 3a 8e 3d 15 ee 63 3d
       -0.0991407 -0.07276091 0.06944666 0.055646975
000240 14 0a 93 3d 22 ff de bd 8e 74 f4 bd c9 37 f6 3c
       0.071796566 -0.108885065 -0.119362935 0.030055897
000250 78 22 be 3b b4 5d 6c 3b dc 73 32 3c fd e3 6e bd
       0.005802449 0.0036066594 0.010891881 -0.058322895
000260 3a b3 5f bc 1d a7 5d bd 89 e1 bd bd fc e0 15 a7
       -0.013653571 -0.05411445 -0.09271533 -2.0799868e-15
000270 6c 8f db 3c 7a 6b c4 3d 63 b5 f5 3c 76 5d 86 bc
       0.026801787 0.09590812 0.029993718 -0.016401988
000280 03 43 ab 3d 3b 2d a6 3d 75 c9 a1 bb 87 83 b9 bd
       0.08362391 0.08114096 -0.0049373456 -0.0905829
000290 b8 b5 7a bd 19 23 eb 3d fc 3a 3e 3d bc 76 67 3d
       -0.061208457 0.11481304 0.04644297 0.05650972
0002a0 1b 66 95 bb 19 0c 9e bd 9a b6 0f bd 1c 82 5a 3c
       -0.004559291 -0.07717151 -0.03508625 0.013336685
0002b0 ed 1e fa 3c 27 be 05 3e d6 16 9b 3c 9d 04 2e 34
       0.030532325 0.13060819 0.018931787 1.6206691e-07
0002c0 77 ad 59 bc 56 8b f0 bc 83 fe 83 3d 5c fb dd 3b
       -0.013285986 -0.029363316 0.06445029 0.006774349
0002d0 e7 34 92 bd 31 26 d8 3d ca c1 f9 39 88 63 09 3d
       -0.071389966 0.105541594 0.00047637365 0.033542186
0002e0 8b 19 f0 3b 1f df e6 3c b7 6f 28 3d ce c5 92 3c
       0.0073272637 0.028182564 0.041122165 0.017916586
0002f0 fa 36 b8 37 ff 3e 62 3c 9e 00 af 3c aa 71 ad b5
       2.196011e-05 0.013808965 0.021362599 -1.2922585e-06
000300 81 08 da 3b 1d 4d 65 3a 28 4d a4 ba 6a ff 19 97
       0.006653846 0.00087471475 -0.0012535201 -4.9759344e-25
000310 34 52 98 3d d9 27 7f 3c f2 25 a5 3c 3a b2 33 bd
       0.07437554 0.015573465 0.020159695 -0.043871142
000320 e5 67 61 bd 7a 35 06 1f 19 2b 80 bc 96 7e a4 bc
       -0.055030722 2.841984e-20 -0.01564555 -0.020079892
000330 a2 9f b7 bc 75 80 8f 3d eb 97 9a 38 e0 8a 21 bd
       -0.022414986 0.07006923 7.371589e-05 -0.039439082
000340 60 96 73 3d 37 e4 d7 3c ea 62 bb ba 0e 91 c1 bb
       0.05946958 0.026353939 -0.0014296446 -0.0059071844
000350 99 b2 af 3a 25 99 79 bd e4 4a 57 3a bf 90 15 bc
       0.0013404667 -0.060937066 0.00082127587 -0.009128748
000360 9c f8 51 3d b3 87 4a bd 0b 1f 9f bd 48 77 17 99
       0.051262483 -0.04944582 -0.07769593 -7.830606e-24
000370 9f 28 41 3c e9 d6 0e 3d d6 ca 6f ba 72 0d 4f b2
       0.01178947 0.034872923 -0.00091473514 -1.2052043e-08
000380 cd ba c7 bc 5c b0 a6 bb a7 93 f1 3b bf c8 d5 bc
       -0.024381066 -0.0050869416 0.007372338 -0.0260967
000390 bd fe 3f 3d f4 1a 2d b6 36 e1 02 bd d8 90 4f ba
       0.046873797 -2.5794698e-06 -0.03195306 -0.0007918007
0003a0 f1 f7 e5 3a d9 69 4e 3d fa 79 99 bb a9 de 93 34
       0.0017545206 0.050393913 -0.00468373 2.754289e-07
0003b0 29 3c 62 29 de 41 1a bd 35 66 bd 3a d3 ff f7 19
       5.023426e-14 -0.037660472 0.0014450016 2.5642528e-23
0003c0 a0 cc 5b 3c 84 9e 13 bd 6e f4 e0 bc 44 9d e3 b8
       0.013415486 -0.036039844 -0.027460303 -0.000108534965
0003d0 e9 30 7d bb 59 40 25 bc 42 5f 2e bd 03 36 dc b6
       -0.003863389 -0.010086142 -0.042571314 -6.5627987e-06
0003e0 1e d5 1c ba a7 b4 7c bc d1 0a 9b 3d fe c7 64 3d
       -0.00059826847 -0.01542393 0.075704224 0.05585479
0003f0 72 8e e9 98 c3 46 7c ba 40 30 58 bd 58 05 39 9d
       -6.037292e-24 -0.00096235814 -0.05278039 -2.4487309e-21

model.6.bias f4 [64]
000000 f6 8e d7 3d ec c2 6b bd c9 c8 a5 3d 20 93 a4 bd
       0.105253145 -0.05755894 0.08094937 -0.08035874
000010 47 63 d4 3c b6 be a9 3d 4a e4 3c 3d 31 90 de 3d
       0.025926245 0.08288328 0.04611615 0.10867346
000020 39 61 05 bd bf 58 95 bb ec fc a8 bb fd f6 8e bd
       -0.032563422 -0.0045576985 -0.0051571038 -0.06980703
000030 77 7f 97 3d 34 33 a3 bd 31 eb b3 bd 6f 5c a2 3c
       0.07397359 -0.079687506 -0.087850936 0.019819466
000040 e1 2e 20 3d 96 63 be bd 24 6d 06 3e 23 a0 98 3d
       0.039107207 -0.09296338 0.13127571 0.07452419
000050 5d d8 e0 3d 05 7f ad 3b c3 a0 e7 b4 48 5d e1 3d
       0.10978768 0.005294683 -4.3144072e-07 0.1100412
000060 98 e0 bc 36 b5 ed 3c bd 7c ef c7 3d ad 98 bb bb
       5.6289828e-06 -0.046125133 0.09762475 -0.0057249875
000070 ba de 02 bd 97 18 b9 bd 2c 3b da 3d e8 bd 54 ba
       -0.03195069 -0.09037893 0.106558174 -0.00081154564
000080 9b 9e 15 3c 36 d7 9e 3d f1 c4 01 3e 53 f0 d1 bb
       0.009132053 0.07755892 0.12672783 -0.0064068227
000090 49 34 b8 3d 98 bd 73 3d 2a e0 ca bc 48 f1 16 3d
       0.089943476 0.059506983 -0.024765093 0.036851197
0000a0 75 e0 c3 3d c9 4f d1 3d 28 c5 62 3d b8 d8 f8 bc
       0.09564296 0.10220296 0.055363804 -0.030376777
0000b0 15 77 54 3b aa 37 82 3d f1 b8 9e bd 30 b4 da bc
       0.0032419611 0.06358273 -0.077501185 -0.026697248
0000c0 b9 e5 87 bd c9 27 64 3d 3f 86 c4 ba d5 e9 a7 3d
       -0.06635613 0.055702005 -0.0014993622 0.08198897
0000d0 10 95 06 3e ce eb ba bb 80 f4 91 3a 1c 74 d5 3d
       0.131428 -0.0057043796 0.0011135489 0.10422537
0000e0 64 13 e3 bc a9 ed de bb 11 89 b2 bd 04 b7 57 bc
       -0.027719207 -0.0068032336 -0.087175496 -0.013166193
0000f0 22 48 aa bc b6 8d 41 bb b5 7d a1 3d e5 08 75 bd
       -0.020786349 -0.002953393 0.07885305 -0.059822936

model.8.weight f4 [32, 64]
000000 2d d5 a0 bb f1 ad f8 3a 93 e9 ed 3d 8a ea 83 99
       -0.004908225 0.0018972737 0.11616816 -1.3639812e-23
000010 f2 2b 3a 2f 05 d5 a5 3d 42 75 93 3c d2 ff af bb
       1.6932214e-10 0.08097271 0.018000249 -0.0053710723
000020 55 14 ee 9c 76 9b 31 22 c2 f1 03 3d 17 4a 05 3d
       -1.5754775e-21 2.4070273e-18 0.03221298 0.03254136
000030 81 ba 8d 39 31 14 bf 3b 87 53 b8 bb 27 cc 10 bc
       0.00027032572 0.0058312644 -0.0056251916 -0.008837736
000040 8b 68 be 3d d0 76 b7 bd ba fe c7 bb f2 f9 9b a8
       0.09297284 -0.089582086 -0.006103364 -1.7316853e-14
000050 7d 98 a4 bd 78 95 8c bd c4 3f 62 af 3f bb 5d bc
       -0.08036897 -0.068644464 -2.0577234e-10 -0.0135334125
000060 f5 b6 0d 36 4e 28 a4 3d 62 fc 4c 3d dd 32 9f bd
       2.1117132e-06 0.080155 0.05004538 -0.07773373
000070 84 9d 69 bd cd f0 04 9a 85 0f d7 3d 48 23 5b 16
       -0.057034984 -2.7491478e-23 0.10501007 1.7701812e-25
000080 72 8f cb 3b c5 2f 9f bc ae 92 d3 bc e4 1b 1e 3c
       0.0062121684 -0.019431958 -0.025826778 0.009650204
000090 96 bb d7 3d 3e 2d a4 bd b0 89 63 bd 96 bb 4c bc
       0.10533826 -0.08016442 -0.05555123 -0.012495896
0000a0 a1 06 14 3d 4e 60 a9 3c 65 92 e6 b8 24 f8 b4 3c
       0.036139134 0.020675804 -0.00010994523 0.022090979
0000b0 d3 11 c3 b8 17 3e b4 bd 98 08 30 3c ae 47 c1 9f
       -9.3016446e-05 -0.08800905 0.010744236 -8.1857264e-20
0000c0 3b 73 00 3c e4 2b ae 39 1c 83 74 b9 cf 79 25 3c
       0.007839973 0.00033220567 -0.00023318495 0.010099842
0000d0 11 b3 7e bc 3e a9 bc b1 43 ec 21 bd 40 09 93 bd
       -0.015545622 -5.4907607e-09 -0.039531957 -0.07179499
0000e0 06 2b 65 bd 96 c5 60 3a 9a a3 25 b0 d4 a4 93 bc
       -0.055949233 0.00085743645 -6.025914e-10 -0.018022932
0000f0 c9 ff 19 ab 33 b8 a2 3c 4a e8 3c 3d c7 59 f3 3d
       -5.471149e-13 0.019863224 0.046119966 0.11882358
000100 d8 fa f8 bc 8d 6e 19 3a ed bb d5 3d 77 a3 70 3c
       -0.03039305 0.000585296 0.104362346 0.014687411
000110 7e 84 dc 3d fd fc b4 3d a5 72 4a bd f2 13 4b bd
       0.107674584 0.08837316 -0.04942574 -0.04957957
000120 bc e6 c3 bc 5b fc b4 3b de fd 9c 3d 20 0c 62 3d
       -0.023913734 0.005523247 0.07665609 0.055187345
000130 ad 48 0e bb 9b 5f 31 bb 7f fa 98 bd df 8e 7f 3d
       -0.0021710799 -0.0027065042 -0.07469653 0.062392112
000140 15 9b 7b 3d 02 67 2a bd 46 a3 89 3d 17 2c 1b 3e
       0.061427195 -0.041602142 0.06720595 0.15153538
000150 77 ba c1 bd 93 98 d6 bb e9 4e 06 2d 16 e7 85 3d
       -0.094593935 -0.00654895 7.63454e-12 0.06538217
000160 a4 16 b7 36 2b 59 6d 3d bb 99 f2 bd 28 04 da 3d
       5.4564607e-06 0.057946365 -0.11845728 0.10645324
000170 34 08 58 3d 6f 74 a2 38 bb b8 9b bd f3 67 78 3b
       0.052742198 7.7464494e-05 -0.07603594 0.0037903755
000180 16 c8 8d bd 07 a4 f9 bd de 39 42 bd 19 00 66 bd
       -0.06922929 -0.12189489 -0.047418468 -0.056152437
000190 9f a5 46 3d 53 15 0f 3e 64 0d b0 3d 0c 0d 45 3b
       0.048497792 0.13972978 0.08596304 0.003006759
0001a0 c6 a8 6b bd 4a e1 81 3c a2 7e b1 bd 63 a7 7d 3d
       -0.057534 0.015854497 -0.086667314 0.06192721
0001b0 b8 86 df 38 7d 34 0f 3e 56 eb fb ba 2d 49 20 3a
       0.00010658562 0.13984866 -0.0019219916 0.00061144197
0001c0 6d 8b 2a bd d2 e6 2b 3c 4a bd e9 3d fa 0d 21 3d
       -0.041636873 0.010492044 0.11413057 0.03931997
0001d0 8c 71 ca 3d 80 da 4a 33 bc ff 76 3d 7c 06 02 bc
       0.098849386 4.7230515e-08 0.06030248 -0.007936116
0001e0 40 70 76 bd cc 86 c0 3b cb 49 01 3b 3d 47 db 3d
       -0.060165644 0.005875444 0.0019727822 0.10706947
0001f0 82 47 ab 2e 77 e2 cb 3b 07 3c a4 bd 9d 16 58 bc
       7.788882e-11 0.006222065 -0.08019262 -0.013188985
000200 c7 4e da bb 21 37 d5 ba f0 60 e7 bd 46 e3 87 3c
       -0.006662223 -0.001626704 -0.11297786 0.016587865
000210 f1 54 78 3d fc b1 c9 3b 39 04 8d bd 55 41 cb 3c
       0.06062788 0.0061552506 -0.06885571 0.024811426
000220 7e 33 91 bd 46 f4 ac 3b 33 44 c7 bd 34 04 48 3d
       -0.070898995 0.005278143 -0.09729805 0.048832133
000230 ee ed 99 3d 2c 88 28 3b 25 da 2a 3d 62 f9 87 bd
       0.075160846 0.002571593 0.041711945 -0.06639363
000240 c2 59 82 bd 5b 77 c5 bd 94 6b 96 3d 63 b9 85 3d
       -0.06364776 -0.09641906 0.07344738 0.065295
000250 d5 3f 87 bd e8 9e fd 3d 00 e8 b0 2e f7 83 03 3d
       -0.06603972 0.123838246 8.044765e-11 0.032108273
000260 c6 bf 0c 37 7e de af 3d bf 96 a9 3d ff c3 f7 3d
       8.389301e-06 0.08587359 0.08280706 0.1209793
000270 92 57 44 3d 9a 90 1b 38 32 6c d4 bc a8 39 3c bc
       0.047935076 3.708955e-05 -0.025930498 -0.011488356
000280 9a 63 19 bd 04 b3 a1 3d dd 35 66 bd d4 21 ed 3d
       -0.037448503 0.07895473 -0.05620371 0.11578718
000290 f8 d7 5d 3d e1 3d b7 3d ca 4f d7 bc 77 88 64 bc
       0.054161042 0.08947349 -0.026283164 -0.013948551
0002a0 3b 6a 8c bc 51 f2 e5 bd 1f 9a 95 3d 2c 3d 94 3d
       -0.017140498 -0.11227859 0.07304787 0.0723823
0002b0 07 a1 20 3a 18 50 49 3d 5f 55 40 bd 5b 8e 05 bc
       0.00061275106 0.04914865 -0.046956416 -0.008151616
0002c0 33 db 3f bc c1 38 0f 3b ae b6 ad 3d 0b 5b 5b bd
       -0.011709976 0.0021853896 0.08482109 -0.053553622
0002d0 c5 59 91 bc ca 9c c3 b1 d6 06 b2 bd 73 fb d1 3d
       -0.017743 -5.693072e-09 -0.0869271 0.10253038
0002e0 95 f9 19 3e 7c 91 ff 38 5f 82 fa b8 13 ef c1 bd
       0.15036614 0.00012186446 -0.000119452125 -0.09469428
0002f0 7e e4 29 b5 cd 9d 45 bc 8a a3 da 3d d8 5d bd bc
       -6.3289906e-07 -0.012061548 0.10675724 -0.023116037
000300 17 00 4f 3b 69 19 dc 39 73 71 0f bc 25 9d e1 2d
       0.0031585747 0.00041980602 -0.008755076 2.5649325e-11
000310 71 3f 19 3d a3 a1 95 bd 73 63 1b bd 2c 44 76 bb
       0.037414018 -0.073062204 -0.03793664 -0.0037577255
000320 03 bb 85 a1 df cc 84 a1 90 a8 d1 bd e2 fe 95 bc
       -9.061932e-19 -8.998897e-19 -0.10237229 -0.018310014
000330 e3 45 b4 bc 72 c4 b6 3a 2d 80 11 3b 15 ab 52 3d
       -0.02200598 0.0013944043 0.0022201643 0.051432688
000340 ff 34 3a bd e7 bc 09 bd 1a f9 db 3c 4b 5a 4c bd
       -0.045460697 -0.033627417 0.02685218 -0.049890798
000350 59 b6 c4 bc 38 46 12 3d 08 75 b9 2b 5a fc 8a ba
       -0.024012731 0.035711497 1.3177523e-12 -0.0010603771
000360 cb de 25 36 f5 80 85 3c d9 75 87 3d b0 c1 ed bc
       2.4716599e-06 0.016296843 0.066142745 -0.029023021
000370 79 5f 3b bd 93 94 13 24 c5 9b 93 3d 10 da 6f 9b
       -0.045745347 3.200139e-17 0.07207445 -1.9840076e-22
000380 08 e1 a8 ba c5 06 0a 3d 9d 08 d4 3c 9d a9 b6 bc
       -0.0012884447 0.033697862 0.025883013 -0.022297675
000390 57 cc 80 bd 55 20 7d 3d ae 2a a2 bd 8d 64 da 3d
       -0.06288975 0.061798412 -0.07918297 0.1066371
0003a0 72 d0 5d 3c 3d 0f 7f 3d 61 2f 17 3c 29 45 b2 3d
       0.013538467 0.06227039 0.009227605 0.087045975
0003b0 b2 6c 9f 2b db f6 65 3d d7 5b c2 b4 ce 32 93 b7
       1.1327799e-12 0.056143623 -3.6202138e-07 -1.7547423e-05
0003c0 51 d6 f1 3c a1 51 40 3a 45 bc 0f bc 09 59 9c 3d
       0.02952114 0.00073363824 -0.008772914 0.076341696
0003d0 13 e6 01 bd 29 26 3b 2f f0 ef b8 3d 96 be 47 3c
       -0.031713556 1.7021108e-10 0.090301394 0.012191435
0003e0 86 3e 88 bc 3a 94 b5 a8 78 7e 7d ae 2a 98 9c 3c
       -0.016631376 -2.015932e-14 -5.7637867e-11 0.019115526
0003f0 8a be 85 9d 1d 19 35 3d f4 6d 9a bd cc e4 8a bc
       -3.540182e-21 0.044213403 -0.07540503 -0.016954802

model.8.bias f4 [32]
000000 2f b6 32 bd 05 b3 a9 3d fd a5 2e 3d ff 6d 2f 3d
       -0.043630775 0.082860984 0.042638768 0.04282951
000010 02 d6 41 3d f0 4d b6 3d 08 81 bd bb 70 1c 80 bd
       0.047323234 0.08901584 -0.005783204 -0.06255424
000020 ca 83 50 3d f2 da a1 3d bc 18 2a 3d 2a 3f 37 bd
       0.050906934 0.07903089 0.041527495 -0.044737972
000030 b2 1c 0b b9 9c a0 ae bc 93 58 25 bd 83 81 55 bc
       -0.00013266763 -0.021316819 -0.040367674 -0.013031366
000040 56 ea a8 bd 1e d3 05 3e 42 d9 b9 3d f0 a5 ff 3d
       -0.08247821 0.13068816 0.09074642 0.12482822
000050 36 75 fa 3c 65 9c 67 3d 70 da 2d 3c 16 bf 2d 3d
       0.030573469 0.056545634 0.010611162 0.042418562
000060 70 6a 9c b8 7a 15 96 bb 9b 23 bd 3d 63 7c a7 3c
       -7.458485e-05 -0.004580197 0.09235307 0.020445054
000070 a4 5c 3f bd b5 cf 81 bc 75 e4 56 bd 69 a9 c3 bd
       -0.04671921 -0.015846113 -0.052463967 -0.09553797

model.10.weight f4 [1, 32]
000000 f5 e8 8b bd a7 7f ed 3d 44 a0 c9 3d 7b b1 36 bc
       -0.068315424 0.115966134 0.09845021 -0.011150713
000010 4f b1 3e 3e d2 2c 19 3e e8 f3 a0 3d 5e 33 31 be
       0.18622325 0.14958504 0.078590214 -0.17304751
000020 3e 1f 3c be cb fb d6 3d 38 8f 4a be 38 36 aa 3d
       -0.18371293 0.104972444 -0.19781196 0.08311123
000030 ce 83 7b 2c 94 bf fc 3d 68 58 60 3b ae 3f 00 bd
       3.5742412e-12 0.12341228 0.0034232382 -0.03131073
000040 59 da 05 3e aa 89 38 be 21 ef dc 3c d3 3b 04 3e
       0.13071574 -0.18021265 0.026969494 0.12913446
000050 bf 32 1c be 22 e0 a7 3c f7 ce 22 3e 0d 25 56 3a
       -0.15253733 0.020492617 0.15899263 0.0008168973
000060 24 9b 2e 39 6c 33 d9 3c 77 36 4b be c5 a3 9c 3d
       0.00016651727 0.026513778 -0.19844995 0.07648424
000070 bb 72 1c 3e 5f 53 16 be c4 5c 1b bd a8 06 96 3c
       0.15278141 -0.14680241 -0.037930265 0.01831372
