Simulation_MLP/models_AME/struct_pruned_finetuned.pth (torch, 777766 bytes, 15 tensors)

model.0.bias f4 [256]
-0.009571862 -0.006485184 0.005002973 0.031050878 -0.031134285 -0.03721041 0.052610315 -0.03626477
-0.02930131 0.033212792 0.00473334 0.050794426 -0.030402392 0.036823347 -0.008109174 -0.0034127878
-0.036748104 -0.060245767 0.022581114 0.026703008 -0.020660516 -0.039196596 -0.060076423 -0.005563671
0.007196072 -0.030173685 -0.06886063 -0.005850784 -0.006243248 0.028765485 -0.042751487 -0.0077192276
-0.04965699 -0.05772405 -0.07035099 0.005670384 -0.04931175 -0.03445838 -0.055635277 0.017987743
-0.04857623 -0.020884091 0.04489758 0.03491218 0.0233695 0.0044699134 0.013787284 0.00806045
0.00056386145 0.032441605 -0.05637167 0.039161734 0.013270385 0.015007402 -0.05062546 0.028655266
-0.041973203 0.0523353 -0.021335568 -0.062058233 -0.013123942 -0.005706064 -0.025102705 -0.040521827
-0.046278752 0.019742996 0.018917974 -0.07180463 0.015898231 -0.03500954 -0.0017656082 0.011578421
0.013771501 -0.038970638 -0.032263048 -0.05247936 0.008602481 -0.026880745 -0.0042620194 0.0024295445
-0.042374633 -0.026123112 0.008937585 0.012165501 0.017185302 -0.054713085 0.022789765 0.009977991
-0.028640224 -0.079189725 -0.003756051 -0.030124608 0.037150517 0.010612678 0.01269022 -0.046288818
0.06962002 -0.031444814 0.01356194 0.011090089 0.006877032 -0.09363451 -0.06504731 0.0058562118
0.032968067 -0.006910248 -0.009055739 -0.029368626 -0.0046205786 -0.008779182 0.009669709 0.029176831
0.0040625506 -0.07439346 -0.019120947 -0.014406752 -0.056394503 0.005495599 0.044181406 -0.041662063
-0.04245713 -0.081094876 0.025123809 0.004186887 -0.0039429115 -0.039549273 0.014496637 -0.067323394
0.025476271 -0.016874652 -0.0032152352 0.0016834346 0.030388253 0.0021788052 0.0009034512 0.03282165
0.009532836 -0.020436602 0.07418442 0.048236445 -0.03550864 0.022917628 -0.012852695 0.0054709874
0.043366775 -0.06155825 -0.07732026 -0.045743898 0.004678096 -0.0014742642 -0.01197479 -0.010552621
-0.032234162 0.0068896385 -0.013220217 0.0060924552 -0.0328482 0.04657626 -0.0008326953 -0.004209598
-0.05458676 0.035223484 -0.008520905 0.02547919 -0.0012238998 -0.04960185 0.028686779 -0.011536759
-0.008950796 -0.0014091566 -0.012514753 -0.024461519 -0.034270473 -0.010105943 4.483575e-05 -0.029288612
-0.032150384 -0.02379063 -0.04811328 -0.052637536 0.039832503 0.015302101 -0.020345336 -0.0020780752
0.0027831206 -0.0054970514 -0.01516153 0.055050444 -0.02655439 -0.054784045 -0.006773043 -0.040453184
-0.08146117 0.014425178 -0.016723875 0.019333301 0.014570709 -0.012662438 0.020582948 -0.04187464
-0.01654594 0.038755562 0.007132043 0.047971483 -0.004515382 0.03031996 0.020135442 -0.04357523
0.035154082 0.045457568 0.07492587 0.039008096 0.034605473 0.014862776 -0.07018399 0.076276205
-0.050511457 -0.00807074 -0.016321803 -0.014609473 0.01857641 0.028055089 0.0066933553 -0.026145523
0.0412039 0.008516428 -0.023847584 -0.0289952 0.043067418 -0.013090953 -0.041920118 0.03370865
-0.0714501 -0.04181612 -0.0015116003 0.042254057 -0.019418463 0.011429473 0.06280528 0.043717332
-0.08733507 -0.027028322 -0.061758652 -0.001698604 0.018988706 -0.048340093 0.034872174 0.018709503
-0.01601507 0.023849633 -0.009499387 -0.023746705 0.03163517 -0.011475473 -0.010498103 0.04985782
00000000: 4dd3 1cbc ab81 d4bb fbef a33b 695e fe3c
00000010: 540d ffbc f169 18bd ea7d 573d 5e8a 14bd
00000020: 4d09 f0bc 230a 083d 221a 9b3b d10d 503d
00000030: 700e f9bc 14d4 163d 57dc 04bc 14a9 5fbb
00000040: 2e85 16bd 44c4 76bd 07fc b83c 44c0 da3c
00000050: 3e40 a9bc 9c8c 20bd b212 76bd 744f b6bb
00000060: 07cd eb3b ce2e f7bc cd06 8dbd efb7 bfbb
00000070: 2994 ccbb 98a5 eb3c 2f1c 2fbd 93f1 fcbb
00000080: 2165 4bbd 0e70 6cbd 2e14 90bd a1ce b93b
00000090: 1efb 49bd 3b24 0dbd d1e1 63bd 085b 933c
000000a0: def7 46bd 1d15 abbc 86e6 373d 1300 0f3d
000000b0: 6571 bf3c 5a78 923b 0fe4 613c fa0f 043c
000000c0: 1ad0 133a 7de1 043d fbe5 66bd 0e68 203d
000000d0: 076c 593c 9be1 753c a45c 4fbd 73be ea3c
000000e0: 18ec 2bbd 8a5d 563d eec7 aebc c630 7ebd
000000f0: cd05 57bc eff9 babb 30a4 cdbc 37fa 25bd
00000100: ca8e 3dbd 10bc a13c def9 9a3c 4e0e 93bd
00000110: 023d 823c 2a66 0fbd fb6b e7ba 6bb3 3d3c
00000120: dda1 613c ad9f 1fbd 4226 04bd 99f4 56bd
00000130: 6cf1 0c3c 0235 dcbc 69a8 8bbb fe38 1f3b
00000140: 0691 2dbd 2300 d6bc f36e 123c cf51 473c
00000150: 31c8 8c3c d41a 60bd 9ab1 ba3c ba7a 233c
00000160: e79e eabc 392e a2bd 1428 76bb e2c7 f6bc
00000170: 242b 183d cce0 2d3c a4ea 4f3c 5899 3dbd
00000180: f194 8e3d 47cc 00bd e632 5e3c 34b3 353c
00000190: ba58 e13b 73c3 bfbd 8637 85bd 77e5 bf3b
000001a0: 8609 073d 5d6f e2bb 865e 14bc 7996 f0bc
000001b0: 3968 97bb 8fd6 0fbc b36d 1e3c 4004 ef3c
000001c0: 251f 853b 995b 98bd 88a3 9cbc 4c0a 6cbc
000001d0: ecfd 66bd 6d14 b43b 90f7 343d d7a5 2abd
000001e0: 87e7 2dbd 1215 a6bd 72d0 cd3c 2732 893b
000001f0: 8a33 81bb 6bfe 21bd 4d83 6d3c d9e0 89bd
00000200: 9db3 d03c b63c 8abc b2b6 52bb b1a6 dc3a
00000210: c9f0 f83c 49ca 0e3b 95d5 6c3a ff6f 063d
00000220: 9d2f 1c3c a96a a7bc 00ee 973d 9493 453d
00000230: 8271 11bd c0bd bb3c 1c94 52bc f845 b33b
00000240: 5ca1 313d 8124 7cbd 165a 9ebd f45d 3bbd
00000250: b74a 993b 193c c1ba e931 44bc e7e4 2cbc
00000260: f807 04bd 7ac2 e13b 9c99 58bc 38a3 c73b
00000270: d68b 06bd c0c6 3e3d 3c49 5aba abf0 89bb
00000280: 5e96 5fbd 8046 103d 449b 0bbc bcb9 d03c
00000290: 436b a0ba 4f2b 4bbd 8900 eb3c ad04 3dbc
000002a0: 5ca6 12bc 73b3 b8ba ae0a 4dbc 8663 c8bc
000002b0: 325f 0cbd 6693 25bc 050e 3c38 acee efbc
000002c0: 1fb0 03bd 91e4 c2bc 6e12 45bd 759a 57bd
000002d0: 6827 233d aab5 7a3c 43ab a6bc 5130 08bb
000002e0: 0465 363b 9c20 b4bb 1168 78bc 937c 613d
000002f0: 9888 d9bc 3c65 60bd 67f0 ddbb 3db2 25bd
00000300: 1dd5 a6bd 9557 6c3c 8200 89bc df60 9e3c
00000310: fcb9 6e3c 1d76 4fbc 929d a83c be84 2bbd
00000320: 5a8b 87bc 27be 1e3d eab3 e93b bf7d 443d
00000330: c5f5 93bb 9161 f83c 15f3 a43c f17b 32bd
00000340: bafd 0f3d b731 3a3d bc72 993d f4c6 1f3d
00000350: 78be 0d3d 0083 733c a0bc 8fbd b336 9c3d
00000360: 1ae5 4ebd 233b 04bc 4db5 85bc 925c 6fbc
00000370: 8e2d 983c c9d3 e53c ef53 db3b 232f d6bc
00000380: 6cc5 283d 7d88 0b3c 025c c3bc 5787 edbc
00000390: 7667 303d 707b 56bc 6eb4 2bbd 1512 0a3d
000003a0: 6e54 92bd 6147 2bbd e420 c6ba 9712 2d3d
000003b0: 7813 9fbc af42 3b3c 0ea0 803d f210 333d
000003c0: bbdc b2bd 806a ddbc a4f6 7cbd b1a3 deba
000003d0: 348e 9b3c 4300 46bd 20d6 0e3d ac44 993c
000003e0: 0932 83bc 4e60 c33c 51a3 1bbc 7388 c2bc
000003f0: e193 013d 9f03 3cbc 3c00 2cbc b737 4c3d

model.0.weight f4 [256, 246]
-0.037214257 -0.010882498 -0.0048699495 -0.08641219 -0.03641699 -0.09143196 0.031003095 -0.037185177
-0.09240854 -0.058595162 -0.008079989 -0.0051443735 -0.119262084 -0.09145542 -0.048101805 0.05976577
-0.068489544 -0.0020814666 0.031903453 -0.0631738 -0.025523804 -0.03480205 -0.016301397 -0.005455982
-0.060759466 0.009821707 -0.087364145 -0.040804833 -0.0628897 -0.0005332041 -0.009373285 0.0029949788
0.0032512574 -0.015044409 -0.052363325 0.027498277 -0.07577974 -0.012608495 0.006949268 -0.0033389034
0.021369593 0.0065008528 0.0100294035 0.013614132 -0.019222356 0.008484836 -0.06476349 0.01662056
0.04956824 0.0020136156 0.041925978 0.0356081 0.008226431 -0.048032816 0.05034861 -0.012794176
0.02647698 -0.016512709 0.045696724 -0.022623906 0.0420067 0.005389909 -0.01032114 0.0017841677
0.03230899 0.021221848 0.03306453 -0.03951818 -0.0066353204 -0.049157616 -0.007243256 -0.057026397
-0.02356581 -0.0726927 0.019769512 0.045973502 -0.04296337 -0.019189568 -0.037252612 0.0057224794
0.020411339 0.021824408 0.021579796 -0.0030212007 -0.059733234 0.027564496 -0.012172189 0.0050747343
-0.033521213 0.011511546 0.030281367 -0.00075350574 0.0014543519 -0.0060479953 -0.014990078 0.06447909
-0.014070376 0.045935865 -0.03167185 0.0039825602 0.054616246 0.015313684 -0.018951707 -0.04255137
0.044969432 -0.023424981 0.04174586 -0.007685214 0.0013478305 0.04823941 -0.010766644 0.0048879734
-0.0030702332 -0.00016336475 -0.0020870187 0.039026666 0.011733697 -0.0015906228 -0.008529115 0.020316198
0.0036051814 -0.046208497 0.037111245 -0.013852532 -0.03698641 -0.0058022956 0.033663377 -0.032879982
-0.004396202 -0.10382424 0.008267268 -0.076532274 -0.027328871 0.011754666 -0.033335336 -0.00472643
0.025274238 -0.019494912 -0.022603398 -0.0322274 -0.03495057 0.052007124 -0.00026419296 0.071898796
0.002023515 -0.022365494 -0.022451682 -0.0066500884 0.049254015 0.008357176 -0.0008935272 0.020277845
-0.03501328 0.03952516 -0.003620146 0.0029487917 -0.0058773067 -0.042167258 0.013051775 -0.021775633
-0.058623224 -0.020380171 0.04237211 0.026058586 0.0032983995 -0.04261199 -0.00043210926 -0.09144242
-0.05674549 -0.017048761 -0.02539701 -0.017628506 0.046007942 -0.023821587 -0.05604843 0.029966822
-0.026012037 -0.02989819 -0.06814694 0.0389149 0.031491805 -0.050195012 -0.03461933 0.0043772697
-0.014404939 0.019472608 0.057030916 0.025003823 -0.0019935244 0.016230477 -0.068893395 0.020054225
0.0020594343 0.005006475 0.05020817 -0.054116253 0.020687623 0.06274504 0.035423595 0.036168758
-0.013328642 -0.028645003 0.025313925 0.020851463 0.012975225 0.02247792 0.02245211 -0.021685135
-0.024158325 -0.039509427 0.030399524 0.060794648 -0.036405038 0.027751792 0.057574164 0.056471605
-0.00030594744 0.028629377 0.038190383 -0.00074933196 -0.029105932 0.048994996 0.0006875811 -0.052550983
0.0009793681 0.014852658 -0.006844628 0.006135504 0.060833897 0.04015896 -0.0065085716 -0.05083675
-0.0066749505 -0.018503023 -0.009266716 -0.0054178215 -0.054503925 -0.013776592 -0.016902475 -0.023895567
0.02038573 0.009524645 -0.020366814 -0.11324085 -0.08285896 -0.057614516 0.006378715 -0.007129647
-0.0002144145 -0.009031612 -0.006355214 -0.0042006522 0.001457601 0.00250933 -0.0070095155 -0.007904482
00000000: fa6d 18bd 814c 32bc 1994 9fbb e0f8 b0bd
00000010: fb29 15bd ae40 bbbd 34fa fd3c 7c4f 18bd
00000020: b040 bdbd 7b01 70bd ee61 04bc 2292 a8bb
00000030: ae3f f4bd fb4c bbbd 6606 45bd f4cc 743d
00000040: 3f44 8cbd 3769 08bb 32ad 023d 4461 81bd
00000050: 4c17 d1bc 988c 0ebd 828a 85bc 18c8 b2bb
00000060: ebde 78bd 3aeb 203c f9eb b2bd f822 27bd
00000070: 51cc 80bd b9c6 0bba 6892 19bc 6847 443b
00000080: 0c13 553b d37c 76bc ed7a 56bd 1144 e13c
00000090: 6932 9bbd dc93 4ebc afb6 e33b 81d1 5abb
000000a0: 490f af3c 1b05 d53b 5e52 243c cf0d 5f3c
000000b0: 3478 9dbc fb03 0b3c b8a2 84bd d727 883c
000000c0: 1108 4b3d ddf6 033b 93ba 2b3d cdd9 113d
000000d0: 27c8 063c 0fbe 44bd 583a 4e3d aa9e 51bc
000000e0: 40e6 d83c a945 87bc 7d2c 3b3d c555 b9bc
000000f0: 380f 2c3d d59d b03b 001a 29bc bcda e93a
00000100: 6e56 043d 71d9 ad3c ac6e 073d d1dd 21bd
00000110: 1a6d d9bb 7f59 49bd d658 edbb 8394 69bd
00000120: 160d c1bc e9df 94bd acf3 a13c b64e 3c3d
00000130: 5cfa 2fbd 7133 9dbc 3296 18bd a383 bb3b
00000140: ae35 a73c 1ac9 b23c 1dc8 b03c 56ff 45bb
00000150: d6aa 74bd f0ce e13c dc6d 47bc f549 a63b
00000160: 8a4d 09bd ec9a 3c3c a110 f83c ea86 45ba
00000170: f49f be3a 432e c6bb f298 75bc 9d0d 843d
00000180: 6f87 66bc 3f27 3c3d 57ba 01bd 2380 823b
00000190: 49b5 5f3d 3fe6 7a3c 9c40 9bbc 584a 2ebd
000001a0: de31 383d bfe5 bfbc b5fd 2a3d 3fd4 fbbb
000001b0: b0a9 b03a b096 453d 9466 30bc 4b2b a03b
000001c0: f735 49bb e44c 2bb9 5dc6 08bb 6dda 1f3d
000001d0: b13e 403c 727c d0ba b3bd 0bbc 286e a63c
000001e0: e844 6c3b 1f45 3dbd f601 183d bbf5 62bc
000001f0: 107f 17bd 2f21 bebb 9ce2 093d 29ad 06bd
00000200: 040e 90bb cea1 d4bd 6f73 073c f4bc 9cbd
00000210: cce0 dfbc a596 403c a28a 08bd 2be0 9abb
00000220: eb0b cf3c cbb3 9fbc c32a b9bc e100 04bd
00000230: 5428 0fbd 6c05 553d 6183 8ab9 ad3f 933d
00000240: f39c 043b d737 b7bc 97ec b7bc fce8 d9bb
00000250: 94be 493d 89ec 083c 983b 6aba b91d a63c
00000260: 166a 0fbd 22e5 213d f93f 6dbb 8440 413b
00000270: 6c96 c0bb 93b7 2cbd 1dd7 553c d062 b2bc
00000280: e81e 70bd 51f4 a6bc 618e 2d3d d178 d53c
00000290: f629 583b e989 2ebd b98c e2b9 2a46 bbbd
000002a0: f56d 68bd d8a9 8bbc 640d d0bc a869 90bc
000002b0: d372 3c3d 7d25 c3bc 0a93 65bd fb7c f53c
000002c0: 3217 d5bc 0ded f4bc 9f90 8bbd 3b65 1f3d
000002d0: 8dfd 003d 4999 4dbd 00cd 0dbd 336f 8f3b
000002e0: b102 6cbc 0585 9f3c 4099 693d d1d4 cc3c
000002f0: caa5 02bb c7f5 843c fb17 8dbd c248 a43c
00000300: 93f7 063b 5b0d a43b 15a7 4d3d 01a9 5dbd
00000310: 1779 a93c 7980 803d 5518 113d b125 143d
00000320: 6060 5abc eda8 eabc 265f cf3c b0d0 aa3c
00000330: 0a96 543c 9d23 b83c 7ded b73c 06a5 b1bc
00000340: aee7 c5bc a3d4 21bd 6c08 f93c cf03 793d
00000350: 731d 15bd ba57 e33c e3d2 6b3d c54e 673d
00000360: 9267 a0b9 2888 ea3c 856d 1c3d d16e 44ba
00000370: 906f eebc faae 483d c93e 343a b33f 57bd
00000380: 245e 803a 9058 733c e748 e0bb 570c c93b
00000390: f72c 793d b97d 243d db45 d5bb 323a 50bd
000003a0: 8bb9 dabb a793 97bc 6dd3 17bc fb87 b1bb
000003b0: 823f 5fbd 37b7 61bc 0f77 8abc a3c0 c3bc
000003c0: f9ff a63c 420d 1c3c 4ed8 a6bc d2ea e7bd
000003d0: f5b1 a9bd 33fd 6bbd 8a04 d13b d09f e9bb
000003e0: 74d4 60b9 54f9 13bc 663f d0bb a0a5 89bb
000003f0: f90c bf3a 9273 243b 14b0 e5bb cd81 01bc

model.2.bias f4 [256]
-0.0020187143 -0.019710394 0.009445279 -0.005473127 0.06633538 0.041198257 -0.035435267 -0.022015192
-0.03202893 0.005807312 0.009775554 0.031637464 -0.046232946 0.019406551 -0.017320903 0.007628821
0.061203547 -0.032389436 -0.0380471 -0.0028655198 -0.05255023 0.004194683 -0.033584733 0.011574278
0.030178584 -0.0030948871 0.011726813 0.051180538 0.027940895 -0.010839853 0.017118348 -0.01948607
-0.022371402 0.045629714 0.0064187353 -0.027028468 0.0256747 -0.026735883 0.04159784 -0.01877515
-0.0029477205 -0.00405351 0.02528222 -0.028595496 -0.03399075 -0.01582597 -0.0001243326 -0.050558295
-0.011827081 0.046140287 -0.038636643 0.03838851 -0.04926588 0.030420853 -0.024663726 -0.016765106
-0.012259676 -0.02205649 -0.009734118 0.057655696 0.0058507887 0.051897373 -0.042377964 -0.03318841
-3.783343e-05 0.015323947 -0.008480498 0.038490456 -0.040982857 0.05401659 0.00822234 0.018997172
-0.0025528122 -0.0048116944 0.015414192 0.042587094 -0.028679715 -0.03706314 0.009953949 -0.03172315
-0.011042373 -0.03322441 -0.028486231 -0.028290523 -0.0076110065 0.022138089 -0.017349597 0.050679743
0.03635271 -0.005704687 0.025923088 -0.0078060594 -0.0010213883 -0.015467711 -0.05460692 0.033906892
-0.062401883 0.010136926 -0.048157703 -0.02248361 0.03784673 -0.034585286 -0.006481065 -0.049709953
-0.0015292708 -0.045862325 -0.0049995934 0.040670395 0.072243154 -0.0008716015 -0.01087555 0.028224826
-6.463696e-05 -0.0114579685 -0.025579588 0.040287044 0.026123373 0.01950342 -0.013113836 -3.2793596e-05
-0.06246416 0.0049278964 0.040269885 -0.008687734 0.030189494 0.043860592 -0.023939831 -0.038242035
0.023497172 -0.008707169 0.0031866357 0.008305134 -0.028953586 -0.0136439055 0.03441315 -0.013939297
0.055366 0.009174283 0.011211452 0.018869678 -0.055322304 0.021191983 0.029973973 0.039751675
-0.03763054 0.015912483 0.013653721 0.00265707 -0.019363187 -0.021817196 -0.012329429 -0.03951517
-0.030005474 -0.037600704 -0.032545716 -0.013211944 -3.3097607e-05 -0.009834906 -0.0054300646 0.049901336
0.03420406 0.043319236 -0.022236135 -1.1939348e-06 -0.050761122 -0.016434325 0.026664406 -0.013594302
0.059205495 0.030278005 -0.00022633323 -0.005256677 0.011620529 -0.034708805 0.06557054 0.006661789
-0.054972447 -0.014413703 -0.014989284 -0.03082258 -0.028443439 -0.0048112837 -0.028854392 0.037030447
-0.010204234 -0.019906327 -0.00040875236 0.04217609 -0.024628315 -0.037993427 0.044841547 -0.024446191
-0.01626722 -0.0006703269 -0.004908719 -0.0132354675 0.056152113 -0.058142316 0.037353154 0.025312506
-0.015860869 -0.0010314252 0.017348493 -0.014570484 0.030737901 0.047155127 -0.03808064 -0.0406592
-0.014256097 0.036701914 0.021233153 -0.048970528 0.028452978 -0.0014983376 -0.0017867798 -0.006846726
-0.008703305 -0.05174579 -0.019183097 -0.04647428 0.0072251107 0.019219333 0.016177628 0.0031400141
-0.055796165 -0.0017412293 -0.0064554024 0.050808392 0.009139042 -0.043984212 0.052778184 0.05888101
-0.0010933843 -0.050315574 3.749081e-05 0.0118152965 0.050503958 -0.0006528835 -0.033536438 -8.231344e-11
-0.024462618 0.05307948 0.037098616 -0.009585666 -0.017868653 -0.013302231 -0.037620157 -0.04045956
0.045194764 0.022039365 -0.008440636 0.035660774 0.04301396 0.03834656 0.01238064 0.015810343
00000000: 684c 04bb b177 a1bc 5fc0 1a3c eb57 b3bb
00000010: d8da 873d 81bf 283d 9224 11bd 3459 b4bc
00000020: c430 03bd 444b be3b a529 203c 4996 013d
00000030: c25e 3dbd 7dfa 9e3c 91e4 8dbc 30fb f93b
00000040: 92b0 7a3d c9aa 04bd 47d7 1bbd 72cb 3bbb
00000050: e93e 57bd 8d73 893b 2590 09bd 0aa2 3d3c
00000060: 1439 f73c 97d3 4abb d221 403c afa2 513d
00000070: 4ee4 e43c a499 31bc c73b 8c3c 40a1 9fbc
00000080: 3b44 b7bc 39e6 3a3d 4154 d23b ce6a ddbc
00000090: c053 d23c 3605 dbbc 7f62 2a3d 58ce 99bc
000000a0: 8b2e 41bb 4ed3 84bb a91c cf3c 1a41 eabc
000000b0: e239 0bbd 77a5 81bc 475f 02b9 3716 4fbd
000000c0: 60c6 41bc 99fd 3c3d 7541 1ebd 453d 1d3d
000000d0: 05cb 49bd 2735 f93c 950b cabc fa56 89bc
000000e0: cfdc 48bc d0af b4bc da7b 1fbc 6128 6c3d
000000f0: f9b7 bf3b 5792 543d 8494 2dbd 92f0 07bd
00000100: 56af 1eb8 4b11 7b3c c9f1 0abc 2ba8 1d3d
00000110: a4dd 27bd 8040 5d3d feb6 063c f59f 9b3c
00000120: 154d 27bb 6bab 9dbb cf8b 7c3c ce6f 2e3d
00000130: b9f1 eabc 85cf 17bd e315 233c 22f0 01bd
00000140: 12eb 34bc 5216 08bd f55b e9bc 87c1 e7bc
00000150: c065 f9bb f05a b53c be20 8ebc 9095 4f3d
00000160: 94e6 143d 62ee babb a85c d43c f9c9 ffbb
00000170: 1be0 85ba 486c 7dbc 81ab 5fbd f4e1 0a3d
00000180: 1e99 7fbd 5915 263c 0341 45bd 8c2f b8bc
00000190: 2c05 1b3d 4da9 0dbd 1d5f d4bb aa9c 4bbd
000001a0: d071 c8ba 22da 3bbd a1d3 a3bb 0096 263d
000001b0: 38f4 933d 307c 64ba 5d2f 32bc c037 e73c
000001c0: b48d 87b8 34ba 3bbc 498c d1bc 0704 253d
000001d0: af00 d63c a3c5 9f3c 6adb 56bc db8b 09b8
000001e0: 6bda 7fbd 317a a13b 09f2 243d ff56 0ebc
000001f0: f54f f73c 2aa7 333d 771d c4bc aea3 1cbd
00000200: 247d c03c 84a8 0ebc e0d6 503b 4212 083c
00000210: 1230 edbc b08a 5fbc cef4 0c3d a661 64bc
00000220: 75c7 623d bb4f 163c 3db0 373c 9594 9a3c
00000230: a499 62bd cf9a ad3c fa8b f53c a7d2 223d
00000240: 7b22 1abd e55a 823c dbb3 5f3c 3d22 2e3b
00000250: 8c9f 9ebc fab9 b2bc 6001 4abc a9da 21bd
00000260: 0ace f5bc 3203 1abd a84e 05bd e976 58bc
00000270: 49d2 0ab8 9622 21bc afee b1bb 5865 4c3d
00000280: 8e19 0c3d 836f 313d 8e28 b6bc 4a3f a0b5
00000290: e5ea 4fbd 47a1 86bc 506f da3c a3ba 5ebc
000002a0: 7681 723d 9409 f83c dd53 6db9 3440 acbb
000002b0: 0864 3e3c d22a 0ebd d949 863d 234b da3b
000002c0: ca2a 61bd 7427 6cbc 9d95 75bc a37f fcbc
000002d0: 3702 e9bc f9a7 9dbb 0c60 ecbc 3dad 173d
000002e0: a92f 27bc 9812 a3bc d04d d6b9 d6c0 2c3d
000002f0: 52c1 c9bc ff9e 1bbd c5ab 373d 6143 c8bc
00000300: d542 85bc e0b8 2fba 52d9 a0bb 93d9 58bc
00000310: c2ff 653d a326 6ebd 9fff 183d 2c5c cf3c
00000320: a7ee 81bc e330 87ba 6d1e 8e3c 0ab9 6ebc
00000330: 0dce fb3c bc25 413d 72fa 1bbd 438a 26bd
00000340: 6892 69bc bf54 163d 26f1 ad3c 5295 48bd
00000350: 3816 e93c de63 c4ba 6232 eaba 805a e0bb
00000360: 4f98 0ebc 65f3 53bd df25 9dbc d15b 3ebd
00000370: 9fc0 ec3b dd71 9d3c f286 843c b2c8 4d3b
00000380: 858a 64bd f639 e4ba d787 d3bb 761c 503d
00000390: ecbb 153c ca28 34bd f02d 583d 372d 713d
000003a0: e44f 8fba b417 4ebd 733f 1d38 f294 413c
000003b0: 3ddd 4e3d 4526 2bba 815d 09bd 5902 b5ae
000003c0: d465 c8bc de69 593d b8f4 173d 320d 1dbc
000003d0: 4861 92bc 9af1 59bc 9817 1abd ecb8 25bd
000003e0: 251e 393d e68b b43c 984a 0abc 0811 123d
000003f0: 682f 303d 4811 1d3d 2bd8 4a3c b184 813c

model.2.weight f4 [256, 256]
-0.005986741 -0.004450445 -0.00572956 -0.0059935455 -0.0059844465 -0.0058964337 -0.0059843804 -0.0
0.0 -0.005848006 -0.005716108 -0.005880381 -0.0 -0.0059888987 -0.0 -0.0059822095
-0.0059820004 -0.005991158 -0.005968963 -0.0059844353 -0.0 -0.0059723263 -0.0059683197 -0.0
-0.0059901155 -0.0059851506 -0.0 -0.0 -0.0059787584 -0.0058186795 -0.005961213 -0.005991218
-0.005982566 -0.0 0.0 -0.005967237 -0.005982338 0.0 -0.0 -0.0059616435
-0.0 -0.0059799096 -0.0059848996 -0.0059875157 -0.0059889965 -0.005989191 -0.0059787016 -0.005686533
-0.0055748783 -0.0059861643 -0.005989715 -0.0059875916 -0.0059807026 -0.0059773005 -0.005989793 -0.0058015664
0.0 -0.0059878584 -0.0059881695 -0.0059796567 -0.0 -0.005177906 -0.005984862 -0.005898812
0.0 -0.0059483075 -0.0059427368 -0.0059858314 -0.005707999 -0.0 -0.0054116026 -0.005978725
-0.005759938 -0.0 -0.0059502907 -0.0059755105 -0.0059786243 -0.005989264 -0.0041366396 -0.005986166
-0.0 -0.0059815985 -0.0056149154 -0.005658013 -0.005982991 -0.0 -0.0059911194 -0.0056214877
-0.0059743044 -0.0 -0.0059855888 -0.005991552 -0.0059620086 -0.0059846723 -0.005985406 -0.0059536793
-0.0059824656 -0.0059860363 -0.005975048 -0.005991068 -0.0059886673 -0.0 -0.0059745163 -0.005983351
-0.00598683 -0.005982999 -0.0059911306 -0.0059638685 -0.005973512 0.0 -0.005973052 -0.0058037206
-0.0056073423 -0.005989662 -0.005975776 -0.0059824283 -0.005970085 -0.0059871883 -0.0059828614 -0.0059778853
-0.0 -0.0059721353 -0.005789739 -0.005972825 -0.005985508 -0.0059877886 -0.00598866 -0.005944015
-0.0057866876 -0.005968508 -0.0059870468 -0.0059810244 -0.005912765 -0.0059845895 -0.0059866207 -0.0059929537
-0.005981244 -0.0 -0.0059875995 -0.005985099 -0.005974063 -0.005987678 -0.0059729987 -0.005989789
-0.0059389886 -0.0 -0.0059810486 0.0 -0.0059561566 -0.0049482267 -0.005974412 -0.0059855804
-0.0 -0.005981514 -0.0059908987 -0.005979256 -0.0059944536 -0.005975297 -0.0059638033 -0.0059789447
-0.0 -0.0059798732 -0.0059771286 -0.005992742 0.0 -0.0 -0.0059919814 -0.0
-0.0042366893 -0.0 -0.005987945 0.0 -0.0059912466 -0.0059877113 -0.0059778616 -0.005971706
-0.00597803 -0.005959961 -0.0059756273 -0.00596048 -0.005977355 -0.005982487 -0.0012997922 -0.0059832837
-0.0059835208 -0.0059933383 -0.0 -0.005989615 -0.0059520868 -0.0059879175 -0.0050496464 -0.0059901383
-0.0 -0.0059881043 -0.0059712753 -0.005961718 -0.005702549 -0.00595679 -0.005960895 -0.0059878537
-0.0059879757 -0.0059814295 -0.005984474 -0.005989928 -0.005980832 -0.0059898985 -0.0059753624 -0.0059777624
-0.0059876917 -0.00598939 -0.005987322 -0.0059912615 -0.0059698927 -0.005990664 -0.0058758515 -0.005980481
0.0 -0.0 -0.005976874 -0.0019919756 -0.005944489 -0.0059920065 -0.0059717265 -0.005988282
-0.005956965 -0.0059844116 -0.0 -0.0058901357 -0.0059849033 -0.0059581813 0.0 -0.005978438
-0.005976829 -0.0059830844 -0.005976632 -0.0059740995 -0.0 -0.005991609 -0.0058995723 -0.005993634
-0.0 0.0 -0.0059872703 -0.0054787747 -0.0059868265 -0.0 -0.0059916764 -0.0057645724
-0.0059786187 -0.0059740744 0.0 -0.0 -0.005817949 -0.005961003 -0.0059848144 -0.0059847846
00000000: 6c2c c4bb 0ad5 91bb 08bf bbbb 8165 c4bb
00000010: 2d19 c4bb df36 c1bb 9f18 c4bb 0000 0080
00000020: 0000 0000 a1a0 bfbb 304e bbbb 36b0 c0bb
00000030: 0000 0080 863e c4bb 0000 0080 6906 c4bb
00000040: a804 c4bb 7a51 c4bb 4a97 c3bb 1519 c4bb
00000050: 0000 0080 81b3 c3bb e591 c3bb 0000 0080
00000060: bb48 c4bb 151f c4bb 0000 0080 0000 0080
00000070: 76e9 c3bb 9faa bebb 4756 c3bb fb51 c4bb
00000080: 6709 c4bb 0000 0080 0000 0000 d088 c3bb
00000090: 7d07 c4bb 0000 0000 0000 0080 e459 c3bb
000000a0: 0000 0080 1ef3 c3bb fa1c c4bb ec32 c4bb
000000b0: 583f c4bb fa40 c4bb fce8 c3bb 1956 babb
000000c0: 78ad b6bb 9627 c4bb 5f45 c4bb 8f33 c4bb
000000d0: c5f9 c3bb 3bdd c3bb 0746 c4bb 111b bebb
000000e0: 0000 0000 cc35 c4bb 6838 c4bb fff0 c3bb
000000f0: 0000 0080 6cab a9bb a91c c4bb d24a c1bb
00000100: 0000 0000 05ea c2bb 4abb c2bb cb24 c4bb
00000110: 2b0a bbbb 0000 0080 d053 b1bb 2ee9 c3bb
00000120: ddbd bcbb 0000 0080 a8fa c2bb 37ce c3bb
00000130: 56e8 c3bb 9741 c4bb a68c 87bb 9a27 c4bb
00000140: 0000 0080 4901 c4bb 53fd b7bb da66 b9bb
00000150: f70c c4bb 0000 0080 2751 c4bb 7534 b8bb
00000160: 19c4 c3bb 0000 0080 c222 c4bb c854 c4bb
00000170: f45c c3bb 121b c4bb 3a21 c4bb 1517 c3bb
00000180: 8f08 c4bb 8326 c4bb 56ca c3bb b950 c4bb
00000190: 953c c4bb 0000 0080 e0c5 c3bb fc0f c4bb
000001a0: 2c2d c4bb 090d c4bb 3f51 c4bb 8e6c c3bb
000001b0: 73bd c3bb 0000 0000 97b9 c3bb 232d bebb
000001c0: ccbd b7bb ed44 c4bb 71d0 c3bb 3f08 c4bb
000001d0: b4a0 c3bb 2d30 c4bb e10b c4bb 23e2 c3bb
000001e0: 0000 0080 e7b1 c3bb dab7 bdbb b0b7 c3bb
000001f0: 1522 c4bb 3635 c4bb 853c c4bb 03c6 c2bb
00000200: 419e bdbb 7993 c3bb fd2e c4bb 78fc c3bb
00000210: debf c1bb 601a c4bb 6a2b c4bb 8a60 c4bb
00000220: 50fe c3bb 0000 0080 a033 c4bb a61e c4bb
00000230: 13c2 c3bb 4934 c4bb 25b9 c3bb fe45 c4bb
00000240: d99b c2bb 0000 0080 acfc c3bb 0000 0000
00000250: dd2b c3bb bc24 a2bb 00c5 c3bb b022 c4bb
00000260: 0000 0080 9400 c4bb 4d4f c4bb a2ed c3bb
00000270: 1f6d c4bb 6dcc c3bb 026c c3bb 06eb c3bb
00000280: 0000 0080 d0f2 c3bb cadb c3bb c35e c4bb
00000290: 0000 0000 0000 0080 6258 c4bb 0000 0080
000002a0: edd3 8abb 0000 0080 8636 c4bb 0000 0000
000002b0: 3852 c4bb 9034 c4bb f0e1 c3bb 4dae c3bb
000002c0: 5ae3 c3bb c74b c3bb 32cf c3bb 2150 c3bb
000002d0: b0dd c3bb bd08 c4bb ca5d aaba 6c0f c4bb
000002e0: 6911 c4bb c463 c4bb 0000 0080 8844 c4bb
000002f0: b909 c3bb 4b36 c4bb 8177 a5bb ec48 c4bb
00000300: 0000 0080 dc37 c4bb b0aa c3bb 845a c3bb
00000310: 73dc babb 2d31 c3bb 9d53 c3bb c235 c4bb
00000320: c836 c4bb deff c3bb 6819 c4bb 2847 c4bb
00000330: dbfa c3bb e946 c4bb f9cc c3bb 1be1 c3bb
00000340: 6634 c4bb a542 c4bb 4c31 c4bb 5852 c4bb
00000350: 179f c3bb 554d c4bb 378a c0bb e9f7 c3bb
00000360: 0000 0000 0000 0080 a7d9 c3bb ce8b 02bb
00000370: fdc9 c2bb 9858 c4bb 79ae c3bb 5a39 c4bb
00000380: a532 c3bb e218 c4bb 0000 0080 0a02 c1bb
00000390: 021d c4bb d93c c3bb 0000 0000 c6e6 c3bb
000003a0: 47d9 c3bb c00d c4bb 9fd7 c3bb 61c2 c3bb
000003b0: 0000 0080 4255 c4bb 3351 c1bb 3f66 c4bb
000003c0: 0000 0080 0000 0000 dd30 c4bb 4b87 b3bb
000003d0: 242d c4bb 0000 0080 d355 c4bb bde4 bcbb
000003e0: 4ae8 c3bb 2bc2 c3bb 0000 0000 0000 0080
000003f0: 7ea4 bebb 8454 c3bb 431c c4bb 031c c4bb

model.4.bias f4 [128]
0.011146192 0.036580537 0.03623981 -0.03884928 -0.03370737 0.06747229 -0.0141304275 0.006983882
-0.017799037 -0.05426958 -0.020020029 0.014462033 -0.03207234 -0.005504577 -0.025779974 0.046041764
-0.03492193 -0.013142131 -0.013491157 -0.06341397 0.0068932157 0.004823856 0.022381172 -0.00027113647
-4.8217244e-05 0.03771731 -0.01106282 0.011771665 0.049132705 -4.056518e-06 0.054328803 0.0020140558
0.06559279 -0.041880928 -7.2387644e-05 -0.00020896971 -0.041735988 0.01131655 -0.03869689 0.0014734985
-0.022658855 0.025063138 0.023045681 0.0111001255 0.033581484 0.0069197817 -0.00031362762 -0.00376303
-0.046602834 -0.0074785287 0.022564631 0.023713896 -0.049519315 -0.00094920123 -0.022268534 -0.015358701
-0.0037182362 -0.009070249 0.008321403 0.006558105 -0.003545493 -0.008306816 -0.010888023 0.020086356
-5.6362774e-07 0.03091658 -0.0018009257 -0.00028899292 -0.05250815 0.037210148 0.028112989 0.020853862
-0.016343571 0.06944145 -0.0055743624 0.027546117 -0.011833978 -0.004868011 0.034514025 -7.610087e-05
-0.00517633 -0.04016699 0.027147537 0.024716422 0.0036974726 0.08708489 -0.033659507 -0.036246046
-0.031991582 0.025004521 -7.1300283e-06 0.04377689 -0.00050300057 -0.029046357 -0.03053028 -0.013980556
-0.07021273 0.049624123 -0.00030316945 0.019778185 0.0076689576 -0.020056317 -0.02805192 0.025113758
-0.030728253 0.015452823 -0.036406916 0.037758406 0.04675717 0.046501268 -3.439905e-08 -0.0007562256
0.012588588 -2.6903002e-05 -0.029289069 0.05804779 0.04099235 0.01180344 0.023526773 0.023976678
-0.0369398 0.07624013 -0.039885554 0.039590303 -0.00013575658 -4.3355108e-06 -0.00051191996 0.010339565
00000000: 859e 363c 79d5 153d 3270 143d 6c20 1fbd
00000010: bd10 0abd e92e 8a3d 4f83 67bc 0cd9 e43b
00000020: 49cf 91bc c749 5ebd 0b01 a4bc 2af2 6c3c
00000030: 495e 03bd bd5f b4bb 8630 d3bc 4a96 3c3d
00000040: 4c0a 0fbd 1852 57bc 040a 5dbc 2fdf 81bd
00000050: 7ce0 e13b 7011 9e3b b858 b73c 5227 8eb9
00000060: df3c 4ab8 777d 1a3d d540 35bc f1dd 403c
00000070: 603f 493d 391d 88b6 e187 5e3d 40fe 033b
00000080: 8355 863d 568b 2bbd d2ce 97b8 e11e 5bb9
00000090: 5bf3 2abd 0d69 393c a180 1ebd 6822 c13a
000000a0: 109f b9bc 3651 cd3c 4cca bc3c 4ddd 353c
000000b0: bd8c 093d 56bf e23b 636e a4b9 2b9d 76bb
000000c0: 9de2 3ebd 720e f5bb 76d9 b83c a543 c23c
000000d0: c4d4 4abd d1d3 78ba 806c b6bc 10a3 7bbc
000000e0: a7ad 73bb 629b 14bc 7e56 083c 5fe5 d63b
000000f0: 805b 68bb 5019 08bc ae63 32bc 248c a43c
00000100: 344c 17b5 c544 fd3c 0a0d ecba f983 97b9
00000110: c912 57bd ab69 183d 364d e63c b8d5 aa3c
00000120: f4e2 85bc 5237 8e3d 24a9 b6bb 65a8 e13c
00000130: 4de3 41bc d683 9fbb 945e 0d3d 5898 9fb8
00000140: 349e a9bb 2486 24bd 8364 de3c 187a ca3c
00000150: 4c51 723b 9059 b23d 8dde 09bd bc76 14bd
00000160: 9b09 03bd 48d6 cc3c 7a3e efb6 654f 333d
00000170: ccdb 03ba a0f2 edbc a31a fabc b40e 65bc
00000180: b1cb 8fbd aa42 4b3d b7f2 9eb9 dc05 a23c
00000190: e14b fb3b 254d a4bc 24cd e5bc 5ebb cd3c
000001a0: d1b9 fbbc d62d 7d3c 6b1f 15bd 8fa8 1a3d
000001b0: 7284 3f3d 1d78 3e3d 28be 13b3 713d 46ba
000001c0: 5d40 4e3c c2ad e1b7 a1ef efbc 85c3 6d3d
000001d0: 98e7 273d 3763 413c 38bb c03c bd6a c43c
000001e0: 304e 17bd c923 9c3d 095f 23bd 7129 223d
000001f0: e159 0eb9 c179 91b6 5e32 06ba 4767 293c

model.4.weight f4 [128, 256]
0.005687353 -0.03310882 -0.015215947 0.028661683 0.013127297 -0.03438986 0.055232573 -0.044458576
0.028192265 -0.0051763356 -0.014566752 0.03195737 0.0046159667 -0.017696429 -0.022608751 -0.0118880905
-0.017430842 0.00026616146 0.012114878 0.00013806675 -0.011159977 -0.04183369 0.03759804 0.027547741
0.0037280333 0.03817777 -0.038654238 -0.015925014 0.07104162 0.028464286 0.025506811 -0.050106518
0.037124354 0.011474254 0.057320822 0.051805537 -0.015679993 -0.02548224 -0.018368337 0.026011044
-0.015754936 -0.00055937364 0.005569025 0.046098787 0.044424955 0.03893613 -6.6546336e-06 0.034273803
-0.027285092 0.029298592 0.051086236 -0.052903794 0.054953117 0.04143292 -0.039400626 0.098589815
0.03324935 -0.016244091 0.013741741 -0.021724036 0.06146278 -0.004273086 -0.04199604 0.013643895
2.7621618e-07 -0.02096795 -0.017521521 0.040889613 0.06273049 0.027487095 -0.036436778 0.028098473
0.009905334 0.024010377 0.029062737 0.021037776 -0.027035031 0.0027464991 -0.05206866 0.035142615
-0.045111783 -0.02409103 0.06459274 0.07907116 0.00043521874 0.0034517003 -0.012467114 -0.03139777
-0.0016795245 0.005371824 0.06808213 -0.012237051 0.05517153 0.004685998 -0.032848265 -0.023590704
0.07197445 0.0059647504 0.0010689235 0.013348661 -0.047466893 0.049115937 -0.0019190944 0.0140057895
3.6701294e-07 -0.043076195 0.064389676 0.03190066 -0.04719961 0.0002665887 0.08144595 0.0063255113
-0.012317257 0.004141266 0.03255531 0.0010413679 -0.023546353 0.07189871 -0.014242138 -2.2677846e-06
0.017751709 -0.04263053 0.0722935 -0.007810983 -0.025576219 -0.015988123 -0.049165934 0.01546954
-0.0038762921 0.031905305 0.025056658 0.021266753 -0.005474986 -0.044081684 0.05104508 0.0632738
0.051242117 0.057645485 0.06671038 0.016345484 0.029466042 -0.038490057 0.03965252 0.0061735
-0.019609122 0.04714903 0.010700686 -0.046968523 0.04451587 0.054736555 0.024911484 0.019082466
0.081139244 0.04405819 0.043021277 -0.047733802 -3.8947883e-06 -0.05375317 -0.00012463452 0.011137315
0.014286199 0.05997358 0.02999976 -3.2061738e-08 -0.02853477 -0.00834027 4.7377063e-05 0.065183304
8.492255e-05 0.010158366 0.0007897214 0.0037690415 -0.027034065 0.03247917 0.03269328 -0.020807665
0.039082818 -0.037682753 0.033035196 -0.03233765 0.00074043113 0.044192526 -0.0096943155 0.060408164
0.0017445649 -0.0001581683 8.890907e-05 0.06905719 -0.02961016 0.040629487 -0.05911498 -0.0123632075
0.01524015 0.00060886773 -0.039878357 -0.009325297 0.009327904 -0.027376087 8.749396e-05 0.06601289
0.06951589 7.388943e-05 0.017780825 -6.8469913e-06 -0.03647977 0.052561805 -0.00910201 0.0422557
0.025877394 0.055668026 -0.040810134 0.021556793 0.038030557 -0.00030315385 0.0012924536 -0.051297825
0.030232646 -0.06507721 0.015015242 0.074547336 0.06525468 0.058723267 0.046109337 0.055857103
-0.024091754 0.037383534 0.0001868685 7.8096884e-05 -0.032221477 -0.03435533 -0.006794729 -0.012853878
-4.19689e-05 -0.03081216 -0.0017855859 -0.027249986 -0.03869941 -5.5723257e-09 -0.021930624 1.2332787e-12
0.042262968 0.023974774 0.05592418 0.0002963778 0.007850469 0.040693615 -0.029763902 -0.013845992
-0.0474073 -0.035717692 0.038604893 0.07410166 0.043193504 -0.0017401938 -0.019230176 -0.014815105
00000000: fa5c ba3b 1d9d 07bd 4f4c 79bc e8cb ea3c
00000010: e013 573c 62dc 0cbd 8d3b 623d 321a 36bd
00000020: 77f3 e63c 409e a9bb 63a9 6ebc bbe5 023d
00000030: 8941 973b 1af8 90bc fd35 b9bc 44c6 42bc
00000040: 20cb 8ebc 968b 8b39 7b7d 463c 03c6 1039
00000050: 56d8 36bc ce59 2bbd 6700 1a3d cdab e13c
00000060: 0552 743b 4b60 1c3d e853 1ebd 2d75 82bc
00000070: 457e 913d ef2d e93c a9f3 d03c 7e3c 4dbd
00000080: b50f 183d 82fe 3b3c 3dc9 6a3d 0b32 543d
00000090: 5473 80bc 21c0 d0bc 3279 96bc 1d15 d53c
000000a0: 7f10 81bc eea2 12ba 5e7c b63b 15d2 3c3d
000000b0: f1f6 353d 7e7b 1f3d de4a dfb6 b062 0c3d
000000c0: fc84 dfbc 9a03 f03c cd3f 513d a6b1 58bd
000000d0: 8516 613d 91b5 293d 8d62 21bd 75e9 c93d
000000e0: 7830 083d 5412 85bc 0a25 613c 9bf6 b1bc
000000f0: 65c0 7b3d 3e05 8cbb 0a04 2cbd a58a 5f3c
00000100: dd4a 9434 fac4 abbc 4b89 8fbc de7b 273d
00000110: d878 803d 9e2c e13c bb3e 15bd c52e e63c
00000120: fb49 223c 69b1 c43c fa14 ee3c 6a57 ac3c
00000130: 9278 ddbc 9cfe 333b f245 55bd b4f1 0f3d
00000140: 22c7 38bd 8d5a c5bc 3349 843d 0ff0 a13d
00000150: 122e e439 ec35 623b de42 4cbc f39a 00bd
00000160: 7e23 dcba 2006 b03b a56e 8b3d e97d 48bc
00000170: 8bfb 613d 008d 993b e78b 06bd 4b41 c1bc
00000180: 5767 933d f473 c33b 1f1b 8c3a 58b4 5a3c
00000190: a56c 42bd cb2d 493d 1f8a fbba 8a78 653c
000001a0: e009 c534 aa70 30bd bcde 833d 44aa 023d
000001b0: 6154 41bd eec4 8b39 22cd a63d 3c46 cf3b
000001c0: 52ce 49bc 75b3 873b b758 053d 827e 883a
000001d0: 48e4 c0bc a23f 933d db57 69bc 3e30 18b6
000001e0: 086c 913c 5a9d 2ebd 9d0e 943d 46f3 ffbb
000001f0: 3885 d1bc 86f9 82bc 3862 49bd f473 7d3c
00000200: 6409 7ebb 23af 023d 9f43 cd3c 9d37 ae3c
00000210: 8367 b3bb ff8e 34bd a514 513d b295 813d
00000220: 41e3 513d ac1d 6c3d 749f 883d f7e6 853c
00000230: c562 f13c c0a7 1dbd ae6a 223d 124b ca3b
00000240: 4fa3 a0bc 571f 413d ee51 2f3c 1162 40bd
00000250: 4656 363d 7033 603d 2b13 cc3c d552 9c3c
00000260: 552c a63d 5c76 343d 1437 303d 8584 43bd
00000270: faaf 82b6 492c 5cbd 53b0 02b9 4979 363c
00000280: a910 6a3c dba6 753d 0fc2 f53c 41b4 09b3
00000290: c0c1 e9bc a1a5 08bc bcb6 4638 d37e 853d
000002a0: 7218 b238 466f 263c 4e05 4f3a 0602 773b
000002b0: 8b76 ddbc e108 053d 64e9 053d d674 aabc
000002c0: 4e15 203d 3b59 1abd ea4f 073d 7c74 04bd
000002d0: 7e19 423a 3903 353d e8d4 1ebc 8d6e 773d
000002e0: e2a9 e43a fbd9 25b9 b274 ba38 db6d 8d3d
000002f0: 0291 f2bc 1b6b 263d 8d22 72bd 0d8f 4abc
00000300: d2b1 793c 6c9c 1f3a 7d57 23bd 21c9 18bc
00000310: 11d4 183c d143 e0bc f67c b738 c431 873d
00000320: 595e 8e3d 16f5 9a38 18a9 913c 35bf e5b6
00000330: d06b 15bd 0c4b 573d 9920 15bc 5014 2d3d
00000340: d4fc d33c 2804 643d 8728 27bd df97 b03c
00000350: eec5 1b3d 9ff0 9eb9 8c67 a93a ab1d 52bd
00000360: 74aa f73c 3347 85bd 7d02 763c 46ac 983d
00000370: 3fa4 853d cf87 703d 25dd 3c3d 6bca 643d
00000380: 125c c5bc 7a1f 193d 22f2 4339 f2c7 a338
00000390: abfa 03bd 2db8 0cbd 51a6 debb 1299 52bc
000003a0: c307 30b8 c869 fcbc 520a eaba 5d3b dfbc
000003b0: 4683 1ebd b276 bfb1 daa7 b3bc 8c91 ad2b
000003c0: ef1b 2d3d bf66 c43c c110 653d 2863 9b39
000003d0: 419f 003c 59ae 263d 6dd3 f3bc 4dda 62bc
000003e0: 282e 42bd b74c 12bd 2a20 1e3d 9cc2 973d
000003f0: aceb 303d 3717 e4ba 9a88 9dbc 0ebb 72bc

model.6.bias f4 [128]
-1.1322586e-06 -0.033917554 -0.0023760942 -9.753239e-10 -6.5156764e-06 0.008525842 0.04600936 0.06836745
-0.052511968 0.012687313 -0.0027590794 -0.010231057 -0.08180407 0.02297029 0.007725943 -0.0003479253
0.049859874 -0.0039540087 0.09072782 -0.024746943 -0.0037729025 -5.9365033e-09 -0.084696844 0.00057194347
-0.0074890424 -0.023895958 0.054440472 0.042851437 0.077588804 0.0025382068 0.10582937 -0.06553023
-0.0034029614 -0.004028272 -0.007796507 -0.045782775 0.007595887 -0.038840942 -0.061286233 -0.004501921
-0.007535591 -0.07761333 -0.021610094 0.09965686 -0.0033114606 -0.058419026 0.007300054 -0.005790404
0.014348057 0.08611127 -0.00057733647 0.10041426 0.04091667 -0.062080625 0.04878 -0.005580765
0.08489624 -0.02906066 0.012397393 0.060956713 0.0365858 0.009560447 -0.05837645 -0.059192467
-0.011911369 -0.023255493 -0.04528694 0.027128436 -1.1209745e-05 0.0051944233 -0.0044060377 -0.02952925
0.038666513 0.026471797 -0.025594346 -0.047832903 0.0030538575 -0.023618992 -0.054858815 -0.023407638
-0.01846831 -0.042702597 -0.04337335 0.09391197 -0.057805765 -0.007116326 0.021615269 -0.015466188
-0.0006119217 -0.030142222 0.05933701 0.037430905 0.023063358 0.008879143 -0.0101946555 0.04004391
0.0037427088 -0.004309141 -0.0065880073 0.029661283 0.029935049 -0.039673697 -0.005004293 -0.049484402
-0.021632683 -0.010515505 0.060558647 -0.035106264 0.039781433 -0.023412667 -0.04242153 -0.0032912411
-0.018373258 0.04207513 -2.9922333e-07 -1.0226273e-06 -0.0073845293 -0.015699284 -0.0026462448 0.012199103
-0.0012493067 -0.021817906 -0.019890474 0.048281386 -0.0014376306 0.039483745 0.011365203 0.029181805
00000000: 1cf8 97b5 22ed 0abd 3fb8 1bbb 290c 86b0
00000010: 3ca1 dab6 f9af 0b3c 5074 3c3d 3c04 8c3d
00000020: ca16 57bd 73de 4f3c acd1 34bb 2aa0 27bc
00000030: e488 a7bd 312c bc3c e829 fd3b be69 b6b9
00000040: de39 4c3d a190 81bb 82cf b93d 1aba cabc
00000050: cd42 77bb 09fa cbb1 8a75 adbd 7aee 153a
00000060: a466 f5bb 75c1 c3bc f9fc 5e3d fd84 2f3d
00000070: e1e6 9e3d 0b58 263b 12bd d83d b734 86bd
00000080: 3804 5fbb 98ff 83bb d779 ffbb b886 3bbd
00000090: ebe6 f83b ae17 1fbd 4607 7bbd da84 93bb
000000a0: 1eed f6bb bdf3 9ebd a707 b1bc e518 cc3d
000000b0: 1705 59bb ca48 6fbd 4b35 ef3b 6ebd bdbb
000000c0: 1d14 6b3c 1b5b b03d 6558 17ba fea5 cd3d
000000d0: 3d98 273d 4148 7ebd 8acd 473d dade b6bb
000000e0: 14de ad3d 9f10 eebc 6f1e 4b3c bfad 793d
000000f0: feda 153d 6ca3 1c3c 251c 6fbd cd73 72bd
00000100: e727 43bc 4e82 bebc cc7e 39bd 743c de3c
00000110: 7d11 3cb7 fb35 aa3b 8660 90bb 53e7 f1bc
00000120: c760 1e3d 62db d83c 3cab d1bc 6fec 43bd
00000130: 3a23 483b 9e7c c1bc a3b3 60bd 60c1 bfbc
00000140: da4a 97bc ebe8 2ebd 41a8 31bd eb54 c03d
00000150: bdc5 6cbd 1230 e9bb 8112 b13c e565 7dbc
00000160: 5f69 20ba d2ec f6bc 5d0b 733d 2651 193d
00000170: 5eef bc3c d379 113c 7c07 27bc 1505 243d
00000180: 3c48 753b b233 8dbb 36e0 d7bb 38fc f23c
00000190: 593a f53c e380 22bd 0dfb a3bb 28b0 4abd
000001a0: 0637 b1bc 3a49 2cbc 580c 783d 96cb 0fbd
000001b0: dbf1 223d eccb bfbc 33c2 2dbd ddb1 57bb
000001c0: 8483 96bc f956 2c3d f1a4 a0b4 3541 89b5
000001d0: ecf9 f1bb c99b 80bc 9f6c 2dbb bfde 473c
000001e0: c7bf a3ba 77bb b2bc 59f1 a2bc b4c2 453d
000001f0: e16e bcba b5b9 213d 1e35 3a3c ae0e ef3c

model.6.weight f4 [128, 128]
-0.0 0.0 -0.0 -0.0 -0.0 0.0 0.0 0.0
-0.0 0.0 -0.0 -0.0 -0.0 -0.0 -0.0 0.0
-0.0 0.0 -0.0 0.0 -0.0 0.0 0.0 0.0
-0.0 -0.0 -0.0 -0.0 0.0 0.0 0.0 0.0
-0.0 0.0 -0.0 0.0 0.0 -0.0 -0.0 -0.0
0.0 0.0 -0.0 0.0 -0.0 -0.0 0.0 -0.0
0.0 0.0 0.0 -0.0 0.0 0.0 0.0 0.0
0.0 0.0 -0.0 -0.0 0.0 0.0 0.0 -0.0
0.0 0.0 -0.0 -0.0 0.0 -0.0 0.0 -0.0
0.0 -0.0 -0.0 -0.0 0.0 0.0 -0.0 -0.0
0.0 0.0 -0.0 0.0 0.0 0.0 -0.0 -0.0
0.0 0.0 0.0 -0.0 -0.0 0.0 0.0 -0.0
-0.0 0.0 -0.0 0.0 -0.0 0.0 -0.0 0.0
0.0 0.0 -0.0 0.0 0.0 0.0 0.0 0.0
0.0 -0.0 -0.0 -0.0 -0.0 -0.0 -0.0 -0.0
0.0 0.0 0.0 0.0 0.0 -0.0 0.0 0.0
0.06443515 -0.039055403 -0.042663828 0.05741964 0.05488456 0.027346414 0.07440926 -0.03677054
0.012087834 0.0033432592 0.009970402 0.040502936 0.056555286 -0.0048921625 0.075823925 0.0071737077
-0.03204326 0.021578291 0.024922788 0.015204247 -0.037068546 0.07463986 0.046775274 -9.019956e-08
2.853693e-08 0.07084902 -0.0022191422 -0.044439986 0.039001234 7.148134e-19 -0.025226455 -0.0041177357
0.01054375 0.012987374 3.2403968e-10 7.628341e-09 -0.007932012 -0.010625252 0.0048964745 0.004627363
0.06097321 0.06280154 0.0042269775 -0.015236047 -0.020690372 -0.020912157 -2.183801e-17 0.00045317106
-0.0069883605 -0.0051809484 -0.032563183 0.037375826 -0.05841927 0.005119536 0.05888402 0.0025862164
2.9582606e-20 2.4585384e-10 0.0045982683 0.03402563 -0.006123788 -0.00033097167 0.0014280204 -0.00010145399
-3.5757473e-20 0.0066406513 7.0690894e-20 1.9711525e-13 -0.03491388 0.064945556 -0.003518955 -0.034277588
0.012273489 -0.026467197 0.011356505 -0.05806081 0.047151648 0.07178767 0.0018181572 -0.0137846675
-1.7293943e-19 0.03054151 -0.035565697 0.03093795 0.040457696 0.028875368 -0.020919599 0.0028483109
-0.0013375054 0.03949932 2.0464204e-15 -0.038042285 -2.9018238e-05 0.01003759 -0.009604445 0.01676803
0.01787312 -0.009340223 2.484532e-18 -0.031130893 -0.033682182 0.00083919347 0.06990278 -0.04506058
0.023494337 0.05829841 0.010190687 -0.036257494 0.024617067 -0.0014318919 -1.3846802e-16 -7.348409e-07
-0.05491127 3.5327037e-08 0.0063461065 -0.027359074 -0.05525264 0.070701 -0.00716381 -0.0051098503
0.05158688 0.07376482 -0.030844433 0.028736902 0.024617493 -1.5404693e-06 -0.024991315 0.05114564
00000000: 0000 0080 0000 0000 0000 0080 0000 0080
00000010: 0000 0080 0000 0000 0000 0000 0000 0000
00000020: 0000 0080 0000 0000 0000 0080 0000 0080
00000030: 0000 0080 0000 0080 0000 0080 0000 0000
00000040: 0000 0080 0000 0000 0000 0080 0000 0000
00000050: 0000 0080 0000 0000 0000 0000 0000 0000
00000060: 0000 0080 0000 0080 0000 0080 0000 0080
00000070: 0000 0000 0000 0000 0000 0000 0000 0000
00000080: 0000 0080 0000 0000 0000 0080 0000 0000
00000090: 0000 0000 0000 0080 0000 0080 0000 0080
000000a0: 0000 0000 0000 0000 0000 0080 0000 0000
000000b0: 0000 0080 0000 0080 0000 0000 0000 0080
000000c0: 0000 0000 0000 0000 0000 0000 0000 0080
000000d0: 0000 0000 0000 0000 0000 0000 0000 0000
000000e0: 0000 0000 0000 0000 0000 0080 0000 0080
000000f0: 0000 0000 0000 0000 0000 0000 0000 0080
00000100: 0000 0000 0000 0000 0000 0080 0000 0080
00000110: 0000 0000 0000 0080 0000 0000 0000 0080
00000120: 0000 0000 0000 0080 0000 0080 0000 0080
00000130: 0000 0000 0000 0000 0000 0080 0000 0080
00000140: 0000 0000 0000 0000 0000 0080 0000 0000
00000150: 0000 0000 0000 0000 0000 0080 0000 0080
00000160: 0000 0000 0000 0000 0000 0000 0000 0080
00000170: 0000 0080 0000 0000 0000 0000 0000 0080
00000180: 0000 0080 0000 0000 0000 0080 0000 0000
00000190: 0000 0080 0000 0000 0000 0080 0000 0000
000001a0: 0000 0000 0000 0000 0000 0080 0000 0000
000001b0: 0000 0000 0000 0000 0000 0000 0000 0000
000001c0: 0000 0000 0000 0080 0000 0080 0000 0080
000001d0: 0000 0080 0000 0080 0000 0080 0000 0080
000001e0: 0000 0000 0000 0000 0000 0000 0000 0000
000001f0: 0000 0000 0000 0080 0000 0000 0000 0000
00000200: 93f6 833d 8ff8 1fbd 44c0 2ebd db30 6b3d
00000210: a2ce 603d 9605 e03c e263 983d b59c 16bd
00000220: 0d0c 463c 951a 5b3b e65a 233c 68e6 253d
00000230: 84a6 673d 6f4e a0bb 9349 9b3d 6c11 eb3b
00000240: cb3f 03bd f5c4 b03c e02a cc3c 3c1b 793c
00000250: 30d5 17bd c8dc 983d 6e97 3f3d bcb3 c1b3
00000260: 5f21 f532 4a19 913d 076f 11bb b406 36bd
00000270: c2bf 1f3d c6f9 5221 b6a7 cebc 12ee 86bb
00000280: b1bf 2c3c ffc8 543c 8824 b22f cc0d 0332
00000290: 45f5 01bc 8915 2ebc 9b72 a03b 22a1 973b
000002a0: 0bbf 793d 189e 803d 7582 8a3b 9da0 79bc
000002b0: db7e a9bc f94f abbc 8b6b c9a3 9797 ed39
000002c0: 9efe e4bb f2c4 a9bb f960 05bd 6517 193d
000002d0: 0b49 6fbd c8c1 a73b 5f30 713d 837d 293b
000002e0: 2db3 0b1f da28 872f 12ad 963b 765e 0b3d
000002f0: 0faa c8bb 4486 adb9 6a2c bb3a b2c3 d4b8
00000300: 22dc 289f d299 d93b 06ea a61f 9aee 5d2a
00000310: db01 0fbd 2d02 853d 459e 66bb a866 0cbd
00000320: be16 493c bcd1 d8bc a210 3a3c 2cd1 6dbd
00000330: 1622 413d 6a05 933d 3b4f ee3a 16d9 61bc
00000340: bc2b 4ca0 3032 fa3c 56ad 11bd 9571 fd3c
00000350: f8b6 253d 098c ec3c 945f abbc baaa 3a3b
00000360: 3c4f afba 0aca 213d cb75 1327 3ad2 1bbd
00000370: 316c f3b7 b474 243c f65b 1dbc 1c5d 893c
00000380: a66a 923c bc07 19bc 7c53 3722 3706 ffbc
00000390: 54f6 09bd 52fd 5b3a 3029 8f3d 7191 38bd
000003a0: 3277 c03c 50ca 6e3d d7f6 263c bd82 14bd
000003b0: bba9 c93c 52ae bbba 8ca4 1fa5 e241 45b5
000003c0: a4ea 60bd 7dba 1733 00f3 cf3b 2320 e0bc
000003d0: 9850 62bd b0cb 903d 65be eabb 8870 a7bb
000003e0: c44c 533d 0312 973d 77ad fcbc a769 eb3c
000003f0: a0aa c93c 1fc2 ceb5 96ba ccbc 177e 513d

model.8.bias f4 [64]
-0.058669962 -0.060971946 0.023338279 -0.022516767 -0.0121119665 0.06121005 -0.0005255914 0.05026987
-0.007066917 0.06996253 0.015633656 -0.050481167 -0.0070825536 0.031555623 -0.08742461 0.028977487
-0.07511155 -0.047792755 0.019785346 0.01456973 0.026462547 -0.05239732 -0.02444596 -3.2563064e-06
-0.012076342 0.052636173 0.035800334 0.08313762 0.114343986 -0.07155968 -0.06366287 -0.005037596
0.069512285 -4.2880233e-06 0.0056222687 -0.005608643 -0.021452779 0.033968136 -0.07428283 -0.010953244
-0.022327634 0.08132083 0.06550369 -0.056451943 -0.048112065 -0.06466936 0.07507088 0.028721571
-0.0041033276 0.02967807 -0.012364587 0.037194192 0.06939297 0.06580128 -0.015648225 -0.064333804
-0.035433274 0.009777856 0.06217296 0.020193903 0.074242935 0.042292092 0.06334757 0.01101722
00000000: ea4f 70bd b8bd 79bd eb2f bf3c 1575 b8bc
00000010: 4571 46bc 64b7 7a3d d7c7 09ba c7e7 4d3d
00000020: 9991 e7bb 8448 8f3d 2712 803c 57c5 4ebd
00000030: c414 e8bb 7840 013d ad0b b3bd 3262 ed3c
00000040: 16d4 99bd 56c2 43bd e114 a23c e0b5 6e3c
00000050: fcc7 d83c 929e 56bd e542 c8bc eb86 5ab6
00000060: d9db 45bc 0799 573d 5fa3 123d 0e44 aa3d
00000070: 2e2d ea3d e28d 92bd ae61 82bd 6b12 a5bb
00000080: 755c 8e3d d7e1 8fb6 023b b83b b5c8 b7bb
00000090: bdbd afbc 2c22 0b3d 9921 98bd 3c75 33bc
000000a0: 71e8 b6bc 898b a63d cc26 863d 273a 67bd
000000b0: 2811 45bd 5f71 84bd c3be 993d 8049 eb3c
000000c0: 3575 86bb 6d1f f33c d694 4abc f058 183d
000000d0: e71d 8e3d d2c2 863d b530 80bc 71c1 83bd
000000e0: 7b22 11bd 4d33 203c 13a9 7e3d af6d a53c
000000f0: ae0c 983d 793a 2d3d 5fbc 813d 9281 343c
