Simulation_MLP/models_AME/Struct_Prune.pth (torch, 777482 bytes, 15 tensors)

model.0.bias f4 [256]
-0.008197239 0.0032472804 0.025066419 0.031123467 -0.028329546 -0.03598598 0.053596865 -0.03626477
-0.02930131 0.045085493 0.023829544 0.057156235 -0.030402392 0.036452185 -0.008109174 0.0024114035
-0.03674065 -0.057519168 0.024768498 0.027206864 -0.020660516 -0.035209097 -0.06041562 -0.005563671
0.008199322 -0.029775694 -0.06886063 -0.005850784 -0.0051475493 0.0377636 -0.043230772 -0.0052202423
-0.05038105 -0.05772405 -0.07035099 0.00688943 -0.04606979 -0.03445838 -0.055635277 0.016940877
-0.04857623 -0.020900173 0.045527447 0.03531351 0.022018546 0.002920302 0.014952224 0.021477176
0.015511355 0.033787567 -0.05372023 0.038949266 0.0136527335 0.0146688055 -0.046441365 0.034464326
-0.041973203 0.05188261 -0.020386016 -0.060385242 -0.013123942 0.007353141 -0.022771403 -0.03902072
-0.046278752 0.02027213 0.019716036 -0.069936916 0.023137875 -0.03500954 0.010831172 0.009733895
0.02835876 -0.038970638 -0.028991437 -0.052181266 0.010404023 -0.022472069 0.0024737488 0.004942988
-0.042374633 -0.026568443 0.017257731 0.019588118 0.017533878 -0.054713085 0.022366256 0.01757944
-0.024209319 -0.079189725 -0.0018845969 -0.027491821 0.03787867 0.015158012 0.014271245 -0.040657897
0.07178733 -0.030420804 0.012738133 0.013187696 0.0068593756 -0.09363451 -0.059205268 0.005315926
0.035469647 -0.004453471 -0.014404903 -0.03067132 -0.0008386171 -0.008779182 0.010185653 0.034849454
0.01690049 -0.06975687 -0.017684177 -0.0135140205 -0.051962312 0.0078103854 0.044574432 -0.03585536
-0.04245713 -0.07600353 0.032489873 0.005196293 0.0013914297 -0.037366107 0.015661528 -0.06374653
0.032014865 -0.016926391 -0.0023439443 0.0025823917 0.03565882 0.0021031748 0.0073350384 0.036012366
0.009100067 -0.020436602 0.07463596 0.04613207 -0.030791877 0.024950795 -0.008336203 0.011538559
0.042557683 -0.06155825 -0.07421636 -0.045743898 0.0033275536 0.005439618 -0.012807633 -0.0086970525
-0.032234162 0.005835004 -0.015199649 0.004853551 -0.030670185 0.045520153 0.0035795388 -0.0017653953
-0.05458676 0.034828365 -0.007952878 0.032287676 -0.0012238998 -0.04960185 0.027733654 -0.011536759
0.0026898454 -0.0014091566 -0.012928086 -0.024461519 -0.033967726 -0.0062858984 1.3926867e-05 -0.03001254
-0.03119423 -0.022490406 -0.047053777 -0.050879646 0.03983143 0.016971514 0.0002689374 0.0043500033
0.0040550963 -0.0026366971 -0.01516153 0.057118364 -0.028356705 -0.046533916 0.0061702947 -0.039079137
-0.08146117 0.013636691 -0.015934777 0.019934626 0.0226938 -0.013521098 0.021505186 -0.039592247
-0.018274415 0.039469503 0.0068596955 0.051254157 -0.005125208 0.029251464 0.023158103 -0.042356286
0.03726916 0.04538485 0.07582207 0.041094624 0.03441403 0.015756175 -0.0691124 0.07170175
-0.050511457 -0.00807074 -0.015107357 0.0004998735 0.024264943 0.031351518 0.009234338 -0.02332098
0.04487573 0.012052604 -0.023847584 -0.024729514 0.04751147 -0.012755651 -0.041920118 0.0331145
-0.065538004 -0.038370773 0.00075407437 0.045666147 -0.019418463 0.011357038 0.06779469 0.048861098
-0.08733507 -0.027028322 -0.058853023 0.012404495 0.024101812 -0.048340093 0.033986304 0.028934062
-0.013637304 0.024432147 -0.009499387 -0.023746705 0.0376107 -0.009163688 -0.00638004 0.049639788
00000000: b64d 06bc 53d0 543b 1758 cd3c a4f6 fe3c
00000010: 5d13 e8bc 0966 13bd 6388 5b3d 5e8a 14bd
00000020: 4d09 f0bc 91ab 383d 2d36 c33c a81c 6a3d
00000030: 700e f9bc e34e 153d 57dc 04bc a308 1e3b
00000040: 5d7d 16bd 3899 6bbd 4ee7 ca3c eee0 de3c
00000050: 3e40 a9bc 6a37 10bd 5f76 77bd 744f b6bb
00000060: 7356 063c 28ec f3bc cd06 8dbd efb7 bfbb
00000070: c6ac a8bb 01ae 1a3d c012 31bd 910e abbb
00000080: 5c5c 4ebd 0e70 6cbd 2e14 90bd bac0 e13b
00000090: adb3 3cbd 3b24 0dbd d1e1 63bd 98c7 8a3c
000000a0: def7 46bd d736 abbc fd7a 3a3d e6a4 103d
000000b0: 3d60 b43c 8a62 3f3b 2cfa 743c e7f0 af3c
000000c0: 5723 7e3c d564 0a3d be09 5cbd 4489 1f3d
000000d0: b7af 5f3c 6e55 703c 4d39 3ebd 772a 0d3d
000000e0: 18ec 2bbd dc82 543d 9300 a7bc 8456 77bd
000000f0: cd05 57bc 9ef2 f03b 188b babc 31d4 1fbd
00000100: ca8e 3dbd bd11 a63c 8683 a13c 163b 8fbd
00000110: a48b bd3c 2a66 0fbd 3a75 313c ea7a 1f3c
00000120: a150 e83c ad9f 1fbd 737f edbc 06bc 55bd
00000130: a375 2a3c 5817 b8bc 9e1e 223b caf8 a13b
00000140: 0691 2dbd 10a6 d9bc 1660 8d3c 4377 a03c
00000150: 35a3 8f3c d41a 60bd 7039 b73c c202 903c
00000160: 9f52 c6bc 392e a2bd 9404 f7ba 8736 e1bc
00000170: aa26 1b3d 4f59 783c f1d1 693c e588 26bd
00000180: 3c05 933d 0d35 f9bc 9ab3 503c 3511 583c
00000190: 9dc4 e03b 73c3 bfbd 3981 72bd 3831 ae3b
000001a0: 9f48 113d 6cee 91bb 8b02 6cbc 6c42 fbbc
000001b0: a4d6 5bba 8fd6 0fbc bae1 263c 4dbe 0e3d
000001c0: e572 8a3c b1dc 8ebd 68de 90bc e969 5dbc
000001d0: 6fd6 54bd 43ee ff3b ae93 363d 12dd 12bd
000001e0: 87e7 2dbd bda7 9bbd 1a14 053d aa45 aa3b
000001f0: a260 b63a 340d 19bd 9b4c 803c 8a8d 82bd
00000200: 0522 033d 37a9 8abc dc9c 19bb 583d 293b
00000210: fc0e 123d 6bd5 093b c35a f03b b481 133d
00000220: 7318 153c a96a a7bc bdda 983d fbf4 3c3d
00000230: 3f3f fcbc 9c65 cc3c 9294 08bc 390c 3d3c
00000240: f750 2e3d 8124 7cbd bffe 97bd f45d 3bbd
00000250: 1613 5a3b d33e b23b 1bd7 51bc 157e 0ebc
00000260: f807 04bd 9033 bf3b f307 79bc 890a 9f3b
00000270: 0a40 fbbc 5773 3a3d b296 6a3b d664 e7ba
00000280: 5e96 5fbd 30a8 0e3d ca4c 02bc 1540 043d
00000290: 436b a0ba 4f2b 4bbd b031 e33c ad04 3dbc
000002a0: 1e48 303b 73b3 b8ba 53d0 53bc 8663 c8bc
000002b0: be21 0bbd f0f9 cdbb 70a7 6937 dcdc f5bc
000002c0: 0b8b ffbc cd3d b8bc 76bb 40bd 2d67 50bd
000002d0: 4826 233d d807 8b3c 2b00 8d39 798a 8e3b
000002e0: 9de0 843b 70cc 2cbb 1168 78bc f2f4 693d
000002f0: 524c e8bc 599a 3ebd 2f30 ca3b 7211 20bd
00000300: 1dd5 a6bd 6d6c 5f3c a689 82bc f14d a33c
00000310: 59e8 b93c 9887 5dbc a52b b03c 7b2b 22bd
00000320: 3ab4 95bc c6aa 213d 4cc7 e03b e1ef 513d
00000330: 5cf1 a7bb c4a0 ef3c 10b6 bd3c c97d 2dbd
00000340: 8ca7 183d 77e5 393d 9a48 9b3d d652 283d
00000350: baf5 0c3d 1813 813c cd8a 8dbd 5ed8 923d
00000360: 1ae5 4ebd 233b 04bc d984 77bc f109 033a
00000370: 46c7 c63c 736a 003d 9f4b 173c a40b bfbc
00000380: 9dcf 373d 4978 453c 025c c3bc 8d95 cabc
00000390: 639b 423d 14fd 50bc 6eb4 2bbd 12a3 073d
000003a0: ca38 86bd ac2a 1dbd 13ad 453a 6d0c 3b3d
000003b0: 7813 9fbc df12 3a3c f1d7 8a3d 9322 483d
000003c0: bbdc b2bd 806a ddbc de0f 71bd 393c 4b3c
000003d0: 2a71 c53c 4300 46bd 3935 0b3d 2007 ed3c
000003e0: 006f 5fbc ed25 c83c 51a3 1bbc 7388 c2bc
000003f0: ad0d 1a3d 4b23 16bc a80f d1bb 1753 4b3d

model.0.weight f4 [256, 246]
-0.03880766 -0.013568997 -0.008863677 -0.092855275 -0.0337044 -0.08991802 0.036176205 -0.035635736
-0.08655093 -0.051279165 -0.007386757 -0.007951747 -0.11650648 -0.09174221 -0.042361908 0.05303238
-0.06338544 -0.0052243294 0.033117034 -0.05764105 -0.02207026 -0.03144878 -0.011955635 -0.0044253836
-0.06287011 0.011158429 -0.086521976 -0.041597072 -0.06885931 -0.0031658432 -0.012508114 -0.0043259747
-0.0017160033 -0.016419018 -0.051845282 0.01930525 -0.05714639 -0.010066565 0.007576666 -0.00045630135
0.024178965 0.00699402 0.013452949 0.010200483 -0.015635585 0.011798443 -0.055252947 0.01065408
0.05022551 0.0006390323 0.035721246 0.04257961 0.008958461 -0.053106572 0.050584402 -0.015630046
0.02519303 -0.008752913 0.048610367 -0.01732139 0.046963345 0.0027904594 -0.006813417 -0.0034344262
0.028484965 0.024810549 0.0295544 -0.032780472 -0.011224886 -0.0488233 0.0019874717 -0.05469211
-0.02683006 -0.069992304 0.018201292 0.038046904 -0.03829652 -0.022743516 -0.037612163 0.0066409637
0.019885011 0.028608903 0.018331593 -0.0021448147 -0.058663964 0.024786398 -0.01354679 0.0030456313
-0.032744166 0.008552163 0.028906785 -0.0021281012 7.9768e-05 -0.0074225822 -0.016364679 0.06157406
-0.013467181 0.046506632 -0.03636056 0.0013123413 0.055342227 0.015667766 -0.020200646 -0.045112427
0.051161803 -0.030992748 0.03816782 -0.005517566 0.005929698 0.047091898 -0.012141245 0.008380958
-0.004444815 -0.0015379487 -0.0034616033 0.033996 0.008875113 -0.0029652314 -0.013204814 0.022119967
0.00453946 -0.04265411 0.034541972 -0.016130103 -0.038425498 -0.0071768826 0.031505868 -0.02685266
-0.0057707964 -0.0928645 0.013923537 -0.06870552 -0.031793598 0.016815567 -0.03884723 -0.0028018248
0.019260745 -0.022064183 -0.024864579 -0.037090994 -0.038905073 0.048660517 -0.0016387767 0.07183211
0.0044950396 -0.0208533 -0.016958432 -0.006597517 0.05273589 0.008253454 -0.0019106605 0.017580548
-0.031901855 0.03389638 0.006495522 0.0028932272 -0.013126031 -0.04404862 0.016824251 -0.02185625
-0.057398096 -0.030797457 0.03774153 0.0285825 -5.4463046e-05 -0.042564545 -0.0023149666 -0.08830258
-0.054185204 -0.015591388 -0.028499428 -0.024044791 0.03925323 -0.021898365 -0.054271795 0.033779357
-0.029763617 -0.03117241 -0.060867682 0.03686678 0.029892957 -0.04303366 -0.036924403 0.006730195
-0.01934837 0.01692263 0.052758396 0.022681199 -0.0053275134 0.018680086 -0.0669345 0.018172484
0.0044092266 0.0036318873 0.049337346 -0.055048443 0.020941006 0.061599217 0.02947467 0.03958466
-0.01727554 -0.028400786 0.025372067 0.02405716 0.013831978 0.021637298 0.015905283 -0.02025567
-0.019024326 -0.02510367 0.02730789 0.059218727 -0.040469546 0.026516644 0.05565111 0.058442887
0.00021741922 0.028149234 0.03839588 0.0017552743 -0.026773224 0.04797897 0.0007574897 -0.040095914
-0.00019334911 0.013478062 -0.00821923 0.004386006 0.054815453 0.042590555 -0.018572297 -0.048283614
-0.008049538 -0.019877624 -0.010641318 -0.004025066 -0.05144957 -0.0101062795 -0.014351929 -0.026922785
0.017090037 0.0069650537 -0.017591901 -0.104422264 -0.082557045 -0.055093855 -0.0 0.0
0.0 -0.0 -0.0 -0.0 0.0 -0.0 -0.0 -0.0
00000000: c8f4 1ebd 8050 5ebc f538 11bc e82a bebd
00000010: a00d 0abd f026 b8bd 802d 143d c7f6 11bd
00000020: 9d41 b1bd 1a0a 52bd 9c0c f2bb 0b48 02bc
00000030: f39a eebd 57e3 bbbd ae83 2dbd 7b38 593d
00000040: 3ad0 81bd da30 abbb baa5 073d 0619 6cbd
00000050: b1cc b4bc 70d0 00bd 91e1 43bc cf02 91bb
00000060: 0bc2 80bd d8d1 363c 6f32 b1bd b161 2abd
00000070: 1c06 8dbd 097a 4fbb d5ee 4cbc e8c0 8dbb
00000080: 84eb e0ba 2d81 86bc b85b 54bd 0b26 9e3c
00000090: 5512 6abd 3cee 24bc ae45 f83b bb3b efb9
000000a0: f712 c63c 182e e53b c269 5c3c ed1f 273c
000000b0: 3316 80bc 424e 413c ea50 62bd 738e 2e3c
000000c0: 44b9 4d3d bb84 273a 7150 123d f567 2e3d
000000d0: 82c6 123c 4786 59bd 9731 4f3d 950a 80bc
000000e0: 9d61 ce3c 6168 0fbc aa1b 473d 96e5 8dbc
000000f0: a35c 403d 24e0 363b 1643 dfbb 1c14 61bb
00000100: 4d59 e93c 7e3f cb3c 121c f23c d144 06bd
00000110: 96e8 37bc f1fa 47bd 3e40 023b d504 60bd
00000120: b7ca dbbc 2058 8fbd e01a 953c 12d7 1b3d
00000130: d0dc 1cbd 9c50 babc 360f 1abd 719c d93b
00000140: e4e5 a23c 385d ea3c 232c 963c 0590 0cbb
00000150: a049 70bd d80c cb3c 5bf3 5dbc 3799 473b
00000160: bf1e 06bd 5f1e 0c3c eccd ec3c 9d77 0bbb
00000170: 1e49 a738 2239 f3bb 380f 86bc 1535 7c3d
00000180: 73a5 5cbc bd7d 3e3d d0ee 14bd de02 ac3a
00000190: 88ae 623d b059 803c d37b a5bc cfc7 38bd
000001a0: 0a8f 513d 81e4 fdbc dc55 1c3d b3cc b4bb
000001b0: e94d c23b 6fe3 403d 13ec 46bc 4950 093c
000001c0: d0a5 91bb ff94 c9ba 11dc 62bb 643f 0b3d
000001d0: ec68 113c 5454 42bb 0159 58bc ef34 b53c
000001e0: c0bf 943b 13b6 2ebd e27b 0d3d 4723 84bc
000001f0: 0e64 1dbd 0e2c ebbb 4c0c 013d 1cfa dbbc
00000200: f318 bdbb be2f bebd 8c1f 643c 7bb5 8cbd
00000210: 013a 02bd cdc0 893c 461e 1fbd d29e 37bb
00000220: b6c8 9d3c f2bf b4bc cdb0 cbbc baec 17bd
00000230: ed5a 1fbd 4050 473d 39cc d6ba b71c 933d
00000240: 204b 933b 8ad4 aabc 69ec 8abc fc2f d8bb
00000250: 9701 583d 7f39 073c 216f faba 1505 903c
00000260: 85ab 02bd eed6 0a3d 63d8 d43b 4c9c 3d3b
00000270: 900e 57bc 536c 34bd 03d3 893c e10b b3bc
00000280: 441a 6bbd f34a fcbc dd96 1a3d d925 ea3c
00000290: 406f 64b8 2958 2ebd b2b6 17bb fcd7 b4bd
000002a0: 4ef1 5dbd 0573 7fbc a277 e9bc 95f9 c4bc
000002b0: ffc7 203d 3364 b3bc 1a4c 5ebd 395c 0a3d
000002c0: d4d2 f3bc 485d ffbc 6450 79bd 9f01 173d
000002d0: 13e2 f43c 1044 30bd 0b3e 17bd f888 dc3b
000002e0: 7980 9ebc 54a1 8a3c 3019 583d eccd b93c
000002f0: 6c92 aebb fb06 993c f514 89bd 76de 943c
00000300: 467b 903b f504 6e3b f515 4a3d 7a7a 61bd
00000310: 798c ab3c 764f 7c3d dd74 f13c 8623 223d
00000320: 6f85 8dbc c4a8 e8bc 15d9 cf3c 8513 c53c
00000330: 859f 623c b440 b13c cc4b 823c 38ef a5bc
00000340: e7d8 9bbc 36a6 cdbc ccb4 df3c 568f 723d
00000350: 65c3 25bd 6f39 d93c 6bf2 633d cf61 6f3d
00000360: 07fb 6339 3999 e63c 0045 1d3d 3b11 e63a
00000370: 8553 dbbc 9985 443d 4692 463a 9d3b 24bd
00000380: c2bd 4ab9 17d3 5c3c f3a9 06bc 7cb8 8f3b
00000390: 2b86 603d 6f73 2e3d ee24 98bc 0ac5 45bd
000003a0: 36e2 03bc 66d6 a2bc ec58 2ebc b3e4 83bb
000003b0: c9bc 52bd cf94 25bc 5a24 6bbc 2c8d dcbc
000003c0: 6800 8c3c 1b3b e43b e41c 90bc 57db d5bd
000003d0: ab13 a9bd 18aa 61bd 0000 0080 0000 0000
000003e0: 0000 0000 0000 0080 0000 0080 0000 0080
000003f0: 0000 0000 0000 0080 0000 0080 0000 0080

model.2.bias f4 [256]
0.0039794557 -0.019710394 0.007748881 -0.005473127 0.063548364 0.044171438 -0.03410003 -0.022015192
-0.03202893 0.0041727065 0.012054872 0.0299435 -0.04634735 0.022959316 -0.018904567 0.0064720707
0.064751476 -0.032389436 -0.0380471 -0.0028655198 -0.052453917 0.010317171 -0.032204494 0.010295263
0.03199922 -0.0030948871 0.0106649 0.052826937 0.030775834 -0.013522629 0.01910421 -0.02184404
-0.023006829 0.047204144 0.0065260488 -0.027028468 0.024443055 -0.026735883 0.039204963 -0.01877515
-0.0029477205 -0.00405351 0.025734995 -0.027132161 -0.03454443 -0.0152186295 -0.0001243326 -0.050558295
-0.013411361 0.04314085 -0.040699452 0.038430978 -0.048941627 0.028146949 -0.026738461 -0.018792335
-0.008577984 -0.02205649 -0.009734118 0.05503946 0.0052139224 0.048308782 -0.042655423 -0.03238652
-3.783343e-05 0.016922446 -0.0049042967 0.037119653 -0.037533097 0.05182686 0.0062920367 0.022220958
-0.0018850659 -0.0048116944 0.018405456 0.044244356 -0.028679715 -0.035150357 0.008049181 -0.032132983
-0.011908279 -0.028872868 -0.028486231 -0.028963747 -0.0076110065 0.02562058 -0.017349597 0.048872955
0.03320147 0.0002031925 0.024471689 -0.008256175 0.004067346 -0.015932186 -0.056242935 0.035725605
-0.06117677 0.014822488 -0.043599337 -0.025217133 0.038796 -0.034585286 0.00011177035 -0.050170932
-0.0015292708 -0.0456154 -0.0039817337 0.045472834 0.06863019 -0.0008716015 -0.008588787 0.032028217
0.0029177666 -0.0114579685 -0.025579588 0.036961865 0.026087265 0.01966805 -0.013490061 -3.2793596e-05
-0.062313616 0.007884918 0.039641507 -0.007930274 0.026930315 0.044209596 -0.02514793 -0.036806423
0.02917845 -0.003668817 0.005647841 0.0057933535 -0.028968405 -0.014977692 0.03377118 -0.012801841
0.056321163 0.011292305 0.009679854 0.01559231 -0.051793482 0.024196822 0.026502913 0.04154023
-0.039043806 0.014984814 0.017745906 0.0014452745 -0.01778636 -0.021817196 -0.012329429 -0.03970281
-0.028402565 -0.037600704 -0.034384802 -0.0129219005 -3.3097607e-05 -0.010342016 -0.0054300646 0.048851278
0.03458441 0.048317283 -0.019579127 -1.1939348e-06 -0.050761122 -0.017657574 0.024286522 -0.013987233
0.056279555 0.04040996 -0.00022633323 -0.0076684873 0.014534066 -0.034708805 0.06610207 0.0032044458
-0.05443337 -0.010532334 -0.01336192 -0.032218803 -0.028443439 -0.0048112837 -0.02979184 0.039646097
-0.012330542 -0.019906327 -0.00040875236 0.045119565 -0.024628315 -0.03471232 0.04363825 -0.026171822
-0.015236919 -0.0006703269 -0.0068396875 -0.016151223 0.05549695 -0.058933362 0.03451347 0.026757196
-0.020478979 -0.0010314252 0.019927124 -0.014570484 0.034316387 0.04809559 -0.03411736 -0.04352762
-0.013786064 0.035102103 0.02067589 -0.0481951 0.030853635 -0.0014983376 -0.0017867798 -0.006294928
-0.01012732 -0.05184712 -0.019183097 -0.047970656 0.013351028 0.021898521 0.01795867 0.006967146
-0.057166062 0.0020413026 -0.0094703045 0.055724774 0.012417892 -0.040752187 0.051212896 0.056168552
-0.0010933843 -0.050069064 0.005231349 0.009115102 0.05040211 -0.0006528835 -0.03361819 -8.231344e-11
-0.02596625 0.05577661 0.03913642 -0.009585666 -0.018576123 -0.015111022 -0.038478125 -0.040115733
0.042015683 0.024213763 -0.008979384 0.03876774 0.041112404 0.03640634 0.011855615 0.016687358
00000000: 1866 823b b177 a1bc 53ea fd3b eb57 b3bb
00000010: a525 823d 1ced 343d 79ac 0bbd 3459 b4bc
00000020: c430 03bd 33bb 883b cc81 453c 124c f53c
00000030: b8d6 3dbd 2d15 bc3c c0dd 9abc aa13 d43b
00000040: 6c9c 843d c9aa 04bd 47d7 1bbd 72cb 3bbb
00000050: ebd9 56bd 5a09 293c dce8 03bd 76ad 283c
00000060: 9d11 033d 97d3 4abb d5bb 2e3c 0f61 583d
00000070: 9a1d fc3c 048e 5dbc 6f80 9c3c 46f2 b2bc
00000080: d178 bcbc 2259 413d 77d8 d53b ce6a ddbc
00000090: cd3c c83c 3605 dbbc 6295 203d 58ce 99bc
000000a0: 8b2e 41bb 4ed3 84bb 32d2 d23c 4444 debc
000000b0: 767e 0dbd 8f57 79bc 475f 02b9 3716 4fbd
000000c0: 53bb 5bbc 76b4 303d 78b4 26bd cd69 1d3d
000000d0: 0477 48bd 6e94 e63c 9e0a dbbc 62f2 99bc
000000e0: ac8a 0cbc d0af b4bc da7b 1fbc 0f71 613d
000000f0: 8dd9 aa3b 6edf 453d 74b7 2ebd baa7 04bd
00000100: 56af 1eb8 f1a0 8a3c 39b4 a0bb c70a 183d
00000110: 4ebc 19bd 6748 543d 6e2d ce3b ba08 b63c
00000120: 5114 f7ba 6bab 9dbb 0ac7 963c 9239 353d
00000130: b9f1 eabc d2f9 0fbd b6e0 033c e09d 03bd
00000140: f11a 43bc cb86 ecbc f55b e9bc 6145 edbc
00000150: c065 f9bb 40e2 d13c be20 8ebc 022f 483d
00000160: 44fe 073d 1210 5539 da78 c83c e844 07bc
00000170: 5f47 853b 3784 82bc fe5e 66bd 0355 123d
00000180: 7e94 7abd 05da 723c 3895 32bd 2994 cebc
00000190: 8ee8 1e3d 4da9 0dbd 4066 ea38 0980 4dbd
000001a0: d071 c8ba 37d7 3abd 3479 82bb b941 3a3d
000001b0: fc8d 8c3d 307c 64ba fcb7 0cbc 0530 033d
000001c0: 0038 3f3b 34ba 3bbc 498c d1bc 5365 173d
000001d0: f6b4 d53c e41e a13c 6b05 5dbc db8b 09b8
000001e0: 903c 7fbd be2f 013c 225f 223d fbed 01bc
000001f0: f79c dc3c 1f15 353d 0803 cebc 55c2 16bd
00000200: a507 ef3c 8970 70bb 8611 b93b 2cd6 bd3b
00000210: 264f edbc fe64 75bc a653 0a3d d0be 51bc
00000220: 05b1 663d 5c03 393c 4098 1e3c e376 7f3c
00000230: 6725 54bd 6a38 c63c a31c d93c 1726 2a3d
00000240: 66ec 1fbd de82 753c dd5f 913c 5d6f bd3a
00000250: b3b4 91bc fab9 b2bc 6001 4abc 6a9f 22bd
00000260: 7fac e8bc 3203 1abd 14d7 0cbd 61b6 53bc
00000270: 49d2 0ab8 8f71 29bc afee b1bb 4718 483d
00000280: 62a8 0d3d 58e8 453d 6864 a0bc 4a3f a0b5
00000290: e5ea 4fbd 9ea6 90bc 87f4 c63c b52a 65bc
000002a0: 6485 663d ea84 253d dd53 6db9 ef47 fbbb
000002b0: 4b20 6e3c d22a 0ebd 8660 873d ae01 523b
000002c0: 86f5 5ebd d08f 2cbc f4eb 5abc ddf7 03bd
000002d0: 3702 e9bc f9a7 9dbb 040e f4bc f263 223d
000002e0: 0b06 4abc 9812 a3bc d04d d6b9 4bcf 383d
000002f0: 52c1 c9bc 812e 0ebd 06be 323d 4a66 d6bc
00000300: 45a4 79bc e0b8 2fba 751f e0bb 924f 84bc
00000310: c550 633d 1c64 71bd ff5d 0d3d e831 db3c
00000320: 88c3 a7bc e330 87ba 353e a33c 0ab9 6ebc
00000330: 578f 0c3d e2ff 443d a5be 0bbd 054a 32bd
00000340: f2de 61bc 39c7 0f3d 7c60 a93c 3a68 45bd
00000350: c3c0 fc3c de63 c4ba 6232 eaba af45 cebb
00000360: 0fed 25bc a55d 54bd df25 9dbc e17c 44bd
00000370: 45be 5a3c 8764 b33c 101e 933c a84c e43b
00000380: f626 6abd 60c7 053b 5629 1bbc a93f 643d
00000390: 6a74 4b3c c4eb 26bd 9dc4 513d ff10 663d
000003a0: e44f 8fba 3815 4dbd bc6b ab3b 8257 153c
000003b0: 7172 4e3d 4526 2bba 3ab3 09bd 5902 b5ae
000003c0: 2cb7 d4bc 0476 643d 834d 203d 320d 1dbc
000003d0: f42c 98bc 3894 77bc 3d9b 1dbd 6550 24bd
000003e0: a318 2c3d f15b c63c 441e 13bc ecca 1e3d
000003f0: 7b65 283d d01e 153d 0e3e 423c edb3 883c

model.2.weight f4 [256, 256]
-0.0 -0.0 0.0 -0.0 -0.0 -0.0 0.0 -0.0
0.0 -0.0 0.0 -0.0 -0.0 -0.0 -0.0 -0.0
-0.0 -0.0 -0.0 -0.0 -0.0 -0.0 -0.0 -0.0
-0.0 0.0 -0.0 -0.0 -0.0 -0.0 -0.0 -0.0
-0.0 -0.0 0.0 0.0 -0.0 0.0 -0.0 -0.0
-0.0 -0.0 -0.0 -0.0 -0.0 -0.0 -0.0 -0.0
-0.0 -0.0 -0.0 0.0 -0.0 -0.0 -0.0 -0.0
0.0 0.0 -0.0 -0.0 -0.0 0.0 -0.0 -0.0
0.0 0.0 -0.0 -0.0 -0.0 -0.0 -0.0 0.0
0.0 -0.0 -0.0 -0.0 -0.0 -0.0 0.0 -0.0
-0.0 -0.0 -0.0 -0.0 -0.0 -0.0 -0.0 -0.0
-0.0 -0.0 -0.0 -0.0 -0.0 0.0 -0.0 -0.0
-0.0 -0.0 -0.0 -0.0 -0.0 -0.0 -0.0 0.0
-0.0 -0.0 -0.0 -0.0 -0.0 0.0 0.0 -0.0
0.0 -0.0 -0.0 -0.0 -0.0 0.0 -0.0 0.0
-0.0 -0.0 -0.0 0.0 -0.0 -0.0 0.0 -0.0
0.0 -0.0 -0.0 -0.0 -0.0 -0.0 -0.0 -0.0
-0.0 -0.0 -0.0 0.0 -0.0 -0.0 -0.0 -0.0
0.0 -0.0 -0.0 0.0 0.0 0.0 -0.0 -0.0
-0.0 -0.0 -0.0 0.0 -0.0 -0.0 0.0 -0.0
-0.0 0.0 -0.0 -0.0 0.0 -0.0 0.0 -0.0
-0.0 -0.0 -0.0 0.0 -0.0 -0.0 -0.0 -0.0
0.0 -0.0 -0.0 -0.0 -0.0 0.0 -0.0 0.0
0.0 0.0 -0.0 0.0 -0.0 -0.0 -0.0 -0.0
-0.0 -0.0 0.0 0.0 -0.0 -0.0 0.0 -0.0
-0.0 -0.0 0.0 -0.0 0.0 -0.0 -0.0 -0.0
-0.0 -0.0 -0.0 -0.0 -0.0 0.0 -0.0 0.0
0.0 -0.0 -0.0 -0.0 -0.0 -0.0 -0.0 -0.0
0.0 -0.0 -0.0 -0.0 -0.0 -0.0 0.0 -0.0
-0.0 -0.0 -0.0 -0.0 -0.0 -0.0 -0.0 -0.0
-0.0 0.0 -0.0 -0.0 -0.0 -0.0 -0.0 -0.0
-0.0 -0.0 0.0 -0.0 -0.0 0.0 -0.0 0.0
00000000: 0000 0080 0000 0080 0000 0000 0000 0080
00000010: 0000 0080 0000 0080 0000 0000 0000 0080
00000020: 0000 0000 0000 0080 0000 0000 0000 0080
00000030: 0000 0080 0000 0080 0000 0080 0000 0080
00000040: 0000 0080 0000 0080 0000 0080 0000 0080
00000050: 0000 0080 0000 0080 0000 0080 0000 0080
00000060: 0000 0080 0000 0000 0000 0080 0000 0080
00000070: 0000 0080 0000 0080 0000 0080 0000 0080
00000080: 0000 0080 0000 0080 0000 0000 0000 0000
00000090: 0000 0080 0000 0000 0000 0080 0000 0080
000000a0: 0000 0080 0000 0080 0000 0080 0000 0080
000000b0: 0000 0080 0000 0080 0000 0080 0000 0080
000000c0: 0000 0080 0000 0080 0000 0080 0000 0000
000000d0: 0000 0080 0000 0080 0000 0080 0000 0080
000000e0: 0000 0000 0000 0000 0000 0080 0000 0080
000000f0: 0000 0080 0000 0000 0000 0080 0000 0080
00000100: 0000 0000 0000 0000 0000 0080 0000 0080
00000110: 0000 0080 0000 0080 0000 0080 0000 0000
00000120: 0000 0000 0000 0080 0000 0080 0000 0080
00000130: 0000 0080 0000 0080 0000 0000 0000 0080
00000140: 0000 0080 0000 0080 0000 0080 0000 0080
00000150: 0000 0080 0000 0080 0000 0080 0000 0080
00000160: 0000 0080 0000 0080 0000 0080 0000 0080
00000170: 0000 0080 0000 0000 0000 0080 0000 0080
00000180: 0000 0080 0000 0080 0000 0080 0000 0080
00000190: 0000 0080 0000 0080 0000 0080 0000 0000
000001a0: 0000 0080 0000 0080 0000 0080 0000 0080
000001b0: 0000 0080 0000 0000 0000 0000 0000 0080
000001c0: 0000 0000 0000 0080 0000 0080 0000 0080
000001d0: 0000 0080 0000 0000 0000 0080 0000 0000
000001e0: 0000 0080 0000 0080 0000 0080 0000 0000
000001f0: 0000 0080 0000 0080 0000 0000 0000 0080
00000200: 0000 0000 0000 0080 0000 0080 0000 0080
00000210: 0000 0080 0000 0080 0000 0080 0000 0080
00000220: 0000 0080 0000 0080 0000 0080 0000 0000
00000230: 0000 0080 0000 0080 0000 0080 0000 0080
00000240: 0000 0000 0000 0080 0000 0080 0000 0000
00000250: 0000 0000 0000 0000 0000 0080 0000 0080
00000260: 0000 0080 0000 0080 0000 0080 0000 0000
00000270: 0000 0080 0000 0080 0000 0000 0000 0080
00000280: 0000 0080 0000 0000 0000 0080 0000 0080
00000290: 0000 0000 0000 0080 0000 0000 0000 0080
000002a0: 0000 0080 0000 0080 0000 0080 0000 0000
000002b0: 0000 0080 0000 0080 0000 0080 0000 0080
000002c0: 0000 0000 0000 0080 0000 0080 0000 0080
000002d0: 0000 0080 0000 0000 0000 0080 0000 0000
000002e0: 0000 0000 0000 0000 0000 0080 0000 0000
000002f0: 0000 0080 0000 0080 0000 0080 0000 0080
00000300: 0000 0080 0000 0080 0000 0000 0000 0000
00000310: 0000 0080 0000 0080 0000 0000 0000 0080
00000320: 0000 0080 0000 0080 0000 0000 0000 0080
00000330: 0000 0000 0000 0080 0000 0080 0000 0080
00000340: 0000 0080 0000 0080 0000 0080 0000 0080
00000350: 0000 0080 0000 0000 0000 0080 0000 0000
00000360: 0000 0000 0000 0080 0000 0080 0000 0080
00000370: 0000 0080 0000 0080 0000 0080 0000 0080
00000380: 0000 0000 0000 0080 0000 0080 0000 0080
00000390: 0000 0080 0000 0080 0000 0000 0000 0080
000003a0: 0000 0080 0000 0080 0000 0080 0000 0080
000003b0: 0000 0080 0000 0080 0000 0080 0000 0080
000003c0: 0000 0080 0000 0000 0000 0080 0000 0080
000003d0: 0000 0080 0000 0080 0000 0080 0000 0080
000003e0: 0000 0080 0000 0080 0000 0000 0000 0080
000003f0: 0000 0080 0000 0000 0000 0080 0000 0000

model.4.bias f4 [128]
0.012684609 0.03445514 0.03495479 -0.03536689 -0.03273304 0.065000705 -0.015888726 0.0038246198
-0.017799037 -0.05143401 -0.018634548 0.020616336 -0.030773997 4.1657986e-05 -0.027398191 0.051551223
-0.03405141 -0.013142131 -0.012275675 -0.06501286 0.005636033 0.0032534872 0.021007773 -0.00027113647
-4.8217244e-05 0.042103905 -0.01043934 0.010475238 0.047210835 -4.056518e-06 0.05211908 0.010186045
0.06389262 -0.043558292 -7.2387644e-05 -0.00020896971 -0.041008066 0.015625468 -0.041791752 0.005255855
-0.022234237 0.025553478 0.02571278 0.009614947 0.036849935 0.008621794 -0.00031362762 -0.00376303
-0.04758396 0.0006198433 0.023908822 0.023383226 -0.049416643 0.0050460724 -0.023941277 -0.015358701
-0.0037182362 -0.009070249 0.011294058 0.004515615 0.001446852 -0.008306816 -0.010229252 0.02434881
-5.6362774e-07 0.027747558 -0.0018009257 -0.00028899292 -0.05250815 0.0387816 0.024883175 0.01928667
-0.0129872495 0.06981461 -0.0045458227 0.022996195 -0.013607617 -0.0011808258 0.03634451 0.0032679727
-0.00517633 -0.03548644 0.02788043 0.022736475 0.0056602005 0.0828454 -0.035683963 -0.033559598
-0.031991582 0.021747218 -7.1300283e-06 0.040129893 -0.00050300057 -0.030121805 -0.028137716 -0.012160257
-0.07087673 0.046299763 -0.00030316945 0.021648254 0.00557968 -0.020056317 -0.024156226 0.02013478
-0.030728253 0.017621355 -0.03839465 0.038963158 0.045285154 0.045496162 -3.439905e-08 -0.0007562256
0.008973025 -2.6903002e-05 -0.029289069 0.052907508 0.03796306 0.009568538 0.021056153 0.02209347
-0.034552943 0.07256395 -0.036950912 0.042908803 0.0015854274 -4.3355108e-06 0.0031052888 0.009562472
00000000: 1bd3 4f3c d520 0d3d c12c 0f3d dfdc 10bd
00000010: 1513 06bd 171f 853d 1329 82bc 79a6 7a3b
00000020: 49cf 91bc 78ac 52bd 7ba7 98bc 97e3 a83c
00000030: c019 fcbc ecb9 2e38 2c72 e0bc 6027 533d
00000040: 7e79 0bbd 1852 57bc ea1f 49bc 7625 85bd
00000050: 79ae b83b 7538 553b 7e18 ac3c 5227 8eb9
00000060: df3c 4ab8 2575 2c3d c409 2bbc 55a0 2b3c
00000070: 2660 413d 391d 88b6 d17a 553d 5fe3 263c
00000080: 22da 823d 2e6a 32bd d2ce 97b8 e11e 5bb9
00000090: 13f8 27bd fb00 803c d42d 2bbd 4f39 ac3b
000000a0: 9324 b6bc 8755 d13c 9ca3 d23c 0388 1d3c
000000b0: f5ef 163d 6d42 0d3c 636e a4b9 2b9d 76bb
000000c0: 66e7 42bd fb7c 223a 6fdc c33c 2e8e bf3c
000000d0: 1b69 4abd 8659 a53b 7f20 c4bc 10a3 7bbc
000000e0: a7ad 73bb 629b 14bc b60a 393c b9f7 933b
000000f0: 4ca4 bd3a 5019 08bc 9898 27bc 2877 c73c
00000100: 344c 17b5 d94e e33c 0a0d ecba f983 97b9
00000110: c912 57bd 74d9 1e3d cdd7 cb3c 14ff 9d3c
00000120: 79c8 54bc f6fa 8e3d 20f5 94bb 8462 bc3c
00000130: 7bf2 5ebc f0c5 9aba fbdd 143d 7c2b 563b
00000140: 349e a9bb 3b5a 11bd 8065 e43c d841 ba3c
00000150: 3479 b93b d9aa a93d 5929 12bd ca75 09bd
00000160: 9b09 03bd 3927 b23c 7a3e efb6 3e5f 243d
00000170: ccdb 03ba 01c2 f6bc 1181 e6bc d13b 47bc
00000180: d227 91bd d2a4 3d3d b7f2 9eb9 ae57 b13c
00000190: c0d5 b63b 254d a4bc 47e3 c5bc b2f1 a43c
000001a0: d1b9 fbbc a95a 903c b543 1dbd d597 1f3d
000001b0: ed7c 393d 2f5a 3a3d 28be 13b3 713d 46ba
000001c0: 9803 133c c2ad e1b7 a1ef efbc 8bb5 583d
000001d0: 277f 1b3d 5bc5 1c3c f47d ac3c 5dfd b43c
000001e0: 6387 0dbd 699c 943d d759 17bd 24c1 2f3d
000001f0: 1ece cf3a c179 91b6 1a82 4b3b eaab 1c3c

model.4.weight f4 [128, 256]
-0.00028081215 -0.03310882 -0.0096431775 0.028661683 0.012457879 -0.035559684 0.054894965 -0.044458576
0.028192265 -0.000134171 -0.017604886 0.017207772 0.0037214153 -0.021758374 -0.03534444 -0.013054336
-0.01758691 0.00026616146 0.012114878 0.00013806675 -0.012968429 -0.03919152 0.035778545 0.030891372
0.0024639366 0.03817777 -0.039045952 -0.01840748 0.07149354 0.03196976 0.025094343 -0.033260055
0.038570914 0.011646738 0.043742735 0.051805537 -0.012643606 -0.02548224 -0.013298434 0.026011044
-0.015754936 -0.00055937364 0.0066985493 0.0457751 0.02307816 0.03744337 -6.6546336e-06 0.034273803
-0.028797152 0.03195898 0.049855627 -0.05545257 0.059743844 0.043858368 -0.04183484 0.08125304
0.031646457 -0.016244091 0.013741741 -0.022368066 0.06018973 -0.002557163 -0.039315335 0.008940734
2.7621618e-07 -0.021090211 -0.017752862 0.042749953 0.062232934 0.03671019 -0.02393651 0.029428987
0.007320488 0.024010377 0.034889814 0.019853214 -0.027035031 0.002387838 -0.051637325 0.035277575
-0.039257687 -0.024964709 0.06459274 0.06257575 0.00043521874 0.007179121 -0.012467114 -0.02853372
0.0018234066 4.909286e-06 0.07065093 -0.0064251125 0.05990434 0.0072575347 -0.022209989 -0.028087577
0.06688149 0.010606317 8.3382314e-05 0.012183772 -0.051929645 0.049115937 0.00020106809 0.012536956
3.6701294e-07 -0.041834917 0.062713645 0.031806845 -0.043689273 0.0002665887 0.08059218 0.010718003
-0.010308812 0.004141266 0.03255531 0.0056371354 -0.020052092 0.07079921 -0.018621214 -2.2677846e-06
0.019295987 -0.038582522 0.06526979 -0.0067176432 -0.025254574 -0.018205736 -0.048042797 0.011578395
-0.0039272443 0.03153686 0.024146397 0.023582863 -0.012233771 -0.043005392 0.040500615 0.06299113
0.051047802 0.056281745 0.053694706 0.020621436 0.027858527 -0.037995923 0.027604781 0.007013822
-0.01407549 0.0529164 0.012157491 -0.044928826 0.043975323 0.054736555 0.024911484 0.020398986
0.08030777 0.04405819 0.032617167 -0.04287829 -3.8947883e-06 -0.053901177 -0.00012463452 0.0148154935
0.011435761 0.058591187 0.03033554 -3.2061738e-08 -0.02853477 -0.008852864 0.012373592 0.06532663
0.0032234306 0.011191222 0.0007897214 0.010896345 -0.026454339 0.03247917 0.03205208 -0.012826318
0.04066446 -0.03935926 0.028116442 -0.031807393 0.00074043113 0.044192526 -0.0064874114 0.060811717
0.0047190073 -0.0001581683 8.890907e-05 0.0684316 -0.02961016 0.041347127 -0.05052508 -0.009363004
0.015793167 0.00060886773 -0.033802148 -0.0043985294 0.012724897 -0.025889149 0.006539174 0.07103082
0.043345246 7.388943e-05 0.017826887 -6.8469913e-06 -0.033213556 0.044985 -0.009985982 0.048390243
0.026582114 0.05933516 -0.040432736 0.02327787 0.037100352 -0.00030315385 0.0012924536 -0.051736034
0.034607586 -0.057269227 0.015015242 0.06029897 0.06534837 0.058373984 0.045033917 0.062109638
-0.023012945 0.033381816 -0.00018733094 0.0018199265 -0.03280558 -0.03499214 0.00047739697 -0.00935263
-4.19689e-05 -0.03322027 0.0024262506 -0.021372981 -0.037392303 -5.5723257e-09 -0.028993035 1.2332787e-12
0.05161413 0.022747176 0.052385755 0.0002963778 0.008866233 0.03927167 -0.027374567 -0.015820516
-0.041655738 -0.030865518 0.037242457 0.07296806 0.046746086 0.0038489364 -0.016251924 -0.020880682
00000000: f839 93b9 1d9d 07bd 6bfe 1dbc e8cb ea3c
00000010: 221c 4c3c 08a7 11bd 8bd9 603d 321a 36bd
00000020: 77f3 e63c 41b0 0cb9 1f38 90bc 50f7 8c3c
00000030: fde2 733b 9e3e b2bc 55c5 10bd dbe1 55bc
00000040: 6c12 90bc 968b 8b39 7b7d 463c 03c6 1039
00000050: 8979 54bc 4a87 20bd 868c 123d e70f fd3c
00000060: ff79 213b 4b60 1c3d a6ee 1fbd 49cb 96bc
00000070: 356b 923d b9f2 023d a792 cd3c b23b 08bd
00000080: 89fc 1d3d f6d1 3e3c 952b 333d 0b32 543d
00000090: 2127 4fbc 21c0 d0bc ade1 59bc 1d15 d53c
000000a0: 7f10 81bc eea2 12ba 817f db3b ac7e 3b3d
000000b0: 690e bd3c 385e 193d de4a dfb6 b062 0c3d
000000c0: 01e8 ebbc 6be7 023d 6a35 4c3d 3c22 63bd
000000d0: f6b5 743d d5a4 333d 025b 2bbd fe67 a63d
000000e0: b79f 013d 5412 85bc 0a25 613c 3c3d b7bc
000000f0: 8289 763d 1396 27bb 1e09 21bd 287c 123c
00000100: dd4a 9434 61c5 acbc 736e 91bc 931a 2f3d
00000110: f6e7 7e3d 6d5d 163d 8016 c4bc 0f15 f13c
00000120: b4e0 ef3b 69b1 c43c 9fe8 0e3d 35a3 a23c
00000130: 9278 ddbc 467d 1c3b a981 53bd 387f 103d
00000140: abcc 20bd ca82 ccbc 3349 843d b727 803d
00000150: 122e e439 d53e eb3b de42 4cbc 8cbf e9bc
00000160: 5fff ee3a 72ba a436 6fb1 903d c089 d2bb
00000170: 415e 753d 9dd0 ed3b b9f1 b5bc eb17 e6bc
00000180: 2af9 883d 1ec6 2d3c 8add ae38 729e 473c
00000190: 2eb4 54bd cb2d 493d ced5 5239 ce67 4d3c
000001a0: e009 c534 175b 2bbd 0370 803d e547 023d
000001b0: 86f3 32bd eec4 8b39 830d a53d 909a 2f3c
000001c0: 4be6 28bc 75b3 873b b758 053d b8b7 b83b
000001d0: 4944 a4bc 2dff 903d 848b 98bc 3e30 18b6
000001e0: 9e12 9e3c b508 1ebd 2bac 853d ad1f dcbb
000001f0: aee2 cebc 3224 95bc 86c8 44bd 4fb3 3d3c
00000200: 1db0 80bb cb2c 013d aace c53c d930 c13c
00000210: 2870 48bc 6c26 30bd f9e3 253d 7e01 813d
00000220: 8017 513d b087 663d fbee 5b3d 49ee a83c
00000230: 9137 e43c 9da1 1bbd 6c23 e23c 34d4 e53b
00000240: e29c 66bc debe 583d 3730 473c 4a07 38bd
00000250: 781f 343d 7033 603d 2b13 cc3c c61b a73c
00000260: 6678 a43d 5c76 343d 9499 053d 25a1 2fbd
00000270: faaf 82b6 7bc7 5cbd 53b0 02b9 afbc 723c
00000280: 0f5d 3b3c 50fd 6f3d 3d82 f83c 41b4 09b3
00000290: c0c1 e9bc 9a0b 11bc 9bba 4a3c f8c9 853d
000002a0: 3140 533b 635b 373c 4e05 4f3a 9586 323c
000002b0: c5b6 d8bc e108 053d 0b49 033d 7a25 52bc
000002c0: c78f 263d 2d37 21bd 7454 e63c 7848 02bd
000002d0: 7e19 423a 3903 353d 5a94 d4bb b515 793d
000002e0: e7a1 9a3b fbd9 25b9 b274 ba38 de25 8c3d
000002f0: 0291 f2bc 9b5b 293d 63f3 4ebd 4967 19bc
00000300: ac60 813c 6c9c 1f3a 1f74 0abd 8a21 90bb
00000310: 167c 503c 7b15 d4bc 9146 d63b 9b78 913d
00000320: c98a 313d 16f5 9a38 b109 923c 35bf e5b6
00000330: f00a 08bd 3142 383d 3f9c 23bc d934 463d
00000340: bcc2 d93c 6d09 733d cc9c 25bd 3bb1 be3c
00000350: 8af6 173d 9ff0 9eb9 8c67 a93a 2ae9 53bd
00000360: afc0 0d3d 2393 6abd 7d02 763c 0efc 763d
00000370: 5ed5 853d 8f19 6f3d 7c75 383d ad66 7e3d
00000380: a585 bcbc 5fbb 083d 446e 44b9 9a8a ee3a
00000390: 255f 06bd eb53 0fbd 234b fa39 c63b 19bc
000003a0: c307 30b8 fa11 08bd bb01 1f3b 6416 afbc
000003b0: ac28 19bd b276 bfb1 cd82 edbc 8c91 ad2b
000003c0: 5769 533d 4958 ba3c 7292 563d 2863 9b39
000003d0: ad43 113c 55db 203d a140 e0bc 079a 81bc
000003e0: 359f 2abd afd9 fcbc 8c8b 183d 4770 953d
000003f0: d378 3f3d 703e 7c3b c122 85bc f70d abbc

model.6.bias f4 [128]
-1.1322586e-06 -0.032161362 -0.0008973678 -9.753239e-10 -6.5156764e-06 0.005392707 0.047775887 0.06569128
-0.052511968 0.018624192 -0.0027590794 -0.008321538 -0.078763515 0.029875139 0.011196894 0.009234383
0.055656992 -0.0039540087 0.09257474 -0.021024043 -0.0037729025 -5.9365033e-09 -0.08578647 -0.0019792612
-0.0074890424 -0.023895958 0.058384042 0.04139805 0.07953366 0.0018333063 0.102066636 -0.067437865
-0.0034029614 -0.004028272 -0.010718046 -0.047296003 0.010163797 -0.040980265 -0.06317567 0.0006971263
-0.007535591 -0.077403836 -0.021576788 0.09624727 -0.0033114606 -0.056755975 0.01253721 -0.0048941625
0.016268888 0.08302134 -0.00057733647 0.09545617 0.04341384 -0.0629009 0.048732586 -0.005580765
0.08099091 -0.030610742 0.014237953 0.05600239 0.037452325 0.010179068 -0.053912632 -0.061158072
-0.010618882 -0.023349822 -0.046110567 0.028394014 6.6637337e-13 0.0030145568 -0.0044060377 -0.028866166
0.033920683 0.022058846 -0.028648278 -0.048282206 0.0062744822 -0.02041963 -0.054858815 -0.025782669
-0.020049095 -0.042702597 -0.041327626 0.09226259 -0.059717625 -0.007116326 0.02446373 -0.015466188
-0.003820239 -0.030142222 0.057614937 0.038948633 0.01944348 0.010586773 -0.0101946555 0.036999777
0.008205226 -0.004309141 -0.0065880073 0.028279172 0.03160973 -0.039151747 9.1194575e-05 -0.048893806
-0.017212573 -0.005955209 0.06342939 -0.033872455 0.041791685 -0.024447381 -0.044194136 1.4794242e-13
-0.020034684 0.051853843 -2.9922333e-07 -1.0226273e-06 -0.0073845293 -0.01302647 -0.0022224006 0.015553589
0.0029303688 -0.02347499 -0.019890474 0.046061184 -0.0014376306 0.039753493 0.008099699 0.032075223
00000000: 1cf8 97b5 a2bb 03bd 553d 6bba 290c 86b0
00000010: 3ca1 dab6 4eb5 b03b a6b0 433d 2689 863d
00000020: ca16 57bd c391 983c acd1 34bb 0f57 08bc
00000030: c44e a1bd b5bc f43c 2d73 373c cf4b 173c
00000040: 96f8 633d a190 81bb d397 bd3d 9d3a acbc
00000050: cd42 77bb 09fa cbb1 d1b0 afbd 7eb6 01bb
00000060: a466 f5bb 75c1 c3bc 1b24 6f3d 0091 293d
00000070: 8be2 a23d 8d4b f03a 5008 d13d dd1c 8abd
00000080: 3804 5fbb 98ff 83bb be9a 2fbc 74b9 41bd
00000090: 0e86 263c ecda 27bd 3f62 81bd 5bbf 363a
000000a0: 1eed f6bb e785 9ebd cec1 b0bc 4a1d c53d
000000b0: 1705 59bb f478 68bd df68 4d3c 365f a0bb
000000c0: 5546 853c 1807 aa3d 6558 17ba 867e c33d
000000d0: b6d2 313d 30d2 80bd d29b 473d dade b6bb
000000e0: 90de a53d 61c3 fabc 4e46 693c c362 653d
000000f0: 9c67 193d 1bc6 263c 7ed3 5cbd e380 7abd
00000100: d2fa 2dbc 2048 bfbc 6fde 3cbd 909a e83c
00000110: 4391 3b2b df8f 453b 8660 90bb bd78 ecbc
00000120: 6af0 0a3d c1b4 b43c cbaf eabc 90c3 45bd
00000130: 2c9a cd3b 1147 a7bc a3b3 60bd 2d36 d3bc
00000140: 003e a4bc ebe8 2ebd 2847 29bd 2bf4 bc3d
00000150: 789a 74bd 1230 e9bb 2968 c83c e565 7dbc
00000160: fa5c 7abb d2ec f6bc a4fd 6b3d 9a88 1f3d
00000170: ef47 9f3c 2574 2d3c 7c07 27bc 148d 173d
00000180: 366f 063c b233 8dbb 36e0 d7bb b9a9 e73c
00000190: 3479 013d 955d 20bd b73f bf38 df44 48bd
000001a0: 6201 8dbc ea23 c3bb 45e7 813d d8bd 0abd
000001b0: c22d 2b3d e045 c8bc e904 35bd 8091 262a
000001c0: c71f a4bc b264 543d f1a4 a0b4 3541 89b5
000001d0: ecf9 f1bb fa6c 55bc b2a5 11bb 7bd4 7e3c
000001e0: 6e0b 403b 9f4e c0bc 59f1 a2bc a7aa 3c3d
000001f0: e16e bcba 8fd4 223d 9ab4 043c 4f61 033d

model.6.weight f4 [128, 128]
-0.0 0.0 -0.0 -0.0 -0.0 0.0 0.0 0.0
-0.0 0.0 -0.0 -0.0 -0.0 -0.0 -0.0 0.0
-0.0 0.0 -0.0 0.0 -0.0 0.0 0.0 0.0
-0.0 -0.0 -0.0 -0.0 0.0 0.0 0.0 0.0
-0.0 0.0 -0.0 0.0 0.0 -0.0 -0.0 -0.0
0.0 0.0 -0.0 0.0 -0.0 -0.0 0.0 -0.0
0.0 0.0 0.0 -0.0 0.0 0.0 0.0 0.0
0.0 0.0 -0.0 -0.0 0.0 0.0 0.0 -0.0
0.0 0.0 -0.0 -0.0 0.0 -0.0 0.0 -0.0
0.0 -0.0 -0.0 -0.0 0.0 0.0 -0.0 -0.0
0.0 0.0 -0.0 0.0 0.0 0.0 -0.0 -0.0
0.0 0.0 0.0 -0.0 -0.0 0.0 0.0 -0.0
-0.0 0.0 -0.0 0.0 -0.0 0.0 -0.0 0.0
0.0 0.0 -0.0 0.0 0.0 0.0 0.0 0.0
0.0 -0.0 -0.0 -0.0 -0.0 -0.0 -0.0 -0.0
0.0 0.0 0.0 0.0 0.0 -0.0 0.0 0.0
0.06376364 -0.037972998 -0.042102713 0.055912096 0.05344239 0.027809702 0.07513625 -0.035946198
0.012087834 0.0008303571 0.008974435 0.047172602 0.055012483 2.4808662e-07 0.076410264 0.0068034814
-0.034506466 0.021578291 0.024091158 0.016081586 -0.036543753 0.07537153 0.047536943 -9.019956e-08
2.853693e-08 0.07082163 -0.0030235865 -0.04369362 0.03957941 7.148134e-19 -0.023720393 -4.342229e-05
0.011220545 0.013619168 3.2403968e-10 7.628341e-09 -0.012657038 -0.0060312706 0.0057064104 0.0011389945
0.06199003 0.065778635 0.0013354182 -0.013431824 -0.022093872 -0.01625621 -2.183801e-17 0.00045317106
-0.0063627497 -0.0006831394 -0.03576605 0.039170686 -0.05833525 0.0047371304 0.05952142 0.0025862164
2.9582606e-20 2.4585384e-10 0.00432494 0.03490659 -0.00021025618 -0.00033097167 -0.0004318232 0.00045096205
-3.5757473e-20 0.008129729 7.0690894e-20 1.9711525e-13 -0.03491388 0.06533283 -0.0027915456 -0.03382371
0.008452721 -0.02516277 0.009942463 -0.056658734 0.047819544 0.07124963 0.00084868656 -0.015556634
-1.7293943e-19 0.028415859 -0.036335427 0.031639837 0.03720256 0.030738605 -0.020381603 0.0018679381
-0.0013375054 0.040577263 2.0464204e-15 -0.03676221 -2.9018238e-05 0.0112206675 -0.011959334 0.014532546
0.018356357 -0.0082356995 2.484532e-18 -0.033678032 -0.03253649 0.00083919347 0.06940427 -0.043889582
0.023494337 0.057000313 0.01102844 -0.03767673 0.025344208 -0.0008154076 -1.3846802e-16 -7.348409e-07
-0.053564712 3.5327037e-08 0.0063461065 -0.025846424 -0.05360961 0.07116838 -0.005188254 -0.00460853
0.050667718 0.075062364 -0.03275825 0.02792699 0.023381019 -1.5404693e-06 -0.017498944 0.05198919
00000000: 0000 0080 0000 0000 0000 0080 0000 0080
00000010: 0000 0080 0000 0000 0000 0000 0000 0000
00000020: 0000 0080 0000 0000 0000 0080 0000 0080
00000030: 0000 0080 0000 0080 0000 0080 0000 0000
00000040: 0000 0080 0000 0000 0000 0080 0000 0000
00000050: 0000 0080 0000 0000 0000 0000 0000 0000
00000060: 0000 0080 0000 0080 0000 0080 0000 0080
00000070: 0000 0000 0000 0000 0000 0000 0000 0000
00000080: 0000 0080 0000 0000 0000 0080 0000 0000
00000090: 0000 0000 0000 0080 0000 0080 0000 0080
000000a0: 0000 0000 0000 0000 0000 0080 0000 0000
000000b0: 0000 0080 0000 0080 0000 0000 0000 0080
000000c0: 0000 0000 0000 0000 0000 0000 0000 0080
000000d0: 0000 0000 0000 0000 0000 0000 0000 0000
000000e0: 0000 0000 0000 0000 0000 0080 0000 0080
000000f0: 0000 0000 0000 0000 0000 0000 0000 0080
00000100: 0000 0000 0000 0000 0000 0080 0000 0080
00000110: 0000 0000 0000 0080 0000 0000 0000 0080
00000120: 0000 0000 0000 0080 0000 0080 0000 0080
00000130: 0000 0000 0000 0000 0000 0080 0000 0080
00000140: 0000 0000 0000 0000 0000 0080 0000 0000
00000150: 0000 0000 0000 0000 0000 0080 0000 0080
00000160: 0000 0000 0000 0000 0000 0000 0000 0080
00000170: 0000 0080 0000 0000 0000 0000 0000 0080
00000180: 0000 0080 0000 0000 0000 0080 0000 0000
00000190: 0000 0080 0000 0000 0000 0080 0000 0000
000001a0: 0000 0000 0000 0000 0000 0080 0000 0000
000001b0: 0000 0000 0000 0000 0000 0000 0000 0000
000001c0: 0000 0000 0000 0080 0000 0080 0000 0080
000001d0: 0000 0080 0000 0080 0000 0080 0000 0080
000001e0: 0000 0000 0000 0000 0000 0000 0000 0000
000001f0: 0000 0000 0000 0080 0000 0000 0000 0000
00000200: 8396 823d 9389 1bbd e573 2cbd 1504 653d
00000210: 68e6 5a3d 2cd1 e33c 09e1 993d 523c 13bd
00000220: 0d0c 463c 52ac 593a 8209 133c 0f38 413d
00000230: c554 613d c430 8534 fc7c 9c3d bdef de3b
00000240: a756 0dbd f5c4 b03c d25a c53c 88bd 833c
00000250: e7ae 15bd 645c 9a3d 19b6 423d bcb3 c1b3
00000260: 5f21 f532 ee0a 913d 5d27 46bb 15f8 32bd
00000270: 051e 223d c6f9 5221 4551 c2bc 5420 36b8
00000280: 60d6 373c ee22 5f3c 8824 b22f cc0d 0332
00000290: 775f 4fbc f7a1 c5bb d7fc ba3b 504a 953a
000002a0: 42e9 7d3d f3b6 863d 3309 af3a 2711 5cbc
000002b0: 35fe b4bc be2b 85bc 8b6b c9a3 9797 ed39
000002c0: 9d7e d0bb b614 33ba 6c7f 12bd 7171 203d
000002d0: f1f0 6ebd ee39 9b3b bccc 733d 837d 293b
000002e0: 2db3 0b1f da28 872f 3ab8 8d3b 36fa 0e3d
000002f0: 3778 5cb9 4486 adb9 5466 e2b9 1a6f ec39
00000300: 22dc 289f 8e32 053c 06ea a61f 9aee 5d2a
00000310: db01 0fbd 38cd 853d 5df2 36bb bb8a 0abd
00000320: 487d 0a3c 2722 cebc b6e5 223c fd12 68bd
00000330: 6dde 433d 53eb 913d 647a 5e3a 41e1 7ebc
00000340: bc2b 4ca0 60c8 e83c 75d4 14bd c698 013d
00000350: b661 183d 87cf fb3c 52f7 a6bc 9ad5 f43a
00000360: 3c4f afba 5834 263d cb75 1327 f993 16bd
00000370: 316c f3b7 e4d6 373c 15f1 43bc ea19 6e3c
00000380: 1260 963c 07ef 06bc 7c53 3722 faf1 09bd
00000390: fc44 05bd 52fd 5b3a d323 8e3d 90c5 33bd
000003a0: 3277 c03c 2979 693d a1b0 343c ea52 1abd
000003b0: a89e cf3c 14c1 55ba 8ca4 1fa5 e241 45b5
000003c0: ac66 5bbd 7dba 1733 00f3 cf3b e1bb d3bc
000003d0: c095 5bbd bac0 913d 3b02 aabb 2703 97bb
000003e0: f488 4f3d 4cba 993d 842d 06bd 25c7 e43c
000003f0: 8d89 bf3c 1fc2 ceb5 f259 8fbc 9ef2 543d

model.8.bias f4 [64]
-0.062724546 -0.060971946 0.029340517 -0.019488635 -0.0121119665 0.05781177 0.002643863 0.046773624
-0.007066917 0.06603216 0.0154551575 -0.050481167 -0.0070825536 0.031382535 -0.08991201 0.028901087
-0.07511155 -0.047792755 0.023910273 0.020159567 0.022480652 -0.054409966 -0.027413221 -3.2563064e-06
-0.012076342 0.06141016 0.03634327 0.08083395 0.11036274 -0.07344475 -0.061628986 0.0009559008
0.063075855 -4.2880233e-06 0.010290233 -0.0044179494 -0.021452779 0.027231544 -0.07428283 -0.01239288
-0.022327634 0.07741985 0.062643155 -0.05714386 -0.045460593 -0.06466936 0.07142332 0.03471879
-0.0041033276 0.035512794 -0.012364587 0.037569713 0.0642984 0.06359336 -0.015948787 -0.064333804
-0.03686046 0.009675902 0.0586914 0.017211227 0.08537941 0.03852349 0.05899792 0.017020721
00000000: ba75 80bd b8bd 79bd 865b f03c a1a6 9fbc
00000010: 4571 46bc 09cc 6c3d a944 2d3b b395 3f3d
00000020: 9991 e7bb de3b 873d a137 7d3c 57c5 4ebd
00000030: c414 e8bb f98a 003d ca23 b8bd f9c1 ec3c
00000040: 16d4 99bd 56c2 43bd 7adf c33c ad25 a53c
00000050: 5829 b83c fcdc 5ebd b191 e0bc eb86 5ab6
00000060: d9db 45bc 3889 7b3d aedc 143d 458c a53d
00000070: dc05 e23d 336a 96bd ad6e 7cbd 6b95 7a3a
00000080: ea2d 813d d7e1 8fb6 5e98 283c 72c4 90bb
00000090: bdbd afbc b014 df3c 9921 98bd 820b 4bbc
000000a0: 71e8 b6bc 4c8e 9e3d 0e4b 803d ae0f 6abd
000000b0: e334 3abd 5f71 84bd 6446 923d 4a35 0e3d
000000c0: 3575 86bb dd75 113d d694 4abc b3e2 193d
000000d0: e1ae 833d 3c3d 823d 08a7 82bc 71c1 83bd
000000e0: fefa 16bd ad87 1e3c 6566 703d 8ffe 8c3c
000000f0: 66db ae3d cfca 1d3d cea7 713d 0a6f 8b3c

model.8.weight f4 [64, 128]
-2.5654887e-18 -0.057032805 0.0047137574 -1.9353255e-18 -0.0011066895 -0.005508585 0.006576155 -0.07598608
-0.0005258855 -0.0012339236 0.0071021146 -0.0015843754 0.005594949 9.330052e-20 -0.0037340717 -2.5154973e-17
-0.082507335 -0.0025209147 -0.0009384947 6.123867e-20 -3.30513e-20 2.8859207e-13 0.048590966 0.06534385
-0.0034195927 0.0060739955 -0.08155178 -0.01040297 0.013120139 -0.03329685 -0.0486623 -0.065846734
-0.008845555 1.8564053e-08 0.08330904 -0.083691955 -0.005747534 -0.07732758 -0.04838675 1.0284474e-10
0.015856741 -0.00016979637 -0.029401593 0.041350212 -0.00025597066 0.0036546525 3.0807678e-05 -0.001179148
-0.014259944 -0.0041645397 1.7017994e-19 0.050645903 -3.0248597e-12 -0.07467611 0.069814056 1.3488459e-05
0.0069609494 0.0855729 0.007508974 0.032595444 -7.943143e-08 -3.1538422e-18 0.039683808 0.004113217
7.149255e-20 0.007766177 -0.044476762 -0.00018162359 -3.2624988e-19 0.080086365 -0.0063298717 3.0349143e-05
-0.029140178 0.051433593 0.052095126 3.0748648e-09 0.01888505 -0.013254946 -0.00035230513 0.008154604
-0.046386387 -0.0071129636 -0.068205215 0.020564608 0.011580034 4.0853933e-19 -0.0027127424 -0.018287988
0.06825253 -1.590319e-19 0.009836553 0.023527108 0.08145226 -0.048593655 0.013274096 0.0050717182
2.305029e-05 1.9170693e-14 1.2873448e-05 0.0742317 -0.06238794 -0.011420475 -1.6908452e-12 -0.04324825
-0.040312517 0.0011021203 -0.0024766705 0.012322949 -6.001727e-08 -0.072031036 -0.037534866 9.651284e-07
0.06139792 0.031646024 -6.09905e-09 1.6076966e-19 -1.2306951e-18 -0.0037774758 1.5143195e-19 -0.038869057
0.006872258 -0.049748257 1.30285995e-08 -0.010101609 1.4620949e-09 -0.011674243 -0.05654053 -0.01016675
-0.0 0.0 -0.0 0.0 -0.0 -0.0 -0.0 0.0
-0.0 -0.0 0.0 0.0 -0.0 -0.0 0.0 -0.0
0.0 -0.0 0.0 0.0 0.0 0.0 0.0 -0.0
0.0 -0.0 -0.0 0.0 -0.0 -0.0 -0.0 -0.0
0.0 0.0 -0.0 -0.0 -0.0 -0.0 0.0 0.0
-0.0 -0.0 0.0 -0.0 -0.0 0.0 -0.0 0.0
0.0 0.0 -0.0 -0.0 -0.0 -0.0 -0.0 0.0
0.0 0.0 -0.0 0.0 -0.0 -0.0 -0.0 -0.0
0.0 0.0 -0.0 -0.0 0.0 0.0 0.0 -0.0
0.0 -0.0 -0.0 0.0 -0.0 -0.0 -0.0 0.0
-0.0 0.0 0.0 0.0 -0.0 -0.0 -0.0 -0.0
-0.0 -0.0 -0.0 0.0 0.0 0.0 0.0 -0.0
-0.0 -0.0 -0.0 0.0 -0.0 -0.0 -0.0 -0.0
-0.0 -0.0 0.0 -0.0 -0.0 0.0 -0.0 0.0
0.0 0.0 -0.0 0.0 -0.0 -0.0 0.0 -0.0
-0.0 -0.0 0.0 0.0 -0.0 0.0 0.0 -0.0
00000000: b64c 3da2 3b9b 69bd dd75 9a3b 44cd 0ea2
00000010: 560e 91ba 5c81 b4bb c97c d73b 979e 9bbd
00000020: 94db 09ba 9bbb a1ba dbb8 e83b d1aa cfba
00000030: d555 b73b b44c dc1f 54b7 74bb 8003 e8a3
00000040: 9bf9 a8bd ee35 25bb 5005 76ba 8198 901f
00000050: 9214 1c9f 8076 a22a 5207 473d ffd2 853d
00000060: 3f1b 60bb 5e08 c73b 9f04 a7bd 3871 2abc
00000070: daf5 563c 4762 08bd 1f52 47bd a7da 86bd
00000080: f2ec 10bc c976 9f32 ee9d aa3d b066 abbd
00000090: cf55 bcbb ec5d 9ebd 2f31 46bd 7128 e22e
000000a0: ffe5 813c 5e0b 32b9 9cdb f0bc d75e 293d
000000b0: cd33 86b9 e582 6f3b 7e37 0138 a48d 9aba
000000c0: 8aa2 69bc b176 88bb bbe9 4820 1472 4f3d
000000d0: 07db 54ac caef 98bd acfa 8e3d 7e4c 6237
000000e0: ad18 e43b d840 af3d d70d f63b cd82 053d
000000f0: e493 aab3 65b6 68a2 7d8b 223d 2ac8 863b
00000100: 98ce a81f 6a7b fe3b 442d 36bd 3672 3eb9
00000110: 7d95 c0a0 5204 a43d d06a cfbb 4a96 fe37
00000120: 62b7 eebc 08ac 523d b361 553d 984d 5331
00000130: d2b4 9a3c 462b 59bc 98b5 b8b9 e39a 053c
00000140: a7ff 3dbd dd13 e9bb 2daf 8bbd 1c77 a83c
00000150: 2fba 3d3c b828 f120 44c8 31bb b1d0 95bc
00000160: fcc7 8b3d 71c0 3ba0 7e29 213c ecbb c03c
00000170: 71d0 a63d 240a 47bd 987b 593c a830 a63b
00000180: 1f5c c137 9cac ac28 0afb 5737 ca06 983d
00000190: 7f8a 7fbd f21c 3bbc 1ef7 edab 1425 31bd
000001a0: bd1e 25bd 0575 903a a34f 22bb 32e6 493c
000001b0: d8e2 80b3 0285 93bd 29be 19bd 8f89 8135
000001c0: 637c 7b3d 439f 013d d08f d1b1 a6cd 3d20
000001d0: 599e b5a1 878f 77bb 80c7 3220 2935 1fbd
000001e0: ae30 e13b d4c4 4bbd 63d4 5f32 3881 25bc
000001f0: e4f2 c830 5345 3fbc 0b97 67bd 7192 26bc
00000200: 0000 0080 0000 0000 0000 0080 0000 0000
00000210: 0000 0080 0000 0080 0000 0080 0000 0000
00000220: 0000 0080 0000 0080 0000 0000 0000 0000
00000230: 0000 0080 0000 0080 0000 0000 0000 0080
00000240: 0000 0000 0000 0080 0000 0000 0000 0000
00000250: 0000 0000 0000 0000 0000 0000 0000 0080
00000260: 0000 0000 0000 0080 0000 0080 0000 0000
00000270: 0000 0080 0000 0080 0000 0080 0000 0080
00000280: 0000 0000 0000 0000 0000 0080 0000 0080
00000290: 0000 0080 0000 0080 0000 0000 0000 0000
000002a0: 0000 0080 0000 0080 0000 0000 0000 0080
000002b0: 0000 0080 0000 0000 0000 0080 0000 0000
000002c0: 0000 0000 0000 0000 0000 0080 0000 0080
000002d0: 0000 0080 0000 0080 0000 0080 0000 0000
000002e0: 0000 0000 0000 0000 0000 0080 0000 0000
000002f0: 0000 0080 0000 0080 0000 0080 0000 0080
00000300: 0000 0000 0000 0000 0000 0080 0000 0080
00000310: 0000 0000 0000 0000 0000 0000 0000 0080
00000320: 0000 0000 0000 0080 0000 0080 0000 0000
00000330: 0000 0080 0000 0080 0000 0080 0000 0000
00000340: 0000 0080 0000 0000 0000 0000 0000 0000
00000350: 0000 0080 0000 0080 0000 0080 0000 0080
00000360: 0000 0080 0000 0080 0000 0080 0000 0000
00000370: 0000 0000 0000 0000 0000 0000 0000 0080
00000380: 0000 0080 0000 0080 0000 0080 0000 0000
00000390: 0000 0080 0000 0080 0000 0080 0000 0080
000003a0: 0000 0080 0000 0080 0000 0000 0000 0080
000003b0: 0000 0080 0000 0000 0000 0080 0000 0000
000003c0: 0000 0000 0000 0000 0000 0080 0000 0000
000003d0: 0000 0080 0000 0080 0000 0000 0000 0080
000003e0: 0000 0080 0000 0080 0000 0000 0000 0000
000003f0: 0000 0080 0000 0000 0000 0000 0000 0080
