Simulation_MLP/models_notfinetuned/base_mlp.pth (torch, 133186 bytes, 11 tensors)

model.0.weight f4 [128, 8]
0	0xbdd88601	-0.10572434
1	0xbd9741d7	-0.07385605
2	0xbd29d7a5	-0.04146542
3	0xbef5c5bb	-0.4800242
4	0xbd090f2a	-0.033461727
5	0x3ecd0bc5	0.40048042
6	0xbdced5c1	-0.10099364
7	0xbc51cb0c	-0.012804758
8	0xbe8520c8	-0.26001573
9	0xbe792f21	-0.24334385
10	0x3e92f763	0.28704366
11	0xbe1843da	-0.14869633
12	0xbe581a38	-0.21103752
13	0x3e92cc50	0.28671503
14	0xbcae1050	-0.021248013
15	0x3ddeee54	0.10885301
16	0xbe3bd41f	-0.18342637
17	0x3cb10b90	0.021611959
18	0xbeb83ea0	-0.3598528
19	0xbd998c70	-0.074974895
20	0x3da942f9	0.08264727
21	0x3eb0a796	0.34502858
22	0x3e890569	0.2676194
23	0xbd39c4fc	-0.045353875
24	0x3d9ed760	0.07755923
25	0x3e919803	0.28436288
26	0x3e3f278a	0.18667427
27	0xbd43a312	-0.047762938
28	0x3e49467b	0.19655792
29	0x3ec2c0fd	0.38037863
30	0xbec4306c	-0.38318193
31	0xbe983397	-0.2972686
32	0x3e00712b	0.1254317
33	0x3e4fa39c	0.20277256
34	0xbec22052	-0.37915283
35	0x3eaf12e1	0.3419409
36	0x3db33efa	0.08752246
37	0xbf460fa8	-0.7736764
38	0xbd61f96b	-0.055169504
39	0x3dbe7a58	0.09300679
40	0x3e855946	0.26044673
41	0x3db2ac59	0.08724279
42	0x3e761561	0.24031593
43	0xbda245c6	-0.079234645
44	0x3cafb58d	0.021448875
45	0xbf97e501	-1.1866761
46	0x3bf7d707	0.007563475
47	0x3e416851	0.1888745
48	0xbdc392c7	-0.0954948
49	0xbe82bf7c	-0.25536716
50	0x3eab1437	0.3341386
51	0xbe9fcdef	-0.31211802
52	0x3e005b10	0.12534738
53	0xbc13ffe7	-0.00903318
54	0xbe9847a5	-0.2974216
55	0x3d105d86	0.03524544
56	0x3e17b759	0.14816035
57	0x3d5cf46e	0.053944044
58	0x3e617d8a	0.22020546
59	0xbe38c3b3	-0.18043403
60	0x3e1e3190	0.15448594
61	0xbf2b7267	-0.6697144
62	0x3e5bf990	0.2148192
63	0xbdb7f3d5	-0.08982054
64	0xbd5b10b7	-0.053482737
65	0xbed0df72	-0.40795475
66	0xbeba9e3a	-0.36448842
67	0x3ebb3718	0.3656547
68	0xbd084b42	-0.033274896
69	0x3ed7dce0	0.42160702
70	0x3dcc9f2a	0.09991296
71	0xbe16c5c6	-0.14723882
72	0x3de0e216	0.109806225
73	0xbde0325c	-0.10947105
74	0x3e50aa0c	0.20377368
75	0x3cd0cbd5	0.02548782
76	0xbe3e122c	-0.1856162
77	0xbf6351d5	-0.8879674
78	0xbe21c7e9	-0.15798916
79	0xbd9e1543	-0.07718899
80	0x3d7155fa	0.058919884
81	0xbe726562	-0.23671487
82	0xbe18308d	-0.1486227
83	0x3e978912	0.29596764
84	0x3e3f061a	0.18654671
85	0x3eb88407	0.3603823
86	0x3e3fc3a4	0.18726975
87	0x3e510e0b	0.20415513
88	0xbddf919c	-0.10916445
89	0x3e6990fa	0.2280921
90	0xbdf0710b	-0.11740311
91	0x3dece593	0.11567225
92	0x3d84c192	0.06482233
93	0xbd9c0338	-0.076178014
94	0xbecda951	-0.4016824
95	0x3ed1bc38	0.40963912
96	0x3e9c8040	0.30566597
97	0xbd6d1f41	-0.057891134
98	0x3e121aa4	0.14267975
99	0x3e94e0fd	0.29077902
100	0xbd0177c2	-0.03160835
101	0x3d9fbabd	0.077992894
102	0xbad62eb4	-0.0016340823
103	0x3e01c892	0.12674168
104	0x3e4e7794	0.20162803
105	0xbe521436	-0.20515522
106	0xbc967bbd	-0.01836955
107	0x3dbe8a1d	0.09303687
108	0xbd15ae84	-0.036543384
109	0xbfc38863	-1.5275997
110	0x3e9e88e8	0.30963826
111	0xbd3f28bd	-0.04666971
112	0x3af19c79	0.0018433473
113	0xbd4faa3c	-0.050699458
114	0x3cc96031	0.024582
115	0x3c838616	0.016055148
116	0x3dcf2328	0.101141274
117	0xbe4f1d0a	-0.20225921
118	0xbd375f23	-0.044768464
119	0x3ed5f178	0.4178579
120	0xbe297253	-0.16547517
121	0x3ddfcd30	0.10927808
122	0x3d21f37c	0.039538845
123	0xbdef3002	-0.11679079
124	0x3e0f3b36	0.13987431
125	0x3e1a72bd	0.15082832
126	0x3e3fa29f	0.18714379
127	0x3eaa260b	0.3323215
128	0xbec9b5d6	-0.39396542
129	0x3e56e162	0.20984414
130	0xbd5eee63	-0.054426562
131	0xbd9615d0	-0.07328379
132	0xbd954e4f	-0.07290327
133	0x3c4c5a00	0.01247263
134	0x3e034da8	0.12822592
135	0x3e879bb9	0.26485994
136	0xbdfe5a4a	-0.12419565
137	0x3df692fa	0.12039752
138	0x3e9a861e	0.30180448
139	0x3bf870c7	0.0075818035
140	0x3d8c27b8	0.06843513
141	0xbfac4e7c	-1.3461452
142	0xbe272e1b	-0.16326182
143	0xbd96c462	-0.07361676
144	0xbe816209	-0.25270107
145	0xbdaf76ec	-0.085676044
146	0xbe08c4ef	-0.13356374
147	0x3eb7bcc4	0.35886204
148	0xbdb92b0b	-0.09041413
149	0xbca923ad	-0.020646894
150	0x3ac7bc97	0.0015238699
151	0x3dc48fb4	0.09597722
152	0xbe641f46	-0.22277555
153	0x3e712f06	0.23553094
154	0xbe8b9de5	-0.272689
155	0x3e3a7e8b	0.18212335
156	0x3e282f78	0.16424358
157	0xbf97574b	-1.1823515
158	0xbe8890cc	-0.2667297
159	0xbdf1c861	-0.11805797
160	0xbe3ef30b	-0.18647401
161	0x3d3b47d7	0.04572281
162	0x3eaef8ae	0.34174103
163	0x3ea4aa08	0.32160974
164	0x3db4c230	0.08826101
165	0x3ea6508e	0.32483333
166	0xbecbcb80	-0.39803696
167	0x3eb7e692	0.359181
168	0x3defa8d7	0.117021255
169	0x3e473c84	0.19456679
170	0x3e831191	0.2559934
171	0xbdfa397a	-0.12217994
172	0x3dee8615	0.11646668
173	0x3e262e0a	0.162285
174	0x3e146d77	0.14494883
175	0xbebe8dc3	-0.3721753
176	0xbea254d4	-0.31705344
177	0xbd4007ea	-0.046882547
178	0xbe85f630	-0.2616439
179	0xbead6192	-0.33863503
180	0x3db565a3	0.08857276
181	0x3e672041	0.22570898
182	0xbecffa64	-0.4062072
183	0xbe179be7	-0.14805566
184	0x3df533fb	0.11972805
185	0xbe1a73bf	-0.15083216
186	0x3e031469	0.12800755
187	0x3e9545dd	0.29154864
188	0x3e3c3e16	0.18383059
189	0x3e322575	0.17397101
190	0xbe1a50e6	-0.15069923
191	0xbe19edca	-0.15032116
192	0xbe95f952	-0.2929178
193	0x3e0324ab	0.12806956
194	0xbd7dfd9a	-0.06200943
195	0x3e950975	0.29108778
196	0x3e7e667f	0.24843787
197	0x3eb1205b	0.34594998
198	0x3e385132	0.17999724
199	0x3e717c09	0.23582472
200	0x3c08a6b0	0.008340523
201	0x3d6c5a6f	0.05770343
202	0xbd8a4a1b	-0.06752416
203	0x3e8d05c8	0.27543473
204	0x3dcefa24	0.10106304
205	0x3e835acc	0.2565521
206	0xbeb541e1	-0.35401824
207	0xbec95807	-0.39324972
208	0xbe7368ab	-0.23770396
209	0x3e3b5598	0.1829437
210	0x3e9f657c	0.31132114
211	0xbe0ef7a1	-0.1396165
212	0xbe32fce3	-0.17479281
213	0xbf3dc735	-0.7413209
214	0xbe87504e	-0.26428455
215	0xbe4f50f5	-0.20245726
216	0xbea4868b	-0.32133898
217	0xbe343a75	-0.17600425
218	0x3ebf99aa	0.37421924
219	0x3db26698	0.087109745
220	0x3dc15787	0.09440523
221	0x3e8fdbae	0.2809729
222	0x3e3341b3	0.17505531
223	0x3e47fccc	0.19530028
224	0x3d30f320	0.043200612
225	0x3e82b921	0.25531867
226	0x3e6ba0ce	0.23010561
227	0x3db3ffb3	0.08789005
228	0xbe32c1c0	-0.17456722
229	0x3d3aeb91	0.04563481
230	0x3ea4ed03	0.32212076
231	0x3e460b46	0.19340238
232	0x3e583053	0.21112184
233	0x3e7fc9d6	0.24979338
234	0xbe3ade70	-0.18248916
235	0x3e45247a	0.19252196
236	0x3e997da5	0.29978672
237	0x3e430dbe	0.19048211
238	0x3d32d7ce	0.04366284
239	0x3dc10580	0.09424877
240	0x3e1f65e7	0.15566216
241	0xbdbeac17	-0.09310167
242	0xbead23e0	-0.33816433
243	0xbe0687b2	-0.13137701
244	0xbcfe2b44	-0.03102649
245	0x3cdab60d	0.026698137
246	0x3e3e5af7	0.18589388
247	0x3f0b30e8	0.543715
248	0x3ce4634a	0.027879376
249	0x3dd4f6e4	0.10398653
250	0xbe3002b4	-0.17188531
251	0x3ebbbedd	0.36669055
252	0x3e6202b0	0.22071338
253	0xbedd939d	-0.43276682
254	0xbe2f6921	-0.17129947
255	0xbe2546db	-0.1614031

model.0.bias f4 [128]
0	0x3e85a6eb	0.2610391
1	0x3e4f5883	0.20248608
2	0xbe4bb1a7	-0.19891988
3	0x3d49db08	0.04928115
4	0xbd5e8102	-0.05432225
5	0x3d37bafe	0.044856064
6	0xbe7b2321	-0.2452512
7	0xbe976869	-0.29571846
8	0x3e6b8050	0.22998166
9	0x3e1264db	0.14296286
10	0xbd330479	-0.043705437
11	0xbea3b915	-0.31977144
12	0xbeb5e7cf	-0.35528418
13	0xbe976c9b	-0.29575047
14	0xbe5d90e8	-0.21637309
15	0x3ca8011d	0.020508343
16	0xbeb8683b	-0.36017022
17	0x3e887b25	0.26656452
18	0x3d2b08e8	0.04175654
19	0xbdad0ca1	-0.084496744
20	0xbe839b3d	-0.25704375
21	0xbe455d95	-0.1927398
22	0x3d8d021e	0.068851694
23	0x3eb0cffa	0.34533674
24	0xbba2818a	-0.00495929
25	0x3e70233c	0.23450941
26	0xbea5a19b	-0.32349858
27	0xbdfce998	-0.12349242
28	0x3eb23c12	0.34811455
29	0x3e45f7b0	0.19332767
30	0xbe76fe14	-0.2412036
31	0x3e8af4c2	0.2713986
32	0xbdd52be2	-0.104087606
33	0xbe65f1be	-0.22455499
34	0xbeb36100	-0.35034943
35	0xbc8f88d3	-0.017521298
36	0x3ddd8c37	0.108177595
37	0xbdc0dcc9	-0.094171114
38	0xbe53b690	-0.20675111
39	0x3e63e35a	0.22254696
40	0x3da18c8b	0.078881346
41	0x3e6bec31	0.23039319
42	0xbe6bb8fe	-0.23019788
43	0x3e8c3d18	0.2739036
44	0xbf014de5	-0.5050948
45	0xbe55407d	-0.20825382
46	0x3db67ad7	0.089101486
47	0xbecae821	-0.39630225
48	0xbe7995ad	-0.24373503
49	0xbce243b3	-0.027620172
50	0x3de8b70b	0.11363038
51	0x3e25a021	0.16174366
52	0x3ed538dd	0.41644946
53	0xbe907a00	-0.2821808
54	0xbea7aaab	-0.32747397
55	0xbb7bcb9b	-0.003842092
56	0xbe5f8513	-0.21828108
57	0xbeaccb19	-0.337487
58	0xbe66837e	-0.22511098
59	0x3eac185e	0.3361234
60	0xbdd12f07	-0.10214048
61	0xbd60fdf2	-0.05492968
62	0xbe8aaefa	-0.27086622
63	0xbde36a09	-0.11104209
64	0xbc6b1d49	-0.014350244
65	0x3dde17d5	0.10844389
66	0x3c0038ec	0.007826071
67	0xbeadcbc8	-0.33944535
68	0xbb257634	-0.0025247457
69	0xbd50cd2a	-0.05097691
70	0x3e438992	0.19095448
71	0xbbc0f924	-0.005889075
72	0xbd4d85fe	-0.050176613
73	0x3e71b137	0.23602758
74	0xbe18141d	-0.14851423
75	0xbe4a0ed7	-0.19732223
76	0x3deed500	0.1166172
77	0xbe0b08fb	-0.13577645
78	0x3e2efe0e	0.17089102
79	0xbe1ed0dd	-0.15509363
80	0x3b9fdaed	0.004878393
81	0xbc963914	-0.018337764
82	0x3ed74713	0.42046413
83	0x3db490c4	0.08816674
84	0xbdbdffa3	-0.092772745
85	0xbee16a5d	-0.4402646
86	0xbcff0e3c	-0.031134717
87	0x3e086e9a	0.13323441
88	0x3e064015	0.13110383
89	0x3e00e5a6	0.12587604
90	0xbdf3d9d3	-0.11906781
91	0xbdfd9d88	-0.12383562
92	0xbe7584a8	-0.23976386
93	0xbea501e6	-0.3222801
94	0x3e314d39	0.17314614
95	0x3d1553ab	0.036456745
96	0x3d92c70d	0.07166872
97	0x3e4228af	0.18960832
98	0xbd743822	-0.059623845
99	0xbe3c131a	-0.18366662
100	0x3e20ff95	0.15722497
101	0xbe964dfb	-0.2935637
102	0x3e06c2ce	0.1316025
103	0x3c4fe8ff	0.012689828
104	0xbe59998c	-0.2124998
105	0xbeb8f576	-0.36124772
106	0xbe2e8733	-0.17043762
107	0xbdc9fe4f	-0.09862959
108	0xbe110e77	-0.14165674
109	0x3e70e3ab	0.23524348
110	0xbe164ca4	-0.14677674
111	0xbe1fdeb4	-0.15612298
112	0x3e6608cb	0.22464292
113	0xbe1b7acb	-0.1518356
114	0x3e185cde	0.14879176
115	0x3cf5666b	0.029956063
116	0xbe366efb	-0.17815773
117	0x3d7d0b34	0.061778262
118	0xbe2e9758	-0.1704992
119	0x3e6cec81	0.23137094
120	0xbeb09322	-0.34487253
121	0xbe2a714e	-0.16644785
122	0xbc8be5b8	-0.017077312
123	0x3d553d78	0.052060574
124	0xbda6f9a9	-0.08153088
125	0xbde78a99	-0.11305732
126	0xbdb6dce2	-0.08928849
127	0x3e51ab21	0.20475437

model.2.weight f4 [128, 128]
0	0x3d0c30bf	0.034226175
1	0xbc874d38	-0.016516313
2	0xbd75eff8	-0.060043305
3	0x3dae99f0	0.08525455
4	0xbc520f9f	-0.012821107
5	0xbd63d387	-0.05562165
6	0xbb34f9fc	-0.0027614823
7	0x3d6b4417	0.057437982
8	0xbc726a00	-0.01479578
9	0xbd8e5e6e	-0.06951605
10	0xbd6ebdb1	-0.058286373
11	0xbd9dbea1	-0.07702375
12	0x3d06bb51	0.032893483
13	0xbe89a806	-0.26886004
14	0xbd2b5b87	-0.041835334
15	0x3d9471e6	0.07248287
16	0xbe205b3b	-0.15659802
17	0xbc1cf1d1	-0.009579138
18	0x3cf62b6a	0.030049998
19	0x3c35702f	0.01107411
20	0x3be24f09	0.0069063944
21	0xbaf0a09c	-0.0018358412
22	0xbdd9fbdb	-0.10643741
23	0xbd625a62	-0.055261977
24	0x3cf899e7	0.030346824
25	0xbe23f79b	-0.16012423
26	0xbc2e260c	-0.010629188
27	0xbd6ae2c2	-0.05734516
28	0x3de5288c	0.11189374
29	0x3d15b602	0.03655053
30	0x3d89bb66	0.067251965
31	0xbcb5cb40	-0.022191644
32	0x3dd764a7	0.10517245
33	0xbdbf60e5	-0.09344653
34	0xbd2a0ffe	-0.041519158
35	0xbd87610a	-0.066103056
36	0xbd7807fd	-0.060554493
37	0xbbac632c	-0.0052608456
38	0x3ccd8166	0.025086116
39	0x3d9a494a	0.0753351
40	0x3b9c6d2f	0.004773758
41	0x3ced6a3d	0.028981322
42	0x3d23b938	0.03997156
43	0xbd99b2ad	-0.07504783
44	0xbdc80ad7	-0.097676925
45	0x3c90ed89	0.01769139
46	0xbbe137ca	-0.0068731057
47	0x3e3624d5	0.17787488
48	0xbc3a48b4	-0.011369873
49	0x3c57f92a	0.013181964
50	0xbd3c2eb8	-0.045942992
51	0xbdecd49b	-0.11563989
52	0xbd1fc880	-0.03900957
53	0xbda21f40	-0.07916117
54	0xbe061836	-0.13095173
55	0x3d57675b	0.0525888
56	0xbdd51a66	-0.10405426
57	0xbd4998a5	-0.04921784
58	0xbd83df3f	-0.06439065
59	0x3cc8d6ee	0.024516549
60	0xbd849718	-0.06474131
61	0x3cb67a01	0.022274973
62	0x3d823ea0	0.06359601
63	0x3dbc6503	0.09198954
64	0xbc0059a7	-0.007833875
65	0xbca1f868	-0.01977177
66	0x3d82d7fb	0.06388851
67	0xbd370668	-0.044683844
68	0x3e1067bf	0.14102076
69	0xbe1fb96c	-0.15598077
70	0xbd47b5e8	-0.048757464
71	0x3dac860e	0.084240064
72	0xbc9132a9	-0.017724352
73	0x3de5077b	0.111830674
74	0xbde5f0b3	-0.1122755
75	0x3c59b4a5	0.013287698
76	0x3d2680f0	0.040650308
77	0xbc995bd3	-0.018720543
78	0x3e062014	0.13098174
79	0xbd53ff28	-0.051757008
80	0xbdd97cea	-0.106195286
81	0xbd600e09	-0.054700885
82	0x3d133f40	0.03594899
83	0x3d200087	0.039063003
84	0x3de95982	0.113940254
85	0xbd0ffdc4	-0.03515412
86	0x3c29eae6	0.010370946
87	0x3ce4b4ec	0.027918302
88	0x3e050bba	0.12992755
89	0x3d567ae1	0.05236328
90	0xbcfea886	-0.031086218
91	0xbc4a4059	-0.012344443
92	0x3d117165	0.035508532
93	0xbc38ebb1	-0.011286662
94	0x3d682c8a	0.0566831
95	0xbcbe7973	-0.02325127
96	0xbe0e06e7	-0.1386982
97	0xbc28c3bb	-0.010300572
98	0x3d1e5220	0.03865254
99	0x3c7eb6fa	0.015546555
100	0x3d40a4a0	0.047032
101	0xbde343f9	-0.11096949
102	0xbd84c03c	-0.06481978
103	0x3c88528a	0.01664092
104	0xbcb91f82	-0.022598032
105	0xbd94432f	-0.07239377
106	0xbde0e71b	-0.1098158
107	0x3bd74ab3	0.006570184
108	0x3bce0f6e	0.0062884605
109	0x3d714e8f	0.05891281
110	0x3c042a9d	0.0080668
111	0x3e5d9a85	0.21640976
112	0x3d904cea	0.0704592
113	0xbd2d4f9b	-0.042312246
114	0xbdf67af8	-0.12035173
115	0xbd522f86	-0.051314853
116	0x3cc06636	0.023486238
117	0xbdb24479	-0.087044664
118	0x3c2f716f	0.010708197
119	0x3d6df81d	0.058097947
120	0x3d993950	0.074816346
121	0x3cc74458	0.024324581
122	0x3d058de8	0.032606035
123	0xbda060c7	-0.07830959
124	0x3e468a5d	0.19388719
125	0xbd7eb97f	-0.06218862
126	0xbdb137b7	-0.08653205
127	0xbcd17dfe	-0.025572773
128	0x3a0cb795	0.0005367932
129	0xbcae0b88	-0.021245733
130	0xbd3123b2	-0.043246932
131	0xbd70d6b3	-0.058798503
132	0xbd363501	-0.044484142
133	0xbce24839	-0.02762233
134	0x3d052884	0.03250934
135	0xbd211ca7	-0.039333966
136	0xbdb2fa09	-0.08739097
137	0xbd87dddb	-0.066341124
138	0x3d5bc5e6	0.053655528
139	0xbb7f87e7	-0.0038990916
140	0xbd19bb45	-0.03753211
141	0xbd9db64f	-0.07700788
142	0x3d812e98	0.06307715
143	0xbdb2a830	-0.087234855
144	0xbd56989f	-0.052391645
145	0xbd53b61d	-0.05168735
146	0xbd591eed	-0.05300801
147	0x3db3830d	0.0876523
148	0xbccb094f	-0.024784712
149	0x3dd3e6c3	0.10346749
150	0xbd82da78	-0.06389326
151	0xbd43cd38	-0.047803134
152	0xbd473cd0	-0.04864198
153	0x3db9d5e8	0.090740025
154	0x3d8a3e57	0.06750172
155	0x3d0f69a7	0.035012867
156	0xbb9aa083	-0.0047188415
157	0xbd6ce6d1	-0.05783731
158	0xbe31c180	-0.1735897
159	0xbd93c2db	-0.072149
160	0x3d4f6f55	0.050643284
161	0x3de7edf1	0.113246806
162	0xbe12fc51	-0.14354064
163	0x3d576121	0.052582864
164	0x3ddf38f4	0.10899535
165	0xbd3f168c	-0.04665236
166	0x3c0c7cee	0.008574707
167	0xbd2d6423	-0.042331826
168	0x3df3b507	0.118997626
169	0x3da87ad8	0.082265556
170	0xbd5e1213	-0.054216456
171	0xbd82e01f	-0.06390404
172	0xbdef6a44	-0.116901904
173	0xbc4f36d7	-0.012647352
174	0x3d083cbf	0.033261057
175	0x3c260e09	0.010135182
176	0x3e17fd73	0.14842777
177	0x3ddd012f	0.107912414
178	0x3d72c865	0.059273142
179	0x3dcab15a	0.098971084
180	0x3ca1b18b	0.01973798
181	0xbe167437	-0.1469277
182	0xbda43499	-0.08017845
183	0xbd19c2b7	-0.03753921
184	0x3c4c0d9e	0.012454418
185	0xbd683621	-0.056692246
186	0x3da4e280	0.08051014
187	0xbdea94d5	-0.11454169
188	0xbe1ee997	-0.15518795
189	0x3bd3ae76	0.0064600063
190	0xbca4f59c	-0.020136647
191	0xbd0d6d16	-0.03452786
192	0xbd1e400e	-0.038635306
193	0xbd9a987c	-0.07548615
194	0xbd677504	-0.05650808
195	0x3d66c481	0.056339744
196	0x3db3ec39	0.0878529
197	0x3c54cf19	0.012988829
198	0x3d87fae2	0.06639649
199	0x3d18e73f	0.03732991
200	0xbca06660	-0.019580066
201	0x3d496317	0.049166765
202	0x3da41d34	0.080133826
203	0x3dc100a2	0.09423949
204	0xbd97d582	-0.0741377
205	0x3d756e70	0.059919775
206	0x3b1d3560	0.0023988113
207	0xbe453fde	-0.19262645
208	0x3d911c67	0.070854954
209	0xbc986b5e	-0.018605884
210	0x3b49bc4c	0.00307824
211	0xbc640fa8	-0.013919748
212	0xbc74140b	-0.014897357
213	0x3d3e6a74	0.04648824
214	0xbcaf4259	-0.021393942
215	0x3b5ea59a	0.0033973218
216	0x3c895af7	0.016767008
217	0xbdc70952	-0.097185746
218	0xbe5ec05e	-0.2175307
219	0xbdbba24c	-0.09161815
220	0xbe69ed98	-0.22844541
221	0x3cf8c8f7	0.030369265
222	0x3d8bb86e	0.068222865
223	0x3e04c58e	0.12965986
224	0x3bf78ad8	0.0075543933
225	0x3d90cdf1	0.0707053
226	0xbd13647e	-0.03598451
227	0xbc801ba5	-0.015638182
228	0x3e0704ee	0.13185474
229	0xbd463259	-0.04838786
230	0xbde57ca1	-0.11205412
231	0x3d99409c	0.074830264
232	0xbc8c88d5	-0.01715509
233	0xbe419763	-0.18905406
234	0x3d9cceaf	0.07656609
235	0xbc0d07c9	-0.008607813
236	0x3db314d7	0.08744209
237	0xbda98990	-0.08278191
238	0xbdb398d6	-0.087693855
239	0xbc82f5cf	-0.015986351
240	0xbd79ebcd	-0.061015893
241	0xbd22f5b5	-0.039785106
242	0x3d2a6571	0.04160065
243	0xbb9a0723	-0.004700558
244	0xbd0e9b37	-0.034815993
245	0xbd41d1cc	-0.04731922
246	0xbd66ae0b	-0.056318324
247	0xbdce83be	-0.100837216
248	0xbdc13c78	-0.094353616
249	0xbe22fba6	-0.15916309
250	0x3dbf0460	0.09327006
251	0xba031c46	-0.00050014665
252	0xbdaa3cd6	-0.08312385
253	0xbd99e94b	-0.075152
254	0xbdcf1ed8	-0.10113305
255	0x3de02e46	0.10946326

model.2.bias f4 [128]
0	0x3ded2afa	0.11580463
1	0x3e2de5ae	0.16982147
2	0xbd98aff2	-0.07455434
3	0x3c502c5a	0.012705887
4	0x3e2793f6	0.16365036
5	0x3d26de0b	0.0407391
6	0x3e2adcf7	0.16685854
7	0x3e3c6964	0.18399578
8	0x3c841fd7	0.016128464
9	0x3d689000	0.056777954
10	0xbdb79faf	-0.08966004
11	0xbc5fbffb	-0.013656612
12	0xbdc2fe95	-0.09521214
13	0xbd7502bf	-0.059817072
14	0x3da835d6	0.082133934
15	0xbcb2ada2	-0.02181131
16	0x3d9a656a	0.075388744
17	0xbd9ddf64	-0.07708624
18	0x3e0f9014	0.14019805
19	0xbd0203d4	-0.031741932
20	0x3df7807c	0.12085053
21	0x3d997793	0.0749351
22	0x3db0e920	0.08638215
23	0x3ce43fe4	0.027862497
24	0xbdaf78b2	-0.08567943
25	0x3d6a441f	0.05719387
26	0x3d892f41	0.06698466
27	0x3cddb1a2	0.027062241
28	0xbd1e4c52	-0.038647003
29	0xbc9dfe6b	-0.019286355
30	0x3cea64c1	0.028612496
31	0x3d405cab	0.046963375
32	0x3e59bde5	0.21263845
33	0x3e5bc219	0.21460761
34	0xbc8cdfca	-0.017196555
35	0xbdb75d68	-0.08953363
36	0xbdc33651	-0.095318444
37	0x3da701d7	0.08154648
38	0x3e0e3801	0.13888551
39	0xbcad1b69	-0.021131234
40	0x3d417e16	0.047239386
41	0x3b823420	0.003973499
42	0xbdf5dc0c	-0.12004861
43	0x3db20cbf	0.086938374
44	0xbd78b0d9	-0.06071553
45	0xbe0cd9a9	-0.13754906
46	0x3c3d48f7	0.011553041
47	0xbdb36bc9	-0.08760793
48	0xbda773f1	-0.08176411
49	0x3dc5be0a	0.09655388
50	0x3d5becb8	0.05369255
51	0x3e1a967f	0.15096472
52	0x3be47cc2	0.00697288
53	0x3c2ccdbe	0.0105471
54	0x3cc6b2d5	0.024255196
55	0x3e05cbae	0.13065979
56	0xbc986fdd	-0.018608028
57	0x3e1a56b1	0.15072133
58	0x3d638647	0.05554798
59	0x3df0cdfb	0.11758038
60	0x3df419d4	0.11918989
61	0x3e483d82	0.19554713
62	0x3db45b68	0.08806497
63	0x3cdd95f9	0.027049052
64	0xbddc6a97	-0.10762518
65	0x3b6f9900	0.00365597
66	0x3d76d97d	0.060266007
67	0xbd04fc09	-0.032466922
68	0x3dedf2de	0.11618589
69	0xbe24cde4	-0.16094166
70	0xbcce0a14	-0.02515129
71	0xbd969d65	-0.073542394
72	0xbc1a196d	-0.009405476
73	0xbe1d5e51	-0.1536801
74	0xbd9eebbe	-0.07759808
75	0xbda67646	-0.081280276
76	0x3b9a372d	0.0047062845
77	0xbc264748	-0.010148831
78	0x3dc13a86	0.094349906
79	0x3df42702	0.11921503
80	0xbc0fa216	-0.008766672
81	0xbd78ba72	-0.060724683
82	0xbd34c996	-0.04413756
83	0x3db19981	0.08671857
84	0xbc8adcaf	-0.016950933
85	0x3d100ff2	0.035171457
86	0x3d6f0395	0.058353025
87	0x3d88ac2b	0.066734634
88	0x3dc88065	0.09790114
89	0x3e8c672d	0.27422467
90	0x3db12b12	0.08650793
91	0x3e069b04	0.13145071
92	0x3daee409	0.08539588
93	0x3cd88851	0.026432188
94	0xbd6140e8	-0.05499354
95	0x3cbcb7be	0.023036834
96	0x3de0380c	0.1094819
97	0x3e72d151	0.2371266
98	0xbdc59a9e	-0.096486315
99	0xbd6ce7e9	-0.057838354
100	0xbbb2b1cf	-0.0054533253
101	0x3d7e5f93	0.062102865
102	0x3e44b597	0.19209896
103	0xbd6e347b	-0.058155518
104	0x3db541f7	0.088504724
105	0x3e5c900a	0.21539322
106	0x3e3d5800	0.184906
107	0xbe53a0ba	-0.20666781
108	0x3e2334ba	0.15938082
109	0xbd18749a	-0.037220575
110	0x3dd8de17	0.10589235
111	0x3db9d4a8	0.09073764
112	0x3cff1b5c	0.031140976
113	0x3e064288	0.13111317
114	0x3d759d23	0.05996431
115	0x3d1ca67b	0.038244706
116	0xbe04acd4	-0.12956554
117	0xbc257860	-0.0100995
118	0xbdacb4bc	-0.0843291
119	0xbd65d793	-0.05611379
120	0x3d95e9c4	0.07319978
121	0x3e56fc18	0.20994604
122	0xbccaf012	-0.024772678
123	0xbcd4d8cd	-0.025982285
124	0x3dd80bd1	0.10549129
125	0xbdb2da5b	-0.08733054
126	0x3c045740	0.008077443
127	0x3ddaae01	0.1067772

model.4.weight f4 [64, 128]
0	0xba512acf	-0.0007979096
1	0xbd54d67f	-0.051962372
2	0x3d1cf924	0.038323537
3	0xbdb23c48	-0.08702904
4	0x3d458f1b	0.04823218
5	0x3d5197c3	0.051170122
6	0xbcfca0c0	-0.03083837
7	0x3dc2f815	0.09519974
8	0xbd57c391	-0.05267674
9	0x3cea885b	0.028629472
10	0xbcb36ee3	-0.02190346
11	0x3dcd1977	0.10014623
12	0xbc4eb488	-0.012616284
13	0xbd032fdd	-0.032028068
14	0xbc95ab6f	-0.018270222
15	0x3d84d753	0.06486382
16	0xbceca6a4	-0.028888054
17	0x3d9690fa	0.07351871
18	0x3dabfd88	0.083979666
19	0x3de796a6	0.11308031
20	0x3d09f6a3	0.033682477
21	0x3b95f2fc	0.004576085
22	0x3d9da731	0.07697905
23	0xbcd0372e	-0.025416937
24	0xbd993679	-0.07481093
25	0xbd931776	-0.07182209
26	0x3df80e6c	0.12112126
27	0xbc1f4051	-0.009719924
28	0xbcfd4fbf	-0.030921815
29	0x38f6ba68	0.00011764915
30	0xbdb42929	-0.08796913
31	0xbd4020fc	-0.046906456
32	0x3dd39391	0.103308804
33	0x3d4a1b60	0.049342513
34	0x3cdfba91	0.027310641
35	0xbdd4dfa3	-0.10394218
36	0xbd28310d	-0.041062403
37	0x3d2ead14	0.04264553
38	0x3e0d45f7	0.1379622
39	0x3e10314d	0.14081307
40	0xbd972027	-0.073791794
41	0xbda8d307	-0.08243375
42	0x3d9e3768	0.07725412
43	0x3d69dd77	0.05709597
44	0x3d92493d	0.07142875
45	0x3d455dfc	0.048185334
46	0xbae1dfed	-0.0017232873
47	0x3d38b34a	0.04509286
48	0x3dc42b6f	0.09578597
49	0x3d3ce841	0.046119932
50	0xbd0dfd6c	-0.03466551
51	0xbd95ddd0	-0.07317698
52	0xbd826782	-0.06367399
53	0x3db9e173	0.09076204
54	0xbb43ee05	-0.002989651
55	0x3e0c0d60	0.13676977
56	0xbd1a063d	-0.037603606
57	0xbc73a488	-0.01487077
58	0x3c1d0de6	0.009585833
59	0xbc6389c6	-0.013887828
60	0xbdac94fa	-0.084268525
61	0xbcbe6faa	-0.023246605
62	0xbda21bcd	-0.07915459
63	0xbdaa49c2	-0.083148494
64	0xbd826cf8	-0.063684404
65	0xbd5e3a44	-0.054254785
66	0xba6a631e	-0.0008941161
67	0xbd9dc300	-0.07703209
68	0xbb6fd24b	-0.003659385
69	0x3d66d07a	0.056351162
70	0xbc99a18a	-0.018753786
71	0x3cf99375	0.03046582
72	0xbd0cf2e2	-0.03441132
73	0x3c932314	0.017961062
74	0x3d9fa465	0.07795028
75	0x3cf5eb5d	0.030019457
76	0xbda37ccd	-0.07982788
77	0x3c40dd0a	0.01177145
78	0xbdae9fc1	-0.085265644
79	0x3d12c602	0.035833366
80	0xbd628a38	-0.055307597
81	0xbc78ead6	-0.015192708
82	0x3cdf2575	0.02723954
83	0xbdbbe101	-0.091737755
84	0x3be15b84	0.0068773646
85	0xbd46adb9	-0.04850552
86	0x3cdd6988	0.02702786
87	0x3ddaa027	0.10675078
88	0x3d80d3f5	0.062904276
89	0xbc487cc0	-0.012236774
90	0xbb952136	-0.004551078
91	0xbd6e96fc	-0.05824946
92	0xbd40df47	-0.047087934
93	0x3d699cd8	0.057034343
94	0xbd238a6e	-0.03992694
95	0xbc0e5815	-0.008687993
96	0x3e1f8797	0.15579067
97	0x3dc80f40	0.09768534
98	0xbcb83fbb	-0.022491327
99	0x3cb12935	0.021626094
100	0xbdb3fb20	-0.08788133
101	0x3d988d8a	0.074488714
102	0x3d240367	0.040042307
103	0x3cbdf3cc	0.02318754
104	0x3cde1fcc	0.027114771
105	0x3dacab3a	0.084310964
106	0x3bc49d38	0.0060001872
107	0xbd7599f8	-0.05996129
108	0x3dc7c2d8	0.0975396
109	0xbd3c6d86	-0.046002887
110	0xbd8c57ab	-0.06852659
111	0xbd8c3b4c	-0.068472475
112	0x3db8e45b	0.0902793
113	0xbca57cc7	-0.0202011
114	0xbd6b4131	-0.05743522
115	0xbcba484a	-0.022739548
116	0xbe45372f	-0.19259332
117	0xbdeeee84	-0.11666587
118	0xbb9b34c1	-0.0047365134
119	0x3d4d7970	0.05016464
120	0xbd982ae1	-0.074300535
121	0x3e3461e2	0.17615464
122	0xbca43a6f	-0.020047395
123	0xbd57a18c	-0.052644297
124	0xbd491dd1	-0.0491007
125	0xbd0c1ebe	-0.034209006
126	0x3e0146f7	0.12624727
127	0x3d1db351	0.038501088
128	0x3d8cdb1c	0.06877729
129	0xbcaac6ca	-0.020846743
130	0xbd1f2980	-0.038857937
131	0x3be8dcae	0.007106385
132	0x3dac22a2	0.08405043
133	0x3da5c3b6	0.080939695
134	0x3d9404ca	0.07227476
135	0x3d7186b9	0.058966372
136	0xbb8a803c	-0.0042267125
137	0x3dc86464	0.09784773
138	0x3d96d058	0.07363957
139	0x3df85921	0.12126375
140	0x3b6af28a	0.003585013
141	0xbe49a34b	-0.19691198
142	0x3d3bb8f1	0.04583067
143	0xbcae36b4	-0.021266319
144	0xbdc8971e	-0.09794448
145	0xbe7d8392	-0.24757221
146	0xbe433959	-0.19064845
147	0xbd99193c	-0.07475516
148	0xbda5c9de	-0.08095144
149	0x3b6f95cb	0.003655779
150	0xbe435aaf	-0.19077562
151	0xbdc37498	-0.09543723
152	0xbda26385	-0.07929138
153	0xbdbf5a42	-0.09343387
154	0xbcecd3cd	-0.028909588
155	0x3d9dbc21	0.07701898
156	0xbd32cc50	-0.04365188
157	0xbe327ccf	-0.17430423
158	0xbe0a85a2	-0.1352754
159	0x3d0e410e	0.03473001
160	0xbe1bfacc	-0.1523239
161	0x3dbb0a60	0.09132838
162	0x3caba7a1	0.020953955
163	0xba871807	-0.0010306843
164	0xbc7bce4c	-0.015369009
165	0x3dc5aaf5	0.09651748
166	0xbe7a2f32	-0.24432066
167	0xbeb0bee3	-0.34520635
168	0xbba70952	-0.0050975466
169	0xbcd1fd71	-0.025633546
170	0x3e075bac	0.13218564
171	0x3d6d32fa	0.057909943
172	0x3e127c78	0.14305294
173	0x3e1fd5f8	0.15608966
174	0x3d8216a2	0.06351973
175	0x3d26bef5	0.040709455
176	0x3d351fed	0.0442199
177	0xbb90f8b4	-0.004424179
178	0x3d3def2e	0.046370678
179	0xbe8cd0f1	-0.2750316
180	0x3c9365bd	0.017992849
181	0x3df60bf4	0.12013999
182	0x3e3ad797	0.18246303
183	0xbe16034b	-0.14649694
184	0x3e0d9a3a	0.13828364
185	0xbde7e0ef	-0.113221996
186	0xbd96f699	-0.073712535
187	0xbe062f86	-0.13104066
188	0x3d40038f	0.046878394
189	0x3ce9d704	0.02854491
190	0xbc713ad4	-0.014723498
191	0xbdecdc81	-0.11565495
192	0x3d33c9e6	0.043893717
193	0x3db16356	0.08661525
194	0xbd598f20	-0.05311501
195	0x3ca01c6d	0.019544804
196	0x3d69ba7b	0.057062607
197	0xbe94a9bc	-0.29035747
198	0x3eafcec1	0.34337428
199	0x3d2b8adc	0.041880473
200	0xbd2441d6	-0.04010185
201	0xbe98c3ec	-0.29836977
202	0x3ded2a50	0.11580336
203	0xbe405fbf	-0.18786524
204	0xbd8d89f6	-0.069110796
205	0x3bbe8062	0.0058136443
206	0xbd3f98b3	-0.046776485
207	0xbd1a0474	-0.037601903
208	0xbd318585	-0.043340225
209	0xbda3e837	-0.08003276
210	0x3de52c64	0.111901075
211	0x3c589ea3	0.013221416
212	0x3df58d5b	0.11989852
213	0x3cfb046b	0.030641755
214	0x3d2f3452	0.042774506
215	0xbe4e6335	-0.20155032
216	0x3e01976e	0.12655422
217	0xbd4ce870	-0.050026357
218	0xbda2f85a	-0.079575256
219	0xbc6bcb7b	-0.014391775
220	0xbde277c5	-0.110580005
221	0xbdc85243	-0.09781315
222	0x3d77f579	0.060536835
223	0xbcc07811	-0.023494752
224	0xbe90294c	-0.28156507
225	0x3e593b80	0.21214104
226	0xbd61b27b	-0.055101853
227	0xbd197562	-0.03746546
228	0x3e12b49e	0.14326712
229	0xbde30baf	-0.11086213
230	0x3cb59360	0.022165
231	0xbda90256	-0.08252399
232	0xbe2c6e9b	-0.16839068
233	0xbb5d3b76	-0.0033757365
234	0xbdba94d0	-0.09110415
235	0xbdcc4397	-0.09973829
236	0xbe1dfd05	-0.1542855
237	0x3c618c12	0.0137663055
238	0x3d7a32d6	0.061083637
239	0x3c89908b	0.016792556
240	0x3e09da81	0.13462259
241	0x3d93d3cd	0.07218132
242	0x3e148eff	0.14507674
243	0xbd61db7e	-0.055140965
244	0x3d227803	0.039665233
245	0x3e185bec	0.14878815
246	0x3d0e6175	0.03476091
247	0x3dd62278	0.10455793
248	0x3d9edb63	0.077566884
249	0x3cc8742c	0.024469458
250	0xbd54dc54	-0.051967934
251	0x3cd066e3	0.025439685
252	0x3dcf06a7	0.10108691
253	0xbd99e960	-0.07515216
254	0xbe9146c7	-0.2837431
255	0x3c407c72	0.01174842

model.4.bias f4 [64]
0	0x3d4e62d3	0.050387215
1	0xbc616456	-0.013756832
2	0x3dca562e	0.09879719
3	0xbc168697	-0.009187362
4	0x3e8d2e1e	0.27574247
5	0xbc832c1c	-0.016012244
6	0x3d1bde34	0.038053706
7	0x3d4029f8	0.046915025
8	0x3e248441	0.16066076
9	0xbb417dc9	-0.0029524437
10	0x3d009fee	0.03140252
11	0xbda6fcb1	-0.08153666
12	0x3e447322	0.19184545
13	0x3e440ff9	0.19146718
14	0x3e1f0302	0.15528491
15	0xbd2a13ed	-0.04152291
16	0x3d957506	0.07297711
17	0xbe2f7b53	-0.17136888
18	0xbcb69082	-0.022285704
19	0xbdf87de5	-0.121333875
20	0x3de1d6a2	0.11027266
21	0xbd151c73	-0.036404084
22	0x3d3d68a3	0.046242367
23	0x3d2bd136	0.041947566
24	0x3cf82672	0.03029177
25	0xbcfba29c	-0.030717187
26	0x3e1f7219	0.15570869
27	0x3d372d04	0.044720665
28	0x3e161dee	0.14659855
29	0x3dc8bb5e	0.098013625
30	0x3d60a6e2	0.05484665
31	0x3d527a76	0.05138632
32	0xbd6d0c45	-0.05787303
33	0xbcef4090	-0.02920559
34	0x3d95b8a8	0.07310611
35	0x3e7ca094	0.2467063
36	0x3e8bfc99	0.27341154
37	0xbd24ff2e	-0.04028242
38	0xbdc37406	-0.09543614
39	0x3d278167	0.040894892
40	0xbdcb615a	-0.09930678
41	0x3cb51bbc	0.022107951
42	0x3dd2893a	0.1028008
43	0x3db48ec9	0.088162966
44	0x3d9e6225	0.07733563
45	0x3ca92518	0.02064757
46	0x3e20be4c	0.15697592
47	0xbd075887	-0.03304341
48	0xbc0ab28c	-0.00846542
49	0xbeac9ba6	-0.337125
50	0xbc2b8731	-0.010469244
51	0x3dd88535	0.10572282
52	0x3e212365	0.15736158
53	0x3d94a407	0.07257848
54	0x3dcc2c79	0.0996942
55	0xbcfe3b7c	-0.031034224
56	0x3bcfad70	0.006337814
57	0x3cd7a818	0.02632527
58	0xbcd3a27b	-0.025834313
59	0x3db94134	0.0904564
60	0x3ddc4a0a	0.10756309
61	0x3cf36cd1	0.029714974
62	0x3ddeb200	0.108737946
63	0xbd1b6c29	-0.037944946

model.6.weight f4 [64, 64]
0	0xbd270973	-0.040780496
1	0xbdd3c8c0	-0.103410244
2	0x3cc66146	0.024216305
3	0x3ddbe402	0.107368484
4	0xbc245c67	-0.010031796
5	0xbe0c2723	-0.13686804
6	0x3d832da7	0.06405192
7	0x3d557fe4	0.05212392
8	0x3c5742fb	0.013138528
9	0x3d2830fc	0.04106234
10	0x3ccbbf71	0.02487156
11	0x3d8b31f2	0.06796636
12	0x3dba7123	0.0910361
13	0xbdcc0500	-0.09961891
14	0xbd9211fc	-0.071323365
15	0x3d3abe7a	0.04559181
16	0x3d98e841	0.07466174
17	0x3d8bac8a	0.068200186
18	0xbcabd20d	-0.020974183
19	0xbd88948e	-0.066689596
20	0xbd6ae5f3	-0.057348203
21	0x3de6d201	0.11270524
22	0xbcaba088	-0.02095057
23	0x3d7713d0	0.06032163
24	0xbdc38109	-0.09546096
25	0xbd3b1502	-0.04567433
26	0x3dd8c83e	0.10585068
27	0x396c58ea	0.00022539837
28	0xbe13c85a	-0.14431897
29	0xbda1abe1	-0.078941114
30	0x3d8ecb47	0.06972366
31	0x3ddbf96e	0.10740934
32	0xbdc4a8ca	-0.096025065
33	0x3c9e5f5f	0.019332586
34	0xbe02ad6f	-0.12761472
35	0xbe04fd2e	-0.12987205
36	0xbd3f149b	-0.04665051
37	0x3dceba99	0.100941844
38	0x3d34ff74	0.04418893
39	0xbdbe0f8f	-0.09280311
40	0xbdd31460	-0.103066206
41	0xbcb34ba8	-0.021886662
42	0x3c9c19d0	0.019055277
43	0xbd9fbbee	-0.077995166
44	0xbdaa7595	-0.08323208
45	0xbd9fc1ef	-0.07800662
46	0xbc9ddbbf	-0.019269822
47	0x3db97dc2	0.090571895
48	0x3c105ea5	0.0088116275
49	0xbe078adb	-0.13236563
50	0x3d460f1c	0.048354253
51	0xbc8d01f6	-0.01721285
52	0x3d60ead2	0.054911442
53	0x3d825179	0.06363196
54	0xbca3e121	-0.02000481
55	0x3dce8cd8	0.100854576
56	0x3c487bf1	0.012236581
57	0xbabf4ac5	-0.0014594427
58	0xbd46978c	-0.04848437
59	0x3dc56c0d	0.0963975
60	0x3db507f0	0.088394046
61	0xbdc3488a	-0.0953532
62	0x3cfcc22f	0.030854313
63	0xbca44fa5	-0.020057509
64	0xbda11b60	-0.078665495
65	0xbd804cfb	-0.06264683
66	0x3de9b6fa	0.11411853
67	0xbdf5f884	-0.12010291
68	0x3d92cf2b	0.071684204
69	0x3d8a2364	0.067450315
70	0xbd7acb56	-0.061229073
71	0xbd64c9b4	-0.05585642
72	0x3d808859	0.06276006
73	0xbc0754d3	-0.00825997
74	0x3d41c8fc	0.047310814
75	0xbdaa0448	-0.08301598
76	0x3d676bdd	0.05649935
77	0x3d903c09	0.07042701
78	0x3d7c73a7	0.061633732
79	0xbd26bfa1	-0.040710095
80	0xbd3d6690	-0.04624039
81	0x3d250a5e	0.04029309
82	0xbdb41d5a	-0.08794661
83	0x3d235284	0.039873615
84	0x3d6af1ba	0.057359435
85	0x3d5c7210	0.053819716
86	0xbd14b109	-0.036301646
87	0x3dfac1c6	0.122439906
88	0xbd0ae273	-0.033907365
89	0x3dfa75b1	0.12229479
90	0x3dd45f58	0.10369748
91	0xbd9fe243	-0.07806828
92	0xbdf0753c	-0.11741111
93	0xbc0be3de	-0.0085382145
94	0xbd187ab2	-0.037226386
95	0xbd07eadb	-0.03318296
96	0x3d772fe7	0.060348418
97	0x3c5197d5	0.012792547
98	0xbd5dcfa4	-0.0541531
99	0x3dc81680	0.097699165
100	0xbc3a5963	-0.0113738505
101	0x3c56ce6f	0.013110741
102	0x3cf45525	0.029825756
103	0xbdfc3d0f	-0.123163335
104	0x3e068479	0.13136472
105	0x3d97e3dc	0.074165076
106	0xbb27e96c	-0.0025621308
107	0xbe1005e3	-0.14064746
108	0xbd91e13b	-0.071230374
109	0xbd721b28	-0.05910793
110	0xbd797e57	-0.060911503
111	0x3df839fc	0.12120435
112	0x3cd0c538	0.025484666
113	0xbc0ddb1c	-0.008658197
114	0xbd549d26	-0.05190768
115	0xbdb2db69	-0.087332554
116	0x3d53e9b3	0.051736545
117	0xbd2ee2f5	-0.04269691
118	0x3d0d633d	0.03451847
119	0x3ce595d8	0.028025553
120	0x3e048d9e	0.12944648
121	0xb93f7253	-0.00018257769
122	0xbdc2f810	-0.095199704
123	0x3db1c835	0.086807646
124	0xbbbfe3d3	-0.005856016
125	0xbd1ef0fe	-0.038804047
126	0xbc9b0bb0	-0.018926471
127	0x3d53e5c0	0.05173278
128	0x3d39aa38	0.04532835
129	0x3ca2f50a	0.019892234
130	0x3c4ae213	0.012383002
131	0xbd35a99c	-0.044351205
132	0xbda213a1	-0.079139
133	0xbb7bc620	-0.0038417652
134	0x3d629f05	0.055327434
135	0xbda18dd5	-0.078883804
136	0xbe2da2bb	-0.16956608
137	0xbd7dc978	-0.061959714
138	0xbc160916	-0.00915744
139	0x3da2b233	0.07944145
140	0x3d4c2bc5	0.04984643
141	0xbcb59900	-0.022167683
142	0x3d6f9836	0.05849477
143	0x3d3b9bf9	0.045803044
144	0xbddfc7ba	-0.10926767
145	0x3c44dfdc	0.012016263
146	0xbda77cbd	-0.08178089
147	0x3dff412a	0.12463601
148	0xbd8c30d1	-0.068452485
149	0x3d93113d	0.07181022
150	0xbe3a233a	-0.181775
151	0xbe1bc4da	-0.15211812
152	0x3d289e7a	0.04116676
153	0xbdda0aa6	-0.10646562
154	0xbdae32b7	-0.08505767
155	0xbe11f06c	-0.1425187
156	0x3d995eea	0.074888065
157	0x3d31c4a0	0.043400407
158	0xbb15973c	-0.0022825738
159	0xbd79cb35	-0.06098481
160	0x3d983294	0.07431522
161	0xbde730e7	-0.11288624
162	0x3dc52b92	0.09627451
163	0x3dc2323a	0.09482236
164	0x3da08afa	0.07839008
165	0xbc9e028e	-0.019288328
166	0x3da5e836	0.08100931
167	0x3c023e07	0.007949359
168	0xbda57a44	-0.08079961
169	0xbda7d612	-0.081951275
170	0x3c7cda16	0.015432855
171	0x3db3a086	0.08770852
172	0xbda8f9f1	-0.082507975
173	0x3de6cc6e	0.112694606
174	0xbd8afc08	-0.067863524
175	0x3d668dd4	0.0562876
176	0x3deb62ee	0.11493479
177	0xbdcb08b3	-0.099137686
178	0x3d6e77c4	0.058219686
179	0x3d2700a0	0.04077208
180	0x3c5cf920	0.01348713
181	0xbe8a102a	-0.26965457
182	0x3b0e4a78	0.0021711867
183	0x3cf363b5	0.02971063
184	0xbcbcf16e	-0.023064341
185	0xbe18c049	-0.14917101
186	0xbce5ed85	-0.02806736
187	0x3d6a8032	0.057251163
188	0x3be3fce9	0.0069576395
189	0x3dcd7bb5	0.10033361
190	0xbe01a517	-0.12660633
191	0xbd818dde	-0.06325887
192	0x3c7b5c76	0.015341869
193	0xbe28713a	-0.16449443
194	0xbcdc29a2	-0.02687532
195	0x3cc3d435	0.0239049
196	0x3e026143	0.12732415
197	0x3dd20768	0.10255319
198	0xbd28281f	-0.041053887
199	0xbdd7ec22	-0.10543086
200	0xbe314a94	-0.17313606
201	0xbdaa66d2	-0.08320393
202	0xbdd2f518	-0.10300654
203	0xbcc37dd2	-0.023863707
204	0x3dbe9013	0.09304824
205	0x3de35856	0.11100833
206	0x3d24ddfc	0.040250763
207	0xbd68a817	-0.056800928
208	0x3e0bf478	0.13667476
209	0xbd2440e9	-0.040100966
210	0x3d7ba01e	0.061431997
211	0x3d3bcc79	0.045849297
212	0x3d968388	0.07349306
213	0xbdc3142d	-0.095253326
214	0xbd011362	-0.031512626
215	0x3d9c8716	0.07642953
216	0x3d293d18	0.04131803
217	0xbca26a2a	-0.019826014
218	0xbc7b2e6c	-0.015330892
219	0xbe092db1	-0.13396336
220	0x3db323cf	0.08747064
221	0x3e0942a6	0.1340433
222	0x3d4f8398	0.050662607
223	0x3e03275c	0.12807983
224	0x3d972527	0.07380133
225	0xbdf1ee67	-0.1181305
226	0x3df3dc3f	0.11907243
227	0x3e230970	0.15921569
228	0xbd8a56ee	-0.06754862
229	0x3bb65ca5	0.0055652433
230	0xbd2a2edd	-0.0415486
231	0x3dfcef9a	0.12350388
232	0xbb9aba43	-0.004721911
233	0x3d39d8ef	0.0453729
234	0x3d8c934e	0.06864034
235	0x3dda4001	0.10656739
236	0x3c96bdda	0.018401075
237	0x3a84df51	0.0010137354
238	0x3e059e01	0.13048555
239	0xbe1b45e0	-0.15163374
240	0xbd8eabdc	-0.06966373
241	0x3bdd2a0e	0.006749398
242	0xbd0b1aeb	-0.033961218
243	0x3c8a9f9f	0.016921816
244	0xbd6589a6	-0.056039475
245	0x3e11e90d	0.14249058
246	0x3d14c031	0.0363161
247	0x3e02b766	0.12765273
248	0xbe58ecab	-0.21184032
249	0xbe16442d	-0.14674444
250	0x3dd23d96	0.10265653
251	0x3c30e87d	0.010797617
252	0xbdded170	-0.10879791
253	0x3cf39215	0.029732743
254	0xbd28d542	-0.041219003
255	0x3e7b9f76	0.24572548

model.6.bias f4 [64]
0	0xbe02691f	-0.12735413
1	0xbd999656	-0.074993774
2	0x3d4dc9d8	0.05024132
3	0x3d261653	0.040548634
4	0x3b9414ea	0.0045190947
5	0x3e29a9e5	0.16568716
6	0x3e54f636	0.20797047
7	0x3e89730f	0.26845595
8	0x3d237c89	0.039913688
9	0x3dbd9180	0.092562675
10	0x3ea7706a	0.32702953
11	0x3d509a44	0.05092837
12	0x3d8bcea7	0.06826525
13	0xbdcf47fa	-0.1012115
14	0x3dc3c8cd	0.09559784
15	0xbba8ae2d	-0.0051477165
16	0xbd91e121	-0.07123018
17	0x3e3294fa	0.17439643
18	0x3c76e4ba	0.015069181
19	0x3eb45464	0.35220635
20	0xbd6daa6a	-0.058023848
21	0x3deaf649	0.114727564
22	0xbd0e721a	-0.034776784
23	0xbc9d98c5	-0.019237885
24	0x3e4fed81	0.20305444
25	0x3e88ab06	0.2669298
26	0x3e0152ea	0.12629285
27	0xbd281ca8	-0.041042954
28	0x3dc5ec0e	0.096641645
29	0xbd3b81d2	-0.045778103
30	0x3db1d655	0.08683459
31	0xbda72132	-0.081606284
32	0x3dd56bfa	0.104209855
33	0x3e70630f	0.23475288
34	0x3e3f541c	0.18684429
35	0xbdf51131	-0.119661696
36	0x3d1b437d	0.03790616
37	0xbea18057	-0.31543228
38	0x3e26ade8	0.16277277
39	0xb7223fa9	-9.6707745e-06
40	0xbd077552	-0.03307087
41	0xbe1995d4	-0.14998561
42	0xbe99c5b3	-0.30033645
43	0x3c51a3b9	0.012795382
44	0xbd7bc620	-0.061468244
45	0x3e588e36	0.21147999
46	0x3e48bfd2	0.19604424
47	0x3d889cbc	0.0667052
48	0xbd23d0e2	-0.039994128
49	0x3d0a0130	0.03369254
50	0x3cd4dc9f	0.025984107
51	0x3db0bfc1	0.08630324
52	0x3de9fa89	0.11424739
53	0x3d03e935	0.032204825
54	0xbd669ae9	-0.056300078
55	0x3e05cc26	0.13066158
56	0xbe254a35	-0.16141589
57	0x3df663cb	0.12030753
58	0xbcc25f0b	-0.02372696
59	0x3cf44e02	0.029822353
60	0x3d5cb3c3	0.05388237
61	0xbec8fe20	-0.39256382
62	0xbe10efab	-0.14153926
63	0xbe3e0545	-0.18556698

model.8.weight f4 [32, 64]
0	0x3d74b3a8	0.059741646
1	0xbd887418	-0.06662768
2	0x3c8c8238	0.017151937
3	0xb9a972b7	-0.0003231966
4	0x3d40d95f	0.0470823
5	0xbde55722	-0.1119826
6	0xbe0e1d1a	-0.13878289
7	0xbd5126d4	-0.05106242
8	0xbdc92d4c	-0.09823093
9	0x3d322920	0.04349625
10	0xbd3943c8	-0.045230657
11	0xbd1730f2	-0.036911912
12	0x3cd6d570	0.026224822
13	0xbd0c6190	-0.03427273
14	0x3bcf8f00	0.0063341856
15	0xbd937756	-0.07200496
16	0x3dfc8b12	0.12331213
17	0x3d1936c1	0.037405733
18	0x3d90c2b4	0.07068387
19	0xbd8ec79e	-0.06971668
20	0x3db71bc3	0.08940842
21	0x3b00f240	0.0019675642
22	0x3db07cf1	0.08617581
23	0xbdcae926	-0.09907751
24	0x3d885614	0.06657043
25	0x3c4997c0	0.012304246
26	0x3dd23d34	0.1026558
27	0x3ddb56c8	0.107099116
28	0xbda618c6	-0.08110194
29	0x3deaf67a	0.11472793
30	0xbdd4b1d6	-0.10385482
31	0xbc501b40	-0.012701809
32	0xbc3ef420	-0.011654884
33	0x3d4cc53c	0.049992785
34	0x3caecf18	0.021338984
35	0x3d4003ae	0.04687851
36	0x3ce89a50	0.028393894
37	0xbe09408b	-0.13403527
38	0xbc4de430	-0.012566611
39	0x3d3957b4	0.045249656
40	0xbd60e780	-0.054908276
41	0xbcabe4b9	-0.020983087
42	0xbda8acae	-0.08236061
43	0xbdae4188	-0.08508593
44	0x3d7353df	0.059406158
45	0xbd5520a0	-0.052033067
46	0x3d5de6fc	0.054175362
47	0x3d656bc4	0.056010976
48	0x3d89a5d4	0.06721082
49	0x3ccd1ad8	0.025037214
50	0xbdab81c2	-0.08374359
51	0x3d720d2c	0.059094593
52	0x3dfbafba	0.122893766
53	0x3d193e88	0.03741315
54	0xbd47a080	-0.04873705
55	0xbdcb2456	-0.0991904
56	0x3d341c48	0.043972284
57	0x3db78e84	0.089627296
58	0xbdb6f2b4	-0.08933011
59	0xbd115628	-0.035482556
60	0xbe17192c	-0.14755696
61	0xbd55bba8	-0.052180916
62	0xbc624710	-0.013810888
63	0xbb41618f	-0.0029507612
64	0x3d16be49	0.036802564
65	0x3d997887	0.07493692
66	0xbcf13ccd	-0.029447937
67	0xbd5af2dd	-0.05345427
68	0xbeb8141f	-0.3595285
69	0x3e0f679b	0.14004366
70	0xbcef0ac0	-0.02917993
71	0x3c81a600	0.015826225
72	0xbe0472d5	-0.1293443
73	0xbe2803bb	-0.16407673
74	0x3d2635bf	0.0405786
75	0xbd31978b	-0.043357413
76	0x3c9d1057	0.01917283
77	0x3c78c7ef	0.015184387
78	0x3cf275ed	0.029597247
79	0xbc2d1818	-0.010564826
80	0xbd60ba14	-0.054864958
81	0x3db46814	0.08808914
82	0xbdf90b6e	-0.12160383
83	0x3d77447c	0.060368046
84	0xbe501b5e	-0.2032294
85	0x3dad7de8	0.0847128
86	0x3ccdfe85	0.025145778
87	0x3cdd8587	0.02704121
88	0x3e2edca5	0.17076357
89	0x3e8ea8c3	0.2786313
90	0xbbad1a4a	-0.005282675
91	0x3da1aa68	0.078938305
92	0xbd44d40c	-0.048053786
93	0x3c9dc424	0.019258566
94	0x3e2dbdb0	0.16966891
95	0x3d506607	0.05087855
96	0x3e0a4124	0.13501412
97	0x3d387b62	0.045039542
98	0x3d2f67e5	0.04282369
99	0x3dc81797	0.097701244
100	0xbd8e0115	-0.069338
101	0xbb48351a	-0.003054923
102	0x3e329df8	0.17443073
103	0x3b15f780	0.0022883117
104	0xbdd8831b	-0.105718814
105	0x3deca01e	0.115539774
106	0x3e0a95cb	0.13533704
107	0xbc97f365	-0.018548677
108	0xbd922228	-0.07135421
109	0x3ddc82fa	0.10767169
110	0x3e443a33	0.19162826
111	0x3daf4f11	0.085600026
112	0x3d76e8b1	0.060280506
113	0x3db8d050	0.090241075
114	0xbd098a78	-0.03357932
115	0x3d79cf98	0.060988992
116	0x3e067d8b	0.13133828
117	0x3d80fcaa	0.06298192
118	0x3d601508	0.054707557
119	0x3e32bf89	0.17455877
120	0xbd5da87c	-0.054115757
121	0x3dad67b2	0.08467044
122	0x3d909905	0.07060436
123	0xbd565230	-0.052324474
124	0x3ddd4b6a	0.108054
125	0xbda74d7a	-0.08169074
126	0xbc914e0d	-0.017737413
127	0x3de399dc	0.11113331
128	0x3c8e63b8	0.017381534
129	0x3e0c5446	0.13704023
130	0x3de98b7e	0.11403559
131	0x3dbba3cc	0.09162101
132	0xbd88ef1b	-0.06686231
133	0xbd4e3b71	-0.050349656
134	0x3de8485e	0.11341928
135	0x3d811cfc	0.063043565
136	0xbd18ba71	-0.03728718
137	0x3d498cfe	0.049206726
138	0x3c6ba05c	0.014381494
139	0xbdce81d5	-0.10083357
140	0xbc1f7749	-0.00973303
141	0xbde8bfe5	-0.11364726
142	0x3dc738bc	0.09727618
143	0xbe33724f	-0.17524074
144	0xbd68b8d1	-0.05681688
145	0xbdcc1ef4	-0.09966841
146	0xbd19e574	-0.03757234
147	0x3dbeaa0e	0.09309779
148	0xbd8b5c44	-0.06804708
149	0x3d6f1d13	0.058377337
150	0x3e0e3dbe	0.1389074
151	0x3d5584e3	0.052128684
152	0xbded56e5	-0.115888394
153	0xbe918043	-0.28418168
154	0xbdedeaf1	-0.11617077
155	0xbdc6a368	-0.09699136
156	0x3d86b9a8	0.0657838
157	0x3dd5c7d4	0.10438505
158	0x3d89d356	0.06729762
159	0x3da3a57c	0.07990548
160	0xbd6615a7	-0.056172993
161	0x3d80b490	0.062844396
162	0xbde32e0b	-0.110927664
163	0xbcbf3414	-0.023340262
164	0xbd3b3f2a	-0.045714535
165	0xbdb8d792	-0.09025492
166	0xbd83ee81	-0.064419754
167	0x3c7ea765	0.01554284
168	0x3c15045d	0.009095279
169	0xbde48cec	-0.11159691
170	0x3d771440	0.060322046
171	0xbd1049ff	-0.03522682
172	0xbe09dfeb	-0.13464324
173	0xbd27a940	-0.040932894
174	0x3cc9d38a	0.024637002
175	0x3d5dca02	0.054147728
176	0x3d10674f	0.035254773
177	0x3e192801	0.14956667
178	0xbe15fd71	-0.14647461
179	0xbdc4cf0a	-0.09609802
180	0xbdd8d6a6	-0.10587816
181	0x3c9235c7	0.017847909
182	0xbe10d7b8	-0.1414479
183	0xbd152d76	-0.036420308
184	0x3da0e2ff	0.07855796
185	0x3db35746	0.087568805
186	0xb9b88aa2	-0.00035198504
187	0xbd2e823b	-0.042604666
188	0xbdc4a02a	-0.09600861
189	0xbdd85192	-0.10562433
190	0x3da7556c	0.0817059
191	0x3e22bacb	0.15891568
192	0xbda61e1b	-0.08111211
193	0x3d5398d4	0.05165942
194	0x3c9e8def	0.019354789
195	0xbe097f03	-0.13427357
196	0xbdb038fe	-0.086046204
197	0x3de6e536	0.11274187
198	0xbd2459d4	-0.04012473
199	0x3d154e1c	0.036451444
200	0x3b3b54ff	0.0028584597
201	0xbd2e308d	-0.04252677
202	0x3dab656c	0.08368954
203	0x3d9e25b3	0.07722034
204	0xbd4f2649	-0.05057362
205	0x3dd2814a	0.10278566
206	0x3db565c2	0.088572994
207	0x3c820d46	0.01587547
208	0xbc29ca8f	-0.010363235
209	0xbdd5b8ca	-0.10435636
210	0x3ca6e788	0.020374075
211	0xbd86b203	-0.06576922
212	0xbde75898	-0.11296195
213	0x3e16e565	0.14735945
214	0x3c288df9	0.010287755
215	0xbdb5026b	-0.08838352
216	0xbd86a310	-0.065740705
217	0x3eaefdd5	0.34178033
218	0x3e3db8c1	0.1852751
219	0x3d9e6117	0.07733362
220	0xbda5f95d	-0.08104203
221	0xbde3a030	-0.11114538
222	0x3c2cca26	0.010546243
223	0xbdf8d26f	-0.12149512
224	0x3b9107ce	0.004425979
225	0xbe08ce73	-0.13360004
226	0x3dcb07d7	0.09913605
227	0x3d660372	0.05615563
228	0x3c7f93ef	0.015599235
229	0xbe17cde9	-0.14824642
230	0x3e16066f	0.14650892
231	0x3d9d4491	0.07679094
232	0x3a954820	0.0011389293
233	0xbd814979	-0.06312842
234	0xbe1a5bca	-0.15074077
235	0x3d9ef44b	0.07761439
236	0x3e7c98dc	0.24667686
237	0x3d8be840	0.068314075
238	0xbbb81f5d	-0.005618973
239	0xbd081b05	-0.033228893
240	0x3d98496f	0.07435881
241	0xbe15fa44	-0.1464625
242	0x3e12c370	0.14332366
243	0xbd5101ef	-0.051027235
244	0x3e1a02af	0.15040086
245	0xbc066a71	-0.008204089
246	0xbdaefe4d	-0.08544598
247	0x3de88f22	0.113554254
248	0xbb7e83c0	-0.0038835853
249	0x3dc5c4f7	0.09656709
250	0x3e018af3	0.12650661
251	0xbe11acfa	-0.14226142
252	0x3d543282	0.05180598
253	0xbe8cb010	-0.27478075
254	0x3db45a75	0.08806316
255	0xbddda48d	-0.10822401

model.8.bias f4 [32]
0	0xbdeb667e	-0.11494158
1	0x3e12069a	0.14260331
2	0x3e57d873	0.21078663
3	0x3dfb7603	0.12278368
4	0x3e731993	0.23740225
5	0xbd0a7bbc	-0.03380941
6	0xbec8b3be	-0.39199632
7	0x3e01e7a3	0.12686019
8	0xbcb39ab0	-0.021924347
9	0x3e3c7661	0.18404533
10	0xbcdedc37	-0.027204616
11	0x3daa3055	0.0831
12	0x3e640a43	0.2226954
13	0xbe1dd305	-0.15412529
14	0xbdb3adbb	-0.08773371
15	0x3dfd7669	0.123761006
16	0x3e896c0e	0.26840252
17	0x3dba6b91	0.09102548
18	0x3e336da6	0.17522296
19	0xbd85bc97	-0.06530111
20	0x3e2c78e8	0.16842997
21	0xbdc231ed	-0.09482179
22	0x3dcf40a1	0.10119749
23	0xbd25e736	-0.040503703
24	0xbbcaf4e3	-0.0061937436
25	0xbdaa1fe8	-0.08306867
26	0xbe091aee	-0.13389179
27	0xbed435d3	-0.41447315
28	0x3e10565a	0.1409544
29	0xbdbcb8bb	-0.09214922
30	0x3e7cd0ed	0.24689074
31	0xbdf70caa	-0.12062962

model.10.weight f4 [1, 32]
0	0xbe14f02f	-0.14544748
1	0x3e634ebb	0.22198002
2	0xbda22c4c	-0.07918605
3	0x3e3a9df9	0.18224324
4	0xbe26aa72	-0.16275957
5	0xbd412202	-0.047151573
6	0x3d0b0e77	0.03394934
7	0x3e1b7df4	0.15184766
8	0x3d3aee3d	0.045637358
9	0x3e4b7288	0.19867909
10	0x3d14be15	0.03631409
11	0x3ded9ac0	0.11601782
12	0xbe28975c	-0.16463989
13	0xbcf2661e	-0.029589709
14	0xbd8953c7	-0.067054324
15	0xbe3227cd	-0.17397995
16	0x3e15aa51	0.14615752
17	0x3dde2733	0.108473204
18	0xbe4dd9f8	-0.2010268
19	0x3dc95e0a	0.0983239
20	0x3db1e964	0.08687094
21	0xbdd76b22	-0.10518481
22	0xbd38cdee	-0.045118265
23	0x3beeb2ad	0.0072844834
24	0x3d9586a0	0.07301068
25	0xbc4be0bc	-0.012443718
26	0x3d220f0e	0.03956514
27	0x3e261a4a	0.16220966
28	0xbe12bb3f	-0.14329241
29	0x3bb57bbd	0.0055384324
30	0x3e726696	0.23671946
31	0x3daad506	0.08341412
