Compression_Test_MLP/models/mlp_base_25ep_6layer.pth (torch, 38274 bytes, 11 tensors)

layers.0.weight f4 [64, 8]
000000 c6 03 91 3e f9 74 48 3e 4f 4f a4 3a 0f 99 42 3e
       0.2832319 0.19575872 0.0012535843 0.190037
000010 0c 45 42 3d 8b db 80 3e e4 64 1a bf ec 97 a0 b9
       0.04742913 0.25167498 -0.60310197 -0.0003063077
000020 92 64 cd 3e e3 2e cb be 78 ab 15 3e 4c 8b 1b bc
       0.40115792 -0.3968421 0.14616191 -0.00949366
000030 19 4f a5 3c 84 b5 c3 3d da 32 e3 bd a5 0d 60 3c
       0.020179318 0.09556106 -0.110936835 0.013675128
000040 83 c2 3b 3e 01 d8 6a bd d8 0f 15 be 53 e1 a5 3e
       0.18335919 -0.057334904 -0.14556825 0.3239847
000050 79 80 75 bd f8 a9 73 bf 1e bd 73 be c3 83 11 3f
       -0.059936974 -0.95181227 -0.23802611 0.5684168
000060 d7 29 69 bd 10 60 06 bd c7 cc 04 3e ee 3b b3 be
       -0.056924667 -0.032806456 0.12968741 -0.3500666
000070 1f 47 19 be c5 8e 25 be 5d bf d7 3e fc 8c 0f bf
       -0.14968537 -0.16167744 0.42138186 -0.560745
000080 b2 1d 7a 3e a1 a0 3a 3d d0 de cd be 06 8b a4 3e
       0.2442539 0.045563344 -0.40209055 0.32137316
000090 bf c4 15 3e 3e 01 97 bc 13 62 a1 be 46 95 cc be
       0.14625834 -0.01843321 -0.31520137 -0.39957637
0000a0 79 dd 4d 3e 40 9f 89 3d e9 5b 46 3e c5 f0 0f 3f
       0.20104016 0.06719828 0.19370998 0.5622676
0000b0 fd 3c 13 3d 2b c2 5e bf 51 e2 dd bd 41 f9 ee 3d
       0.035946835 -0.87015027 -0.10834182 0.11668635
0000c0 72 bb c8 bd 80 c4 95 be 33 c4 0f bf bb cc 0b 3e
       -0.09801377 -0.2925148 -0.5615875 0.13652317
0000d0 95 20 26 be d8 56 40 bf 9a 0b 85 3e 38 9f 3f 3e
       -0.16223367 -0.75132513 0.25985414 0.18713081
0000e0 6d 9f 8a 3c 2b 24 6e bd 97 61 02 3f 93 92 dc be
       0.016921723 -0.05813996 0.5093016 -0.43080577
0000f0 67 05 31 3e fb 7e 09 bf 9e 6e 2d be 3e b0 18 be
       0.17287217 -0.5370938 -0.16936728 -0.14910981
000100 2b 88 38 bd 77 45 3b 3d e9 86 80 3e 38 8b d3 be
       -0.045051735 0.045720544 0.25102928 -0.41317153
000110 73 7c 4d be ca 5c bb bc 1c 38 25 3f 5a ab a6 3e
       -0.20067005 -0.022871394 0.6453874 0.32552606
000120 2f db bd 3e a4 f0 aa bd 27 3b f9 be 7d d0 82 bd
       0.37081286 -0.0834668 -0.48677942 -0.06387422
000130 88 83 72 bd 98 4a 27 3e 81 d4 96 3e 85 2f 68 3e
       -0.05920747 0.16337049 0.29459003 0.22674377
000140 29 ce c7 bd d4 73 29 be a5 3a a6 3e 83 13 81 bd
       -0.09756119 -0.16548091 0.32466617 -0.0630255
000150 7a 79 02 3e 64 0e 19 3e be a8 18 3f 81 6c a5 3a
       0.12741652 0.14946896 0.5963248 0.0012620838
000160 81 9d 09 bd 6a eb 03 bd 0e bc 44 3d ac f1 11 bd
       -0.033597473 -0.03220693 0.048030905 -0.035630867
000170 4b ee 74 3c a2 ea 10 3c 60 18 30 bf e5 da 09 bf
       0.014949392 0.008845003 -0.68787193 -0.5384963
000180 eb ba 01 3e 63 60 f9 bd 81 d9 73 bd cc ea a5 be
       0.1266896 -0.121765874 -0.0595336 -0.32405698
000190 bd 51 a0 bc 18 bc 1c bf 7b a9 9c be d5 dc a8 be
       -0.019570226 -0.6122451 -0.30598053 -0.3298098
0001a0 b1 f0 90 3d 8a 21 06 be bc 9b 6b be 53 32 04 be
       0.07077158 -0.13098732 -0.23008627 -0.12909822
0001b0 d0 cb 25 bf ea 47 b9 3d c3 7d 20 3f 48 87 9e 3e
       -0.6476412 0.0904692 0.626919 0.30962586
0001c0 d5 67 4c bd 0f 19 9c be f6 22 62 be ec a3 9c 3e
       -0.04990371 -0.30487868 -0.22083649 0.30593812
0001d0 36 00 1e bd 9a 73 f1 bf ae 10 a5 be bd 64 8d be
       -0.03857442 -1.8863404 -0.32239288 -0.2761592
0001e0 0f c0 2a be 39 f3 a4 bd 56 ff da 3d 7a 33 2a be
       -0.16674827 -0.080542035 0.10693233 -0.16621199
0001f0 64 64 14 bd e6 ee 00 c0 28 5f d5 be 1c 21 bd be
       -0.036228552 -2.0145812 -0.4167416 -0.36939323
000200 23 92 f1 bc cc 0e 82 3c b8 30 54 3d 4c 00 81 be
       -0.029488629 0.015876196 0.051804274 -0.2519554
000210 49 2b 04 bd 8a 46 0a ba 36 dd c3 be a6 26 0d bf
       -0.032267842 -0.00052747934 -0.38254708 -0.551371
000220 a8 f2 c7 be 52 c3 9b be 61 2e 42 3e 99 67 a9 3d
       -0.3905232 -0.30422455 0.18963005 0.08271713
000230 aa d0 75 3d 0e e0 57 bf 51 a3 dc 3e e1 cb 4b bc
       0.06001345 -0.84326255 0.4309335 -0.012438745
000240 87 54 0b be fa a2 dd bc ff 65 f0 3c a4 ca 30 be
       -0.13606463 -0.027055252 0.02934551 -0.17264801
000250 aa 18 c1 3d 81 e5 0c c0 f3 42 78 bd 9e 02 b1 bc
       0.094285324 -2.2015078 -0.060610723 -0.021607693
000260 09 dd cd 3d 8e a2 65 be dd 38 36 3e 3c e4 e5 be
       0.10051925 -0.22425291 0.17795129 -0.44900692
000270 cf 1c 3e bd 98 d5 e3 3d 58 34 f3 3d 71 23 cb be
       -0.046414193 0.11124724 0.11875218 -0.39675477
000280 c6 b2 d1 3d 49 2a a5 bd ad 66 93 bd 91 e4 b7 be
       0.102391765 -0.08064706 -0.07197318 -0.3591657
000290 e0 19 33 3e 0b 0c f1 3d 17 4c 1d be ad a4 c7 3e
       0.1749034 0.11769875 -0.15361057 0.38992825
0002a0 cc 38 83 3d ff 42 e2 bd ab 39 f3 bd e6 17 07 3e
       0.064073175 -0.11047935 -0.11876234 0.1319271
0002b0 ad 83 9d 3d 23 8c 7b bf 55 c1 c8 be de ae c8 be
       0.07691131 -0.98260707 -0.3921 -0.39195913
0002c0 5f 50 a9 be 04 05 de 3d 49 ce 2d 3e f7 69 63 bf
       -0.3306913 0.108408004 0.16973223 -0.88833565
0002d0 a2 3c 9a 3d 86 ca 69 3f 1b a9 1a 3c c3 ce 99 3c
       0.07531096 0.9132465 0.009439732 0.01877535
0002e0 48 b4 57 3e 0e 2a db 3d 1a 38 1b 3e ca 06 ca bb
       0.21064866 0.10701381 0.1515812 -0.00616536
0002f0 5b aa b0 3c fd 46 02 c0 b1 7e 49 be 0b c6 42 be
       0.021565607 -2.0355828 -0.19677235 -0.1902086
000300 76 a3 c3 3e eb 22 4f 3e 68 04 ea 3d 39 eb c2 3d
       0.38210648 0.20228164 0.11426622 0.095175214
000310 f1 38 24 3d 74 5c 89 bf 16 cc 31 3e 7d be ab 3d
       0.040093366 -1.073134 0.17363009 0.08385942
000320 20 01 30 bf 39 5e 58 be 40 c6 b4 be f2 c2 ac 3e
       -0.68751717 -0.21129693 -0.35307503 0.3374248
000330 a2 00 4a 3e c4 44 f5 be 68 a1 6e be 6f e4 74 be
       0.19726804 -0.47904027 -0.23303759 -0.23915266
000340 fa 26 0d bf 72 80 5a 3c 6c 91 db 3e 11 2b 37 be
       -0.551376 0.013336288 0.42884386 -0.17887522
000350 7f e5 bd 3d dd 51 b3 be a9 33 31 be a9 46 9c 3e
       0.092722885 -0.35023394 -0.17304863 0.3052266
000360 85 3f 2e 3d 86 1c 66 3a e5 63 af 3e 30 2e fd bd
       0.042541046 0.0008778054 0.342559 -0.12362325
000370 dc 67 03 be c6 d3 6a 3b d0 f3 db be 69 f4 bb be
       -0.12832588 0.0035831793 -0.42959452 -0.36709908
000380 01 dc 9c be 2c d3 48 3e d9 98 4a 3e b3 4d 3f be
       -0.306366 0.19611806 0.19784869 -0.18681984
000390 2e 07 49 be 2c a1 06 3e 73 ce f0 be 3d 51 90 3e
       -0.19631645 0.1314742 -0.47032508 0.2818698
0003a0 5d fc 8b 3e f2 8b 2a 3e a1 72 96 3e cf d3 2f bd
       0.27340975 0.16654947 0.2938433 -0.042926606
0003b0 11 79 e9 3c f5 9f f0 bf 6f 52 02 bf 8e fa e1 be
       0.028500112 -1.8798815 -0.50907034 -0.4413647
0003c0 09 6d ae 3d 3b bf f1 3c a1 98 83 3d 2a 36 29 be
       0.085168906 0.029510131 0.06425596 -0.16524568
0003d0 52 bf 62 bc 57 98 d8 bf ad 70 0a bf bf 26 05 3e
       -0.01383956 -1.692149 -0.5407818 0.13003062
0003e0 2e b8 12 3e c3 67 f4 3d 58 24 20 bd 22 c7 a0 38
       0.14328071 0.119338535 -0.03909716 7.666486e-05
0003f0 6f 04 2c 3d a3 c5 f1 bf 88 49 7b be c7 7a ca be
       0.041996416 -1.8888439 -0.24539769 -0.39546797

layers.0.bias f4 [64]
000000 97 21 41 be 7c 79 3e bf 64 0c 0e bf 7f 9d 0d bf
       -0.1886047 -0.7440412 -0.55487657 -0.55318445
000010 b9 e4 42 3e 41 2b 4a bf ed 9a 3d be cb 84 e8 3b
       0.19032563 -0.7897225 -0.18516131 0.0070959083
000020 1b 0d b3 3d c0 08 72 3e 11 5e 1f 3b 12 ab da 3d
       0.08742734 0.2363615 0.0024317543 0.1067716
000030 6e bf 5e 3e 5f 13 84 bc 35 45 26 3e 75 11 7e 3d
       0.21752712 -0.016122518 0.16237338 0.062028367
000040 cd a8 a5 be 1e 0f 3a 3c a9 1d 7e 3b c8 ef 9f be
       -0.32355347 0.011356143 0.0038775003 -0.31237626
000050 aa 56 e6 be 4c dc bf 3d 32 94 14 3f 44 a1 31 be
       -0.44987994 0.0936819 0.5803863 -0.17346674
000060 a7 af 8c bf 95 f9 56 be 60 b3 f1 be b2 59 7b 3e
       -1.0991105 -0.20993645 -0.47207165 0.24545935
000070 ae b8 17 bf 0a 77 98 3d fd ab 31 be 89 1d 8a bd
       -0.59266174 0.0744458 -0.17350765 -0.06743915
000080 f9 c4 23 3d 98 e0 6a be 2d 15 0a be d8 b8 ee bd
       0.03998277 -0.22937238 -0.1348464 -0.1165635
000090 44 88 b1 3d d8 54 8a be 08 59 e3 bb 26 e1 29 3d
       0.08668569 -0.27017856 -0.0069381036 0.041474484
0000a0 fa cb 83 bd 9f 0c 29 3e ed bc 50 be 34 20 7e be
       -0.0643539 0.16508721 -0.2038457 -0.24816972
0000b0 ac bf 42 bd 1d 10 a8 be 48 40 ee bd d8 e6 82 3e
       -0.047546074 -0.32824793 -0.116333544 0.25566745
0000c0 5e 2d 48 3d 57 b8 28 be 9a 1d 7b bd 4d b7 1d bf
       0.04887139 -0.1647657 -0.061307527 -0.6160782
0000d0 5b 02 d5 be 4d a0 98 be 7a 7b fd be 0f ab 0c bf
       -0.4160336 -0.298098 -0.49508268 -0.54948515
0000e0 c0 22 05 bf 8b af 20 bf 04 d6 b1 be 4e f7 f3 be
       -0.5200615 -0.6276786 -0.34733593 -0.47649616
0000f0 32 e6 13 bf 42 07 be be 59 1e 84 3e fd f6 b0 be
       -0.57773125 -0.37114912 0.25804403 -0.34563437

layers.2.weight f4 [64, 64]
000000 8d 04 53 3e 5a 05 7e 3d 5a 66 60 be 28 d8 9f 3e
       0.20607205 0.062016822 -0.21914044 0.31219602
000010 b3 88 8b 3e 94 54 10 bf ad 71 7b be be 6a 56 3e
       0.2725273 -0.56379056 -0.24555083 0.20939156
000020 df fc 5d be 83 73 80 be 62 4d b6 be ba a8 e5 3e
       -0.21678494 -0.25088128 -0.35605913 0.4485529
000030 82 26 4e 3d 97 66 62 be 8e 59 d5 bd 95 ff 8f 3e
       0.050329693 -0.22109447 -0.10417472 0.2812468
000040 8f 5e 95 be 83 61 95 be 04 15 dc 3d 9d 49 74 be
       -0.29173705 -0.29175958 0.10746196 -0.23856206
000050 3e df a6 3d 12 d3 62 be 0d 88 20 3d 3f be 80 be
       0.08148049 -0.2215083 0.039192248 -0.25145146
000060 3a bd 8d be 86 49 91 3e be 11 28 3e d0 e7 07 3e
       -0.2768343 0.28376406 0.16413018 0.13272023
000070 04 c9 ee 3e cc 2c c3 3d bc f2 46 3e ca f8 0e 3c
       0.46637738 0.09530029 0.19428533 0.008726308
000080 9b 33 7c 3d 00 98 c5 3e 3f fa e4 3d 21 fd 6a 3e
       0.061572652 0.3859253 0.11180543 0.22948124
000090 f7 56 94 be 77 86 85 3e 81 3b 9e bd 90 c2 44 3d
       -0.289726 0.2607915 -0.07726193 0.04803711
0000a0 d1 e7 7b 3e 2e 8a 20 be 2a 7b 82 3c 82 f3 16 3e
       0.2460015 -0.15677711 0.01592787 0.14741328
0000b0 59 ca e6 bd 3c 39 23 3c e3 74 25 3e da c4 58 bf
       -0.112690635 0.009962376 0.1615787 -0.8467537
0000c0 91 4a bb 3d 08 54 2a be a3 64 e1 3d 22 fc 03 be
       0.09145082 -0.16633618 0.11005523 -0.1288915
0000d0 1d 34 b0 3e 60 da 6e bd e0 85 4e bc 26 66 b6 be
       0.3441476 -0.058313727 -0.0126051605 -0.35624808
0000e0 25 ea d5 3d ff a7 72 3e b8 4c 32 be 5f 63 21 3e
       0.1044505 0.23696898 -0.17412078 0.15760563
0000f0 44 5a bc be 02 f8 b8 3d 67 19 1f bf 85 69 a4 3e
       -0.36787617 0.09031679 -0.62148136 0.32111755
000100 83 59 c0 3d 64 18 2f bf da 3b f9 3d 23 ca a6 3e
       0.09392073 -0.6839659 0.12169619 0.32576093
000110 d0 8b 00 be 5b df 40 bf e9 60 b4 be d3 ae 77 be
       -0.12553334 -0.75340813 -0.35230187 -0.24187784
000120 42 4f b8 3d 1d ff b0 3c 6e 22 dc bc d6 25 1c be
       0.08999492 0.021606022 -0.026871886 -0.15248808
000130 25 eb 72 3d 29 09 af bd 1b d1 58 3e 1b f5 03 3f
       0.059306283 -0.08546669 0.21173517 0.51545876
000140 79 e5 fe 3c 76 56 3a be 72 b2 6c 3e 00 b9 5f 3e
       0.03111528 -0.18197045 0.23114946 0.21847916
000150 4f e3 d5 be a4 60 89 bd e6 45 30 bf 77 b9 ae 3e
       -0.41774985 -0.06707886 -0.68856657 0.34125873
000160 9f c8 a9 be 6e 3a 38 bf 45 2b 84 3e 47 4c c6 bd
       -0.33160874 -0.71964157 0.25814262 -0.096825175
000170 0f 7d 17 3e 04 25 61 3e 3e 00 7d 3d 3f f7 a7 3e
       0.147938 0.21986777 0.06176781 0.3280582
000180 d5 44 e9 3d 7b 52 3e 3e 2b 8b 5c bb b2 f2 0d 3e
       0.11390082 0.18586151 -0.0033652287 0.13862112
000190 4a 39 b0 3d db b1 08 bd 2d f1 c1 be ed fa a5 bc
       0.08604677 -0.03337274 -0.37879315 -0.020261252
0001a0 f5 2d 00 3e 72 59 43 bd 6d 13 8f 3e ff 2f 0b bf
       0.12517531 -0.047692724 0.27944508 -0.5437011
0001b0 99 28 c7 3b f2 cd 3b 3e 57 5a ff bd 45 18 98 3d
       0.0060778377 0.1834028 -0.12468403 0.07426504
0001c0 4e d2 16 bd 6d 1b d6 3d 60 be a7 3e 6a f1 af 3e
       -0.036821656 0.1045445 0.32762432 0.34363872
0001d0 fd 12 f8 bd 40 91 77 3e dd b0 92 3d 60 ad 30 3e
       -0.12112997 0.24176502 0.0716264 0.17253637
0001e0 d9 ed 63 bf 20 ce 2f 3e 19 11 0c bf ab 2a c9 3c
       -0.890348 0.17168474 -0.5471359 0.024556478
0001f0 37 04 66 3e 10 6a 43 be 97 57 ee bc 2f 66 ff bb
       0.22462545 -0.19083428 -0.0290945 -0.0077941637
000200 51 4e 1b 3e 3d d1 2f be d8 e4 23 3e 62 f7 e0 3e
       0.15166594 -0.17169662 0.16005266 0.43938738
000210 32 b7 50 be 95 62 89 be 6a 85 2c be 32 ce 86 3e
       -0.20382383 -0.26833025 -0.16847768 0.2632919
000220 cb f4 3e 3e 82 ec 1c be 17 a6 a3 3d b3 9b 4d 3d
       0.18648069 -0.15324596 0.079906635 0.050197314
000230 65 f8 0f bd d7 fa b1 bd cf 21 17 3e a9 20 b7 3e
       -0.035148997 -0.08690422 0.1475899 0.35767105
000240 be 27 c3 be 32 0a a5 3c 63 9d 41 3e e4 ce 32 3e
       -0.38116258 0.020146463 0.18907695 0.17461735
000250 ae 46 a6 be 93 83 37 bd 46 9a 73 be 9f 8f 5a 3e
       -0.324758 -0.044803213 -0.2378932 0.2134385
000260 b1 fc 45 bf be 99 87 be 44 d7 f2 bd 0a 51 16 be
       -0.773387 -0.26484483 -0.11857465 -0.14679351
000270 fa f2 17 be e1 b3 bd 3e 55 fd ce 3e a4 05 95 3e
       -0.14838782 0.370513 0.40427652 0.29105866
000280 97 7f 23 bd 28 87 6f 3d 78 aa a2 3c 9c eb b9 3e
       -0.0399166 0.058478504 0.019856676 0.36312568
000290 f9 05 1a 3e 49 48 7c 3e 03 e2 f4 be 22 10 11 3e
       0.15041341 0.2463695 -0.47828683 0.1416631
0002a0 fa 7c 76 be a8 26 18 be ae 80 be 3e 97 69 9d bd
       -0.24071112 -0.14858496 0.3720755 -0.07686155
0002b0 df 5d 67 3c 2d d6 ce 3e 6b af 11 be e0 77 31 3e
       0.014121502 0.40397778 -0.14227073 0.17330885
0002c0 99 0c d5 3c e6 0b 02 be 85 c5 26 3e 0d 1f c6 3c
       0.026006984 -0.12699851 0.16286285 0.024184728
0002d0 83 f5 c6 bd df 8f b3 3d 98 97 b4 be 22 6e 05 3e
       -0.097147964 0.087676756 -0.35271907 0.13030294
0002e0 33 e2 9c be df 18 b0 3d 74 ee 65 be 3b 27 57 be
       -0.30641326 0.08598494 -0.22454244 -0.21011059
0002f0 05 98 48 3e 64 05 67 3d 0e 4d 56 bc 41 ab 8c 3d
       0.19589241 0.056401625 -0.013079895 0.068686016
000300 46 9b 1c bd d0 5e a5 3d dc 9f 80 3d 71 b2 6b 3e
       -0.038234018 0.08074725 0.06280491 0.23017289
000310 69 80 90 be 48 b1 0e bf 35 50 9b be 5d 6c 0b 3e
       -0.2822297 -0.5573926 -0.3033463 0.13615556
000320 6d 2c f8 bd 79 e5 b3 be d1 cd 0c be 61 d8 47 3d
       -0.121178485 -0.3513601 -0.13750388 0.04879034
000330 22 d4 2d be e5 bf 38 bf e3 03 20 3e 58 4d 93 3e
       -0.16975453 -0.7216781 0.15626483 0.28769946
000340 92 8b f2 be e2 49 ce be ae ae 52 bd 8d a4 24 be
       -0.4737211 -0.40290743 -0.05143612 -0.16078396
000350 c0 03 fe bd c8 cf 63 3c 5f bb 0b bf 71 3e a7 3d
       -0.12403059 0.013904519 -0.5458278 0.08166207
000360 31 cd 22 bf 00 88 6a bf c3 6b 7c bd 2c aa 4f 3c
       -0.6359435 -0.9161377 -0.061626207 0.0126748495
000370 8e 9f bd 3c 23 d1 18 3e 64 06 bd 3d f5 a9 24 3d
       0.02314737 0.1492353 0.092297345 0.040201146
000380 f5 a5 83 be a1 b5 0d 3d e0 85 df be 20 dc 89 3e
       -0.25712553 0.034597043 -0.43656826 0.26925755
000390 12 2d 06 be b7 e1 73 bd a4 d3 81 bd 9a e6 0b 3d
       -0.1310313 -0.05954143 -0.06339195 0.034155466
0003a0 31 60 82 3e e6 e3 2f be 02 58 c8 ba 38 19 7d 3e
       0.25464013 -0.1717678 -0.0015285017 0.24716651
0003b0 83 b0 1b 3d 43 bf 87 3c 7f 43 56 3e 2a 25 14 be
       0.03801013 0.016570693 0.20924185 -0.14467302
0003c0 65 93 9d bd db 24 bf bd bd 60 ab 3d 62 11 5f 3e
       -0.07694129 -0.093332015 0.08368061 0.21783975
0003d0 9b 32 62 be da 12 90 bc 67 73 28 be 42 6b 54 bd
       -0.22089617 -0.017587114 -0.16450273 -0.0518601
0003e0 72 44 8e be 45 d7 51 3e 6f 8d 5e be c4 02 eb bd
       -0.27786595 0.20492275 -0.2173364 -0.11475137
0003f0 39 eb 90 bd c4 06 cc be 50 a0 3d 3c aa ac cb be
       -0.07076115 -0.39848912 0.011573866 -0.3978017

layers.2.bias f4 [64]
000000 0d 6f 45 bb 47 85 00 be 84 5f 0f be 70 36 0e bd
       -0.0030126006 -0.12550841 -0.1400128 -0.034719884
000010 7d 4b bc 3c 35 3f 30 be 8a b0 93 be 7b 2f 87 3c
       0.022985214 -0.17211612 -0.28845626 0.016502133
000020 5a 09 ad bd 3d 98 d9 3d 70 9f 16 be 98 86 11 be
       -0.08449049 0.1062474 -0.14709258 -0.142115
000030 e1 b2 b5 bb 53 00 82 3d 49 26 aa bd 13 e7 4d 3e
       -0.0055450057 0.06347718 -0.083080836 0.20107679
000040 d0 78 89 be db 49 9f bc 62 ff 45 3e 6c 36 c2 bd
       -0.26849985 -0.019444397 0.19335702 -0.094830364
000050 aa 02 d5 bd 03 be 80 3d d3 7c 2e 3e 29 98 9a bd
       -0.10400899 0.06286242 0.17039804 -0.075485535
000060 1a ce 1b 3e c3 5d d8 bd 6c 08 21 be 0e d7 8e bd
       0.1521534 -0.10564759 -0.15725869 -0.06974612
000070 29 39 88 3d 4d ce af bd ff 8d db bd 4d 57 6c 3d
       0.066515274 -0.085842706 -0.10720443 0.057700444
000080 bc ab 08 3e 92 f8 1d be af 88 af 3c d6 e7 96 3d
       0.13346761 -0.15426853 0.02142748 0.07368438
000090 e5 c9 3e be f5 11 25 be 7c 50 87 3e 95 5b 1c 3e
       -0.18631704 -0.16120131 0.26428592 0.15269311
0000a0 94 08 66 be 19 6e 00 be 12 3d 15 be aa ac 8b bd
       -0.2246421 -0.12541999 -0.14574078 -0.068200424
0000b0 61 2f 1e be f7 da ed 3c 9a 2f 6e be 8b 27 82 bb
       -0.15447761 0.029035075 -0.23260346 -0.003971999
0000c0 1c 18 10 3e 0d f0 5c be 60 8c bb be 8b 16 1e bd
       0.14071697 -0.21575947 -0.36630535 -0.038595717
0000d0 9e f5 39 be 35 96 e0 3d f7 b6 5c 3d 83 b1 02 bc
       -0.18160102 0.1096615 0.053885426 -0.007976892
0000e0 20 69 78 bd 6d cc 18 3e d4 7a 61 be 03 57 93 3d
       -0.06064713 0.14921732 -0.22019511 0.071943305
0000f0 13 d9 a7 bc 82 3a 16 3e a8 bc 1d be 73 82 3f be
       -0.020489251 0.14670756 -0.15403998 -0.18702106

layers.4.weight f4 [32, 64]
000000 a1 0b 3f bc 80 46 46 bc ba 7f a5 bc ae 82 06 be
       -0.011660487 -0.012101769 -0.020202506 -0.13135788
000010 94 84 5c bb 39 d8 de bd a0 1c cf bb a4 2f b9 bd
       -0.0033648359 -0.10881085 -0.006320551 -0.0904229
000020 01 6a ba bd a2 29 07 be 6c 53 10 be 73 5e 9e bd
       -0.0910225 -0.13199475 -0.14094323 -0.077328585
000030 0c 85 a6 bd c9 2e 37 3c 08 3c 33 bd 7c 76 21 3d
       -0.081308454 0.011180588 -0.043758422 0.039419636
000040 84 a4 44 bd b3 41 92 3c 63 b0 c7 3d f6 8c d4 bd
       -0.048008457 0.017853593 0.0975044 -0.10378449
000050 f4 35 77 bd 54 7c a1 3c 5e d5 5e bd cd 13 30 bd
       -0.060354188 0.019712605 -0.0544027 -0.042987633
000060 ef d8 18 bd 9b 18 b3 bd 15 97 43 3b 16 82 82 bd
       -0.03731626 -0.087449275 0.002984469 -0.06372468
000070 3d a0 63 3c bb 93 02 bd b8 73 63 bd 8c 5b 21 be
       0.013893184 -0.031879168 -0.05553028 -0.15757579
000080 9c 05 05 3d 37 c7 84 3c f8 8f 0e be eb 0e 06 be
       0.032476053 0.016208274 -0.13922107 -0.13091628
000090 ab d8 01 be 6a 6d 32 bd b4 d5 49 3d 10 91 47 be
       -0.12680309 -0.043561377 0.04927607 -0.1948893
0000a0 71 18 63 3c d1 ed 8b 3c c0 60 89 bd 5e 26 9d bd
       0.013860808 0.017081173 -0.06707907 -0.076733336
0000b0 03 74 84 3d 42 1a fb 3d dc 66 5d 3d f6 e5 9b bb
       0.0646744 0.12260868 0.054053172 -0.004757638
0000c0 ef 70 08 be df 41 28 be 3e c4 91 bd c0 65 16 bc
       -0.13324331 -0.16431378 -0.07117508 -0.0091795325
0000d0 0a b7 b0 3d 60 86 35 be ba 38 80 bd 48 d7 22 bd
       0.08628662 -0.17727041 -0.0626082 -0.03975609
0000e0 88 df 3d bd 63 ce c5 3d 42 c7 ec 3b b8 99 b1 bc
       -0.046355754 0.09658506 0.007225902 -0.021679744
0000f0 14 89 2d bd 34 4b 1a be 45 7e 1a be 84 45 13 3d
       -0.042367056 -0.1506775 -0.1508723 0.035954967
000100 71 47 58 bc e5 89 e0 bd 92 dc 9e bd b3 2a 53 be
       -0.013200627 -0.10963801 -0.07756914 -0.20621757
000110 00 5d c3 3e 63 c2 28 bd ac 37 84 be a3 a6 7b 3e
       0.3815689 -0.041201007 -0.25823724 0.24575286
000120 3e e8 18 3f c1 d2 cc bc 81 2f ed bd b8 90 66 bf
       0.59729373 -0.025002839 -0.11581326 -0.90064573
000130 b4 a1 a9 3e 85 e3 9a 3e 12 97 89 bc 3c e4 5e bf
       0.33131182 0.3025171 -0.016795669 -0.8706701
000140 53 9d ab 3d c0 6e 25 bd d7 96 e1 bf d9 93 2f be
       0.083796166 -0.040388823 -1.7624158 -0.17146243
000150 ec d5 42 be de 21 fe bd 8f 10 a4 bc 3e ec e4 3d
       -0.19026917 -0.124088034 -0.020027427 0.11177872
000160 36 95 cd bd d1 00 12 3c cb 8d 8a be 2c 98 8a be
       -0.10038225 0.008911327 -0.27061304 -0.27069223
000170 91 b8 d3 be 8e b9 90 be 89 84 9c bd 2a 62 a6 3e
       -0.4135175 -0.28266567 -0.076424666 0.32496768
000180 5c c8 71 bd ad 82 8d bd d3 97 2a 3e 09 5b d8 bc
       -0.05902897 -0.0690969 0.16659479 -0.026410596
000190 02 50 6f 3d 83 73 36 bd ca 23 c7 3e 00 7a f5 bd
       0.05842591 -0.044543754 0.38894492 -0.1198616
0001a0 76 f5 9f 3d 56 61 2a 3d 7b 4b 10 3e 9c af 48 bd
       0.0781049 0.041596733 0.14091294 -0.0489956
0001b0 ca f2 ef bd 66 6e d5 bd 3c 05 ef 3e e8 f2 a2 3d
       -0.1171623 -0.104214475 0.4668368 0.07956487
0001c0 b6 e2 cf be b7 cf 09 bf 49 bb bd bf 93 98 3b 3d
       -0.40602654 -0.5383257 -1.482278 0.045799803
0001d0 23 1e 7d bc f9 46 a3 3b 95 78 a8 3d ae 80 cf 3d
       -0.01544908 0.004982826 0.08226124 0.101319656
0001e0 b9 5b 24 3c 34 70 67 be 28 4b b0 bc b0 6d 06 bc
       0.010031634 -0.22601396 -0.021520212 -0.0082048625
0001f0 c7 44 d1 bc de b0 19 3e 62 5c 3e 3c 92 85 91 3a
       -0.02554549 0.15008876 0.0116187055 0.0011102429
000200 fd a2 78 3d 49 98 66 3e 84 df 16 3e 68 4f b0 3d
       0.060702313 0.2251903 0.14733702 0.086088955
000210 16 0b 57 3e 05 a7 0e 3e 60 45 93 3e 0f 31 95 3e
       0.21000323 0.139309 0.28763866 0.2913899
000220 da dd c2 3e 0a ac a1 be 50 40 a2 bd e0 58 ec bf
       0.38059884 -0.31576568 -0.07922423 -1.8464622
000230 e1 3d 38 3e 76 01 18 bf a7 25 13 bd f1 15 95 be
       0.17992355 -0.5937723 -0.03592458 -0.29118302
000240 e0 e4 b1 3c 67 0c 7d bd 7b 98 39 bf 8d d4 f9 bd
       0.021715581 -0.061779406 -0.7249829 -0.12198744
000250 c0 98 8d bd 46 86 f9 be db 99 0f 3e 77 bb f0 3d
       -0.069139004 -0.48735255 0.14023535 0.11754506
000260 4d 47 83 3d 0a c2 a5 bd 7d 7e 7c bd 76 9d d5 3d
       0.06410084 -0.08093651 -0.061644066 0.10430424
000270 e1 3a 04 3d d1 f0 28 3f 12 10 30 3d df 8e 15 3e
       0.032282714 0.65992457 0.042984076 0.14605282
000280 4c da 00 3e 7a c8 12 3e d8 bf 0a 3e 7f 63 57 bc
       0.12583274 0.14334288 0.13549745 -0.01314628
000290 40 08 13 be 53 4c 0c bf 49 2a 83 3c 92 3d 14 be
       -0.14358616 -0.5480396 0.016011374 -0.14476612
0002a0 37 d1 a9 3d f6 cc 87 3e e4 4b ce 3d aa 00 0f 3d
       0.08291858 0.2652356 0.10073069 0.034912743
0002b0 66 93 ee 3d 5b 26 98 3e ed 9b e7 3d ea 52 8b bb
       0.11649208 0.29716763 0.11309037 -0.0042518275
0002c0 40 87 a0 bd eb 25 07 bf 3c be 36 be 54 1a 1a bd
       -0.07838297 -0.52792233 -0.17846006 -0.037622765
0002d0 9f e2 09 be f1 3f 2a be 97 3c 2f 3e ad 1e 59 bd
       -0.13465355 -0.16625954 0.17112957 -0.05300777
0002e0 d6 24 e3 bd 0b 06 8b be 87 f5 a0 3c bc 76 c4 3d
       -0.1109101 -0.27153048 0.019648327 0.09592959
0002f0 d0 73 51 3c 73 46 3b 3e 2a f1 7d 3d e4 4c 94 3e
       0.0127839595 0.18288593 0.06199757 0.28964913
000300 55 bb 20 3f 4d ef 9d be 2a dd 6a be 12 5c b7 bc
       0.62785846 -0.30846635 -0.2293593 -0.02238277
000310 7a bf ad 3c 91 02 a6 3e f4 9c 3e bf 47 1e cf 3d
       0.021209467 0.32423833 -0.7445824 0.10113197
000320 33 bf ee bd 30 09 97 3e 79 db 6f be f0 c0 0e bf
       -0.11657562 0.29499197 -0.23423566 -0.5576315
000330 b4 07 aa be 5e b9 16 3b a4 13 97 3c e4 67 1d 3c
       -0.33209002 0.002299867 0.018441983 0.009607289
000340 2e 14 20 3d ce 89 89 bc 4a bb 79 3d 1b 9a e7 bd
       0.039081745 -0.016789343 0.06096963 -0.1130869
000350 4f 0f fd 3c 2f 39 c3 3c f5 e8 ac be 91 d2 53 3e
       0.030891089 0.023830978 -0.33771482 0.20685793
000360 92 ac 1c be 78 c9 10 3e ff eb c0 bd ba 20 6f be
       -0.15300205 0.14139354 -0.09420013 -0.23352328
000370 38 90 74 be 15 7e dc be 82 00 96 bd 31 7f f3 3e
       -0.2388314 -0.43064943 -0.073243156 0.47557977
000380 46 58 40 3d 61 f7 20 be 98 51 8f 3e b1 19 ee 3e
       0.046959184 -0.15719368 0.2799194 0.46503976
000390 f3 49 5b 3c 7e aa e8 be e9 0c d4 3d 3a d3 9c be
       0.01338433 -0.45442575 0.10354025 -0.30629903
0003a0 7b a1 65 be 8a 70 5e be 93 16 92 bd ec 22 bf 3d
       -0.22424881 -0.21722618 -0.07133212 0.09332833
0003b0 f8 97 de be ac 3d 1b be b3 be 39 be 68 3b 9b 3d
       -0.43475318 -0.15160245 -0.18139152 0.0757969
0003c0 31 14 fc be 56 ce 6f be 80 b9 b7 bd f6 12 53 3e
       -0.49234155 -0.23418555 -0.08970928 0.20612702
0003d0 a5 d7 dd bd 95 2c 3b be 38 53 51 be 86 40 e4 bd
       -0.108321466 -0.18278725 -0.20441902 -0.11145119
0003e0 e1 4e 94 be ad 83 af 3e 18 ba c9 3e 3c 2d 95 3c
       -0.2896643 0.34280148 0.3939979 0.018210046
0003f0 eb 01 51 3d a6 62 52 be a3 7e 1e be 4e a8 d3 bd
       0.05102722 -0.20545444 -0.15477996 -0.10334836

layers.4.bias f4 [32]
000000 83 f3 fc bd 3f 32 41 3e 0a 0f a3 3c 83 20 b2 3c
       -0.12351134 0.18866824 0.019904632 0.021744018
000010 10 f3 48 3e ba ee b4 3e 2e b9 a9 3d 17 b2 45 bd
       0.19623971 0.35338384 0.08287273 -0.048265543
000020 3d 65 84 bc 67 15 fd be 31 2a 4a 3e 09 50 7b 3e
       -0.016161555 -0.4943039 0.19742657 0.2454225
000030 cf 6f 7f 3e 7d 52 1e be d7 c8 8f 3d 21 71 0f be
       0.24944995 -0.15461154 0.07020729 -0.14007999
000040 98 e1 2a be 4b d9 62 3e b8 60 59 be 0c 4c b7 bd
       -0.1668762 0.22153203 -0.21228302 -0.08950052
000050 39 a7 b6 bc bd de 2f be e2 9f 4d 3e b4 9a b7 3e
       -0.022296535 -0.17174812 0.20080522 0.35860217
000060 25 e0 6f 3e 69 7b 0c be f1 1c 23 3e ab d9 d6 3d
       0.23425348 -0.13718952 0.15929009 0.104907356
000070 91 ea 2e 3e 9c 1d 00 be 5d f6 dc 3d d8 5c d6 bd
       0.17081667 -0.12511295 0.107891776 -0.10466927

layers.6.weight f4 [32, 32]
000000 75 3f e3 3d ad 85 10 be f7 bd 12 bd 24 0a 8e bb
       0.11096088 -0.14113493 -0.035825696 -0.004334705
000010 18 4f 05 be ee 9c 2b bf 6b 22 e7 bd 91 5f 07 be
       -0.13018453 -0.6703633 -0.112858616 -0.1322005
000020 95 44 84 3d 57 67 73 be c3 f2 a3 be 84 d8 e7 bd
       0.064583935 -0.2376989 -0.3202115 -0.11320594
000030 a7 24 39 bc 68 1f fb 3d d7 3c 2d 3e dc e9 ed 3d
       -0.0113002425 0.1226185 0.1691774 0.11616871
000040 47 c0 30 be 18 6e 92 bd 63 93 bc bd bd 98 79 3e
       -0.17260848 -0.07149905 -0.09207799 0.24374671
000050 8c dc 40 be 2d 16 6f be ff 2c c2 3d b9 93 c2 bd
       -0.18834132 -0.23348303 0.094812386 -0.09500832
000060 f2 25 8e bd e2 27 fe 3c 40 23 20 3d 64 79 2a 3c
       -0.06940831 0.031024877 0.039096117 0.010404918
000070 8a 4f 24 be 8a 2d 34 bd 9a 16 34 3d 32 16 05 3e
       -0.16045967 -0.043988742 0.043966867 0.12996748
000080 72 8a 00 bc 95 1d 15 3f d3 18 3a 3e c4 23 b5 bd
       -0.007845508 0.58248264 0.18173532 -0.088447124
000090 52 28 b9 3b 36 f8 40 bf f7 79 3b 3e 99 e8 70 3e
       0.0056505585 -0.7537874 0.18308245 0.23526229
0000a0 37 76 2f 3d 46 be 54 3d 4e b2 d4 be 2e 81 60 3e
       0.042837348 0.05193927 -0.41542286 0.21924278
0000b0 6a 9e d8 3d fa c0 a1 3d c8 a2 13 3e 57 77 aa 3e
       0.1057709 0.078981355 0.14417565 0.33294174
0000c0 7d d9 07 3e 3e a8 32 3e fb bd b5 bc 2e 77 7c bd
       0.13266559 0.17446992 -0.022185316 -0.061637096
0000d0 42 19 a8 be 11 eb 73 bd 91 94 10 3f 58 e4 d8 bd
       -0.3283177 -0.05955035 0.56476694 -0.10590428
0000e0 67 78 12 3d 87 ea 87 3d a9 84 41 3e cf e2 84 bd
       0.035759356 0.066365294 0.18898262 -0.06488573
0000f0 92 30 b6 3d 90 51 1a 3d 29 40 4a 3e 13 90 42 bd
       0.08895983 0.03767544 0.19751038 -0.04750068
000100 5b 2a 34 bc 0c fb dc bd 02 ad 22 be 48 10 24 be
       -0.010996426 -0.10790071 -0.1588631 -0.16021836
000110 1e a7 18 be ff 69 03 be 6f 55 bc 3d a8 72 de bc
       -0.149075 -0.12833403 0.09195983 -0.027154282
000120 6c 3b 0e be f5 7f cc bd 28 2f 08 be 69 ff 85 bd
       -0.13889855 -0.09985343 -0.13299239 -0.06542856
000130 ac 45 d9 3d 46 2e 2c be 56 e9 30 be cf 0c 04 3d
       0.10608992 -0.16814527 -0.1727651 0.032238778
000140 81 b8 f1 3d 91 fe 3e be 68 38 f9 3c 5f 32 2d 3e
       0.118027695 -0.18651797 0.030422404 0.16913746
000150 90 a8 e8 bc 64 a0 d5 bd 03 a2 87 3d 3a ea 7b 3d
       -0.02840069 -0.10430983 0.06622698 0.061502673
000160 5d 2c 7a bd 9f fc 18 be 89 1a 62 bc 33 1d 1f be
       -0.061077464 -0.14940117 -0.013800272 -0.15538482
000170 8b a3 30 be 40 f2 48 3d fb a5 8b 3d 05 06 cf 3c
       -0.17249887 0.049059153 0.06818768 0.025271425
000180 24 d0 1a be b9 c7 a5 3e 83 df be be 2e ea 4b 3e
       -0.15118462 0.3237894 -0.372799 0.19913551
000190 30 dd 12 bd eb d9 98 bf 3f 76 0b 3c d0 81 cf 3e
       -0.035855472 -1.1941503 0.008512079 0.40528727
0001a0 26 f8 c0 3e ce 0b 6b be 03 97 bc bd 22 27 75 bd
       0.37689322 -0.22953722 -0.09208491 -0.059851773
0001b0 95 0d a4 bd 70 1e 2d bd 09 12 a3 be 7c 80 a7 3e
       -0.08010403 -0.042265356 -0.31849697 0.32715213
0001c0 9d 9b 12 3e 6c 60 3b be fb 0e 9e 3e 08 a4 1a 3e
       0.14317174 -0.18298501 0.30870804 0.15101635
0001d0 8b a5 6f bf e1 e7 93 bd 68 25 c6 be bc 0c 36 3e
       -0.93611974 -0.07221962 -0.38700414 0.17778295
0001e0 57 d3 71 be c6 c2 e0 3d 11 87 4c 3e a0 f0 05 be
       -0.23615776 0.1097465 0.19973399 -0.13080072
0001f0 69 1d a3 3e 8a f6 e3 3e 22 5a 4e be 30 a6 74 3d
       0.31858376 0.44524032 -0.2015157 0.0597288
000200 dd 8d aa bc fb d1 a2 3e d6 e8 0c be 6a 67 2f bd
       -0.020819599 0.31800827 -0.13760695 -0.042823233
000210 21 f9 20 bd 1a ef 50 bf ca 32 cd bd dd 4b 93 3e
       -0.039300088 -0.8161484 -0.10019453 0.28768817
000220 9c 89 39 3e b0 6a 82 be 16 5b 19 bf 4a 21 ae bd
       0.181189 -0.2547202 -0.5990461 -0.08502443
000230 26 2b 7f be fc 25 19 be 5b 3a c0 3d af b6 61 3e
       -0.24918804 -0.14955896 0.093861304 0.22042345
000240 db fa 06 bd 23 ea 49 3b 59 82 80 bd 7e d5 4d 3d
       -0.03295408 0.0030809722 -0.06274862 0.05025243
000250 91 69 06 3e db 4a 85 bd 14 d7 c4 3e c6 db bf be
       0.13126208 -0.06508418 0.38445342 -0.3747236
000260 e1 d6 44 be 74 6a 9a ba 64 08 4c 3d 0d cf 38 3d
       -0.19222595 -0.0011780993 0.04981269 0.045119334
000270 63 d1 17 3d 58 ae 5c 3e be 8c 13 be e6 e6 0e bd
       0.03706492 0.21550882 -0.14409158 -0.03488817
000280 22 3e 12 be 90 f5 19 3e 32 e8 c2 bc 62 1c 5b be
       -0.14281514 0.15035081 -0.02379236 -0.21397546
000290 cc f3 b3 3c 03 a2 2f bf d0 4e 19 be 3e e5 02 3f
       0.021966837 -0.68606585 -0.14971471 0.51131046
0002a0 28 b6 cd bb 2e 97 9a be 0e 09 43 bf 72 55 0c 3d
       -0.006277818 -0.30193466 -0.7618569 0.034261174
0002b0 d9 2a 74 bc 88 77 a2 3c 21 5c 46 be 19 e5 b6 3e
       -0.014902794 0.019832388 -0.19371082 0.35721663
0002c0 1f ee 10 3e 3d 52 1c 3e 1d 34 4b 3e c7 c4 05 3e
       0.14153336 0.15265746 0.19844098 0.13063346
0002d0 8f f3 a0 be 60 22 4f be 5a 18 f8 3e 36 be 95 3d
       -0.3143582 -0.20227957 0.4845608 0.073116705
0002e0 4f 35 14 be aa bb 79 bd 33 d0 32 bd b9 d4 ae bd
       -0.1447346 -0.060969986 -0.043655585 -0.085366674
0002f0 71 eb 00 be e8 e5 2f 3e 8f 8d c1 3c c0 15 49 bd
       -0.12589814 0.17177546 0.02362707 -0.049093008
000300 35 89 fe 3c 0a 10 d0 3d 21 6c 3d bd 72 4d 99 bd
       0.031071285 0.10159309 -0.046245698 -0.07485475
000310 65 b4 38 be 40 0a 5d bc ad 17 61 be 46 b6 f4 3d
       -0.18037565 -0.013491213 -0.21981688 0.119488284
000320 9b 03 db 3d 45 bc 5b bd ca 86 aa 3d a9 f4 27 3c
       0.10694047 -0.053646345 0.0832649 0.010251203
000330 74 d7 db 3c db 31 27 3e 61 f1 07 be 80 3a 63 bc
       0.026836134 0.16327612 -0.13275672 -0.013868928
000340 3e 03 88 3d 10 74 bc bd 6c 68 00 be be 0d 4b bd
       0.066412434 -0.09201825 -0.12539834 -0.049573652
000350 73 63 f4 bd 52 f5 7d bd ff 97 14 be 38 5e db bd
       -0.11933031 -0.062001534 -0.14511107 -0.1071133
000360 15 89 1e 3c a6 e6 9e bd 1f 2d 7d 3d f6 fd 40 be
       0.009676238 -0.077588364 0.06181061 -0.18846878
000370 1a 9d 00 be a1 42 5c bc 08 41 8d 3d f7 72 70 be
       -0.1255993 -0.01344362 0.06897169 -0.23481356
000380 3a 96 9d 3d c2 35 77 3c 5a a8 ff bd 41 43 d4 bd
       0.07694669 0.0150885 -0.124832824 -0.1036439
000390 3e 0f ac 3d 8a 9b df bd 7f 4d f7 3d c3 34 a8 bd
       0.08401345 -0.109183386 0.12075328 -0.082131885
0003a0 e4 8d ea 3d 3d b6 f4 bd df 08 09 3d 4b 37 45 3d
       0.11452845 -0.11948822 0.033455726 0.048148435
0003b0 98 49 0e be 1f de bd bd 9a 13 ac bc 7c fe 17 bd
       -0.13895261 -0.09270882 -0.02100544 -0.03710793
0003c0 de cc b2 3d 01 7e a8 bd 28 76 2b bd 8f b8 02 be
       0.087304816 -0.08227158 -0.04186073 -0.12765716
0003d0 02 08 0f be ea 41 ec 3d 94 89 65 bc 07 61 18 be
       -0.13967898 0.115360096 -0.014009852 -0.14880763
0003e0 d2 a9 3b 3c 38 71 ce bc 74 01 46 3d d4 22 f1 bd
       0.011454063 -0.025200471 0.04834123 -0.11774221
0003f0 67 1e 72 3c a3 ae fb bd 38 b2 ee bd 9e d5 de 3c
       0.014777756 -0.12289169 -0.11655086 0.02720147

layers.6.bias f4 [32]
000000 2c 0b 5f bd 67 8b 02 3f b8 b6 ca bd 06 ea 7d 3d
       -0.054454014 0.5099396 -0.09898132 0.06199076
000010 f6 65 b7 3d 57 e5 87 3e c0 60 8c be 8a 47 73 bd
       0.089549944 0.2654216 -0.27417564 -0.059394397
000020 99 64 3e bd d0 0e 04 3e 2a 13 6d 3e fc 06 1e bd
       -0.046482656 0.12896276 0.23151842 -0.03858088
000030 d1 0a 2b 3e bf 19 ea 3e 4e b4 02 3f 19 4d e3 3e
       0.16703345 0.45722768 0.51056373 0.44394758
000040 b2 54 9c be b0 6b 62 be 0c f4 ac 3e 37 9d 05 be
       -0.30533367 -0.22111392 0.33779943 -0.13048254
000050 7c 9e 59 be 4a ae 95 be 8f 2c 9b be 01 c7 a6 be
       -0.21251863 -0.29234535 -0.30307433 -0.32573703
000060 21 16 12 be ff a6 ac be 91 c7 ee be e9 65 92 be
       -0.14266254 -0.33721158 -0.46636632 -0.28593376
000070 1d 45 76 3e 0c a1 6d be 95 30 14 3f 74 f1 a5 3e
       0.24049802 -0.23205966 0.5788663 0.32410777

layers.8.weight f4 [16, 32]
000000 e7 19 82 3d 33 0b 27 3e 3b 35 01 be d9 97 c1 3d
       0.06352597 0.16312866 -0.12617962 0.09452791
000010 a0 5c 4e 3d 7d 89 7b 3d 0d 59 fa bd 16 bf fc bd
       0.050381303 0.061410416 -0.12224016 -0.12341134
000020 25 3a bf 3d 4b 95 d6 be 2a 37 d2 bd d1 cb 22 3c
       0.09337262 -0.41910776 -0.10264428 0.009936289
000030 7e bd 17 bd 5c f6 1b 3e 67 c0 b4 be 6b a3 51 bd
       -0.03704595 0.15230697 -0.3530304 -0.05118124
000040 7d c2 3f 3d 5d 82 2e be 46 57 aa be b9 1e 4e 3c
       0.046816338 -0.17041917 -0.3326971 0.012580567
000050 1a 76 b7 3c f2 0a f9 3e 35 6e 17 be 87 b0 94 3d
       0.022395182 0.48641163 -0.14788134 0.072602324
000060 c7 cb 83 3e 7a 8b 3d bc dc 6e 7e 3d b7 01 35 be
       0.25741407 -0.011568898 0.062117442 -0.17676435
000070 9c 55 13 bf ab a8 5a bd 4f 56 e7 3d 0c b3 82 3d
       -0.57552505 -0.05338351 0.11295759 0.06381807
000080 2f f7 85 bd 7a 0a 39 3e 4f 67 e0 3d 31 b3 92 3e
       -0.06541287 0.18070403 0.109572046 0.28652337
000090 09 ec 16 be 0e 79 fc bc 51 20 df bc 09 4f 2b be
       -0.14738478 -0.030819442 -0.02723709 -0.16729368
0000a0 7d 71 f3 bd 01 26 ce be cd 29 74 be 13 ba d1 3c
       -0.118868805 -0.4026337 -0.2384407 0.025601422
0000b0 9a d9 37 3e 09 f6 8f 3d 31 81 3c bf 86 7c 9b bb
       0.17954102 0.07029349 -0.7363463 -0.004745069
0000c0 1a 79 0c 3e 78 9a 85 3c bd a2 6c be 77 96 cd 3d
       0.13718072 0.016309008 -0.23108955 0.100384645
0000d0 25 66 a7 ba c3 16 ea bd 27 88 ab bd ee 9a 79 bd
       -0.001277153 -0.11430123 -0.083755784 -0.060938768
0000e0 1a e2 58 be 2b 20 2a be c9 a3 c5 3c 9c c8 89 bd
       -0.21180001 -0.16613834 0.02412595 -0.06727716
0000f0 7b 71 d1 be aa bf c6 bd 74 56 df bc 13 4d 01 bd
       -0.4090689 -0.09704526 -0.027262904 -0.031567644
000100 03 71 14 bd a6 a1 63 be 93 86 bc 3d 3c 39 05 3e
       -0.03624059 -0.22229633 0.092053555 0.13010114
000110 7e cd 07 bd e0 4c 2c bc ef 2b 54 bd b2 2b f8 3d
       -0.033154957 -0.010516375 -0.05179971 0.12117709
000120 a9 8d 1b bd 61 bd a1 be cd 5e 0f 3b 29 f8 12 3e
       -0.037976895 -0.31589797 0.0021876574 0.14352478
000130 5d 29 19 be 36 34 ba bd 6c 76 3a 3b bb 9e b7 bb
       -0.14957185 -0.0909199 0.0028451933 -0.005603639
000140 c1 f4 c2 bd b9 ba 01 be c0 58 78 3d cf 98 c2 3d
       -0.09519339 -0.12668885 0.060631514 0.09501802
000150 6d ed 20 3e 80 dc 05 be 21 2a 76 be 86 1d 61 be
       0.15715571 -0.13072395 -0.24039508 -0.21983919
000160 a4 b8 ca be ae cc 9e 3d 82 bf fb bd 1a 3e 1c bd
       -0.39593995 0.07753883 -0.122923866 -0.038145162
000170 01 46 f0 bd 63 49 3e be f9 d7 e7 3c 8a 5e 91 3d
       -0.11732102 -0.18582682 0.028301226 0.0709811
000180 00 56 d1 bd 28 72 06 3e 10 35 8e bd 81 a1 49 3c
       -0.10221481 0.13129485 -0.069437146 0.012306572
000190 e8 06 bf 3b 1d 81 1d 3d aa 07 80 bd d1 c9 0a 3e
       0.0058296807 0.03845321 -0.06251462 0.1355355
0001a0 8b 69 9b bd fc eb a0 be bd 5d 3a bd c6 29 f3 3d
       -0.0758849 -0.31430042 -0.045499552 0.11873202
0001b0 4a 64 39 bd 41 3a 3e 3e 26 41 03 bf 1f c3 a0 3e
       -0.04526166 0.1857691 -0.51271284 0.31398866
0001c0 6d 29 33 3d 44 ff be 3d 89 fe b1 be f2 08 42 3e
       0.04374068 0.09326032 -0.34764507 0.18948725
0001d0 bd 7f b5 bd d8 23 9e 3e c6 a1 05 be 64 49 c0 bd
       -0.08862255 0.30886722 -0.13049993 -0.09388998
0001e0 81 37 5d 3e f5 dd 49 be db 75 52 be 9c d9 d2 3c
       0.21603204 -0.19713576 -0.20552771 0.02573853
0001f0 c4 d9 aa be bd d6 f4 bc a2 35 05 ba 04 ee 88 3b
       -0.33369267 -0.029887551 -0.0005081539 0.0041787643
000200 2c ce a5 bd d7 cb 9d bd c6 45 ec bd 15 79 f8 3d
       -0.08095965 -0.07704895 -0.11536746 0.121324696
000210 ae c6 b7 bb 7c 43 34 be f0 2a 13 bd 43 fc 02 be
       -0.0056084013 -0.17603868 -0.03592962 -0.12791543
000220 43 14 ea bd 51 36 1a 3d 89 1d 77 bc 2c 19 3b 3d
       -0.11429646 0.037649456 -0.015082725 0.045678303
000230 b0 e2 bb bc 47 6e ac bd 29 fb 66 bc 9f df 2a be
       -0.022935241 -0.08419471 -0.014097967 -0.16686867
000240 cb 8f 54 be b0 84 b2 3d 33 92 04 bd 86 f3 87 3d
       -0.20757978 0.087167144 -0.03236599 0.06638245
000250 fb 33 08 3e 69 4e 1b 3c 0e cc bc bd 72 0f 37 bd
       0.13301079 0.009479144 -0.09218608 -0.044692464
000260 82 cd 27 bd a0 40 2d 3c da e1 cb bc 15 7c 39 be
       -0.040967472 0.01057449 -0.024887968 -0.1811374
000270 e2 9c df bd a7 ea 03 3e a8 75 05 bd c1 53 f7 bd
       -0.10918595 0.12882482 -0.03258291 -0.12076522
000280 b3 9f 94 3d d2 72 d5 bd 20 42 93 bd 97 6e cf 3d
       0.07257023 -0.10422291 -0.07190347 0.10128515
000290 b3 2e b0 be 26 f5 28 be f1 fe 08 3e c0 99 8d bc
       -0.3441063 -0.16499767 0.13378502 -0.017285228
0002a0 86 b0 af bd 76 f1 35 3e 5d 09 02 be 2c 14 2a be
       -0.08578591 0.17767891 -0.12698884 -0.16609257
0002b0 b5 4a 3e be be 24 3b be ae 78 65 bd d2 3b a4 be
       -0.18583186 -0.18275735 -0.056023292 -0.3207689
0002c0 d8 10 aa be 30 b4 e0 bc 00 55 c7 be 24 a2 36 be
       -0.33215976 -0.02742967 -0.38932037 -0.17835289
0002d0 02 8c 14 3e 4b c2 e2 bd 6c a0 45 be 98 13 37 be
       0.14506534 -0.11072215 -0.19299477 -0.17878568
0002e0 08 b3 82 3c 05 a8 34 3e 15 45 df bd 2b ab b5 3d
       0.01595451 0.1764222 -0.10901848 0.08870538
0002f0 10 bc bd be c9 e6 c9 3d 47 28 ba be a1 9e 0e be
       -0.37057543 0.09858472 -0.36358854 -0.139277
000300 73 c8 9a 3d 4d 14 3b 3e 45 90 c7 bd 8a 07 6e 3e
       0.07557764 0.18269463 -0.09744314 0.23245063
000310 35 89 21 3e 04 cc d4 bd 40 b6 00 be f1 26 43 be
       0.15774997 -0.103904754 -0.12569523 -0.19057824
000320 aa e5 17 be 6e b1 ad be 20 e2 a1 be d9 bc e1 bd
       -0.14833704 -0.3392443 -0.31617832 -0.11022348
000330 38 b0 80 3d e7 8f 8c 3e cb 7d 68 be 17 2e 55 3e
       0.06283611 0.2745354 -0.22704236 0.20818363
000340 ca 9f 92 3d 9a 78 b4 bd 53 d6 ba be a6 ec 68 bd
       0.071593836 -0.088120654 -0.3649164 -0.05686631
000350 64 cf 0c 3e 90 48 cf 3e 4a 8a ea bc 10 fd 37 be
       0.13750988 0.40485048 -0.028630394 -0.1796763
000360 dd b0 cc 3d 4a f9 0c be 40 4d b1 bd 62 4d bc bd
       0.099946715 -0.13766971 -0.086573124 -0.09194447
000370 ea af c8 be c9 88 db bd 53 5a c9 3c d8 5e d9 bd
       -0.39196712 -0.10719449 0.024579203 -0.10613793
000380 e1 87 74 3d 2e f4 60 be a4 2a 04 3d 06 93 51 be
       0.059699897 -0.21968147 0.032267228 -0.20466241
000390 28 c0 07 be 67 07 2f 3e 7c 7d 07 bd 58 04 05 bd
       -0.13256896 0.17092668 -0.033078656 -0.032474846
0003a0 26 c5 ba 3d 86 68 4d be d5 74 94 bd cd 6a 19 bd
       0.09119634 -0.20059404 -0.072488464 -0.03745537
0003b0 dd 5f 12 bd 68 d4 ef bc 67 61 ff bd 4a 29 6c be
       -0.035735954 -0.029276088 -0.1246975 -0.23062626
0003c0 28 53 8a bd 6f 45 ed 3d 70 c0 e3 bd 90 16 b7 3c
       -0.06754142 0.11585509 -0.11120689 0.022349626
0003d0 3e 0f 59 3d e9 64 51 be 52 fc c4 3d 9a 23 c0 3d
       0.05299305 -0.2044865 0.09618439 0.093817905
0003e0 3b 6a df bd 21 32 fb 3d 6b 4d 33 3c 88 a8 aa 3d
       -0.10908934 0.12265421 0.010943751 0.08332926
0003f0 d7 25 a2 3d fc 0d 26 3d b5 1c f8 3c 6c da c1 bd
       0.079173736 0.04054068 0.030287126 -0.09465489

layers.8.bias f4 [16]
000000 dd 74 13 3f 3d 31 c5 3e 8b ef 2c bd ed c5 0a 3f
       0.57600194 0.38514128 -0.042220633 0.5420826
000010 b4 4c 06 be c0 60 9c 3d 92 8a 0a 3f e0 18 e2 bd
       -0.13115197 0.07635641 0.5411769 -0.11039901
000020 56 ef ed 3e d2 32 10 be 99 03 22 3e df a0 06 be
       0.4647166 -0.14081886 0.15821685 -0.13147305
000030 b2 9a e5 3e 96 2c 90 bd 34 dc 14 3f c1 77 e9 3e
       0.44844586 -0.07039754 0.58148503 0.45599177

layers.10.weight f4 [1, 16]
000000 cb c2 04 3e a2 ca cd 3d c7 df 8d 3c 20 69 99 3e
       0.12964933 0.10048415 0.01731862 0.29963017
000010 77 5b 04 bd 57 95 58 be 8e 3c 53 3e e4 42 07 be
       -0.03231379 -0.21150719 0.20628569 -0.1320911
000020 cc c3 42 3e ee 25 b1 bd 57 f9 0f be 62 62 31 3e
       0.19020003 -0.08649813 -0.1405996 0.17322686
000030 e1 fd 93 3e 4c c5 80 bb 1d bf 27 3e be 9e 8f 3d
       0.28904632 -0.0039297696 0.16381498 0.070126995
