Compression_Test_MLP/models/mlp_base_50ep_3layer.pth (torch, 13458 bytes, 5 tensors)

layers.0.weight f4 [64, 8]
-0.20846042 -0.07615653 0.12880798 0.44228446 -0.012725796 0.32898614 -0.052082706 0.32757476
0.095705666 -0.38251463 0.3028048 -0.6910055 0.115041696 -0.680689 -0.49563286 0.37915626
0.5594485 -0.0010693101 -0.51900005 0.17624024 -0.21105616 -0.4102462 -0.52789205 0.24528424
-0.06755031 -0.021844823 0.08116109 -0.17631467 0.09250936 0.006220924 0.0568383 -0.7962293
0.33895242 0.0939163 -0.42559332 0.10535465 0.04929673 -0.00971418 -0.047320303 -0.46357545
0.1388591 0.04335789 0.3332336 0.45174408 -0.04618129 -1.2238543 -0.3185771 -0.063025706
0.15310238 -0.3317634 -0.033158276 0.07419518 -0.1356317 -1.0549067 0.20447908 0.28039077
0.025782727 -0.047350068 0.42775732 -0.35055238 -0.008490828 -3.5925796 -0.00687878 0.011273988
-0.16749339 -0.0503883 0.50909734 -0.42564467 -0.22013775 -2.5129895 0.43370348 0.33565876
0.5537615 -0.09291234 -0.40249273 0.20666672 -0.029610388 -0.056445826 0.233062 0.78246945
-0.04266101 -0.14409842 0.089626305 -0.2801901 0.02202362 -0.31348136 -0.022223787 -0.593228
-0.03022199 0.004867348 0.048505206 -0.045475863 -0.01752463 7.258679e-05 -1.048993 -0.92461133
0.39125234 0.01417291 0.067552015 -0.04886815 -0.03296711 -0.0041585034 -0.4460663 -0.51334
-0.10959539 0.086145185 -0.16398306 -0.47732762 -0.78800297 0.2227354 0.51210165 0.44144192
-0.009560525 -0.18484838 -0.25393048 0.09024985 -6.576629e-05 -3.3583074 -0.4628764 -0.33838463
-0.1191818 -0.066801704 0.22248577 -0.15938343 -0.0520149 -2.2186294 -0.61137533 -0.64293945
-0.038004007 -0.069777675 0.48817477 -0.089712255 -0.14572729 0.029925002 -0.7311174 -0.38209626
-0.117716454 -0.27654415 0.10399904 0.13860598 0.062531516 -2.1002846 0.61042416 0.20314577
0.22149613 0.0902113 -0.024653668 -0.207664 0.2943044 -1.4304324 -0.25203943 -0.1365682
-0.1304513 -0.20095104 0.620172 -0.90666825 -0.069463424 -0.004344666 -0.1669486 -0.4565959
0.39684388 0.19335076 0.09493361 -0.8198075 0.056298874 0.15272653 -0.28230548 -0.028094519
0.25639096 -0.056258563 -0.2701827 0.23046006 0.17008734 0.009242105 -0.54424864 -0.59532905
-0.3316492 -0.08640201 0.09695996 -1.3138376 -0.09474323 0.40299156 0.09107701 0.21698971
0.209248 0.12877183 0.11021516 0.10901955 0.09706903 -2.9861927 -0.22792594 -0.16040131
0.4734924 0.38626108 0.22789373 0.14620963 -0.019729642 -1.7212678 0.09196641 0.042629838
0.08706363 0.020782381 0.31846598 0.035318512 0.024335604 -2.079508 -0.1813602 -0.3621634
-0.25283164 -0.18194275 0.2519994 -0.39091668 -0.12766592 -1.1437937 -0.4315736 0.52869534
-0.08689817 0.025624838 0.15411246 -0.112674356 -0.030950684 0.24092436 -0.5744931 -0.48215577
0.009574594 0.20061603 0.02439494 0.016054047 0.03240325 -0.64264214 -0.8196399 0.1680475
0.28847003 0.1418415 0.11197343 0.04645244 0.04914371 -1.740009 -0.71729404 -0.67275274
0.02719689 0.039639734 0.098694324 -0.07688965 0.024868377 0.02304579 -0.9121911 0.12072043
-0.23645866 0.09923805 0.087563746 -0.070902705 -0.24603203 -0.8610805 -0.56472695 -0.58999825
00000000: a676 55be f4f7 9bbd 3de6 033e 1c73 e23e
00000010: db7f 50bc df70 a83e ad54 55bd e1b7 a73e
00000020: 5501 c43d f5d8 c3be 3b09 9b3e bde5 30bf
00000030: fb9a eb3d a241 2ebf 97c3 fdbe c520 c23e
00000040: 0438 0f3f 1828 8cba 30dd 04bf 5278 343e
00000050: 1b1f 58be ca0b d2be ef23 07bf cb2b 7b3e
00000060: d157 8abd eaf3 b2bc c937 a63d d58b 34be
00000070: 8c75 bd3d e5d8 cb3b 47cf 683d afd5 4bbf
00000080: 2c8b ad3e 3057 c03d 5ee7 d9be 2ec4 d73d
00000090: 5eeb 493d 3928 1fbc efd2 41bd c359 edbe
000000a0: 1431 0e3e 0b98 313d 989d aa3e 004b e73e
000000b0: 9828 3dbd 42a7 9cbf 8a1c a3be 9f13 81bd
000000c0: dfc6 1c3e e4dc a9be f9d0 07bd a4f3 973d
000000d0: 09e3 0abe 2f07 87bf f762 513e 618f 8f3e
000000e0: 4c36 d33c 25f2 41bd 0203 db3e 9a7b b3be
000000f0: 1d1d 0bbc d3ec 65c0 6467 e1bb 88b6 383c
00000100: 6383 2bbe f663 4ebd 3454 023f 19ee d9be
00000110: ca6b 61be d2d4 20c0 620e de3e 77db ab3e
00000120: 50c3 0d3f d348 bebd 8713 cebe 71a0 533e
00000130: 7c91 f2bc bd33 67bd cea7 6e3e eb4f 483f
00000140: 50bd 2ebd 898e 13be ff8d b73d 1475 8fbe
00000150: e16a b43c a180 a0be a90e b6bc cadd 17bf
00000160: 1b94 f7bc 467e 9f3b 65ad 463d e644 3abd
00000170: d08f 8fbc bc39 9838 6745 86bf 54b3 6cbf
00000180: 3a52 c83e 7e35 683c b658 8a3d f829 48bd
00000190: 8508 07bd 0e44 88bb cd62 e4be 406a 03bf
000001a0: 8c73 e0bd e36c b03d 2deb 27be 4964 f4be
000001b0: 90ba 49bf c014 643e 1819 033f ad04 e23e
000001c0: c0a3 1cbc e548 3dbe 2d03 82be ead4 b83d
000001d0: 02ec 89b8 82ee 56c0 23fe ecbe c040 adbe
000001e0: 9615 f4bd 55cf 88bd 4fd3 633e 6935 23be
000001f0: 930d 55bd 06fe 0dc0 1883 1cbf ae97 24bf
00000200: 17aa 1bbd 99e7 8ebd 0bf2 f93e 0fbb b7bd
00000210: 8939 15be 4725 f53c 832a 3bbf 1fa2 c3be
00000220: 5315 f1bd 3297 8dbe 73fd d43d baee 0d3e
00000230: 8610 803d 106b 06c0 c244 1c3f 7205 503e
00000240: e2cf 623e b4c0 b83d 7df6 c9bc dfa5 54be
00000250: 11af 963e 6918 b7bf 500b 81be 89d8 0bbe
00000260: 0795 05be 1cc6 4dbe 98c3 1e3f 691b 68bf
00000270: d742 8ebd b35d 8ebb 93f4 2abe f0c6 e9be
00000280: 1f2f cb3e befd 453e 8d6c c23d e8de 51bf
00000290: a699 663d 5864 1c3e 588a 90be 7a26 e6bc
000002a0: ad45 833e 616f 66bd 6355 8abe b9fd 6b3e
000002b0: 602b 2e3e 336c 173c e153 0bbf 7c67 18bf
000002c0: edcd a9be 89f3 b0bd f292 c63d d52b a8bf
000002d0: bd08 c2bd e954 ce3e 9586 ba3d 8d32 5e3e
000002e0: 1c45 563e c3dc 033e 7cb8 e13d a445 df3d
000002f0: 21cc c63d c81d 3fc0 6b65 69be 3e40 24be
00000300: 996d f23e 03c4 c53e f95c 693e fab7 153e
00000310: 0fa0 a1bc 8152 dcbf e358 bc3d a09c 2e3d
00000320: 6b4e b23d d03f aa3c f90d a33e 25aa 103d
00000330: 765b c73c a916 05c0 7db6 39be 7b6d b9be
00000340: 2673 81be 334f 3abe 1106 813e 3b26 c8be
00000350: dbba 02be d567 92bf 37f7 dcbe 9458 073f
00000360: abf7 b1bd 2eeb d13c a8cf 1d3e d0c1 e6bd
00000370: 4a8c fdbc e0b4 763e fb11 13bf 1fdd f6be
00000380: c2de 1c3c 4a6e 4d3e e6d7 c73c c783 833c
00000390: 45b9 043d 3284 24bf ecd3 51bf a514 2c3e
000003a0: 58b2 933e e63e 113e 5352 e53d ea44 3e3d
000003b0: ea4a 493d 9db8 debf 95a0 37bf 8639 2cbf
000003c0: 03cc de3c 465d 223d 4020 ca3d 5278 9dbd
000003d0: c4b8 cb3c 86ca bc3c 5b85 69bf 463c f73d
000003e0: 3822 72be 523d cb3d 9f54 b33d 7035 91bd
000003f0: d2ef 7bbe c66f 5cbf f291 10bf 200a 17bf

layers.0.bias f4 [64]
-0.4465242 -0.93215674 -0.55366325 -0.35446826 0.45541918 -0.9518282 0.33736452 -0.108857125
-0.10309854 0.22377749 -0.47907665 0.20541546 0.30557734 -0.4947123 0.03816925 -0.11571489
-0.14923364 0.22104731 -0.45309377 -0.19093971 -0.2593231 0.146341 0.47956118 -0.29215884
-1.1270187 0.15281172 -0.5006611 -0.033430807 -0.6160386 -0.08613221 -0.3613788 -0.046711124
0.20943038 0.14885457 0.071261 -0.37740925 0.1399373 -0.2381125 -0.05805626 -0.042899936
-0.28677073 0.3464264 -0.25889298 -0.6467908 -0.35499698 0.2654878 -0.4172338 0.34309524
-0.11067396 0.51575065 0.0694636 -0.7194618 -0.7535311 -0.34098256 -0.698993 -0.72631496
-0.3303641 -0.85754544 -0.62710243 -0.80964464 -0.40637007 -0.39581534 0.06984946 -0.44003353
00000000: d29e e4be d3a1 6ebf e0bc 0dbf dd7c b5be
00000010: b42c e93e 03ab 73bf 0bbb ac3e 7cf0 debd
00000020: 5425 d3bd ed25 653e 8949 f5be 6e58 523e
00000030: a274 9c3e ee4a fdbe 5c57 1c3d eefb ecbd
00000040: b4d0 18be 3a5a 623e e8fb e7be b385 43be
00000050: ffc5 84be 6ada 153e 0b89 f53e d895 95be
00000060: 2642 90bf ad7a 1c3e 532b 00bf beee 08bd
00000070: b5b4 1dbf 1666 b0bd a406 b9be 2a54 3fbd
00000080: eb74 563e 556d 183e 4af1 913d c93b c1be
00000090: b94b 0f3e c3d3 73be 67cc 6dbd d8b7 2fbd
000000a0: 9dd3 92be cd5e b13e 9f8d 84be 1594 25bf
000000b0: 2ac2 b5be 04ee 873e ab9f d5be 2eaa af3e
000000c0: 07a9 e2bd 3c08 043f ef42 8e3d a62e 38bf
000000d0: 6ae7 40bf 4495 aebe 35f1 32bf c7ef 39bf
000000e0: 7c25 a9be 1988 5bbf c989 20bf df44 4fbf
000000f0: bd0f d0be 4fa8 cabe 3c0d 8f3d 134c e1be

layers.2.weight f4 [32, 64]
0.013061497 -0.29232508 -0.42836374 -0.02506479 -0.0692211 -1.2860457 -0.10053386 0.43089104
0.15108433 0.067999005 -0.20820583 0.25874925 -0.096462846 -0.12349062 0.16826606 0.4352025
-0.059186514 -0.15312757 -0.235486 -0.032707214 -0.08591097 -0.14951655 -0.09749634 0.039617624
-0.5711465 0.031013925 -0.014138358 -0.118897915 -0.13838173 -0.13235995 -0.14700268 -0.008654115
0.028543506 0.12095992 -0.14824916 -0.051323008 -0.038396314 0.3905946 -0.3375685 -0.056480665
-0.32810846 -0.32199275 0.32518524 0.26830277 -0.11952003 -0.19563222 0.33684716 -0.014294673
-0.08816248 0.037696168 0.2360199 -0.06930394 -0.21768895 0.011553542 -0.13811094 -0.36947834
0.18754447 0.13336669 -0.36752656 -0.8818763 -0.3763165 -0.29925182 -0.14549288 -0.4438922
-0.31910917 -0.52353495 0.30814716 0.31860384 -0.026890254 -0.45730427 0.10902514 -0.18901798
-0.2755791 0.0022348077 0.31491983 -0.82632864 0.43562952 -0.51576227 0.18103518 0.4391449
-0.32544646 -0.34220648 0.22581214 0.17083366 -0.36453047 -0.043115918 -0.13764375 0.078310035
-0.46224082 -0.03738211 0.3373275 0.068286665 0.20376933 -1.0278283 0.20836106 0.20474693
0.14207476 -0.017905926 0.13174553 0.19847704 -0.20062354 0.20515203 0.18036461 -0.042740658
0.43965963 -0.104312055 -0.76216274 -0.097209156 0.007742213 -0.01383746 -1.3533759 -0.27899063
-0.38439354 -0.12612072 0.3321962 0.4055211 0.26300308 -0.15851685 -0.5876438 0.48633057
0.36073303 0.90665245 -0.016080279 0.8397125 -0.23714402 -0.90520734 -1.2546394 0.3003007
0.20779775 -1.5242816 -0.28676513 0.24776018 0.0075501106 -1.0797914 -0.29547635 0.22351949
-0.53400904 -0.3755951 0.10145031 0.4919679 0.012967601 -0.49437484 0.21164508 0.5107768
0.33808938 -0.55797446 -0.42776307 -0.036346667 -0.40023005 0.26476365 0.042719502 0.6462377
-0.1072544 -0.0990616 0.2516453 0.050787795 -0.16318724 0.44246474 -0.087838635 0.42494276
-0.19108938 -0.35724428 -0.16200556 0.037438642 -0.11982753 0.38564426 -0.0014074598 0.27153048
-0.43501937 0.03295847 1.207128 -0.2186856 -0.22697479 0.1524988 1.2115316 -0.0611816
0.22485144 0.17438018 0.62883556 -0.36913672 -0.21999729 0.014496857 0.08375424 0.17979883
-0.4329288 -0.13010988 0.051694047 -0.75631666 -0.4929342 0.33135423 -0.099608935 0.43122172
-0.13400364 0.06274116 0.026351305 0.030299122 -0.13376595 -0.109772995 -0.045134947 -0.06843828
-0.09490279 -0.014393735 -0.043024242 -0.07959658 -0.0017947806 -0.06307777 0.0062716873 0.028544543
-0.0786507 -0.17733587 0.007413405 -0.0022164884 -0.11431053 0.06216672 -0.12326257 0.07432213
0.056137055 -0.15810515 0.0576761 -0.17359714 -0.09231851 -0.031966124 -0.13826375 0.099941514
-0.07933565 0.000358617 -0.12508647 0.01518691 -0.05538059 -0.11892179 -0.0068448647 -0.009808216
0.09250667 -0.093270265 -0.08233044 0.0080470415 -0.021978842 -0.010903149 0.045557365 -0.08440906
0.009985261 0.076220155 -0.0549955 0.018778898 0.0036484334 0.072266996 -0.091589674 -0.1185138
-0.048276935 -0.015281591 0.0074591166 -0.0806308 0.051527686 -0.092239305 0.022007393 -0.020871595
00000000: e4ff 553c a2ab 95be 7e52 dbbe ad54 cdbc
00000010: cbc3 8dbd 259d a4bf b2e4 cdbd c09d dc3e
00000020: dab5 1a3e 1043 8b3d e933 55be c87a 843e
00000030: 508e c5bd a6e8 fcbd f04d 2c3e ddd2 de3e
00000040: 8f6d 72bd 79cd 1cbe 3e23 71be 00f8 05bd
00000050: 17f2 afbd de1a 19be 29ac c7bd 1746 223d
00000060: a836 12bf ea10 fe3c 92a4 67bc c080 f3bd
00000070: f1b3 0dbe 5e89 07be df87 16be fdc9 0dbc
00000080: 12d4 e93c d6b9 f73d a1ce 17be 1338 52bd
00000090: 7445 1dbd 04fc c73e c7d5 acbe 4558 67bd
000000a0: d5fd a7be 3cdc a4be ae7e a63e fb5e 893e
000000b0: ebc6 f4bd d053 48be 3b77 ac3e 3434 6abc
000000c0: 888e b4bd 4c67 1a3d 33af 713e 39ef 8dbd
000000d0: dae9 5ebe 114b 3d3c f46c 0dbe 442c bdbe
000000e0: a80b 403e 4791 083e 712c bcbe a5c2 61bf
000000f0: 8eac c0be 8937 99be 16fc 14be d745 e3be
00000100: 4762 a3be 6306 06bf 77c5 9d3e 0b20 a33e
00000110: f348 dcbc c923 eabe 9348 df3d ee8d 41be
00000120: b418 8dbe da75 123b 2c3d a13e 468a 53bf
00000130: d50a df3e ff08 04bf 4961 393e 9ad7 e03e
00000140: eba0 a6be b035 afbe 4c3b 673e 05ef 2e3e
00000150: bda3 babe 519a 30bd 7cf2 0cbe 0361 a03d
00000160: d4aa ecbe fc1d 19bd 31b6 ac3e e1d9 8b3d
00000170: e8a8 503e e18f 83bf 9a5c 553e 2ea9 513e
00000180: 0c7c 113e 73af 92bc 4de8 063e 913d 4b3e
00000190: 4270 4dbe 6013 523e 80b1 383e d410 2fbd
000001a0: 111b e13e 8fa1 d5bd 191d 43bf 9815 c7bd
000001b0: 64b2 fd3b 84b6 62bc 6c3b adbf dcd7 8ebe
000001c0: 3bcf c4be ca25 01be 9f15 aa3e 76a0 cf3e
000001d0: 57a8 863e 3e52 22be d36f 16bf 5200 f93e
000001e0: 00b2 b83e 601a 683f caba 83bc 66f7 563f
000001f0: e2d5 72be abbb 67bf 0698 a0bf 03c1 993e
00000200: efc8 543e a91b c3bf e1d2 92be d8b4 7d3e
00000210: eb66 f73b 9b36 8abf ad48 97be 4be2 643e
00000220: d1b4 08bf 004e c0be 2ec5 cf3d 37e3 fb3e
00000230: 1076 543c b31e fdbe 7db9 583e 45c2 023f
00000240: 0d1a ad3e 6ad7 0ebf c303 dbbe 3ee0 14bd
00000250: f4ea ccbe 1a8f 873e a5fa 2e3d d56f 253f
00000260: 32a8 dbbd cfe0 cabd a7d7 803e dd06 503d
00000270: 8e1a 27be bd8a e23e bee4 b3bd 1992 d93e
00000280: efac 43be b9e8 b6be c9e4 25be 4359 193d
00000290: 2368 f5bd 2a73 c53e 847a b8ba 0b06 8b3e
000002a0: dcba debe 76ff 063d 2c83 9a3f 1eef 5fbe
000002b0: 146c 68be a528 1c3e 7813 9b3f 8f99 7abd
000002c0: 753f 663e b890 323e 5efb 203f 7dff bcbe
000002d0: f846 61be 3a84 6d3c 5887 ab3d 2f1d 383e
000002e0: d8a8 ddbe 863b 05be 23bd 533d f89d 41bf
000002f0: df61 fcbe 43a7 a93e c5ff cbbd 18c9 dc3e
00000300: 4038 09be 707e 803d b1de d73c dd35 f83c
00000310: f1f9 08be aad0 e0bd 6cdf 38bd 5e29 8cbd
00000320: 655c c2bd b3d3 6bbc 303a 30bd 8803 a3bd
00000330: d83e ebba eb2e 81bd ba82 cd3b 3fd6 e93c
00000340: 9e13 a1bd 8997 35be 26ec f23b 8142 11bb
00000350: a41b eabd 88a2 7e3d 1671 fcbd 3336 983d
00000360: f8ef 653d 51e6 21be c63d 6c3d 73c3 31be
00000370: 7d11 bdbd e9ee 02bd 0395 0dbe 23ae cc3d
00000380: bb7a a2bd c204 bc39 ab16 00be 84d2 783c
00000390: c2d6 62bd 448d f3bd e34a e0bb a4b2 20bc
000003a0: 2374 bd3d 7b04 bfbd dd9c a8bd bdd7 033c
000003b0: f90c b4bc 1fa3 32bc 5c9a 3a3d a8de acbd
000003c0: 3899 233c 5019 9c3d f642 61bd 34d6 993c
000003d0: 8e1a 6f3b b800 943d 5e93 bbbd 5db7 f2bd
000003e0: 09be 45bd a35f 7abc 9b6b f43b c321 a5bd
000003f0: b20e 533d f6e7 bcbd d948 b43c e8fa aabc

layers.2.bias f4 [32]
0.13598223 0.006295292 0.24555302 -0.018815605 0.028589195 -0.15032785 -0.3748171 0.01676008
0.02129091 0.2753027 -0.2977623 0.42376918 -0.026456883 -0.05140052 -0.032114003 0.21129158
-0.8955879 0.2559534 -0.3684784 -0.08101247 0.28184906 -0.12640429 -0.2840929 -0.24157698
0.60554874 -0.072483435 -0.101398595 0.37483105 -0.2619519 0.44002706 -0.18028514 -0.54919374
00000000: ed3e 0b3e bd48 ce3b 4072 7b3e 2f23 9abc
00000010: e333 ea3c 8bef 19be 07e8 bfbe 6f4c 893c
00000020: 466a ae3c 7af4 8c3e 4d74 98be 46f8 d83e
00000030: 1bbc d8bc 5a89 52bd f989 03bd d25c 583e
00000040: 4045 65bf 530c 833e 33a9 bcbe dee9 a5bd
00000050: 854e 903e 2070 01be a074 91be f55f 77be
00000060: 3e05 1b3f 3272 94bd 11aa cfbd dbe9 bf3e
00000070: 8f1e 86be 3a4b e13e ab9c 38be f697 0cbf

layers.4.weight f4 [1, 32]
0.0036227293 -0.3038647 0.26850963 0.020826744 -0.2252968 -0.010096751 -0.535821 -0.75003576
-0.871144 -0.48717663 -0.5587995 0.22306935 0.7348767 -0.011948592 -0.015337303 -0.55978745
-0.38574633 -0.93670124 -0.5234189 0.5150626 0.31863052 -0.14313163 0.46067795 0.0275066
0.19072206 -0.093083456 0.0009805418 0.18780117 -0.4100266 0.19540827 -0.039160196 -0.18955319
00000000: 506b 6d3b 2794 9bbe 187a 893e d99c aa3c
00000010: 34b4 66be d86c 25bc 912b 09bf 5802 40bf
00000020: 4b03 5fbf 376f f9be 7c0d 0fbf 4b6c 643e
00000030: e120 3c3f 07c4 43bc 5049 7bbc 3b4e 0fbf
00000040: 8b80 c5be a7cb 6fbf c8fe 05bf 24db 033f
00000050: 8a23 a33e 1991 12be fbdd eb3e 8555 e13c
00000060: a54c 433e 8aa2 bebd 8685 803a f34e 403e
00000070: 02ef d1be 1b19 483e 7166 20bd 3b1a 42be
