Compression_Test_MLP/models/mlp_base_30ep_6layer.pth (torch, 38274 bytes, 11 tensors)

layers.0.weight f4 [64, 8]
0	0x3e940887	0.28912756
1	0x3e6c12df	0.23054074
2	0x3b58afee	0.0033063847
3	0x3e13f8ea	0.14450422
4	0x3da9f274	0.082981974
5	0x3e3f7036	0.18695149
6	0xbf284a99	-0.65738827
7	0x3cd8450f	0.026400117
8	0x3ec88618	0.39164805
9	0xbed92c6c	-0.42416704
10	0x3e2cf299	0.16889419
11	0xbc5872c3	-0.013210955
12	0x3d4538ed	0.04814999
13	0x3da0253e	0.078196034
14	0xbdb140b5	-0.0865492
15	0xbbd6fd3e	-0.0065609505
16	0x3e31e912	0.17374066
17	0xbdaea554	-0.085276276
18	0xbe4557ab	-0.19271724
19	0x3e9963aa	0.2995885
20	0xbd065cf4	-0.03280349
21	0xbf63e4de	-0.890211
22	0xbe840ea7	-0.2579243
23	0x3f19457d	0.59871656
24	0xbd6ce3e1	-0.05783451
25	0xbd806eee	-0.06271158
26	0x3e084f53	0.1331151
27	0xbecaaefc	-0.39586627
28	0xbe0fc268	-0.14039004
29	0xbe2acdd9	-0.16680087
30	0x3ede6794	0.434384
31	0xbf1412dd	-0.57841283
32	0x3e6c9bad	0.2310626
33	0x3d35019d	0.04419099
34	0xbed108b2	-0.40826946
35	0x3ea7ba26	0.32759207
36	0x3e18db68	0.14927447
37	0x3b81e47c	0.003964005
38	0xbeb4bc0b	-0.35299715
39	0xbecc0bd9	-0.3985279
40	0x3e66cffc	0.22540277
41	0x3dc29bec	0.09502396
42	0x3e504c4d	0.20341606
43	0x3f21a03c	0.63135123
44	0x3d036346	0.032077096
45	0xbf87131d	-1.0552708
46	0xbddeea8e	-0.108845815
47	0x3d39f5a0	0.045400262
48	0xbdf4aed0	-0.11947405
49	0xbe95dea7	-0.29271433
50	0xbf18031f	-0.5937976
51	0x3e4b41b4	0.19849283
52	0xbe43596f	-0.19077085
53	0xbf54e82a	-0.83166754
54	0x3e6e40f5	0.23266967
55	0x3e6b3cdd	0.22972436
56	0x3d8b3f49	0.0679918
57	0xbd9f335b	-0.07773467
58	0x3f0d48b3	0.55189055
59	0xbedff503	-0.43741617
60	0x3e3f4401	0.18678285
61	0xbef85c7c	-0.4850806
62	0xbe501914	-0.20322067
63	0xbe1ca6df	-0.15298031
64	0xbca2c90c	-0.019871257
65	0x3d8ed272	0.06973733
66	0x3e87afd2	0.26501328
67	0xbec94067	-0.39306948
68	0xbe3adb69	-0.18247761
69	0xbb8b12aa	-0.0042441683
70	0x3f2f904e	0.68579566
71	0x3eb0efe7	0.3455803
72	0x3ebe9bc0	0.37228203
73	0xbd9cca4c	-0.076557726
74	0xbf0bd47a	-0.5462109
75	0xbb5135bb	-0.0031922895
76	0xbd999c55	-0.07500521
77	0x3e270b6e	0.16312954
78	0x3e846923	0.25861463
79	0x3e91b1fa	0.28456098
80	0xbdd44f45	-0.10366682
81	0xbe4c9c9b	-0.19981615
82	0x3ea76afd	0.32698813
83	0xbd7f90f5	-0.0623941
84	0x3e1cb829	0.15304627
85	0x3e15c40e	0.1462557
86	0x3f19191a	0.59803927
87	0x3d385689	0.0450044
88	0xbc23d06f	-0.009998425
89	0xbd10d16f	-0.03535598
90	0x3d671944	0.05642058
91	0xbd5e9582	-0.0543418
92	0x3c1505ff	0.009095668
93	0x3d0efb43	0.03490759
94	0xbf3b1cb1	-0.73090655
95	0xbf105104	-0.5637362
96	0x3de33024	0.110931665
97	0xbdefbae2	-0.11705567
98	0xbd8c6ace	-0.06856309
99	0xbeb5a61b	-0.3547829
100	0xbd0c6e23	-0.034284722
101	0xbf0c6690	-0.54844
102	0xbe9f8ddf	-0.31162927
103	0xbeab4566	-0.33451384
104	0x3d0186dd	0.031622756
105	0xbe2111c3	-0.15729432
106	0xbe9552c8	-0.2916472
107	0xbe2ae492	-0.16688755
108	0xbf27c012	-0.6552745
109	0x3e359881	0.17733957
110	0x3f225b4d	0.63420564
111	0x3eacdbf4	0.3376156
112	0xbd8da626	-0.06916456
113	0xbe95e838	-0.2927873
114	0xbe5d5b86	-0.21616945
115	0x3e820fab	0.2540258
116	0xbc01d788	-0.007924922
117	0xbffce073	-1.9755996
118	0xbe9e37c0	-0.3090191
119	0xbe89921b	-0.26869282
120	0xbe2ee3d1	-0.17079093
121	0xbd82427a	-0.06360336
122	0x3df51361	0.11966587
123	0xbe2a105e	-0.16607806
124	0xbcf685a9	-0.030093031
125	0xc0087f29	-2.1327612
126	0xbedead92	-0.434918
127	0xbebbda85	-0.36690155
128	0xbd1c31ba	-0.03813336
129	0x3cf122be	0.029435512
130	0x3c7f2507	0.015572793
131	0xbe1eadb4	-0.1549595
132	0x3c26fc3f	0.010191976
133	0xbccb8b28	-0.024846628
134	0xbee9b9bc	-0.45649517
135	0xbf1b39c0	-0.60634995
136	0xbecad677	-0.3961675
137	0xbea60a2f	-0.32429644
138	0x3e173bcd	0.14768906
139	0x3dd6b128	0.104830086
140	0x3da0c0c6	0.078492686
141	0xbf5a8e0a	-0.85372984
142	0x3ed49eb4	0.4152733
143	0xbcf461f7	-0.02983187
144	0xbddcc1a2	-0.1077912
145	0xbd09b530	-0.03362006
146	0x3c4e73bd	0.012600836
147	0xbe183a94	-0.14866096
148	0x3db293e6	0.08719616
149	0xc0182bcc	-2.3776731
150	0xbd8ae5ab	-0.06782087
151	0xbcbb36a4	-0.022853203
152	0x3ddf1926	0.108934686
153	0xbe944ecb	-0.28966364
154	0x3e392f39	0.1808442
155	0xbecb1615	-0.39665285
156	0xbd3e26a8	-0.046423584
157	0x3e0575e9	0.1303326
158	0x3dabb318	0.08383769
159	0xbece6686	-0.40312594
160	0x3de41fbb	0.111388646
161	0xbdcf1c11	-0.10112775
162	0x3bc58a8b	0.0060284785
163	0xbeee634c	-0.46560133
164	0x3e050fc8	0.12994301
165	0x3db0a0a8	0.08624393
166	0xbe1a21c9	-0.1505195
167	0x3ed52cd2	0.41635758
168	0x3d0511c3	0.032487642
169	0xbd935725	-0.07194356
170	0xbde666c4	-0.1125007
171	0x3dd3bff9	0.1033935
172	0x3d440819	0.047859285
173	0xbf6eb42a	-0.9324366
174	0xbecedd98	-0.40403438
175	0xbeda495b	-0.4263409
176	0xbeacf99f	-0.33784196
177	0x3dca33e7	0.09873181
178	0x3e31d228	0.17365324
179	0xbf6f5e69	-0.93503433
180	0x3d896a91	0.06709779
181	0x3f83f5aa	1.0309346
182	0x3d39e32d	0.045382667
183	0x3ca0e12e	0.019638624
184	0x3e516feb	0.2045285
185	0x3e02f7d8	0.12789857
186	0x3e05b2da	0.13056508
187	0xbbf53f29	-0.007484336
188	0x3ce4d407	0.027933134
189	0xc00af77c	-2.1713552
190	0xbe4bb187	-0.1989194
191	0xbe45adf9	-0.19304647
192	0x3ec9446e	0.3931002
193	0x3e66b8d7	0.22531448
194	0x3e0153d4	0.12629634
195	0x3d950ce6	0.07277851
196	0x3cc5879a	0.024112511
197	0xbfa436f0	-1.2829266
198	0x3e4719fa	0.19443503
199	0x3d8c4f3b	0.068510495
200	0xbf33d4ee	-0.7024678
201	0xbe6cc913	-0.23123579
202	0xbec3bf0b	-0.38231692
203	0x3edb587b	0.42840943
204	0x3e414b79	0.18876447
205	0xbf041ca4	-0.516062
206	0xbe5562c2	-0.20838454
207	0xbe522bb1	-0.2052448
208	0xbf14bf84	-0.5810473
209	0x3c4ea296	0.012612006
210	0x3ef89c63	0.48556814
211	0xbe13bc00	-0.14427185
212	0x3d71381e	0.05889141
213	0xbeb26c25	-0.34848133
214	0xbe389e55	-0.18029149
215	0x3e97d3c9	0.29653767
216	0x3c040529	0.008057871
217	0x3c4cc007	0.012496955
218	0x3ec28435	0.3799149
219	0xbdd8ed0d	-0.10592089
220	0xbe03a650	-0.12856412
221	0x3c5211d8	0.012821637
222	0xbee69309	-0.45034054
223	0xbecb855f	-0.39750192
224	0xbe882a17	-0.26594612
225	0x3e4f025d	0.20215745
226	0x3e6b0296	0.22950205
227	0xbe28251d	-0.16420408
228	0xbe74a030	-0.23889232
229	0x3de9aab1	0.1140951
230	0xbf031604	-0.5120547
231	0x3e8be3aa	0.2732213
232	0x3e8b653d	0.27225676
233	0x3e2c026a	0.16797796
234	0x3e9596a5	0.29216495
235	0xbd74c347	-0.059756543
236	0x3d58dd8e	0.052945666
237	0xbff79e34	-1.9345155
238	0xbf071bb2	-0.52776635
239	0xbee3e0b2	-0.44507366
240	0x3d635fc3	0.055511247
241	0x3bd49c74	0.006488377
242	0x3de52275	0.11188213
243	0xbe0c6e39	-0.13713922
244	0x3c9df89c	0.019283585
245	0xbfe911cf	-1.820856
246	0xbf10d269	-0.5657106
247	0x3dd723ae	0.10504852
248	0x3e39b3d1	0.18135001
249	0x3e0694d8	0.13142717
250	0xbcaaecd3	-0.02086488
251	0x3d61e052	0.05514557
252	0x3d1db7ef	0.03850549
253	0xbffa8e7c	-1.9574733
254	0xbe859020	-0.2608652
255	0xbec56354	-0.38552344

layers.0.bias f4 [64]
0	0xbe745acf	-0.23862766
1	0xbf494e93	-0.7863552
2	0xbf18f53e	-0.5974921
3	0xbf174d8b	-0.59102696
4	0x3e4759be	0.19467828
5	0xbf4f1483	-0.80890673
6	0xbe186345	-0.14881618
7	0x3ca4594b	0.02006211
8	0x3d944545	0.072397746
9	0x3e6b235a	0.22962704
10	0xbc6af542	-0.014340701
11	0x3da10c2f	0.07863652
12	0x3e525f11	0.20544077
13	0x3d14e376	0.036349736
14	0x3e1169d8	0.14200532
15	0x3d1a3a84	0.03765346
16	0xbeb17515	-0.3465964
17	0xb944ac04	-0.00018756097
18	0x3c025c29	0.007956543
19	0xbebf8713	-0.3740774
20	0xbf032b62	-0.5123807
21	0x3d5bef1b	0.053694826
22	0x3f1d4071	0.61426455
23	0xbe48715b	-0.19574492
24	0xbf921de4	-1.1415372
25	0xbe61aa77	-0.22037683
26	0xbefc256c	-0.492473
27	0x3e6b63da	0.22987309
28	0xbf201c8a	-0.6254355
29	0x3d897e55	0.06713549
30	0xbe505747	-0.20345794
31	0xbd9a362b	-0.07529863
32	0xbca92fd8	-0.020652696
33	0xbe8f9caf	-0.28049228
34	0xbe058f66	-0.13042983
35	0xbe12ae63	-0.14324336
36	0x3d3a6048	0.045501977
37	0xbe9cb056	-0.30603284
38	0x3c798af5	0.015230884
39	0x3cad9e1b	0.021193555
40	0xbd88d538	-0.06681293
41	0x3e1160a5	0.14197023
42	0xbe5c6267	-0.21521913
43	0xbe55be13	-0.20873289
44	0xbde15ba9	-0.11003811
45	0xbea6111f	-0.32434937
46	0xbe171c46	-0.14756879
47	0x3e97f2be	0.29677385
48	0x3d1ed38e	0.038775973
49	0xbe401aa1	-0.18760158
50	0xbd9f185b	-0.07768317
51	0xbf29b428	-0.6629052
52	0xbed2f7ba	-0.41204625
53	0xbeb394b8	-0.350744
54	0xbf0c14a9	-0.54719025
55	0xbf17d4e4	-0.5930922
56	0xbf06cbdc	-0.52654815
57	0xbf26bd26	-0.6513237
58	0xbeb5313f	-0.35389134
59	0xbf03e5e7	-0.5152268
60	0xbf0fa496	-0.56110513
61	0xbeb95cc3	-0.36203584
62	0x3e8fbca6	0.28073615
63	0xbeb82d10	-0.3597188

layers.2.weight f4 [64, 64]
0	0x3e6c918b	0.23102395
1	0x3d9422dc	0.072332114
2	0xbdcaae6a	-0.09896548
3	0x3e9a0d62	0.30088335
4	0x3e6cb008	0.23114026
5	0xbf22ca06	-0.63589513
6	0xbe916699	-0.28398588
7	0x3e8b3b4c	0.27193677
8	0xbe811e03	-0.2521821
9	0xbe856dc3	-0.26060304
10	0xbee031f4	-0.4378811
11	0x3ef6db3d	0.4821414
12	0x3d72debf	0.05929446
13	0xbe912917	-0.28351662
14	0xbe179f58	-0.14806879
15	0x3eab7d30	0.33493948
16	0xbe888518	-0.26664042
17	0xbeb0b9ad	-0.3451666
18	0x3e0fb798	0.14034879
19	0xbe9074b2	-0.2821403
20	0x3db19118	0.086702526
21	0xbe9a393e	-0.30121797
22	0x3d268cdb	0.040661674
23	0xbe8c35df	-0.2738485
24	0xbe925dba	-0.28587133
25	0x3e9b2b53	0.3030649
26	0x3e4ea5a8	0.2018038
27	0x3e3e782c	0.1860053
28	0x3eef3f8a	0.46728164
29	0x3e27ceea	0.16387525
30	0x3e8a783c	0.27044857
31	0x3ca64e14	0.020300902
32	0xbbda1e25	-0.0066564255
33	0x3eccd371	0.40005067
34	0x3dba33fc	0.090919465
35	0x3e85fb45	0.26168266
36	0xbe896d3f	-0.2684116
37	0x3e929957	0.28632614
38	0xbda338a6	-0.07969789
39	0x3d826672	0.06367196
40	0x3e85a875	0.26105085
41	0xbe207e54	-0.1567319
42	0x3bc77047	0.0060863825
43	0x3e2609db	0.16214697
44	0xbdd998ec	-0.10624871
45	0x3d384e20	0.04499638
46	0x3e3dd638	0.18538749
47	0xbf682c9f	-0.90693086
48	0x3e124237	0.14283071
49	0xbd5d6df0	-0.054059923
50	0x3e1da6b7	0.15395628
51	0xbe0d93dc	-0.13825935
52	0x3ed8202c	0.42212045
53	0xbcec2858	-0.028827831
54	0x3cc1b8a6	0.023647618
55	0xbeae85ac	-0.3408636
56	0x3e0ca808	0.13735974
57	0x3e76dac3	0.24106888
58	0xbdf88655	-0.12134997
59	0x3e22e83b	0.15908901
60	0xbe9860f0	-0.29761457
61	0x3b6d0edc	0.0036172187
62	0xbf25a3f8	-0.6470332
63	0x3ead2bb3	0.33822402
64	0x3e0427b4	0.1290577
65	0xbf3c4f74	-0.73558736
66	0x3e059e88	0.13048756
67	0x3ea224b3	0.31668624
68	0xbdd721ca	-0.105044916
69	0xbf628eb8	-0.8849902
70	0xbee36e25	-0.4441997
71	0xbea398c1	-0.3195248
72	0x3cf103cf	0.029420761
73	0x3d819de6	0.06328945
74	0xbd359347	-0.044329908
75	0xbe2648a7	-0.16238652
76	0x3d1fa22d	0.038973022
77	0xbe01264c	-0.12612265
78	0x3e4e212e	0.20129845
79	0x3f03ad6a	0.51436484
80	0x3ddb3af2	0.10704602
81	0xbe2d8f88	-0.16949284
82	0x3e87d2c7	0.26527998
83	0x3e642d6b	0.2228295
84	0xbf00510b	-0.5012366
85	0xbd96eb77	-0.0736913
86	0xbf3c88a2	-0.73645985
87	0x3ebac648	0.36479402
88	0xbe9d357b	-0.30704865
89	0xbf459d5c	-0.77193236
90	0x3e6c3252	0.2306607
91	0xbde8c184	-0.11365035
92	0x3dcdfc7e	0.10057925
93	0x3e790a2e	0.2432029
94	0x3d83889d	0.06422541
95	0x3ea81e90	0.32835817
96	0x3e12b3dd	0.14326425
97	0x3e3be732	0.18349913
98	0xbd0e77dc	-0.034782276
99	0x3e18edf3	0.1493452
100	0x3daa51c0	0.08316374
101	0xbdbdad32	-0.0926155
102	0xbed96058	-0.42456317
103	0xbcf77bbd	-0.03021037
104	0x3de7fb24	0.11327198
105	0xbd8027a9	-0.062575646
106	0x3e8f029d	0.2793168
107	0xbf1b5418	-0.6067519
108	0x3c74e753	0.01494773
109	0x3e453672	0.1925905
110	0xbd9aa1f1	-0.07550419
111	0x3d9a0f55	0.075224556
112	0xbd03f0a3	-0.03221191
113	0x3e368a8f	0.17826293
114	0x3eb7b77f	0.35882184
115	0x3ebc1cd9	0.3674076
116	0xbe213f46	-0.15746793
117	0x3e64d23c	0.22345823
118	0x3d84bc20	0.064811945
119	0x3e2f7f9c	0.17138523
120	0xbf80bc02	-1.0057375
121	0x3e426639	0.18984307
122	0xbf02c938	-0.51088285
123	0x3d5df48f	0.054188307
124	0x3e647d15	0.2231334
125	0xbe6842be	-0.2268171
126	0xbc0030df	-0.007824152
127	0xbcbb1fa6	-0.02284224
128	0x3e3f6827	0.18692075
129	0xbe3e6ccb	-0.18596189
130	0x3e40e8af	0.18838762
131	0x3ef71a83	0.48262414
132	0xbe66d7e5	-0.22543295
133	0xbe9e2287	-0.30885717
134	0xbe323a20	-0.17404985
135	0x3ea11114	0.31458342
136	0x3e631e94	0.22179633
137	0xbe26fdf9	-0.1630782
138	0x3dd8bd46	0.10582976
139	0x3d80912e	0.06277691
140	0xbd24f409	-0.040271793
141	0xbda47270	-0.0802964
142	0x3e15fbd8	0.14646852
143	0x3ec4187b	0.38299927
144	0xbecd6ed1	-0.4012361
145	0x3d12260e	0.035680823
146	0x3e3e4228	0.18579924
147	0x3e78fccf	0.24315189
148	0xbf08aa69	-0.53385025
149	0xbd729af8	-0.05922982
150	0xbe848033	-0.25879058
151	0x3e7d8df0	0.24761176
152	0xbf41bf74	-0.7568276
153	0xbe8de901	-0.2771683
154	0xbe39007e	-0.18066594
155	0xbe0228a3	-0.12710814
156	0xbdb84280	-0.08997059
157	0x3ec624da	0.3869999
158	0x3edbfc17	0.42965767
159	0x3e97cd5f	0.29648873
160	0xbc35a43e	-0.011086522
161	0x3d988152	0.07446541
162	0x3d532440	0.051548243
163	0x3ec3a6ff	0.38213345
164	0x3e11475b	0.14187376
165	0x3e623d7b	0.22093765
166	0xbf066f7c	-0.5251386
167	0x3df41b65	0.119192876
168	0xbe7504be	-0.2392759
169	0xbe083caa	-0.13304392
170	0x3eb8fb52	0.36129242
171	0xbe00e4e9	-0.12587322
172	0x3d04a9c2	0.032388456
173	0x3ecc83b7	0.3994424
174	0xbdf4b941	-0.11949397
175	0x3e3afda8	0.18260825
176	0x3cd5594d	0.026043558
177	0xbddc16d3	-0.10746541
178	0x3e0bd781	0.13656427
179	0x3d0d6edd	0.034529556
180	0xbda0fb9a	-0.07860489
181	0x3e015e51	0.12633635
182	0xbeb8832d	-0.3603758
183	0x3ddd2231	0.10797537
184	0xbe96a5fe	-0.29423517
185	0x3de05072	0.10952844
186	0xbeaa61dd	-0.3327779
187	0xbe2e72e9	-0.17036022
188	0x3e521051	0.20514037
189	0x3dcda5bb	0.10041376
190	0xbd173ad9	-0.036921356
191	0x3d83a36f	0.06427657
192	0xbc137b65	-0.0090015875
193	0x3c5ffd0d	0.013671172
194	0x3d6cea5f	0.0578407
195	0x3e8127b6	0.2522561
196	0xbe961af6	-0.29317445
197	0xbf34182e	-0.70349395
198	0xbeace4a8	-0.337682
199	0x3e0887aa	0.13333002
200	0x3c9f6ac2	0.019460086
201	0xbf0f2d06	-0.55928075
202	0xbdad7580	-0.08469677
203	0x3de25643	0.11051609
204	0xbe606211	-0.2191241
205	0xbf3abcae	-0.7294415
206	0x3e0ab5cb	0.13545911
207	0x3e8ca6d1	0.2747102
208	0xbf349e9d	-0.70554525
209	0xbee75cf7	-0.45188114
210	0xbe08269f	-0.13295983
211	0xbe788950	-0.2427113
212	0xbe88d39b	-0.26723942
213	0x3cc77291	0.024346622
214	0xbf1428ce	-0.57874763
215	0x3d0a4d36	0.03376504
216	0xbf0cf333	-0.5505859
217	0xbf9919ec	-1.1961036
218	0xbe15872f	-0.1460235
219	0x3d911b2c	0.07085261
220	0x3e03a250	0.12854886
221	0x3e15e33b	0.14637463
222	0x3d96565b	0.0734069
223	0xbd22ca80	-0.0397439
224	0xbea6eeb2	-0.32603985
225	0xbd47a55e	-0.04874169
226	0xbed8be89	-0.42332867
227	0x3e8bead1	0.27327588
228	0xbe0bc4f1	-0.13649346
229	0xbc4054cd	-0.011738968
230	0x3ddff455	0.109352745
231	0x3d9dd1fb	0.07706066
232	0x3e91e839	0.28497484
233	0xbe4ae08b	-0.19812219
234	0xbd729c6e	-0.059231214
235	0x3e798bf8	0.243698
236	0x3c3a3fab	0.011367719
237	0x3c87bf43	0.016570693
238	0x3e9a2a26	0.30110282
239	0xbe3dcbe6	-0.18534812
240	0xbe164b6c	-0.14677209
241	0xbe0c766f	-0.13717054
242	0x3d8d1d72	0.06890382
243	0x3e5f1162	0.21783975
244	0xbe98962a	-0.29802066
245	0xbd577843	-0.052604925
246	0xbdf81100	-0.121126175
247	0xbcaef9db	-0.021359375
248	0xbe8a159a	-0.26969606
249	0x3ea8ffcf	0.33007666
250	0xbecc9a91	-0.39961675
251	0xbd8d27aa	-0.06892331
252	0xbddff4de	-0.109353766
253	0xbf154f0d	-0.58323747
254	0xbc9f8541	-0.01947272
255	0xbef45a1b	-0.47724995

layers.2.bias f4 [64]
0	0xbc970a2c	-0.018437468
1	0xbe1138ac	-0.14181775
2	0xbe210f1c	-0.1572842
3	0xbc1e0a2e	-0.009645982
4	0xbbade311	-0.0053066094
5	0xbe59afde	-0.21258494
6	0xbeab0c05	-0.33407608
7	0x3c03c32b	0.008042137
8	0xbdb4f031	-0.088348754
9	0x3e21677b	0.15762131
10	0xbe169f70	-0.14709258
11	0xbe2111bc	-0.15729421
12	0xbb14ca7f	-0.0022703705
13	0x3dc1bbcc	0.094596475
14	0xbdaa6833	-0.08320656
15	0x3e5fa085	0.21838577
16	0xbe8978d0	-0.26849985
17	0xbc9f49db	-0.019444397
18	0x3e5d68cf	0.21622013
19	0xbda13263	-0.07870939
20	0xbe0f100a	-0.13970962
21	0x3d9b0592	0.07569422
22	0x3e1d4ea0	0.15362024
23	0xbda3a30b	-0.07990082
24	0x3e369ea3	0.17833953
25	0xbdd85dc3	-0.10564759
26	0xbe17826f	-0.1479585
27	0xbd04a840	-0.03238702
28	0x3de48ba2	0.11159445
29	0xbddbc76b	-0.10731395
30	0xbddb8dff	-0.10720443
31	0x3d3e1c72	0.046413846
32	0x3e0f7992	0.14011219
33	0xbe57e76d	-0.21084376
34	0x3ba7b9ad	0.00511857
35	0x3dd760e3	0.105165266
36	0xbe3ec9e5	-0.18631704
37	0xbe4cac74	-0.1998766
38	0x3e8a6d07	0.27036306
39	0x3e0a9d23	0.13536505
40	0xbe76e7f1	-0.24111916
41	0xbe211d48	-0.15733826
42	0xbe153d12	-0.14574078
43	0xbd809efe	-0.06280325
44	0xbe13e969	-0.14444508
45	0x3c777ab0	0.015104935
46	0xbe89aba1	-0.26888755
47	0xbd45707c	-0.048202977
48	0x3e3aad6c	0.18230218
49	0xbe8e9164	-0.278453
50	0xbeca1b0e	-0.39473766
51	0xbda2ccba	-0.07949205
52	0xbe25c3f1	-0.16188027
53	0x3e05af10	0.13055062
54	0x3db17b1f	0.086660616
55	0xbc02b183	-0.007976892
56	0xbd786920	-0.06064713
57	0x3e1c5a12	0.15268734
58	0xbe83304d	-0.25622788
59	0x3d935703	0.071943305
60	0x3c8a197d	0.016857857
61	0x3e041229	0.12897553
62	0xbe1dbca8	-0.15403998
63	0xbe73c0ee	-0.23804066

layers.4.weight f4 [32, 64]
0	0xbc3f0ba1	-0.011660487
1	0xbc464680	-0.012101769
2	0xbca57fba	-0.020202506
3	0xbe0682ae	-0.13135788
4	0xbb5c8494	-0.0033648359
5	0xbdded839	-0.10881085
6	0xbbcf1ca0	-0.006320551
7	0xbdb92fa4	-0.0904229
8	0xbdba6a01	-0.0910225
9	0xbe0729a2	-0.13199475
10	0xbe10536c	-0.14094323
11	0xbd9e5e73	-0.077328585
12	0xbda6850c	-0.081308454
13	0x3c372ec9	0.011180588
14	0xbd333c08	-0.043758422
15	0x3d21767c	0.039419636
16	0xbd44a484	-0.048008457
17	0x3c9241b3	0.017853593
18	0x3dc7b063	0.0975044
19	0xbdd48cf6	-0.10378449
20	0xbd7735f4	-0.060354188
21	0x3ca17c54	0.019712605
22	0xbd5ed55e	-0.0544027
23	0xbd3013cd	-0.042987633
24	0xbd18d8ef	-0.03731626
25	0xbdb3189b	-0.087449275
26	0x3b439715	0.002984469
27	0xbd828216	-0.06372468
28	0x3c63a03d	0.013893184
29	0xbd0293bb	-0.031879168
30	0xbd6373b8	-0.05553028
31	0xbe215b8c	-0.15757579
32	0x3d05059c	0.032476053
33	0x3c84c737	0.016208274
34	0xbe0e8ff8	-0.13922107
35	0xbe060eeb	-0.13091628
36	0xbe01d8ab	-0.12680309
37	0xbd326d6a	-0.043561377
38	0x3d49d5b4	0.04927607
39	0xbe479110	-0.1948893
40	0x3c631871	0.013860808
41	0x3c8bedd1	0.017081173
42	0xbd8960c0	-0.06707907
43	0xbd9d265e	-0.076733336
44	0x3d847403	0.0646744
45	0x3dfb1a42	0.12260868
46	0x3d5d66dc	0.054053172
47	0xbb9be5f6	-0.004757638
48	0xbe0870ef	-0.13324331
49	0xbe2841df	-0.16431378
50	0xbd91c43e	-0.07117508
51	0xbc1665c0	-0.0091795325
52	0x3db0b70a	0.08628662
53	0xbe358660	-0.17727041
54	0xbd8038ba	-0.0626082
55	0xbd22d748	-0.03975609
56	0xbd3ddf88	-0.046355754
57	0x3dc5ce63	0.09658506
58	0x3becc742	0.007225902
59	0xbcb199b8	-0.021679744
60	0xbd2d8914	-0.042367056
61	0xbe1a4b34	-0.1506775
62	0xbe1a7e45	-0.1508723
63	0x3d134584	0.035954967
64	0x3d808b57	0.06276577
65	0xbe6467b3	-0.22305183
66	0xbdd7923d	-0.105259396
67	0xbee5fad0	-0.44917917
68	0x3ee862f9	0.4538801
69	0xbdff82e4	-0.12476137
70	0xbe8f103e	-0.2794208
71	0x3e76069f	0.24025963
72	0x3f1efe47	0.62106746
73	0xbe2a366c	-0.16622323
74	0xbded2f81	-0.11581326
75	0xbf5b38d6	-0.856336
76	0x3ed70482	0.41995627
77	0x3e8ea478	0.27859855
78	0xbd92781c	-0.07151815
79	0xbf690033	-0.9101593
80	0x3dab9d53	0.083796166
81	0xbd256ec0	-0.040388823
82	0xbfee7d54	-1.8631997
83	0xbe054bca	-0.13017192
84	0xbdf7a3d1	-0.120917924
85	0xbdf9e447	-0.122017436
86	0xbc88ace5	-0.016684005
87	0x3e190b19	0.1494564
88	0xbdbf38d4	-0.09337011
89	0x3c1200d1	0.008911327
90	0xbe9548f7	-0.2915723
91	0xbea713cc	-0.3263229
92	0xbf14be3a	-0.5810276
93	0xbe7dbe1d	-0.24779554
94	0xbd9c8489	-0.076424666
95	0x3ea8d9df	0.32978722
96	0x3c6f1831	0.01459317
97	0xbd93ea12	-0.0722238
98	0x3e3f91c2	0.18707946
99	0xbcc05d4a	-0.023481984
100	0x3d6f5002	0.05842591
101	0x3a9e8f88	0.0012097219
102	0x3eee2cac	0.46518457
103	0xbc012589	-0.007882484
104	0x3db8ba57	0.090199165
105	0xbc759291	-0.014988557
106	0x3e104b7b	0.14091294
107	0xbc89d693	-0.01682595
108	0xbe08f483	-0.13374524
109	0xbe1a04ee	-0.15040943
110	0x3efdca9c	0.4956864
111	0xbd54a8cb	-0.051918786
112	0xbed25bf8	-0.41085792
113	0xbed02d06	-0.4065935
114	0xbfe4dc6f	-1.7879771
115	0x3c415284	0.011799458
116	0xbd89c0df	-0.0672624
117	0xbca29b52	-0.019849453
118	0x3dae5e7c	0.08514115
119	0x3dcf80ae	0.101319656
120	0x3c245bb9	0.010031634
121	0xbe897143	-0.26844224
122	0x3ae8b2f5	0.0017753529
123	0xbc066db0	-0.0082048625
124	0x3cdba117	0.026810212
125	0x3e204d58	0.15654504
126	0x3c3e5c62	0.0116187055
127	0xbc98a843	-0.018634921
128	0x3dbbea3a	0.091755345
129	0x3e5c9054	0.21539432
130	0x3e34efbd	0.17669578
131	0x3da9c57f	0.082896225
132	0x3e271e85	0.16320236
133	0x3e0d93d0	0.13825917
134	0x3e995bec	0.29952943
135	0x3e878516	0.26468724
136	0x3e84505a	0.25842553
137	0xbedb44b7	-0.42825863
138	0xbda24050	-0.07922423
139	0xc0021caf	-2.0330007
140	0x3e25c0df	0.16186856
141	0xbf1cd24e	-0.612584
142	0xbd39f78d	-0.0454021
143	0xbeba1f71	-0.36352113
144	0x3cb1e4e0	0.021715581
145	0xbd7d0c67	-0.061779406
146	0xbf4670c7	-0.77515835
147	0xbe1ecbe9	-0.15507473
148	0xbdc4cf80	-0.0960989
149	0xbf07c18e	-0.53029716
150	0x3e321ea3	0.173945
151	0x3e08508c	0.13311976
152	0x3d26e19c	0.0407425
153	0xbda5c20a	-0.08093651
154	0xbe036289	-0.12830557
155	0x3dd92aaf	0.106038444
156	0xbb890682	-0.004181684
157	0x3f306e92	0.68918717
158	0x3d301012	0.042984076
159	0x3e2d05b2	0.16896704
160	0x3de0f884	0.109849006
161	0x3e125b94	0.14292747
162	0x3e0adada	0.13560048
163	0xbc8c6214	-0.017136611
164	0xbe130840	-0.14358616
165	0xbf25c91f	-0.6476001
166	0xbc77159e	-0.0150808375
167	0xbe1e62e5	-0.15467413
168	0x3dcd0a22	0.10011698
169	0x3e67b3e0	0.2262721
170	0x3dce4be4	0.10073069
171	0x3d558a0e	0.052133612
172	0x3e0f0b6a	0.13969198
173	0x3e97d4ed	0.29654637
174	0x3c87be18	0.016570136
175	0xbd357edb	-0.044310432
176	0xbdbfcad6	-0.0936486
177	0xbf30561b	-0.68881387
178	0xbe20cb80	-0.15702629
179	0xbd157087	-0.036484268
180	0xbe2a698c	-0.16641825
181	0xbe0c3653	-0.13692598
182	0x3e2d6620	0.16933489
183	0xbd591ead	-0.05300777
184	0xbde324d6	-0.1109101
185	0xbebce519	-0.36893538
186	0x3cec747e	0.028864142
187	0x3dc476bc	0.09592959
188	0xbdd5207f	-0.10406589
189	0x3e8de2ef	0.277122
190	0x3d7df12a	0.06199757
191	0x3e8f5484	0.27994168
192	0x3f1bc089	0.6084066
193	0xbe8e814d	-0.27833024
194	0xbe8136c7	-0.25237104
195	0xbd9fbf07	-0.078001074
196	0xbdfb3fe5	-0.12268046
197	0x3e6dcb19	0.23222007
198	0xbf54b713	-0.8309185
199	0x3e38ffcc	0.18066329
200	0xbddfa177	-0.10919469
201	0x3ec3a806	0.3821413
202	0xbe6fdb79	-0.23423566
203	0xbf17dd05	-0.59321624
204	0xbe84a9e3	-0.25910863
205	0xb99ebf57	-0.00030278668
206	0x3c4dbd31	0.012557314
207	0x3d53efe4	0.05174245
208	0x3d20142e	0.039081745
209	0xbc8989ce	-0.016789343
210	0x3d7a35bc	0.0610864
211	0xbe0e2ae4	-0.13883549
212	0x39a5692e	0.00031549617
213	0x3d8f63a7	0.07001429
214	0xbee95e1c	-0.45579612
215	0x3e485098	0.19561994
216	0xbe14e728	-0.14541304
217	0x3e10c978	0.14139354
218	0xbd4d52c1	-0.05012775
219	0xbe16d9a1	-0.14731456
220	0xbeb81ff7	-0.35961887
221	0xbf0028a8	-0.50062037
222	0xbd960082	-0.073243156
223	0x3f087b3e	0.5331305
224	0x3d8a56f4	0.06754866
225	0xbe5be75c	-0.21474975
226	0x3e9f2909	0.31085995
227	0x3eec8dba	0.4620188
228	0x3c5b49f3	0.01338433
229	0xbece1c55	-0.4025599
230	0x3e4c3e29	0.19945587
231	0xbec03e63	-0.37547597
232	0xbe6aa561	-0.2291465
233	0xbe602c4f	-0.21891902
234	0xbd921693	-0.07133212
235	0x3dbb90f8	0.0915851
236	0xbf1efaa2	-0.62101185
237	0xbe317c2d	-0.17332526
238	0xbc8f0585	-0.017458687
239	0x3e1859f1	0.1487806
240	0xbf13f683	-0.5779802
241	0xbeb27166	-0.3485214
242	0xbd8bdf20	-0.06829667
243	0x3e3e8bea	0.1860806
244	0xbdd2371a	-0.10264416
245	0xbe39d859	-0.18148936
246	0xbe3a5e8a	-0.18200126
247	0xbde44086	-0.11145119
248	0xbe944ee1	-0.2896643
249	0x3eb2076f	0.34771296
250	0x3edc4620	0.4302225
251	0x3c952d3c	0.018210046
252	0x3de294d0	0.1106354
253	0xbe193c2d	-0.14964361
254	0xbe1e7ea3	-0.15477996
255	0xbdedde0c	-0.11614618

layers.4.bias f4 [32]
0	0xbdfcf383	-0.12351134
1	0x3e4e8b6e	0.20170376
2	0x3cd1b18b	0.025597354
3	0x3d213f66	0.039367102
4	0x3e3d9330	0.18513179
5	0x3eb6a620	0.35673618
6	0x3dd35b96	0.10320203
7	0xbd9424b3	-0.07233562
8	0xbc8eb537	-0.017420394
9	0xbf10bd73	-0.56539077
10	0x3e6cf926	0.23141918
11	0x3e703483	0.23457532
12	0x3e79997d	0.24374957
13	0xbe1e527d	-0.15461154
14	0x3d7923e8	0.06082526
15	0xbe529744	-0.20565516
16	0xbe45f412	-0.19331387
17	0x3e6d1483	0.23152356
18	0xbe4fb1be	-0.20282647
19	0xbdc21e7b	-0.0947847
20	0xbd4f1a6d	-0.05056231
21	0xbe2fdebd	-0.17174812
22	0x3e6a0fe1	0.2285762
23	0x3ed6b758	0.41936755
24	0x3e904198	0.28175044
25	0xbe2d0273	-0.16895466
26	0x3e065ab1	0.13120534
27	0x3d362870	0.044472158
28	0x3de66e99	0.112515636
29	0xbe550b77	-0.20805155
30	0x3dea0e9c	0.11428568
31	0xbe0fa1ab	-0.14026515

layers.6.weight f4 [32, 32]
0	0x3de33f75	0.11096088
1	0xbe2b5cb1	-0.16734578
2	0xbd7d9693	-0.061911177
3	0xbd11d36d	-0.035602022
4	0xbe24a1e5	-0.16077383
5	0xbf2b9cee	-0.6703633
6	0xbe132a5b	-0.14371626
7	0xbe075f91	-0.1322005
8	0x3d0b6d59	0.03403983
9	0xbe736757	-0.2376989
10	0xbea3f2c3	-0.3202115
11	0xbe11c7f4	-0.14236432
12	0xbd295d57	-0.04134878
13	0x3dfb1f68	0.1226185
14	0x3e0d8199	0.13818969
15	0x3dede9dc	0.11616871
16	0xbe30c047	-0.17260848
17	0xbdd1e461	-0.10248638
18	0xbdbc9363	-0.09207799
19	0x3e7998bd	0.24374671
20	0xbe486459	-0.1956953
21	0xbe6f162d	-0.23348303
22	0x3d833bda	0.064079
23	0xbdf5e24b	-0.120060526
24	0xbdc61293	-0.096715115
25	0x3cfe27e2	0.031024877
26	0x3c05a288	0.008156426
27	0xbc86bb3e	-0.016446706
28	0xbe408d6b	-0.18803947
29	0xbd95a4f3	-0.07306852
30	0x3c54d3c3	0.012989941
31	0x3dcab17e	0.09897135
32	0xbc008a72	-0.007845508
33	0x3f285cd7	0.6576666
34	0x3e438a46	0.19095716
35	0xbde662d0	-0.11249316
36	0x3c45827f	0.0120550385
37	0xbf41f817	-0.7576918
38	0x3e29d125	0.16583689
39	0x3e9804c8	0.29691148
40	0x3d4492d7	0.0479916
41	0x3d037143	0.032090437
42	0xbeecabf2	-0.46224934
43	0x3e548ef9	0.20757665
44	0x3dba8427	0.09107237
45	0x3da1c0fa	0.078981355
46	0x3e01534f	0.12629436
47	0x3ea78877	0.32721302
48	0x3e26cd60	0.16289282
49	0x3e2d6e46	0.16936597
50	0xbd0140e4	-0.031556025
51	0xbd7dddbb	-0.061979037
52	0xbec4f4f4	-0.38468134
53	0xbd73eb11	-0.05955035
54	0x3f1870ba	0.5954701
55	0xbdb1a70d	-0.086744405
56	0x3c81ed4b	0.01586022
57	0x3dc8f34b	0.098120295
58	0x3e261b17	0.16221271
59	0xbd93850d	-0.07203112
60	0x3d79f3d1	0.061023537
61	0x3db56f4e	0.0885912
62	0x3e40f119	0.18841971
63	0xbcc18496	-0.023622792
64	0xbc342a5b	-0.010996426
65	0xbddcfb0c	-0.10790071
66	0xbe22ad02	-0.1588631
67	0xbe241048	-0.16021836
68	0xbe18a71e	-0.149075
69	0xbe0369ff	-0.12833403
70	0x3dbc556f	0.09195983
71	0xbcde72a8	-0.027154282
72	0xbe0e3b6c	-0.13889855
73	0xbdcc7ff5	-0.09985343
74	0xbe082f28	-0.13299239
75	0xbd85ff69	-0.06542856
76	0x3dd945ac	0.10608992
77	0xbe2c2e46	-0.16814527
78	0xbe30e956	-0.1727651
79	0x3d040ccf	0.032238778
80	0x3df1b881	0.118027695
81	0xbe3efe91	-0.18651797
82	0x3cf93868	0.030422404
83	0x3e2d325f	0.16913746
84	0xbce8a890	-0.02840069
85	0xbdd5a064	-0.10430983
86	0x3d87a203	0.06622698
87	0x3d7bea3a	0.061502673
88	0xbd7a2c5d	-0.061077464
89	0xbe18fc9f	-0.14940117
90	0xbc621a89	-0.013800272
91	0xbe1f1d33	-0.15538482
92	0xbe30a38b	-0.17249887
93	0x3d48f240	0.049059153
94	0x3d8ba5fb	0.06818768
95	0x3ccf0605	0.025271425
96	0xbe1ad024	-0.15118462
97	0x3ec20651	0.37895444
98	0xbee9bd90	-0.45652437
99	0x3e4bfd2a	0.19920793
100	0xbb610434	-0.003433478
101	0xbf9fea98	-1.2493467
102	0x3b92433e	0.0044635823
103	0x3eff6a44	0.49885762
104	0x3ed35e7c	0.41283023
105	0xbe8fff3d	-0.2812442
106	0xbe02aaf2	-0.12760523
107	0xbd7d14ee	-0.06178754
108	0xbdc85c1d	-0.09783194
109	0xbd2d1e70	-0.042265356
110	0xbec56de7	-0.3856041
111	0x3e94716c	0.28992784
112	0x3e129b9d	0.14317174
113	0xbe471f2a	-0.19445482
114	0x3ed1d4b9	0.40982607
115	0x3e1aa408	0.15101635
116	0xbf80a1ed	-1.0049416
117	0xbd93e7e1	-0.07221962
118	0xbebded61	-0.37095168
119	0x3e6b9166	0.23004684
120	0xbe9149c0	-0.2837658
121	0x3de0c2c6	0.1097465
122	0x3e636804	0.22207648
123	0xbe292248	-0.16516984
124	0x3ea2193c	0.31659877
125	0x3f009541	0.50227743
126	0xbe7550b7	-0.23956572
127	0x3dfc0e59	0.12307424
128	0xbcaa8ddd	-0.020819599
129	0x3eeb7e13	0.45994624
130	0xbda18fc8	-0.07888752
131	0x3be2d194	0.0069219563
132	0xbd8d60e6	-0.069032475
133	0xbf4f3438	-0.80939054
134	0xbdbb31de	-0.09140371
135	0x3e5fdc73	0.21861438
136	0x3e947ee4	0.2900306
137	0xbebac265	-0.36476436
138	0xbf265a81	-0.6498185
139	0xbdf1561a	-0.11784001
140	0xbe791288	-0.24323475
141	0xbe1925fc	-0.14955896
142	0x3e2b0d47	0.16704284
143	0x3e1e96b1	0.15487172
144	0xbd06fadb	-0.03295408
145	0xbc378f04	-0.011203531
146	0xbdb78650	-0.08961165
147	0x3d4dd57e	0.05025243
148	0x3e0dcaaf	0.13846849
149	0xbd854adb	-0.06508418
150	0x3ee88d29	0.45420197
151	0xbef4a927	-0.47785303
152	0xbe44bd5d	-0.19212861
153	0xba9a6a74	-0.0011780993
154	0x3dea0f26	0.114286706
155	0xbd4d5c6a	-0.05013696
156	0x3daec223	0.085331224
157	0x3eaa0bb2	0.33212048
158	0xbe2e6ba7	-0.17033254
159	0xbd40b846	-0.047050737
160	0xbe123e22	-0.14281514
161	0x3e4042a2	0.18775418
162	0xbd3e7281	-0.04649592
163	0xbe48154d	-0.19539376
164	0xbd36238a	-0.044467486
165	0xbf389b7c	-0.7211225
166	0xbe681798	-0.2266525
167	0x3f1373a5	0.57598335
168	0xbc2abbf1	-0.010420785
169	0xbe8e2ab0	-0.27766943
170	0xbf467450	-0.7752123
171	0xbd229455	-0.03969224
172	0xbda03050	-0.07821715
173	0x3ca27788	0.019832388
174	0xbe7b77e8	-0.2455746
175	0x3ea0891d	0.3135461
176	0x3e316e77	0.17327295
177	0x3d9f454f	0.077768914
178	0x3dfc6f78	0.123259485
179	0x3ddd8f1b	0.10818311
180	0xbe98a48e	-0.29813045
181	0xbe4f2260	-0.20227957
182	0x3ed2107a	0.41028196
183	0x3d1019e3	0.035180937
184	0xbe568d02	-0.20952228
185	0xbcefaaa2	-0.029256169
186	0xbdc2e15d	-0.09515641
187	0xbe065869	-0.13119663
188	0xbe18ae0a	-0.1491014
189	0x3e3a7cdb	0.18211691
190	0xbd6221dd	-0.055208076
191	0xbdec4d8e	-0.1153823
192	0x3cfe8935	0.031071285
193	0x3dd0100a	0.10159309
194	0xbd3d6c21	-0.046245698
195	0xbd994d72	-0.07485475
196	0xbe38b465	-0.18037565
197	0xbc5d0a40	-0.013491213
198	0xbe6117ad	-0.21981688
199	0x3df4b646	0.119488284
200	0x3ddb039b	0.10694047
201	0xbd5bbc45	-0.053646345
202	0x3daa86ca	0.0832649
203	0x3c27f4a9	0.010251203
204	0x3cdbd774	0.026836134
205	0x3e2731db	0.16327612
206	0xbe07f161	-0.13275672
207	0xbc633a80	-0.013868928
208	0x3d88033e	0.066412434
209	0xbdbc7410	-0.09201825
210	0xbe00686c	-0.12539834
211	0xbd4b0dbe	-0.049573652
212	0xbdf46373	-0.11933031
213	0xbd7df552	-0.062001534
214	0xbe1497ff	-0.14511107
215	0xbddb5e38	-0.1071133
216	0x3c1e8915	0.009676238
217	0xbd9ee6a6	-0.077588364
218	0x3d7d2d1f	0.06181061
219	0xbe40fdf6	-0.18846878
220	0xbe009d1a	-0.1255993
221	0xbc5c42a1	-0.01344362
222	0x3d8d4108	0.06897169
223	0xbe7072f7	-0.23481356
224	0x3d9d963a	0.07694669
225	0x3c7735c2	0.0150885
226	0xbdffa85a	-0.124832824
227	0xbdd44341	-0.1036439
228	0x3d615cb9	0.055020068
229	0xbddf9b8a	-0.109183386
230	0x3db93ec2	0.09045173
231	0xbda834c3	-0.082131885
232	0x3dafa472	0.08576287
233	0xbdf4b63d	-0.11948822
234	0x3d0908df	0.033455726
235	0x3cb7ae28	0.022421911
236	0xbe1d17a7	-0.15341054
237	0xbdbdde1f	-0.09270882
238	0xbcac139a	-0.02100544
239	0xbd17fe7c	-0.03710793
240	0x3db2ccde	0.087304816
241	0xbde38f8a	-0.11111362
242	0xbd2b7628	-0.04186073
243	0xbe02b88f	-0.12765716
244	0xbe0f0802	-0.13967898
245	0x3dec41ea	0.115360096
246	0xbc658994	-0.014009852
247	0xbe186107	-0.14880763
248	0x3c3ba9d2	0.011454063
249	0xbcce7138	-0.025200471
250	0x3ca2d807	0.0198784
251	0xbdf122d4	-0.11774221
252	0x3c721e67	0.014777756
253	0xbdfbaea3	-0.12289169
254	0xbe150326	-0.14551982
255	0x3cded59e	0.02720147

layers.6.bias f4 [32]
0	0xbdafc81e	-0.08583091
1	0x3f0ae582	0.5425645
2	0xbdcab6b8	-0.09898132
3	0x3da64d29	0.08120186
4	0x3b364b93	0.0027816042
5	0x3e483053	0.19549684
6	0xbe8c60c0	-0.27417564
7	0xbdaeaba7	-0.08528834
8	0xbd02badb	-0.03191648
9	0x3df357b8	0.118819654
10	0x3e611a43	0.21982674
11	0xbd81a64b	-0.06330546
12	0x3e1f1b5f	0.15537785
13	0x3eea990c	0.4581989
14	0x3f0a22f3	0.5395958
15	0x3efb6ce2	0.49106508
16	0xbe8e63bb	-0.27810463
17	0xbe8007c2	-0.2500592
18	0x3ea19641	0.31559947
19	0xbe059d37	-0.13048254
20	0xbe53c5a2	-0.2068086
21	0xbea24683	-0.3169442
22	0xbe9b2c8f	-0.30307433
23	0xbeb4f33c	-0.35341823
24	0xbe434d10	-0.19072366
25	0xbecf5274	-0.40492594
26	0xbf037a65	-0.51358634
27	0xbebcf644	-0.36906636
28	0x3e8bc795	0.27300707
29	0xbe6da10c	-0.23205966
30	0x3f1d6d2f	0.61494726
31	0x3e41cbba	0.18925372

layers.8.weight f4 [16, 32]
0	0x3dbdd99a	0.0927002
1	0x3e1e4385	0.15455444
2	0xbe01353b	-0.12617962
3	0x3e1a8c8e	0.1509268
4	0x3e276a6f	0.16349195
5	0x3c716a17	0.014734766
6	0xbdfa590d	-0.12224016
7	0xbdcbf4db	-0.09958812
8	0x3e25efd1	0.16204764
9	0xbee58709	-0.44829586
10	0xbd95a6fb	-0.073072396
11	0xbd12a6ae	-0.03580349
12	0xbd463826	-0.04839339
13	0x3e1555b6	0.14583477
14	0xbea5c7e1	-0.32379058
15	0xbd6eac6c	-0.058269903
16	0x3db628a1	0.08894468
17	0xbe21c8e1	-0.15799285
18	0xbeae9b6b	-0.3410295
19	0x3c4e1eb9	0.012580567
20	0x3d8a8cbb	0.067651235
21	0x3ee2356c	0.44181383
22	0xbe176e35	-0.14788134
23	0x3d927923	0.07152011
24	0x3e63c6f1	0.22243859
25	0x3d2f23f4	0.042758897
26	0x3dfa26e3	0.12214448
27	0xbdfd044f	-0.123543374
28	0xbf1236ef	-0.5711507
29	0xbd5aa8ab	-0.05338351
30	0x3df2135c	0.11820099
31	0x3d0fd184	0.03511192
32	0xbd17448f	-0.036930617
33	0x3e1ad865	0.1512161
34	0x3de0674f	0.109572046
35	0x3eb4ee84	0.35338223
36	0xbd1d50e1	-0.03840721
37	0xbdbeeaa8	-0.09322101
38	0xbcdf2051	-0.02723709
39	0xbe128533	-0.14308624
40	0xbd8ef962	-0.0698116
41	0xbf09a24e	-0.5376328
42	0xbe84c015	-0.25927797
43	0xbcead9b1	-0.028668256
44	0x3e88bfa5	0.26708713
45	0x3d2e5361	0.042559985
46	0xbf52d981	-0.82363135
47	0xbd1ee488	-0.038792163
48	0x3e36eef4	0.17864591
49	0x3cf1506e	0.029457297
50	0xbe77bdfd	-0.24193569
51	0x3dcd9677	0.100384645
52	0xbe15ab86	-0.14616212
53	0xbe320c77	-0.17387567
54	0xbdab8827	-0.083755784
55	0xbd7d0f34	-0.061782077
56	0xbea47c5b	-0.32126126
57	0xbdf6fecc	-0.120603174
58	0x3dd12364	0.10211828
59	0xbca51ec3	-0.02015627
60	0xbf0168c5	-0.5055049
61	0xbdc6bfaa	-0.09704526
62	0xbd09acda	-0.03361211
63	0xbd6e6b35	-0.05820771
64	0xbd147103	-0.03624059
65	0xbe8caf6e	-0.27477592
66	0x3dbc8693	0.092053555
67	0x3dc19ae7	0.094533734
68	0xbd84f4ec	-0.06492028
69	0xbd525c60	-0.051357627
70	0xbd542bef	-0.05179971
71	0x3df82bb2	0.12117709
72	0xbd1b8da9	-0.037976895
73	0xbea1bd61	-0.31589797
74	0x3b0f5ecd	0.0021876574
75	0x3da4163f	0.080120556
76	0xbe19295d	-0.14957185
77	0xbe0ced47	-0.13762389
78	0xbcecb23c	-0.028893583
79	0xbca77232	-0.020440195
80	0xbdc2f4c1	-0.09519339
81	0xbdc29084	-0.095002204
82	0x3ceca014	0.028884925
83	0x3dc298cf	0.09501802
84	0x3e20ed6d	0.15715571
85	0xbe2d2bb5	-0.16911204
86	0xbe762a21	-0.24039508
87	0xbe611329	-0.21979965
88	0xbedae191	-0.4275022
89	0x3e0fbff8	0.14038074
90	0xbdfbbf82	-0.122923866
91	0xbd1c3e1a	-0.038145162
92	0xbdaf7294	-0.08566776
93	0xbe3e4963	-0.18582682
94	0x3c4f1fc8	0.012641855
95	0x3d65149e	0.055927865
96	0xbd92d713	-0.071699284
97	0x3e0fc958	0.1404165
98	0xbd8e3510	-0.069437146
99	0x3d97fced	0.07421289
100	0x3dfae1c1	0.122500904
101	0x3ab9ffec	0.001419065
102	0xbd8007aa	-0.06251462
103	0x3e241234	0.16022569
104	0xbbd78ae8	-0.006577838
105	0xbeac6412	-0.33670098
106	0xbbbff1dc	-0.0058576893
107	0x3d905fe9	0.070495434
108	0xbd4d3248	-0.05009678
109	0x3e49e128	0.19714797
110	0xbef6c666	-0.4819824
111	0x3ea62b2f	0.3245482
112	0x3db07d3d	0.08617637
113	0x3dda6aa3	0.106648706
114	0xbeb50fa1	-0.35363486
115	0x3e4208f2	0.18948725
116	0x3adff4b1	0.0017086474
117	0x3e835325	0.25649372
118	0xbe05a1c6	-0.13049993
119	0xbdb93847	-0.09043937
120	0x3e32dab7	0.17466246
121	0xbe0113e1	-0.1260524
122	0xbe142757	-0.14468132
123	0x3dc0fa29	0.09422714
124	0xbea3f79e	-0.32024854
125	0xbcf4d6bd	-0.029887551
126	0x3cadc3ac	0.021211468
127	0xbcb047a2	-0.021518532
128	0xbda5ce2c	-0.08095965
129	0xbd9dcbd7	-0.07704895
130	0xbdec45c6	-0.11536746
131	0x3df87915	0.121324696
132	0xbbb7c6ae	-0.0056084013
133	0xbe34437c	-0.17603868
134	0xbd132af0	-0.03592962
135	0xbe02fc43	-0.12791543
136	0xbdea1443	-0.11429646
137	0x3d1a3651	0.037649456
138	0xbc771d89	-0.015082725
139	0x3d3b192c	0.045678303
140	0xbcbbe2b0	-0.022935241
141	0xbdac6e47	-0.08419471
142	0xbc66fb29	-0.014097967
143	0xbe2adf9f	-0.16686867
144	0xbe548fcb	-0.20757978
145	0x3db284b0	0.087167144
146	0xbd049233	-0.03236599
147	0x3d87f386	0.06638245
148	0x3e0833fb	0.13301079
149	0x3c1b4e69	0.009479144
150	0xbdbccc0e	-0.09218608
151	0xbd370f72	-0.044692464
152	0xbd27cd82	-0.040967472
153	0x3c2d40a0	0.01057449
154	0xbccbe1da	-0.024887968
155	0xbe397c15	-0.1811374
156	0xbddf9ce2	-0.10918595
157	0x3e03eaa7	0.12882482
158	0xbd0575a8	-0.03258291
159	0xbdf753c1	-0.12076522
160	0x3d949fb3	0.07257023
161	0xbe59213a	-0.21204081
162	0xbd934220	-0.07190347
163	0x3dcf6e97	0.10128515
164	0xbe9cd278	-0.30629325
165	0xbe28f526	-0.16499767
166	0x3e08fef1	0.13378502
167	0xbc8d99c0	-0.017285228
168	0xbdafb086	-0.08578591
169	0x3e7794d7	0.24177872
170	0xbe1dfc0b	-0.15428178
171	0xbe2a142c	-0.16609257
172	0xbe7ae875	-0.24502738
173	0xbe4cd647	-0.20003615
174	0xbdbaa206	-0.09112935
175	0xbed59495	-0.41714922
176	0xbe9e88e7	-0.30963823
177	0xbce0b430	-0.02742967
178	0xbedcfaf8	-0.43160224
179	0xbe36a224	-0.17835289
180	0x3e34fae6	0.17673835
181	0xbe11e81d	-0.142487
182	0xbe45a06c	-0.19299477
183	0xbe371398	-0.17878568
184	0xbc818151	-0.015808733
185	0x3e34a805	0.1764222
186	0xbe1029bb	-0.14078419
187	0x3db5ab2b	0.08870538
188	0xbf06d86e	-0.52673995
189	0x3dc9e6c9	0.09858472
190	0xbed5b576	-0.41740006
191	0xbdf271cb	-0.118381105
192	0x3dd8541e	0.10562919
193	0x3e3df209	0.1854936
194	0xbdc79045	-0.09744314
195	0x3e9684b7	0.29398128
196	0x3e8c55e7	0.27409288
197	0xbe13d349	-0.14436068
198	0xbe00b640	-0.12569523
199	0xbe29872f	-0.16555475
200	0xbda31832	-0.07963599
201	0xbeb9fed3	-0.36327228
202	0xbe8ef665	-0.2792236
203	0xbe20a54e	-0.15688059
204	0x3d670cf7	0.05640885
205	0x3e8f2985	0.27961364
206	0xbe40f2ae	-0.18842575
207	0x3e5977b3	0.21237068
208	0x3de946d6	0.11390464
209	0xbd98ada3	-0.074549936
210	0xbebc7da8	-0.36814618
211	0xbd68eca6	-0.05686631
212	0x3e696e8f	0.22796081
213	0x3eb7134c	0.3575691
214	0xbcea8a4a	-0.028630394
215	0xbe3480df	-0.17627285
216	0x3d839442	0.06424762
217	0xbd87f40a	-0.06638344
218	0xbcd3c7aa	-0.025852043
219	0xbcc05c10	-0.023481399
220	0xbec30eff	-0.3809738
221	0xbddb88c9	-0.10719449
222	0x3d2e209f	0.04251158
223	0xbe085d0a	-0.13316742
224	0x3d7487e1	0.059699897
225	0xbe60f42e	-0.21968147
226	0x3d042aa4	0.032267228
227	0xbe519306	-0.20466241
228	0xbe07c028	-0.13256896
229	0x3e2f0767	0.17092668
230	0xbd077d7c	-0.033078656
231	0xbd050458	-0.032474846
232	0x3dbac526	0.09119634
233	0xbe4d6886	-0.20059404
234	0xbd9474d5	-0.072488464
235	0xbd196acd	-0.03745537
236	0xbd125fdd	-0.035735954
237	0xbcefd468	-0.029276088
238	0xbdff6167	-0.1246975
239	0xbe6c294a	-0.23062626
240	0xbd8a5328	-0.06754142
241	0x3ded456f	0.11585509
242	0xbde3c070	-0.11120689
243	0x3cb71690	0.022349626
244	0x3d590f3e	0.05299305
245	0xbe5164e9	-0.2044865
246	0x3dc4fc52	0.09618439
247	0x3dc0239a	0.093817905
248	0xbddf6a3b	-0.10908934
249	0x3dfb3221	0.12265421
250	0x3c334d6b	0.010943751
251	0x3daaa888	0.08332926
252	0x3da225d7	0.079173736
253	0x3d260dfc	0.04054068
254	0x3cf81cb5	0.030287126
255	0xbdc1da6c	-0.09465489

layers.8.bias f4 [16]
0	0x3f19b2d3	0.6003849
1	0x3ebd48a4	0.36969483
2	0xbd878fa3	-0.066191934
3	0x3f164101	0.5869294
4	0xbe064cb4	-0.13115197
5	0x3e103e2d	0.14086218
6	0x3f14c591	0.5811396
7	0xbde218e0	-0.11039901
8	0x3f00262c	0.50058246
9	0xbe1032d2	-0.14081886
10	0x3e5a7999	0.21335448
11	0xbe24aeba	-0.16082278
12	0x3efcf5f3	0.49406394
13	0xbddd6326	-0.10809927
14	0x3f1d7227	0.6150231
15	0x3ee3c2c9	0.44484547

layers.10.weight f4 [1, 16]
0	0x3e086788	0.13320744
1	0x3db94c71	0.09047783
2	0x3bd5600e	0.0065116948
3	0x3e9fd231	0.3121505
4	0xbd045b77	-0.03231379
5	0xbea4e9ff	-0.32209775
6	0x3e62c346	0.22144803
7	0xbe0742e4	-0.1320911
8	0x3e4dae6f	0.20086072
9	0xbdb125ee	-0.08649813
10	0xbdd95566	-0.106119916
11	0x3eb308bb	0.34967598
12	0x3e98e455	0.29861704
13	0xba31107c	-0.00067544705
14	0x3e35406d	0.17700358
15	0x3d6bde42	0.05758501
