Compression_Test_MLP/models/mlp_base_25ep_8layer.pth (torch, 75242 bytes, 15 tensors)

layers.0.weight f4 [128, 8]
0	0xbd7d37d0	-0.061820805
1	0xbeae09ce	-0.33991855
2	0xbe7aef55	-0.2450536
3	0x3e55a069	0.20861973
4	0xbc9c87b8	-0.019107684
5	0xbfe6301f	-1.7983435
6	0xbec4d5c1	-0.3844433
7	0xbe8a8fc8	-0.2706282
8	0xbdefaf3e	-0.11703347
9	0xbdb279d8	-0.08714646
10	0x3e10348b	0.14082544
11	0xbe1d6ba6	-0.15373096
12	0xbd9953f1	-0.07486714
13	0xc012c1d9	-2.2930815
14	0xbee986fe	-0.45610803
15	0xbee2db8f	-0.44308135
16	0xbe88cacf	-0.2671723
17	0xbd72fa90	-0.059320986
18	0xbf0f4760	-0.55968285
19	0x3ead3b5f	0.3383436
20	0xbbfa7b99	-0.0076441285
21	0xbe94add4	-0.2903887
22	0x3e7f455a	0.249288
23	0x3ebc3f5c	0.3676709
24	0xbe97cbbb	-0.29647622
25	0x3d8b1441	0.067909725
26	0x3ebe5614	0.37175047
27	0xbf0504d3	-0.51960486
28	0xbef04eb3	-0.46935043
29	0x3f18101f	0.593996
30	0x3e890d7e	0.26768106
31	0x3e170df3	0.14751415
32	0xbd24da45	-0.04024722
33	0xbcd8eeeb	-0.026481112
34	0x3b8d1e21	0.00430657
35	0x3b98f92f	0.004668377
36	0xbea264ee	-0.31717628
37	0x3d90f172	0.07077302
38	0x3ef91cc4	0.4865476
39	0x3ef8dc2d	0.4860548
40	0x3e2f2862	0.17105249
41	0xbb783c84	-0.0037877867
42	0xbe560720	-0.20901155
43	0x3e0b6d28	0.13615859
44	0xbbabde6f	-0.005245022
45	0xbf73de55	-0.95261127
46	0xbee8114f	-0.45325705
47	0x3e9653ac	0.29360712
48	0x3e9c6137	0.3054292
49	0x3c775ecd	0.015098286
50	0x3ec4c40f	0.3843083
51	0xbe84a9eb	-0.25910887
52	0x3df1217f	0.11773967
53	0x3e607f94	0.21923667
54	0xbeddb3b7	-0.43301174
55	0xbf2026d5	-0.6255925
56	0x3e3db086	0.1852437
57	0x3df5f043	0.12008717
58	0x3ea2a20d	0.3176426
59	0x3e3a8899	0.1821617
60	0x3d87501d	0.06607077
61	0xc009c994	-2.1529284
62	0xbe5c7e6f	-0.21532606
63	0xbcfdb24b	-0.030968806
64	0xbc029171	-0.007969246
65	0xbcef1b75	-0.029187897
66	0x3d088bb0	0.03333634
67	0x3b257cb6	0.0025251335
68	0xbc9644a2	-0.018343274
69	0xbcb9fd61	-0.022703828
70	0x3f80dcf9	1.0067436
71	0x3f41e0ec	0.7573383
72	0xbe6d58a9	-0.23178352
73	0x3d8abb78	0.06774038
74	0x3ede961b	0.43473896
75	0xbf124cdd	-0.57148534
76	0xbd77f26d	-0.06053393
77	0xbf47107b	-0.7775952
78	0xbe668392	-0.22511128
79	0xbe86d04b	-0.2633079
80	0xbdb442fd	-0.088018395
81	0xbd29ea3e	-0.041483156
82	0x3d6e86dc	0.05823408
83	0xbcc72819	-0.024311112
84	0xbb893cbf	-0.0041881497
85	0x3d63ba37	0.05559751
86	0xbe81788f	-0.2528729
87	0xbe4b65bd	-0.19863029
88	0x3be61ecc	0.0070227142
89	0x3d999fa3	0.075011514
90	0xbe422ab4	-0.18961602
91	0x3e8036d0	0.2504182
92	0x3d6482a0	0.055788636
93	0xbff1b5e3	-1.8883632
94	0xbe9cd502	-0.30631262
95	0xbe81d26f	-0.2535586
96	0xbe109cd4	-0.14122325
97	0x3a5e6423	0.00084835495
98	0x3dd3b2ed	0.10336862
99	0xbde20436	-0.110359594
100	0x3bd297c1	0.006426782
101	0xbf5931c9	-0.8484159
102	0xbeaa3213	-0.3324133
103	0xbeae94c3	-0.3409787
104	0x3df473bb	0.11936136
105	0xbc7bdf10	-0.015373006
106	0x3a8b40aa	0.001062413
107	0x3e0c431c	0.13697475
108	0x3e90d295	0.2828566
109	0x3e03fd46	0.12889585
110	0xbea7cce8	-0.3277352
111	0xbe7acdeb	-0.24492614
112	0xbe55671d	-0.20840116
113	0xbd657645	-0.056020994
114	0xbddd139f	-0.10794758
115	0xbed51fc4	-0.41625798
116	0xbbdfaa12	-0.006825694
117	0x3e48abf2	0.19596842
118	0xbe4a2f33	-0.19744568
119	0xbd406cd5	-0.04697879
120	0xbda5d76b	-0.08097728
121	0xbe1cc435	-0.15309222
122	0xbe2fd634	-0.17171556
123	0x3e93c45b	0.28860745
124	0xbd39b225	-0.045335907
125	0x3e143ebd	0.14477058
126	0xbde172c8	-0.11008221
127	0xbd5ceb94	-0.053935602
128	0x3ea38409	0.31936672
129	0x3e538d7f	0.20659445
130	0x3e43a03f	0.19104098
131	0xbd96bf68	-0.073607266
132	0xbc9130f7	-0.017723544
133	0xbe927b3f	-0.28609654
134	0x3d3da549	0.046300206
135	0x3c0c36a5	0.00855795
136	0x3e0d1b64	0.1377998
137	0xbe9d222e	-0.3069014
138	0xbe427991	-0.18991686
139	0x3edadec6	0.42748088
140	0x3df3cbc6	0.11904101
141	0x3ea5f9f2	0.32417256
142	0x3da1a572	0.07892884
143	0x3da908e1	0.08253647
144	0x3ddb5791	0.10710061
145	0x3c5bde08	0.013419636
146	0xbd933d9f	-0.07189488
147	0x3de023c7	0.10944324
148	0xbbef144d	-0.007296121
149	0xbd42932d	-0.04750364
150	0xbf26afa3	-0.6511175
151	0x3f104c46	0.56366384
152	0xbdef95ea	-0.11698516
153	0xbc705310	-0.014668241
154	0x3d945f2b	0.07244714
155	0x3e50dee8	0.20397532
156	0x3cf05db5	0.029341558
157	0x3e41e134	0.18933564
158	0xbed87a25	-0.4228069
159	0xbef306d1	-0.47466138
160	0x3dc41e23	0.095760606
161	0xbcefa1da	-0.029251982
162	0xbe104ea2	-0.14092496
163	0x3e10faa3	0.1415811
164	0x3d89afc4	0.06722978
165	0x3eabd66f	0.33562037
166	0xbe778266	-0.24170837
167	0xbe3a4bb5	-0.18192942
168	0x3e71035e	0.2353644
169	0xbf4fe4e7	-0.8120865
170	0x3eba1d4f	0.36350486
171	0x3e141763	0.14462046
172	0x3e45b5b5	0.19307597
173	0x3ef00b0c	0.46883428
174	0xbe7681e0	-0.24072981
175	0xbdbac943	-0.09120419
176	0xbe3f662d	-0.1869132
177	0xbce4208e	-0.027847555
178	0xbdd45add	-0.10368893
179	0xbf282e31	-0.6569548
180	0xbd019055	-0.031631786
181	0x3ea64089	0.3247111
182	0xbe9f1b01	-0.3107529
183	0x3e9d2f02	0.30699927
184	0xbd2fa65a	-0.042883255
185	0xbbd01cff	-0.006351113
186	0x3e00477d	0.1252727
187	0xbdf4a2eb	-0.11945137
188	0xbb6fe58c	-0.0036605326
189	0xbf3f8e2c	-0.7482631
190	0xbecc76ce	-0.3993439
191	0x3f0c1eb0	0.54734325
192	0xbdc39a0e	-0.09550868
193	0xbe80e13b	-0.25171837
194	0x3e72543e	0.23664948
195	0xbdd912cc	-0.10599288
196	0xbac20b09	-0.0014804314
197	0x3eed6f9c	0.46374214
198	0xbe4967ff	-0.19668578
199	0x3d188412	0.037235327
200	0xbe6686ee	-0.22512409
201	0xbdbaa7b1	-0.09114016
202	0x3e4687ca	0.19387737
203	0xbe0fbc5f	-0.14036702
204	0xbea8fde5	-0.33006206
205	0x3cc2e819	0.023792313
206	0xbec4c5de	-0.3843221
207	0xbe809ece	-0.25121158
208	0x3d2c0c9d	0.042004216
209	0xbebe2414	-0.371369
210	0xbd2c4a86	-0.04206326
211	0x3dda242c	0.106514305
212	0x3d0cd78d	0.034385253
213	0x3e91ada7	0.284528
214	0xbe6a444b	-0.22877614
215	0xbe362306	-0.17786798
216	0xbd53796c	-0.05162947
217	0xbcd0b809	-0.02547838
218	0x3e096f76	0.13421425
219	0x3e4246ea	0.18972364
220	0xbddc5c0c	-0.10759744
221	0x3d51050c	0.051030204
222	0x3f1c3844	0.61023355
223	0x3e43f4fa	0.1913642
224	0x3b912992	0.0044300044
225	0xbbf24725	-0.007393735
226	0xbf50edb1	-0.8161269
227	0xbe6a5294	-0.22883064
228	0xbddee44f	-0.1088339
229	0xbdfe1809	-0.12406928
230	0xbe13e09f	-0.14441155
231	0xbea1fe25	-0.3163921
232	0xbcc4f840	-0.024044156
233	0x3ca2c222	0.01986796
234	0x3c8b141c	0.016977362
235	0xbd6d9f9c	-0.058013543
236	0x3c2ebb10	0.010664716
237	0xbef35303	-0.4752427
238	0xbe6636ff	-0.22481917
239	0xbe464eb7	-0.19365965
240	0xbe026226	-0.12732753
241	0xbd4209d7	-0.047372665
242	0x3e91dec7	0.28490278
243	0xbe5ecca4	-0.21757752
244	0x3a774b8e	0.0009433561
245	0xbedb62f9	-0.42848948
246	0x3f012613	0.5044872
247	0xbf4bf754	-0.7967427
248	0x3e3742ae	0.1789653
249	0x3d640a1c	0.055673704
250	0x3e86544f	0.26236197
251	0x3d4246ef	0.04743093
252	0xbda21870	-0.07914817
253	0x3eae37c0	0.3402691
254	0x3e1b3007	0.1515504
255	0x3f1efd48	0.62105227

layers.0.bias f4 [128]
0	0x3e2a8678	0.16652858
1	0x3d16eea5	0.036848683
2	0xbeac0a82	-0.33601767
3	0x3d876fc1	0.06613112
4	0xbe40c5cc	-0.18825454
5	0xbd23fdf3	-0.040037107
6	0x3ca3006c	0.019897662
7	0xbdfc3a1a	-0.123157695
8	0x3de66552	0.11249794
9	0xbdee9797	-0.11650007
10	0xbdfba16d	-0.12286649
11	0x3e3291a6	0.17438373
12	0xbe0d5627	-0.13802396
13	0xbd4fed18	-0.05076322
14	0xbcba07b0	-0.022708744
15	0xbe250ccf	-0.16118167
16	0xbf8496c5	-1.0358511
17	0xbeb4f8c2	-0.35346037
18	0xbb1ccc06	-0.0023925318
19	0xbe15905f	-0.14605854
20	0xbde63f57	-0.1124255
21	0xbebfd2e8	-0.37465596
22	0xbf323c9e	-0.69623744
23	0x3cf0a5f5	0.02937601
24	0xbe129e63	-0.14318232
25	0xbea5a71b	-0.32354054
26	0xbe8d3127	-0.27576563
27	0xbecd93c3	-0.40151796
28	0xbe405f85	-0.18786438
29	0xbe900780	-0.28130722
30	0xbe9f3d38	-0.31101394
31	0xbec61226	-0.3868572
32	0xbdb892f1	-0.09012402
33	0xbe411bdf	-0.18858288
34	0xbf49c48d	-0.7881554
35	0xbedc4dd9	-0.43028143
36	0xbd2a7dfa	-0.041624047
37	0xbd96c68b	-0.07362088
38	0xbf012bae	-0.50457275
39	0xbf0b677a	-0.5445477
40	0xbefd9491	-0.4952741
41	0xbec94999	-0.39313963
42	0xbeba0449	-0.36331394
43	0xbeef4862	-0.4673491
44	0xbf17adc0	-0.59249496
45	0xbe50753a	-0.20357218
46	0xbea895bf	-0.32926747
47	0xbcc72aff	-0.024312494
48	0xbd1e23fb	-0.038608532
49	0xbe6c656e	-0.23085567
50	0x3e57d7a2	0.21078351
51	0x3d70c2e3	0.05877961
52	0x3d1ee907	0.03879645
53	0x3da06991	0.07832635
54	0xbe5d8cb3	-0.21635704
55	0xbd409f26	-0.047026776
56	0xbe966501	-0.29373935
57	0xbefa8997	-0.48933098
58	0xbce93527	-0.028467728
59	0x3e087ec9	0.13329615
60	0xbf098d6e	-0.5373143
61	0xbe58709c	-0.21136707
62	0x3e45b079	0.193056
63	0xbeabac38	-0.3352983
64	0xbe0e368d	-0.13887997
65	0x3f203398	0.62578726
66	0xbc3a6b7d	-0.011378166
67	0xbc48e100	-0.012260675
68	0x3dcad79b	0.09904405
69	0xbefd7013	-0.49499568
70	0xbf605833	-0.8763458
71	0xbf151fc8	-0.5825162
72	0xbf015f1d	-0.50535756
73	0xbd154eb3	-0.036452007
74	0xbe818f96	-0.2530486
75	0x3e05ca8b	0.13065545
76	0xbf086b72	-0.5328895
77	0x3f22f37c	0.6365278
78	0x3efb5514	0.49088347
79	0x3e311f56	0.1729711
80	0xbe6b0fe9	-0.22955288
81	0xbe6c95bb	-0.23103993
82	0xbe4832e6	-0.19550666
83	0xbf29c534	-0.66316533
84	0xbb8c3257	-0.004278462
85	0x3ccfdd33	0.02537403
86	0xbebc9f7c	-0.36840427
87	0xbd408814	-0.047004774
88	0xbd595b90	-0.053065836
89	0xbf066640	-0.5249977
90	0xbe4bd9b9	-0.19907273
91	0xbea4ffca	-0.32226402
92	0xbe141bb3	-0.14463691
93	0x3e842a89	0.25813702
94	0xbeb4d2a0	-0.35316944
95	0xbe105bc3	-0.14097504
96	0xbf374c5c	-0.7160089
97	0xbe4086cc	-0.18801421
98	0xbea5f6ab	-0.32414755
99	0xbe042e7f	-0.12908362
100	0x3bbbda9f	0.005732849
101	0xbea6f6a4	-0.32610047
102	0xbee9bbe9	-0.45651177
103	0xbd2f5823	-0.042808663
104	0xbdcac7fd	-0.09901426
105	0xbd1afc1c	-0.037838086
106	0xbdb1b547	-0.08677154
107	0xbe94ba0c	-0.29048193
108	0xbe20d867	-0.15707551
109	0x3e0fb7cc	0.14034957
110	0xbc6b080e	-0.014345182
111	0xbeb99e07	-0.36253378
112	0xbf117f53	-0.56834906
113	0x3d944191	0.07239068
114	0xbd5c6d0b	-0.05381493
115	0x3e8dbe96	0.27684468
116	0xbecda308	-0.40163445
117	0xbf4ac044	-0.79199624
118	0xbc35623e	-0.011070786
119	0xbd9a741f	-0.075416796
120	0x3f1fa2a2	0.6235753
121	0xbe69455f	-0.22780369
122	0x3e421c6f	0.18956159
123	0xbf0ee396	-0.5581602
124	0xbf01f2f7	-0.5076136
125	0x3cd2f3e3	0.02575106
126	0xbd8c19a9	-0.06840832
127	0xbe958043	-0.29199418

layers.2.weight f4 [64, 128]
0	0x3e3f3dc3	0.18675904
1	0x3ea298ac	0.31757104
2	0x3e42739f	0.18989418
3	0xbe2388fe	-0.15970227
4	0xbe2d8bbe	-0.16947839
5	0x3e514992	0.20438221
6	0x3df957d8	0.12174958
7	0x3c8cb27d	0.017174954
8	0xc0227ae3	-2.5387504
9	0xbc9724ee	-0.018450227
10	0x3d178f68	0.037001997
11	0xbe4ebaaa	-0.20188394
12	0xbe0ba91c	-0.13638729
13	0xbdfa71b4	-0.122287184
14	0xbe59f784	-0.21285826
15	0xbe06ed41	-0.13176443
16	0xbedce323	-0.43142042
17	0xbbc98e38	-0.006150987
18	0x3eaa1db3	0.33225784
19	0xbe498001	-0.19677736
20	0xbc1a06c5	-0.009401028
21	0xbdb2f2b9	-0.08737702
22	0xbd76ba0f	-0.060236033
23	0x3e27d752	0.16390732
24	0xbd74e104	-0.059784904
25	0x3d0eacab	0.034832638
26	0xbdf631d4	-0.12021223
27	0xbe068f40	-0.13140583
28	0x3d854deb	0.06509002
29	0xbd33ef72	-0.043929525
30	0x3ee04e09	0.43809536
31	0x3d4238f0	0.04741758
32	0x3dd06151	0.10174812
33	0xbd97eb27	-0.074178986
34	0xbf0b3bd9	-0.54388195
35	0x3d941ce6	0.072320744
36	0xbe0cca4f	-0.1374905
37	0xbdbfac29	-0.09359009
38	0xbd52871f	-0.051398393
39	0x3d808bbc	0.06276652
40	0x3e634655	0.22194798
41	0x3d0d4e8b	0.034498733
42	0xbdc2813d	-0.094973065
43	0xbe2a2377	-0.16615091
44	0x3dde90e0	0.108674765
45	0x3d364eff	0.04450893
46	0x3dc1ba4d	0.09459362
47	0xbdf3809f	-0.11889767
48	0x3e88c0b5	0.26709524
49	0x3d021aff	0.031764027
50	0xbd8b1fb6	-0.06793158
51	0xbe2f2f9d	-0.17108007
52	0xbd0ed616	-0.034872137
53	0xbe814425	-0.25247303
54	0x3e1f68b1	0.1556728
55	0xbd2bdca6	-0.041958474
56	0x3e7e9a66	0.24863586
57	0xbe154503	-0.14577107
58	0xbdac68bb	-0.08418413
59	0x3c13bbee	0.009016974
60	0xbd23d884	-0.040001407
61	0xbd19125f	-0.037371036
62	0x3d850482	0.064950004
63	0x3d904bcc	0.07045707
64	0xbde79416	-0.11307542
65	0xbe904c9b	-0.28183445
66	0x3e47da66	0.19516906
67	0x3a57cffc	0.0008232591
68	0xbcb760e9	-0.022385078
69	0xbeb86b7b	-0.360195
70	0x3e41573e	0.18880937
71	0x3d8c1e01	0.0684166
72	0x3d7cd003	0.061721813
73	0xbdbc5fc2	-0.09197952
74	0x3df49ebe	0.1194434
75	0x3c61a680	0.013772607
76	0x3d8dd3b1	0.069251426
77	0xbddcfbcd	-0.10790215
78	0xbdfe9fcf	-0.12432825
79	0xbcc7fae7	-0.024411632
80	0x3e173ab8	0.14768493
81	0xbce601f6	-0.028077107
82	0xbe2b7fea	-0.16748014
83	0xbe37722b	-0.17914645
84	0x3daa3bbb	0.08312174
85	0x3e1ae2d8	0.15125597
86	0x3d8a6c44	0.06758931
87	0x3d955f28	0.0729354
88	0xbd14e24a	-0.03634862
89	0x3d3f3be4	0.046687976
90	0x3dad3743	0.08457806
91	0x3de884c7	0.1135345
92	0x3d6176da	0.055044986
93	0xbcd47e45	-0.025939116
94	0x3cb0a48c	0.021562837
95	0xbe08574d	-0.13314553
96	0xbf0bc202	-0.5459291
97	0xbe04afe1	-0.12957717
98	0x3de2a7af	0.11067139
99	0xbe283421	-0.16426136
100	0xbe02feb7	-0.12792479
101	0x3e4a6619	0.1976551
102	0xbdf7f31c	-0.12106916
103	0xbe1ad3fb	-0.15119927
104	0x3e1f8c74	0.15580922
105	0xbe9ad46d	-0.30240193
106	0xbe27ed3d	-0.16399093
107	0xbc2fa0be	-0.010719476
108	0xbc98b1bf	-0.018639443
109	0xbda6e7cd	-0.08149681
110	0x3d97e68b	0.074170195
111	0xbe5888aa	-0.21145883
112	0xbda44e6c	-0.0802277
113	0xbe1e9316	-0.15485796
114	0xbd1bf4a4	-0.038075104
115	0xbe002fc9	-0.12518229
116	0x3e936be4	0.28793252
117	0x3e851b11	0.25997213
118	0x3e7ca74d	0.24673195
119	0xbd29a956	-0.041421257
120	0xbe3893b8	-0.180251
121	0x3e70e42f	0.23524545
122	0xbd257ae7	-0.040400412
123	0x3d67efaa	0.056625046
124	0xbe212c8e	-0.15739653
125	0xbda35747	-0.07975631
126	0x3e1d298e	0.15347883
127	0x3deceb1c	0.11568281
128	0x3e278a01	0.16361238
129	0x3ecbe0ba	0.3981989
130	0xbec5d715	-0.38640657
131	0x3d15e5dc	0.036596164
132	0xbe1aef14	-0.15130264
133	0xb98ec585	-0.00027231514
134	0xbcb7c43b	-0.022432437
135	0x3e11677b	0.14199631
136	0xc03721cc	-2.8614378
137	0x3dc0f557	0.09421795
138	0x3cd79a2d	0.026318634
139	0x3dbf6cb7	0.093469076
140	0xbddeb1b4	-0.10873738
141	0xbeaaccbe	-0.3335933
142	0xbdd85436	-0.10562937
143	0xbd2f7ec5	-0.042845506
144	0xbf1165b2	-0.567958
145	0xbe7479b5	-0.23874553
146	0x3e1c026c	0.15235299
147	0xbea760cc	-0.32691038
148	0xbef17fd8	-0.4716785
149	0xbdf78986	-0.120867774
150	0x3dc5fb39	0.096670575
151	0x3e2f543b	0.17121975
152	0xbe84238c	-0.2580837
153	0x3d163dd4	0.036680058
154	0xbe28383c	-0.16427702
155	0xbe42bfc3	-0.19018464
156	0x3dac870d	0.084241964
157	0xbd12eacc	-0.03586845
158	0x3ec3c437	0.38235638
159	0xbea221c3	-0.31666383
160	0xbe46b08d	-0.19403286
161	0xbcbe098b	-0.02319791
162	0x3e3f4f0c	0.18682498
163	0xbe4939f1	-0.19651009
164	0xbdc523be	-0.09625958
165	0xbdb0be94	-0.086301
166	0xbf09aa00	-0.53775024
167	0xbde7668d	-0.11298857
168	0xbc0e2e53	-0.008678037
169	0xbddb116b	-0.106966816
170	0x3db32892	0.087479725
171	0xbecc7412	-0.39932305
172	0x3e1c88c8	0.15286553
173	0x3e01a89b	0.12661974
174	0xbdd40a44	-0.103535205
175	0x3db81495	0.08988301
176	0x3e9162c0	0.28395653
177	0x3c738428	0.0148630515
178	0xbd2ff5c8	-0.042959005
179	0xbca0a1cd	-0.019608403
180	0xbee8bae4	-0.45455086
181	0xbe13284d	-0.14370842
182	0x3e707832	0.23483351
183	0x3ceb2fec	0.028709374
184	0xbe11bea0	-0.14232874
185	0xbee7180b	-0.4513553
186	0xbeb11860	-0.3458891
187	0xbd4de7a2	-0.05026973
188	0xbe52a43e	-0.20570466
189	0x3d89c405	0.06726841
190	0x3e6eb8f1	0.23312737
191	0x3e7b779f	0.2455735
192	0x3e2436c1	0.16036512
193	0xbe426e35	-0.18987353
194	0xbe81b6f7	-0.25334904
195	0x3e375d2f	0.1790664
196	0x3ca3ad94	0.01998023
197	0x3e54af17	0.20769916
198	0x3eae398c	0.3402828
199	0xbe86d541	-0.26334575
200	0xbf44bf28	-0.7685418
201	0x3d3d7a00	0.046258926
202	0x3d35125b	0.04420696
203	0xbe7beced	-0.24602099
204	0x3e524c73	0.20536976
205	0xbf11be5e	-0.569311
206	0xbe6285d0	-0.22121358
207	0x3e2e4771	0.1701944
208	0xba8684c6	-0.0010262958
209	0xbb87c011	-0.004142769
210	0x3e39eb60	0.18156195
211	0xbe9c74ae	-0.3055777
212	0x3e12ca37	0.14334951
213	0x3e7f4c70	0.24931502
214	0x3c76e1f7	0.015068523
215	0xbefbe07c	-0.49194705
216	0x3cf8c32b	0.0303665
217	0xbee5be15	-0.44871584
218	0x3d333732	0.04375381
219	0x3997748d	0.000288878
220	0x3cdda731	0.027057262
221	0x3d8733b6	0.0660166
222	0xbece37e8	-0.40277028
223	0x3d7a1ff8	0.061065644
224	0x3e3373f7	0.17524706
225	0xbf167228	-0.5876794
226	0xbe6fa9d8	-0.23404634
227	0x3d4b26b2	0.04959745
228	0x3cccca79	0.02499889
229	0x3e08c12c	0.13354939
230	0xbe9a86a0	-0.30180836
231	0x3d8f6079	0.070008226
232	0xbe891028	-0.2677014
233	0xbf29d571	-0.6634131
234	0xbdee674b	-0.11640795
235	0x3c895c0e	0.016767528
236	0xbf0a8c12	-0.5411998
237	0xbd8fd5b0	-0.070231795
238	0x3cc4a2f1	0.024003478
239	0x3db436c5	0.08799509
240	0xbe9b1299	-0.30287626
241	0xbd601da9	-0.054715786
242	0xbe413256	-0.18866858
243	0xbe671988	-0.22568333
244	0x3eab7e3f	0.33494756
245	0x3ed81941	0.42206767
246	0xbeb37528	-0.3505032
247	0x3dbf35b8	0.09336418
248	0xbe6c2c3f	-0.23063754
249	0x3e189b39	0.14902963
250	0xbe69da43	-0.22837166
251	0xbf8d94e7	-1.1061066
252	0xbc2310c8	-0.009952731
253	0xbc865d6f	-0.016401974
254	0x3b9d0068	0.004791308
255	0x3eeb46d9	0.4595249

layers.2.bias f4 [64]
0	0xbbfbece8	-0.0076881535
1	0xbe4ed4a8	-0.2019831
2	0x3e096f8f	0.13421462
3	0x3e428d11	0.18999125
4	0x3e0d6c9f	0.13810967
5	0xbdad07a5	-0.08448724
6	0xbd20c6e3	-0.039252173
7	0x3d20c93d	0.039254416
8	0xbd0059f8	-0.0313358
9	0xbaebe649	-0.0017997707
10	0x3ce5b630	0.028040975
11	0xbd89e525	-0.06733159
12	0xbdb8234f	-0.089911096
13	0xbdae5623	-0.08512523
14	0xbd69aaa5	-0.057047505
15	0x3b5572bf	0.0032569615
16	0x3d4899c4	0.048974767
17	0x3e2667da	0.16250554
18	0xbda0ceb6	-0.07851927
19	0xbc642aca	-0.013926217
20	0x3be596c9	0.0070065004
21	0x3e933a66	0.28755492
22	0xbdb58e6d	-0.08865056
23	0xbce07d23	-0.02740342
24	0xbc7ee793	-0.015558141
25	0x3e4c97dd	0.19979806
26	0x3ca97bfb	0.020689001
27	0xbdde4c4d	-0.10854397
28	0x3debd6e2	0.11515595
29	0x3e436047	0.19079696
30	0x3d61f295	0.055162985
31	0x3da3128c	0.07962522
32	0xbd67bc12	-0.056575842
33	0x3d057323	0.032580506
34	0x3c99fa4d	0.01879611
35	0x3de49891	0.11161912
36	0x3db2eea5	0.08736924
37	0xbd5a4ebf	-0.053297754
38	0x3c534309	0.0128944
39	0x3df8b863	0.12144544
40	0xbdf99262	-0.121861234
41	0xbe137d8f	-0.14403366
42	0xba03d3c0	-0.00050288066
43	0x3df60c4e	0.12014066
44	0xbd1ab998	-0.037774652
45	0xbddfd5d1	-0.10929454
46	0xbda0a2a2	-0.0784352
47	0xbdaf4a6c	-0.08559117
48	0x3e34840f	0.17628501
49	0x3dd9ac2f	0.106285445
50	0xbd0f3d56	-0.034970604
51	0x3e49da47	0.19712172
52	0x3d2106f3	0.039313268
53	0xbbd2c9d8	-0.006432753
54	0x3e4cddd4	0.20006496
55	0xbce96280	-0.028489351
56	0xbd3071db	-0.04307733
57	0xbcedd6ae	-0.029033031
58	0x3dbe52f4	0.09293166
59	0x3e82b0de	0.25525564
60	0x3dcfb2c2	0.10141517
61	0xbd685931	-0.056725685
62	0xbd7888d3	-0.06067736
63	0xbdc6f0f7	-0.09713929

layers.4.weight f4 [64, 64]
0	0x3cfb677c	0.030688994
1	0x3ea3fbe3	0.32028112
2	0xbd416ef9	-0.047224972
3	0x3dc5c06f	0.096558444
4	0x3c8dab57	0.017293615
5	0x3f281da3	0.6567022
6	0x3ecdca4f	0.40193412
7	0x3e175b46	0.14780912
8	0x3f49aff7	0.78784126
9	0x3e165e0c	0.14684314
10	0x3d007291	0.03135926
11	0xbeca1491	-0.39468816
12	0x3db57aa5	0.08861283
13	0x3cc7bdd3	0.024382507
14	0x3dd208d9	0.10255594
15	0x3dedfbcc	0.11620292
16	0x3ec7e6b7	0.3904321
17	0x3e87b52b	0.26505408
18	0x3dd4cb11	0.10390294
19	0xbc8258ca	-0.015911479
20	0x3df72e46	0.12069373
21	0x3e3d09a2	0.18460706
22	0x3e41b250	0.18915677
23	0xbda7e6ee	-0.08198343
24	0x3e3f78c0	0.18698406
25	0xbd48cfac	-0.049026176
26	0x3d472ac0	0.048624754
27	0xbd8d0c79	-0.068871446
28	0x3bf4f87f	0.007475912
29	0x3a9650b0	0.0011468139
30	0x3df4810e	0.11938678
31	0x3c8db2fd	0.017297262
32	0x3cd94a01	0.026524546
33	0x3dc92f61	0.0982349
34	0x3d2700da	0.040772296
35	0x3e63aaff	0.22233199
36	0x3e886e04	0.26646435
37	0xbd326194	-0.04355009
38	0x3d643b75	0.055720765
39	0x3ede23cb	0.43386683
40	0x3e612c47	0.21989547
41	0xbd8e2910	-0.06941426
42	0xbd8e0473	-0.06934442
43	0x3e0079a8	0.12546408
44	0x3e8f700d	0.28015175
45	0x3f020c94	0.5080044
46	0x3ca61fc0	0.020278811
47	0xbd3329b3	-0.04374094
48	0x3ec7cf1e	0.39025205
49	0x3cc940fc	0.02456712
50	0x3eda05af	0.4258246
51	0x3d555603	0.05208398
52	0x3da07d94	0.07836452
53	0x3e79f808	0.24411023
54	0x3d4e4a67	0.050363924
55	0x3ceff5db	0.029292038
56	0x3d5fd484	0.05464603
57	0xbc21928f	-0.009861602
58	0x3e71a054	0.23596317
59	0x3e882338	0.2658937
60	0xbc81e50b	-0.015856287
61	0x3e39a334	0.18128663
62	0x3c3344a2	0.010941656
63	0xbe0cbfa9	-0.13744988
64	0x3dfcdc7c	0.123467416
65	0x3e96d248	0.29457307
66	0x3d00f62c	0.031484768
67	0x3e601964	0.21884686
68	0xbd0b4844	-0.034004465
69	0x3f1eafef	0.61987203
70	0x3e9e598d	0.30927697
71	0x3e8db6bb	0.27678475
72	0x3f16aa89	0.58853966
73	0x3dda5765	0.106612004
74	0x3d63b46a	0.055591978
75	0xbeadcb13	-0.33943996
76	0x3b6ae845	0.003584401
77	0x3e1603ec	0.14649934
78	0xbcd7bd7e	-0.026335474
79	0x3d012e5e	0.03153836
80	0x3ea81e94	0.3283583
81	0x3dbe1f5f	0.09283327
82	0xbd472776	-0.048621617
83	0x3d4db3b6	0.050220214
84	0x3d384f4c	0.0449975
85	0x3e8ac903	0.27106485
86	0x3ea8038c	0.32815206
87	0xbda172a7	-0.07883196
88	0x3dbdf0b1	0.09274424
89	0xbd73e7eb	-0.059547346
90	0xbd38751f	-0.04503357
91	0xbd340379	-0.043948624
92	0x3e26682f	0.1625068
93	0x3e0ef459	0.13960399
94	0x3d01ba11	0.031671587
95	0xbdae2505	-0.08503155
96	0xbd9e6c80	-0.077355385
97	0x3e95fbf7	0.29293796
98	0xbc2ade36	-0.010428956
99	0x3e582a10	0.21109796
100	0xbc23c1ae	-0.009994907
101	0xbd4af7dd	-0.049552787
102	0xbd308564	-0.04309596
103	0x3ef8115f	0.48450753
104	0x3e5a0f85	0.21294983
105	0x3d86638a	0.06561954
106	0xbd7e94c0	-0.062153578
107	0xba582b75	-0.00082462217
108	0x3e61abb1	0.22038151
109	0x3ed78be2	0.4209891
110	0xbdae0373	-0.08496752
111	0xbb7aeda1	-0.003828861
112	0x3ea8aa95	0.32942644
113	0x3dff1b7f	0.12456416
114	0x3ed9268b	0.42412218
115	0x3d01de79	0.031706307
116	0x3d9adfaf	0.075621955
117	0x3e0122db	0.12610953
118	0x3ebeff89	0.37304333
119	0xbce685a8	-0.028139904
120	0x3e2270e1	0.15863372
121	0xbcbd1cf6	-0.023085099
122	0x3ed750f3	0.42053947
123	0x3ead8129	0.33887604
124	0x3e544b32	0.2073181
125	0x3e6ba138	0.23010719
126	0x3bd72736	0.0065659536
127	0xbddd1176	-0.10794346
128	0xbec7fb32	-0.39058834
129	0xbe21e25f	-0.1580901
130	0xbe0c147d	-0.1367969
131	0x3d547c3f	0.051876303
132	0xbe3233e5	-0.17402609
133	0xbe6012bc	-0.21882147
134	0xbd3dfe85	-0.046385307
135	0x3d54254c	0.05179338
136	0x3cb2727e	0.02178311
137	0x3e93ccd3	0.28867206
138	0xbde0dac0	-0.10979223
139	0xbe1c7896	-0.15280375
140	0x3c6328ad	0.013864678
141	0x3d1f8413	0.038944315
142	0x3d67d380	0.056598186
143	0xbe14cee6	-0.1453205
144	0x3e117ae4	0.14207035
145	0xbe5750a9	-0.21026863
146	0x3cd70346	0.026246678
147	0xbe04c66e	-0.1296632
148	0xbe57a2cb	-0.21058194
149	0xbec4a0ae	-0.3840384
150	0xbbe7e8b1	-0.0070772995
151	0xbd46959e	-0.04848253
152	0x3d87f9a2	0.066394106
153	0xbe4d0247	-0.200204
154	0xbe011bd7	-0.12608276
155	0x3d539592	0.051656313
156	0xbd88aeb7	-0.06673949
157	0xbe0a0424	-0.13478142
158	0xbd92c0a8	-0.071656525
159	0xbebc3e2f	-0.36766192
160	0xbd2981e0	-0.041383624
161	0xbe60e2a5	-0.21961458
162	0xbebd8585	-0.3701593
163	0xbe921a26	-0.28535575
164	0xbdf3955a	-0.11893721
165	0xbb822d4b	-0.0039726845
166	0x3d53a3d7	0.05166992
167	0xbecd2a97	-0.40071556
168	0xbdf502d8	-0.11963433
169	0x3d062d2b	0.03275792
170	0xbcb5420a	-0.022126216
171	0xbbc41a1b	-0.0059845573
172	0x3d7b7efb	0.061400395
173	0xbdffd614	-0.12492004
174	0xbd3e7ea5	-0.046507496
175	0xbd82c890	-0.063859105
176	0x3cac2015	0.021011392
177	0x3c45bb04	0.012068514
178	0xbda69c72	-0.08135308
179	0xbe783208	-0.24237835
180	0xbdefb53d	-0.1170449
181	0xbe091462	-0.13386682
182	0xbdb2063f	-0.086925976
183	0xbd0b2b0f	-0.03397661
184	0x3da684e4	0.081308156
185	0xbc9ceb7c	-0.019155256
186	0xbdd4c11a	-0.10388394
187	0x3e191b97	0.14951931
188	0xbe011f0a	-0.12609497
189	0xbd1aa13e	-0.03775143
190	0x3d3df3ee	0.046375208
191	0xbcf58dfc	-0.02997493
192	0xbe36c821	-0.1784978
193	0xbdb1d8f1	-0.086839564
194	0xbe19acaa	-0.15007272
195	0xbda4dfed	-0.08050523
196	0x3e0f844c	0.14015311
197	0x3eda936e	0.42690605
198	0x3ea16c81	0.31528094
199	0x3e10e94f	0.141515
200	0xbebb38b9	-0.36566713
201	0xbe855bf4	-0.26046717
202	0xbe980ec3	-0.29698762
203	0xbf1ed5ec	-0.6204517
204	0x3cd4b3ba	0.025964607
205	0xbc9b9861	-0.018993558
206	0xbd22e66a	-0.03977052
207	0xbe2c0678	-0.16799343
208	0x3e06b59a	0.13155213
209	0xbe4d6763	-0.2005897
210	0xbd63a925	-0.05558123
211	0xbe90f670	-0.28313017
212	0x3c9f42df	0.019441066
213	0x3c91f712	0.017818008
214	0x3dd1f803	0.102523826
215	0xbdaab30d	-0.083349325
216	0x3db5c591	0.088755734
217	0x3d097a03	0.033563625
218	0x3d69fb0a	0.057124175
219	0xbce0bcfb	-0.027433863
220	0xbd1e2f40	-0.03861928
221	0xbe7bb438	-0.24580467
222	0xbe9d304d	-0.30700913
223	0xbee06005	-0.43823257
224	0x3ba71adc	0.0050996374
225	0xbd72ea58	-0.05930552
226	0xbe2fec6f	-0.17180036
227	0xbe8e4a89	-0.2779124
228	0x3db0bdf1	0.086299784
229	0xbc01c461	-0.007920356
230	0xbd71b46d	-0.059009958
231	0x3ec82c01	0.39096072
232	0x3e678662	0.22609857
233	0xbdff916a	-0.124789074
234	0xbdbc9a9b	-0.09209176
235	0x3dce01a4	0.10058907
236	0x3f022649	0.5083967
237	0x3ebe3e06	0.37156695
238	0xbdfe2c7d	-0.12410829
239	0x3b8a254e	0.004215873
240	0x3eb2e77e	0.3494224
241	0x3cd6474c	0.026157044
242	0x3eb9fc02	0.3632508
243	0xbe813cc4	-0.25241673
244	0xbcfb4362	-0.030671779
245	0xbcbbee64	-0.022940822
246	0x3e4e51ae	0.20148346
247	0xbdfdecb7	-0.123986654
248	0xbde2a929	-0.11067421
249	0xbe10678d	-0.14102001
250	0xbec8ce13	-0.39219722
251	0x3d993951	0.07481635
252	0x3ed1ae63	0.4095336
253	0x3e1df86b	0.15426795
254	0x3c0974e8	0.008389689
255	0xbd908b3b	-0.07057806

layers.4.bias f4 [64]
0	0x3e6c4283	0.23072247
1	0x3e960bc0	0.2930584
2	0xbdf7d477	-0.12101071
3	0x3f032bd1	0.51238734
4	0x3f264cb5	0.64960796
5	0xbc9d90b5	-0.01923404
6	0xbd61ff51	-0.05517513
7	0xbda69b3e	-0.08135079
8	0x3e642608	0.22280133
9	0xbe123f1e	-0.1428189
10	0x3ede2f34	0.43395388
11	0x3e2a34c2	0.16621688
12	0xbe935a07	-0.28779623
13	0x3e0112ab	0.12604778
14	0x3e9b11e3	0.30287084
15	0x3dacda24	0.084400445
16	0x3e677ad4	0.22605449
17	0x3e604709	0.21902098
18	0xbe305c12	-0.17222622
19	0xbe4eaf17	-0.20183979
20	0xbda891c6	-0.08230929
21	0x3e6bbfe4	0.23022419
22	0xbe0f584b	-0.13998525
23	0x3ee13145	0.43982902
24	0xbde5d40b	-0.112220846
25	0x3dc73bb5	0.09728185
26	0x3e345c63	0.17613368
27	0x3e8970aa	0.26843768
28	0xbe0ff310	-0.14057565
29	0xbd6be2dd	-0.0575894
30	0xbdceff78	-0.101073205
31	0x3eb33365	0.35000148
32	0x3ed71407	0.42007467
33	0x3cfb991b	0.030712655
34	0x3e05e6ca	0.1307632
35	0xbd30d7cc	-0.04317455
36	0x3e3bd361	0.18342353
37	0x3edb0dc2	0.42783934
38	0x3e86198f	0.26191375
39	0xbf0db791	-0.55358225
40	0x3f25c8c3	0.64759463
41	0x3f4de927	0.8043389
42	0xbe7d4751	-0.24734236
43	0xbdf31adc	-0.118703574
44	0x3e7b9d71	0.24571778
45	0x3e92a49a	0.28641206
46	0xbd821699	-0.063519664
47	0x3edbb942	0.42914778
48	0xbe9f472b	-0.31108984
49	0xbd4c4788	-0.049872905
50	0xbe1bd750	-0.15218854
51	0x3eeb3b9f	0.45943925
52	0x3d97d8ad	0.074143745
53	0x3e02a530	0.12758327
54	0xbd4ae1bb	-0.04953168
55	0xbe128c5c	-0.14311355
56	0xbce890f2	-0.028389428
57	0x3d4d7888	0.050163776
58	0x3eca9f1f	0.39574525
59	0x3ddf2293	0.108952664
60	0x3f161c77	0.58637184
61	0xbdf878a9	-0.12132389
62	0x3e6e7e85	0.23290451
63	0xbd03d965	-0.032189745

layers.6.weight f4 [32, 64]
0	0xbc48ca3b	-0.012255247
1	0xbd95bc19	-0.073112674
2	0xb90b2d93	-0.0001327305
3	0x3ccb36c8	0.024806395
4	0xbe143365	-0.1447273
5	0xbd923ade	-0.07140134
6	0xbcff6bd9	-0.031179355
7	0x3cae1e6f	0.021254746
8	0xbe05c5bb	-0.1306371
9	0xbb74c300	-0.0037347674
10	0xbd0bb3d3	-0.03410704
11	0xbe73a0f3	-0.23791866
12	0xbe52c7b6	-0.20583996
13	0xbd821bfd	-0.063529946
14	0xbe036e36	-0.12835011
15	0xbe8fdf9a	-0.28100282
16	0xbe49f13f	-0.19720934
17	0xbe8d4556	-0.27591962
18	0x3d37c73c	0.04486774
19	0xbc132d40	-0.008982956
20	0x3d987985	0.07445053
21	0x3de894a8	0.11356479
22	0xbdbde40d	-0.09272013
23	0xbe3c98cc	-0.18417662
24	0xbd9c7d46	-0.076410815
25	0x3d5d5ae8	0.054041773
26	0xbdf44080	-0.11926365
27	0xbe65f289	-0.22455801
28	0x3dbad9ff	0.09123611
29	0x3d414906	0.04718878
30	0xbdadee69	-0.08492739
31	0xbe9fbc57	-0.3119838
32	0xbed05d98	-0.40696406
33	0xbe418010	-0.18896508
34	0xbd49dc8f	-0.049282607
35	0xbc32c3a1	-0.010910899
36	0xbe482646	-0.1954585
37	0xbe4b3064	-0.19842678
38	0xbe4ebe6f	-0.20189832
39	0xbe8349ae	-0.2564215
40	0xbd86f99e	-0.065905795
41	0x3dbf5386	0.09342103
42	0xbd9ee3aa	-0.07758267
43	0x3da72c04	0.08162692
44	0x3d9d8057	0.076904945
45	0xbe7fbf14	-0.24975234
46	0xbdee37a9	-0.1163171
47	0xbcb43682	-0.021998648
48	0xbe48aa79	-0.1959628
49	0xbd058799	-0.03260002
50	0x3d6f4f74	0.05842538
51	0xbec4bdb5	-0.38425985
52	0xbccd76e3	-0.025081104
53	0xbe101fc4	-0.14074618
54	0xbe46bfc4	-0.1940909
55	0x3d6927c7	0.0569227
56	0xbd8d90a5	-0.069123544
57	0xbe9a59d4	-0.30146658
58	0x3e0a36fe	0.1349754
59	0xbe0663c5	-0.13123997
60	0x3d25d033	0.040481757
61	0xbcc152a8	-0.023598984
62	0xbca7ba75	-0.020474652
63	0x3d2102da	0.03930936
64	0xbbae31a0	-0.0053159744
65	0x3e2a173c	0.16610426
66	0x3df650b4	0.12027112
67	0x3da632b0	0.081151366
68	0xbd1eab36	-0.0387375
69	0xbc625c63	-0.013815972
70	0x3d5a3e2c	0.053281948
71	0xbcde94f0	-0.027170628
72	0x3cac3658	0.021022007
73	0x3ca53d58	0.020170853
74	0xbdb5ebc4	-0.08882859
75	0xbd06b526	-0.0328876
76	0xbdd081fb	-0.10181042
77	0xbdd16b25	-0.10225514
78	0xbdc6c48c	-0.09705457
79	0xbcb09e02	-0.021559719
80	0x3b49a600	0.003076911
81	0xbdde7bc0	-0.10863447
82	0x3d37c548	0.044865876
83	0x3cd27a28	0.025693014
84	0x3ca938f8	0.020657048
85	0xbd7e8ac8	-0.06214407
86	0x3d45c360	0.048282027
87	0xbdae298b	-0.085040174
88	0xbca985e0	-0.02069372
89	0xbada7efc	-0.0016669924
90	0x3cdf52c0	0.027261138
91	0xbda64188	-0.08117968
92	0x3d7d3cdc	0.06182562
93	0x3df0e04a	0.1176153
94	0xbd7efb2c	-0.062251255
95	0x3bc9dee4	0.006160604
96	0xbd27e86a	-0.04099313
97	0xbcc81780	-0.024425268
98	0x3cf47b40	0.029843926
99	0x3dbc9518	0.09208125
100	0xbd90c2a4	-0.07068375
101	0xbc30ea70	-0.010798082
102	0xbd6bb635	-0.057546813
103	0xbd8efc1a	-0.06981678
104	0xbcf439b0	-0.029812664
105	0xbdcc5bee	-0.09978472
106	0xbd6dad1c	-0.058026418
107	0xbc0aad70	-0.008464202
108	0xbe2af47a	-0.16694823
109	0xbe124548	-0.14284241
110	0xbdc2e908	-0.095171034
111	0xbd531457	-0.05153307
112	0x3d834e8a	0.064114645
113	0x3d900683	0.07032492
114	0x3d8068ea	0.06270011
115	0xbd0ac41d	-0.033878434
116	0x3b7ccb80	0.0038573444
117	0xbd1ea20e	-0.038728766
118	0x3b534074	0.0032234462
119	0xbd657418	-0.05601892
120	0xbb9a2720	-0.004704371
121	0xbd1ff7cb	-0.039054673
122	0xbe02db1f	-0.127789
123	0xbdfbd57e	-0.1229658
124	0xbe0e8c95	-0.13920815
125	0x3d824e82	0.063626304
126	0x3c3cde5d	0.011527625
127	0xbd2a2488	-0.041538745
128	0xbe053c76	-0.13011345
129	0xbc27ddfe	-0.010245798
130	0x3cc28b0a	0.02374794
131	0x3f4a81ef	0.7910451
132	0x3db5f7e4	0.08885172
133	0xbea9a137	-0.3313081
134	0xbd053d65	-0.032529254
135	0xbe9d1e61	-0.3068724
136	0x3f0d6102	0.5522615
137	0x3c58eb47	0.013239688
138	0xbe2293fd	-0.15876766
139	0xbd77d570	-0.060506284
140	0x3e1ca091	0.15295626
141	0xbd3bb35b	-0.045825344
142	0xbcd7f5d7	-0.026362343
143	0xbe159feb	-0.14611785
144	0x3ea38dd0	0.31944132
145	0xbd8f74c0	-0.0700469
146	0xbda73f28	-0.08166343
147	0x3d66d164	0.056352034
148	0xbdfef3c6	-0.1244884
149	0x3e83d0fd	0.25745383
150	0xbddf9386	-0.1091681
151	0x3e87f27c	0.26552188
152	0xbd9135a2	-0.07090308
153	0xbd8d689f	-0.069047205
154	0x3d1fadc0	0.03898406
155	0x3f0d3b7b	0.55168885
156	0x3d3758c0	0.044762373
157	0x3e0aaed9	0.13543262
158	0xbec0c395	-0.37649217
159	0xbe8e889d	-0.27838603
160	0x3e5affd6	0.21386656
161	0xbda4e619	-0.080517
162	0xbe222564	-0.15834576
163	0x3db67d60	0.08910632
164	0xbc72657d	-0.0147947045
165	0x3d61f033	0.055160712
166	0x3d5efb2e	0.054438762
167	0xbe4dca0f	-0.2009661
168	0x3e5b65d9	0.2142557
169	0x3f0c0bf9	0.5470577
170	0xbcaee28e	-0.021348264
171	0x3d412b78	0.047160596
172	0xbdfeecd6	-0.124475166
173	0xbde5f3ae	-0.11228119
174	0xbc1cdd3d	-0.009574232
175	0xbdfca251	-0.12335647
176	0x3e4ed56b	0.201986
177	0xbd61a7f5	-0.055091817
178	0x3cdd9278	0.02704738
179	0xbd9a37e5	-0.07530192
180	0xbe65beee	-0.22436115
181	0x3effe15b	0.4997662
182	0x3e30e622	0.17275289
183	0x3d870ca1	0.06594206
184	0x3c80ca61	0.015721502
185	0xbcf331ea	-0.029686887
186	0xbe83892d	-0.25690594
187	0xbda01a87	-0.0781756
188	0x3e316d96	0.1732696
189	0x3ce483e4	0.027894922
190	0xbda15eb3	-0.078793906
191	0xbd67c1cb	-0.0565813
192	0xbe135b2e	-0.14390251
193	0xbd73e1e2	-0.05954159
194	0xbad45b00	-0.0016201437
195	0xbce192d7	-0.027535839
196	0x3dcbb93e	0.099474415
197	0xbdd3a5c0	-0.10334349
198	0xbde5e226	-0.11224775
199	0x3dc18b87	0.09450441
200	0xbde4444c	-0.11145839
201	0xbde43930	-0.1114372
202	0xbe125612	-0.14290646
203	0xbe2931df	-0.1652293
204	0xbe04630d	-0.1292841
205	0xbe05a044	-0.13049418
206	0x3cc718e7	0.024303867
207	0xbdda4446	-0.106575534
208	0x3d60c7a3	0.05487789
209	0x3d5aae8a	0.05338911
210	0xbdc59e50	-0.09649336
211	0x3d119118	0.035538763
212	0xbdc87184	-0.097872764
213	0x3c6df8b0	0.014524624
214	0xbcaf6b80	-0.021413565
215	0xbd5436bc	-0.05181001
216	0x3d8eae01	0.06966782
217	0xbd953f9e	-0.07287525
218	0x3dafeb78	0.08589834
219	0xbd41fc27	-0.04735961
220	0x3de87752	0.113508835
221	0x3dc8ab24	0.097982675
222	0xbdb97002	-0.09054567
223	0x3db784d8	0.08960885
224	0x3d947d2d	0.07250438
225	0xbe1a574c	-0.15072364
226	0x3d932708	0.07185179
227	0xbcecfe50	-0.02892986
228	0xbcf96e2b	-0.03044804
229	0xbdd5be50	-0.1043669
230	0x3d70e3ba	0.058810927
231	0xbddbc3c8	-0.10730702
232	0xbdf3d730	-0.11906278
233	0xbd3084eb	-0.04309551
234	0xb98d5492	-0.00026956626
235	0xbd3906d4	-0.045172527
236	0xbd947e42	-0.07250644
237	0x3b9b1e0d	0.004733807
238	0xbc764f80	-0.015033603
239	0xbd80edd5	-0.06295363
240	0x3d4bf717	0.04979619
241	0xbdd7bf3a	-0.105345204
242	0xbdb13538	-0.08652729
243	0xbdc6e83b	-0.09712263
244	0xbdf5f738	-0.12010044
245	0xbd833916	-0.06407373
246	0xbd8d039b	-0.06885453
247	0xbbd3fb80	-0.00646919
248	0x3dc25bf4	0.09490195
249	0xbdf51f9a	-0.11968918
250	0xbd09371b	-0.03349982
251	0xbddde141	-0.108339794
252	0xbcdc7862	-0.026912872
253	0x3d891aa4	0.066945344
254	0xbd5ab8a9	-0.053398762
255	0xbd84a004	-0.06475833

layers.6.bias f4 [32]
0	0xbd1a868f	-0.03772598
1	0xbdcba9b0	-0.09944475
2	0xbdf619dd	-0.12016652
3	0xbdeaf62c	-0.11472735
4	0x3f1ee95c	0.6207483
5	0x3dad208b	0.08453473
6	0x3f0814d9	0.5315681
7	0xbc6b5884	-0.0143643655
8	0xbcb9662a	-0.022631723
9	0x3ed9d815	0.4254767
10	0x3ec8d7f9	0.39227274
11	0x3e952256	0.2912776
12	0x3e2fb60e	0.17159292
13	0x3d8365af	0.06415879
14	0x3e38413e	0.17993638
15	0xbe479a83	-0.19492535
16	0xbe7a846c	-0.24464577
17	0x3eb27cf6	0.34860963
18	0x3ef1bbf4	0.4721371
19	0xbde784d0	-0.11304629
20	0x3eb8ea79	0.36116388
21	0x3e83de34	0.25755465
22	0x3ed6598f	0.41865203
23	0xbd947386	-0.07248597
24	0xbcac6737	-0.02104531
25	0xbe30263a	-0.17202082
26	0x3e21fedb	0.15819876
27	0x3e2c485c	0.16824478
28	0xbe103143	-0.14081292
29	0x3f079006	0.5295414
30	0x3f099aef	0.53752035
31	0x3eae5a88	0.34053445

layers.8.weight f4 [32, 32]
0	0xbce6814e	-0.02813783
1	0x3dd7016f	0.1049832
2	0x3ce5184d	0.02796569
3	0x3cf5c175	0.029999474
4	0xbec01254	-0.37513983
5	0x3debe298	0.11517829
6	0x3d778960	0.060433745
7	0x3e02d55a	0.127767
8	0x3d9fe5ae	0.0780748
9	0xbd41ebf4	-0.047344163
10	0x3e05222c	0.13001317
11	0x3e2c4691	0.16823794
12	0x3dd96a1f	0.10615944
13	0xbe1f13a6	-0.15534839
14	0xbc883d39	-0.016630756
15	0xbdf7b63c	-0.12095305
16	0x3e0874aa	0.13325754
17	0x3e1659f0	0.14682746
18	0xbe214999	-0.15750732
19	0xbe37b21f	-0.17939042
20	0x3e3f9242	0.18708137
21	0xbeb45ddf	-0.35227868
22	0xbca78051	-0.020446928
23	0xbda4900e	-0.08035289
24	0x3c9dfd10	0.019285709
25	0x3e3651c5	0.1780463
26	0x3df789be	0.12086819
27	0xbe7505cb	-0.23927991
28	0xbd354dd9	-0.044263694
29	0x3e7ff9e9	0.24997677
30	0x3dc08111	0.093996175
31	0x3dad417e	0.08459757
32	0x3da3fa2b	0.080067
33	0xbd909a5d	-0.070606925
34	0xbddd53fd	-0.10807035
35	0xbe079974	-0.13242131
36	0xbe90479d	-0.28179637
37	0x3cd7234d	0.02626195
38	0x3d10e8ed	0.035378385
39	0xbb3ae400	-0.0028517246
40	0x3d8c1a0b	0.06840905
41	0xbd74f78a	-0.059806384
42	0x3dfee225	0.124454774
43	0xbe37a022	-0.1793218
44	0x3e4b6d31	0.19865872
45	0xbd51c28a	-0.051210918
46	0x3dd292f5	0.10281936
47	0x3de44f7f	0.11147975
48	0xbd47f2f7	-0.048815694
49	0xbe46ea50	-0.1942532
50	0xbd367f73	-0.04455514
51	0xbd009a3a	-0.031397082
52	0xbe21db1d	-0.15806241
53	0xbe6a916c	-0.22907037
54	0x3d4a6f10	0.049422324
55	0x3d93bd8a	0.07213886
56	0x3de0ee76	0.10982983
57	0x3d07a82f	0.033119377
58	0x3e85b8fb	0.2611769
59	0x3e528dd8	0.20561922
60	0xbe338d3d	-0.17534347
61	0x3c684b9a	0.014178181
62	0x3c48c9d8	0.012255155
63	0xbe4000d2	-0.18750313
64	0xbd552906	-0.052041076
65	0x3d3b27a0	0.045692086
66	0x3ca183a2	0.019716088
67	0x3dee3bba	0.11632486
68	0xbdeddb8c	-0.11614141
69	0xbe2e10b8	-0.16998565
70	0x3cf5e3f0	0.030015916
71	0x3dfc26fe	0.12312125
72	0xbd8f2d96	-0.06991117
73	0x3d32f7e6	0.043693446
74	0xbe3a6033	-0.1820076
75	0xbd3c2aa1	-0.04593909
76	0xbe09ee5b	-0.13469832
77	0xbe084258	-0.13306558
78	0x3de66950	0.112505555
79	0xbb030b80	-0.0019995868
80	0x3e1a0691	0.15041567
81	0xbd6db47c	-0.05803345
82	0xbe7de54d	-0.24794503
83	0x3d606a59	0.05478892
84	0x3d9f45e1	0.07777
85	0x3dda1289	0.106480666
86	0xbdb43a70	-0.088002086
87	0xbe2088a6	-0.15677127
88	0xbe4b69d0	-0.19864583
89	0x3da2909f	0.079377405
90	0xbd6fc3d0	-0.05853635
91	0xbdc2d30f	-0.095129125
92	0x3d4d3058	0.050094932
93	0xbe0c9c4b	-0.13731496
94	0x3de782fa	0.11304279
95	0x3ce300ed	0.027710402
96	0xbdfccb73	-0.12343492
97	0x3e20dfa2	0.15710309
98	0x3ec4258a	0.3830989
99	0x3c31dd88	0.01085604
100	0x3e1d4f1b	0.15362208
101	0x3e486127	0.1956831
102	0xbe146266	-0.14490661
103	0x3e91fab8	0.28511596
104	0xbdc4de62	-0.09612729
105	0xbe697583	-0.22798733
106	0xbdebe9df	-0.11519217
107	0xbd849b49	-0.06474931
108	0x3e9e5279	0.30922297
109	0x3bdf65c6	0.0068175523
110	0x3e6f0a7a	0.2334384
111	0x3d7c6391	0.06161839
112	0xbd91f685	-0.07127098
113	0xbbe976aa	-0.0071247416
114	0x3eb59543	0.3546544
115	0x3e64dbf5	0.22349532
116	0xbe9294a0	-0.28629017
117	0x3ea225d5	0.3166949
118	0x3e1ca73a	0.15298167
119	0xbec01700	-0.37517548
120	0x3e133c5a	0.14378491
121	0xbdcc92ab	-0.09988912
122	0x3e63e9ba	0.22257128
123	0x3eed907c	0.46399295
124	0xbd2d41bc	-0.042299017
125	0xbe927926	-0.28608054
126	0xbe9a23f5	-0.30105558
127	0x3d69ffad	0.057128597
128	0xbe0754a2	-0.13215879
129	0xbcea70e0	-0.028618276
130	0xbd9b12f7	-0.07571977
131	0x3d2c9e7c	0.04214333
132	0xbc9f8e10	-0.01947692
133	0xbe6ec86d	-0.23318644
134	0xbd2d62eb	-0.042330664
135	0x3e083633	0.13301925
136	0x3ccce070	0.025009364
137	0x3d76619d	0.060151685
138	0xbe035049	-0.12823595
139	0xbe229e7e	-0.15880772
140	0x3d7b0a2c	0.061288998
141	0xbd4b1f1c	-0.049590215
142	0x3e17ef8d	0.14837475
143	0x3ddc5608	0.10758597
144	0x3cd30660	0.025759876
145	0xbdcde7d2	-0.10053982
146	0xbdfd3313	-0.12363257
147	0x3de8be42	0.11364414
148	0x3d051df7	0.03249928
149	0x3c95c35f	0.018281637
150	0xbe14d897	-0.14535747
151	0x3ce9926f	0.028512208
152	0x3df7ce82	0.12099935
153	0x3d935330	0.07193601
154	0xbc87eaf7	-0.016591532
155	0xbe1a374f	-0.15060161
156	0xbd704508	-0.058659583
157	0xbe03885f	-0.1284499
158	0x3caa5fe6	0.020797681
159	0xbe0bd006	-0.13653573
160	0x3e2d1cff	0.16905592
161	0x3b883d00	0.0041576624
162	0xbda5c45e	-0.08094095
163	0xbe13a8dc	-0.14419883
164	0x3c89e564	0.016833015
165	0xbde019ae	-0.10942398
166	0xbd80aff3	-0.0628356
167	0xbde0d311	-0.10977758
168	0xbd49588c	-0.04915671
169	0x3c4665e9	0.012109258
170	0xbd7757e5	-0.060386557
171	0xbd70e1d0	-0.0588091
172	0x3db98569	0.09058649
173	0x3c80b533	0.015711403
174	0x3d4e246e	0.05032771
175	0x3d0a42e4	0.033755198
176	0xbcae7806	-0.021297466
177	0x3b74c605	0.0037349474
178	0xbe27f3f5	-0.16401656
179	0x3d360c84	0.04444553
180	0xbe43dc4c	-0.19127005
181	0x3e0ff610	0.14058709
182	0x3db738f9	0.089464135
183	0xbe79a49a	-0.24379197
184	0x3e110df5	0.1416548
185	0xbd8a2e79	-0.06747145
186	0x3e17bd69	0.14818348
187	0x3bedc12a	0.007255693
188	0xbda76cfd	-0.08175085
189	0x3ce341e2	0.027741376
190	0xbdd53add	-0.10411618
191	0x3d89135b	0.06693145
192	0x3e6f34f0	0.23360038
193	0xbd1287c1	-0.035773996
194	0xbd420717	-0.047370043
195	0x3cf61b6a	0.030042369
196	0x3da55d86	0.08074479
197	0xbdc84e99	-0.09780616
198	0x3bca8f10	0.006181605
199	0x3da14146	0.07873778
200	0x3de2fffd	0.11083982
201	0xbd3fa7ba	-0.046790816
202	0xbe2cb5ec	-0.16866273
203	0xbd8f64a2	-0.07001616
204	0x3e4eb1f5	0.20185073
205	0xbe6fc21a	-0.23413888
206	0xbdddec29	-0.108360596
207	0xbd0ae444	-0.033909097
208	0x3cb09c3a	0.02155887
209	0xbe6a4c00	-0.22880554
210	0x3c334b91	0.010943309
211	0x3c863f4c	0.016387604
212	0x3c30c452	0.010788994
213	0x3d5feecb	0.05467109
214	0xbd9c7054	-0.076386124
215	0xbe5769f1	-0.21036507
216	0x3d33bc50	0.04388076
217	0xbd8125f0	-0.06306064
218	0xbde19cd1	-0.110162385
219	0xbe2623c2	-0.16224578
220	0xbccc41db	-0.024933746
221	0x3d831b2f	0.06401669
222	0xbe473375	-0.19453223
223	0xbc83c1e4	-0.016083665
224	0x3e18a23a	0.14905635
225	0xbd28cc30	-0.041210353
226	0x3ebdb919	0.3705528
227	0xbd884348	-0.06653458
228	0x3e887856	0.2665431
229	0xbe25cbcf	-0.16191028
230	0x3cbe0388	0.023195043
231	0xbda821e6	-0.082095906
232	0x3dbba358	0.09162015
233	0x3d6d1bd6	0.057887875
234	0xbe215f61	-0.1575904
235	0xbd371a8b	-0.044703048
236	0xbd8fe1f0	-0.07025516
237	0xbdac3b40	-0.084097385
238	0x3ef0abba	0.47006017
239	0xbdeacfae	-0.11465393
240	0x3e210a35	0.1572655
241	0xbe923df7	-0.285629
242	0xbe5624af	-0.20912431
243	0x3e25420a	0.16138473
244	0x3ca79356	0.020455997
245	0xbe6405f6	-0.22267899
246	0x3ebdc521	0.3706446
247	0xbda2b865	-0.07945327
248	0xbe268ac3	-0.16263871
249	0xbc6cbcf4	-0.014449347
250	0xbea9a81c	-0.3313607
251	0xbcb8ae61	-0.022544088
252	0xbe1523f9	-0.14564504
253	0xbdd8d58e	-0.10587607
254	0x3e221f70	0.15832305
255	0xbdd1434f	-0.10217916

layers.8.bias f4 [32]
0	0x3efd2a62	0.49446398
1	0xbe34d566	-0.1765953
2	0xbd95f52e	-0.07322155
3	0xbe05be46	-0.13060865
4	0xbe994882	-0.29938132
5	0xbe135d8c	-0.14391154
6	0x3bec6104	0.0072137136
7	0xbdce336f	-0.10068404
8	0x3eb4153e	0.35172457
9	0x3f14e25a	0.58157885
10	0x3e78216c	0.242315
11	0x3ed996f4	0.4249798
12	0xbf26c133	-0.6513855
13	0xbcb16e5a	-0.021659065
14	0x3d2d3dbd	0.042295206
15	0x3dcf4547	0.101206355
16	0x3e2ebd8b	0.17064492
17	0x3f0eafca	0.5573698
18	0x3f0cb96a	0.5497042
19	0x3ee11dbf	0.43968007
20	0xbe645c02	-0.22300723
21	0x3e1a0c07	0.1504365
22	0xbd5fb1f8	-0.054613084
23	0xbdaa0135	-0.083010115
24	0x3eba62fe	0.3640365
25	0xbdf726aa	-0.120679215
26	0x3ede364b	0.43400797
27	0x3ea03960	0.31293774
28	0x3efab4f7	0.4896619
29	0x3dfac5ae	0.12244736
30	0xbdbe88d9	-0.09303445
31	0xbdb808e4	-0.08986071

layers.10.weight f4 [16, 32]
0	0xbd0790a9	-0.033096943
1	0xbc8cb19e	-0.017174538
2	0x3e392719	0.18081321
3	0xbec42dcb	-0.38316187
4	0xbe1c53bc	-0.15266317
5	0x3cbb36fc	0.022853367
6	0xbd5b512e	-0.053544216
7	0x3b2528f2	0.0025201407
8	0xbdafc745	-0.085829295
9	0xbdd8cd61	-0.10586048
10	0xbd35bbe3	-0.044368636
11	0x3c67d288	0.014149316
12	0xbd3fc229	-0.046816025
13	0x3da2634b	0.07929095
14	0xbd8d9c0d	-0.0691453
15	0xbdf48a50	-0.119404435
16	0xbe657370	-0.22407317
17	0x3d56a17f	0.05240011
18	0xbdd199a5	-0.102343835
19	0xbdaa0d05	-0.083032645
20	0xbdde8341	-0.108648784
21	0xbe4d305f	-0.20037983
22	0x3c0207f0	0.007936463
23	0xbe0c680e	-0.13711569
24	0x3d1b8812	0.037971564
25	0x3e227abd	0.15867133
26	0xbbb514f4	-0.0055261794
27	0xbd56fcbf	-0.05248713
28	0xbd0a8d03	-0.033825886
29	0xbd93325c	-0.0718734
30	0x3de6d393	0.11270823
31	0xbd700718	-0.058600515
32	0xbe34bf26	-0.17651042
33	0x3e1267fd	0.14297481
34	0x3e3d4a5e	0.184854
35	0xbe1665c5	-0.1468726
36	0x3be4b865	0.0069799894
37	0x3d6f497d	0.058419693
38	0xbd8cff29	-0.068846054
39	0xbe7bf5d6	-0.24605498
40	0xbd61cbf6	-0.055126153
41	0xbe408ae8	-0.18802989
42	0x3db74a79	0.089497514
43	0xbe34d02f	-0.1765754
44	0xbe30e1e4	-0.1727367
45	0x3da06ec1	0.07833625
46	0x3da8a304	0.08234218
47	0x3ee14e69	0.44005135
48	0x3dd377f2	0.10325612
49	0xbe092bf9	-0.1339568
50	0x3d4ed1fc	0.050493225
51	0xbdbff3cd	-0.09372673
52	0x3deca526	0.11554937
53	0x3d28c208	0.041200668
54	0x3d754798	0.05988273
55	0x3de833d2	0.11338009
56	0xbd7deb42	-0.061991937
57	0x3e170ce1	0.14751007
58	0x3dc9173d	0.098188855
59	0xbe440635	-0.19142993
60	0xbdfb1880	-0.122605324
61	0x3f12c762	0.57335484
62	0x3e19b0a2	0.15008786
63	0x3dd6a4b6	0.10480635
64	0x3c2162ac	0.009850185
65	0xbd954d1c	-0.07290098
66	0x3d6b4999	0.057443235
67	0xbe797f40	-0.24364948
68	0xbdd25d90	-0.10271752
69	0xbbbf894c	-0.0058452245
70	0xbda8cb64	-0.08241919
71	0x3be074a8	0.006849844
72	0x3ceb65f1	0.028735133
73	0x3d588eb2	0.05287046
74	0x3dd1d5c6	0.10245852
75	0xbe4ed200	-0.20197296
76	0xbde0c076	-0.10974209
77	0x3d7e1bff	0.062038418
78	0x3d39447c	0.045231327
79	0x3e0f82e0	0.14014769
80	0x3d7f7cce	0.062374882
81	0xbc85bc41	-0.016325118
82	0x3d105e37	0.0352461
83	0xbe0eea8c	-0.1395666
84	0x3dba623b	0.09100767
85	0xbd682bf2	-0.056682535
86	0xbe0abf48	-0.1354953
87	0x3ccbb070	0.024864405
88	0xbe5479b0	-0.20749545
89	0x3dfd8596	0.12378995
90	0xbe21e075	-0.1580828
91	0x3dc79c31	0.09746588
92	0x3d330ee9	0.04371539
93	0xbd386377	-0.045016732
94	0x3db54dd7	0.088527374
95	0x3df667c2	0.12031509
96	0xbd4dc929	-0.05024067
97	0x3d816697	0.063183956
98	0x3d5f113c	0.054459795
99	0xbda7f327	-0.082006745
100	0xbdc7420b	-0.097293936
101	0x3e07efe7	0.13275109
102	0xbddeb43d	-0.108742215
103	0xbdf34e62	-0.11880185
104	0x3c8832c3	0.016625768
105	0xbe04381d	-0.1291203
106	0xbe09ffe5	-0.13476522
107	0xbc99f36d	-0.018792832
108	0x3d8a43ee	0.06751238
109	0x3daf16bd	0.08549259
110	0x3dd47b06	0.10375027
111	0xbe0165ca	-0.12636486
112	0x3d4ab813	0.049491953
113	0x3d24254f	0.040074643
114	0xbd98aac2	-0.074544445
115	0xbdce3812	-0.10069288
116	0xbde7c543	-0.113169216
117	0xbe1e8e1b	-0.15483896
118	0xbda5daf5	-0.08098403
119	0xbe216645	-0.15761669
120	0xbe44f3b7	-0.19233595
121	0xbde4ad1f	-0.11165833
122	0x3d0893ea	0.033344187
123	0xbc153e50	-0.009109095
124	0xbdd910f0	-0.10598934
125	0x3d9d0c6e	0.076683864
126	0x3db6502e	0.08902012
127	0xbe21a40c	-0.15785235
128	0xbe33fc82	-0.17576793
129	0xbdfb81a1	-0.12280584
130	0xbd51034c	-0.051028535
131	0x3e66ab63	0.22526316
132	0xbd84ced5	-0.064847626
133	0xbdb36a90	-0.087605596
134	0xbd412e32	-0.047163196
135	0xbe8eef6f	-0.27917048
136	0x3d45010e	0.04809671
137	0x3dd49657	0.103802375
138	0x3e7707e5	0.24124105
139	0x3dc4af1e	0.096037135
140	0x3dd6deb8	0.10491699
141	0xbdc09b11	-0.094045766
142	0xbe1ae906	-0.15127954
143	0x3ea7659c	0.3269471
144	0xbdf218ef	-0.11821162
145	0x3d8e41c6	0.06946139
146	0x3e6df6d2	0.23238686
147	0xbea8a54c	-0.32938612
148	0x3e174925	0.14773996
149	0x3d12da80	0.03585291
150	0xbd060ea8	-0.03272882
151	0x3d96991a	0.073534206
152	0xbc794a4a	-0.015215466
153	0x3dbded82	0.09273817
154	0xbeaa24fa	-0.33231336
155	0x3e91b6d4	0.284598
156	0xbe851bbe	-0.25997728
157	0x3f153924	0.58290315
158	0x3dd95f76	0.10613911
159	0xbda34c60	-0.07973552
160	0x3c9cca93	0.019139564
161	0xbdcac12f	-0.09900128
162	0xbdd769f1	-0.105182536
163	0xbe8203fb	-0.25393662
164	0xbde20fe5	-0.11038188
165	0x3e0d4c63	0.1379867
166	0xbe10cab1	-0.1413982
167	0x3d0deacc	0.034647748
168	0x3e0d66ec	0.13808793
169	0xbe157434	-0.14595109
170	0xbe36565b	-0.1780638
171	0x3c8655fb	0.01639842
172	0x3da78368	0.08179361
173	0x3e1e2506	0.15443811
174	0x3b8df513	0.0043321936
175	0x3db71203	0.08938982
176	0xbe29d9d3	-0.16587
177	0xbe31411b	-0.17309992
178	0xbe029a71	-0.12754227
179	0xbdf4fb4e	-0.11961995
180	0x3c53c450	0.0129252225
181	0xbd866737	-0.065626554
182	0x3cadd400	0.021219254
183	0xbe21da19	-0.15805854
184	0x3dec1d44	0.115290195
185	0xbe24787c	-0.16061586
186	0xbce3ff51	-0.027831705
187	0xbde602fd	-0.11231039
188	0x3d660b59	0.056163166
189	0xbdf6a8f4	-0.12043944
190	0x3e1a73db	0.15083258
191	0xbe31ae7e	-0.1735172
192	0xbe12bce4	-0.14329869
193	0xbce26825	-0.02763755
194	0xbdcb43c8	-0.099250376
195	0xbe569cfa	-0.2095832
196	0x3e0dd1ba	0.13849536
197	0x3d488bf8	0.04896161
198	0xbdf0b2d6	-0.1175286
199	0xbd9c4ce0	-0.0763185
200	0xbd269e67	-0.040678408
201	0x3e0baba5	0.13639696
202	0xbe787625	-0.24263819
203	0xbc963b40	-0.0183388
204	0x3c8a344e	0.016870644
205	0x3d1bc035	0.0380251
206	0xbc431020	-0.0119057
207	0x3c8e0654	0.017337002
208	0xbd919e3f	-0.07110261
209	0x3cbb006a	0.022827346
210	0x3e0bf3c0	0.13667202
211	0xbe0ffeaf	-0.14061998
212	0x3bcc61af	0.0062372307
213	0xbd8b3245	-0.067966975
214	0xbdacc4be	-0.08435963
215	0x3d2ad180	0.0417037
216	0xbe348c8b	-0.17631738
217	0xbe12f19b	-0.14349978
218	0xbd17a425	-0.037021775
219	0xbda56db3	-0.08077564
220	0xbd28bb6e	-0.041194372
221	0xbe29af56	-0.16570792
222	0xbdb5b410	-0.08872235
223	0x3d02db94	0.031947687
224	0xbe931679	-0.28728083
225	0xb94aec79	-0.00019352314
226	0xbdf6a820	-0.12043786
227	0x3e45d4f6	0.1931952
228	0x3d628194	0.055299357
229	0x3c305e90	0.010764733
230	0x3deba601	0.11506272
231	0x3db8a4c6	0.09015803
232	0x3d70309f	0.05864012
233	0xbe3649ef	-0.17801641
234	0xbde17ea4	-0.11010483
235	0xbe21e459	-0.15809764
236	0x3e8f4f94	0.279904
237	0x3af4b580	0.0018669814
238	0x3d21ee6c	0.039534017
239	0x3e357488	0.17720234
240	0x3df52c26	0.11971311
241	0x3df89f4c	0.121397585
242	0xbe4841fe	-0.19556424
243	0xbdae9020	-0.085235834
244	0x3db59ce6	0.088678166
245	0xbe2a1464	-0.16609341
246	0xbd7b18bc	-0.061302885
247	0x3e018529	0.12648453
248	0xbe88a511	-0.26688436
249	0x3e08e163	0.13367228
250	0xbf312978	-0.692039
251	0xbeb5ee9d	-0.3553361
252	0xbddeba4d	-0.10875378
253	0x3ddf002b	0.10888704
254	0xbe24a36d	-0.16077967
255	0x3d8c028e	0.06836425

layers.10.bias f4 [16]
0	0x3d8f89f8	0.07008737
1	0x3d0d51a7	0.034501698
2	0xbe024a90	-0.12723756
3	0xbdf0792b	-0.11741861
4	0x3e2b05c2	0.16701415
5	0x3d2e0bb0	0.042491615
6	0x3e0ce941	0.13760854
7	0xbe778828	-0.24173033
8	0x3f1c367b	0.6102063
9	0x3e4a4c8a	0.1975576
10	0x3f11ea3d	0.56998044
11	0x3d14f310	0.036364615
12	0xbe23377c	-0.15939134
13	0x3dea09c7	0.11427646
14	0xbd85b25c	-0.0652816
15	0x3e82fa52	0.25581604
