Compression_Test_MLP/models/model8_30ep_L2reg_reducedecay.pth (torch, 75550 bytes, 15 tensors)

layers.0.weight f4 [128, 8]
0	0x3d5d9e4a	0.054106034
1	0xbe53836e	-0.20655605
2	0xbe94a741	-0.29033855
3	0x3e92680e	0.28595012
4	0xbd6cdd14	-0.057828024
5	0xbe225712	-0.15853527
6	0xbe483b31	-0.1955383
7	0xbe3b9927	-0.18320142
8	0xbefa0f64	-0.48839867
9	0xbebebca0	-0.37253284
10	0x3e92dadf	0.2868261
11	0xbef39018	-0.47570872
12	0xbeca196d	-0.39472523
13	0xbf0dc56a	-0.55379355
14	0xbe8c4afd	-0.27400962
15	0xbea85b19	-0.32882002
16	0x3e5c0f1c	0.21490139
17	0xbd5f4131	-0.05450553
18	0x3d963d8e	0.073359594
19	0x3f01bd7d	0.5067976
20	0xbdb0e32e	-0.08637081
21	0x3e06e0a6	0.13171634
22	0x3da61af3	0.08110609
23	0x3e06fa36	0.13181385
24	0xbd1f442a	-0.038883366
25	0xbd1a336f	-0.037646707
26	0xbe42a411	-0.19007899
27	0xbe1c34b4	-0.1525448
28	0x3dfe77da	0.124252036
29	0x3f88787c	1.0661769
30	0xbf00d006	-0.5031742
31	0x3ede1894	0.43378127
32	0xbf1df3f5	-0.61700374
33	0xbef7adfe	-0.48374933
34	0xbe5f94e6	-0.21834144
35	0x3e9a5aba	0.30147344
36	0x3e728fa9	0.23687615
37	0x3e56b0c1	0.20965864
38	0xbde097cd	-0.10966454
39	0xbdd55cdb	-0.104181014
40	0x3d007be1	0.03136814
41	0x3d9e1368	0.07718545
42	0x3e046819	0.12930335
43	0xbf0e2c6a	-0.5553652
44	0xbe463643	-0.19356637
45	0x3df4405f	0.1192634
46	0x3e6edc7e	0.23326299
47	0x3c75c438	0.0150003955
48	0xbee20528	-0.4414456
49	0xbe19acba	-0.15007296
50	0x3eb3ccd6	0.35117215
51	0x3de6874f	0.11256277
52	0x3e37a6b8	0.17934692
53	0x3e17cdad	0.14824553
54	0x3f0b05ab	0.54305524
55	0x3db05f91	0.08611978
56	0xbd8833f5	-0.06650535
57	0xbc561888	-0.013067372
58	0x3e1bada6	0.1520296
59	0xbdfa1930	-0.122118354
60	0xbda1b175	-0.07895175
61	0x3e142eef	0.14471029
62	0xbf85b760	-1.0446587
63	0x3f0be524	0.54646516
64	0xbf3ee12c	-0.74562335
65	0x3e36c0f1	0.17847039
66	0x3dc46d51	0.09591163
67	0x3d9f2bb8	0.077720106
68	0x3e352b9d	0.17692418
69	0xbe41824f	-0.18897365
70	0xbd615b21	-0.055018548
71	0x3e724b03	0.23661427
72	0xbe52bdba	-0.20580187
73	0x3d012c93	0.03153665
74	0x3e8e9eb1	0.27855447
75	0xbe47a015	-0.1949466
76	0xbd190a72	-0.037363477
77	0xbe935d73	-0.28782234
78	0x3b3fd8e3	0.0029273562
79	0xbda2af14	-0.0794355
80	0xbcc204c8	-0.02368392
81	0xbe076eb7	-0.13225828
82	0xbef7d62d	-0.4840559
83	0xbe34b190	-0.1764586
84	0xbe63c0d6	-0.2224153
85	0x3f21a6e3	0.63145274
86	0xbdaa5a36	-0.083179876
87	0xbd4f4233	-0.050600242
88	0xbe6884bb	-0.22706883
89	0xbd96d9f4	-0.0736579
90	0xbb13a921	-0.0022531229
91	0xbf5cb5ef	-0.8621511
92	0xbd50a6d5	-0.050940353
93	0x3fbdfa03	1.4841923
94	0xbe9ba1ed	-0.30396977
95	0xbe03c1c4	-0.12866884
96	0xbdd0f57e	-0.10203074
97	0xb9448644	-0.00018742034
98	0xbd86bbff	-0.06578826
99	0xbecec3ed	-0.40383855
100	0x3d37f4d3	0.044911217
101	0x3f1c0cfd	0.6095732
102	0xbcd961aa	-0.026535828
103	0x3f30feb9	0.69138676
104	0xbe2b8155	-0.16748555
105	0xbf07c122	-0.5302907
106	0x3ea651b9	0.32484224
107	0xbf106587	-0.5640492
108	0xbf10cbe6	-0.56561124
109	0xbf349f90	-0.70555973
110	0x3e070225	0.13184412
111	0x3dcc0809	0.0996247
112	0x3cbf998b	0.023388645
113	0x3b205492	0.002446447
114	0xbcc40389	-0.023927467
115	0x3c9c14db	0.019052913
116	0x3c6c8824	0.014436755
117	0x3e6863fc	0.22694391
118	0xbf4db91f	-0.803606
119	0xbf16791f	-0.58778566
120	0xbe3d48c7	-0.18484794
121	0xbca55de3	-0.02018637
122	0x3eca8fd4	0.39562857
123	0xbec85838	-0.39129806
124	0xbf46c791	-0.77648264
125	0xbc756bec	-0.014979344
126	0xbe5ab3a4	-0.2135759
127	0xbdc682a6	-0.09692888
128	0x3e04510e	0.12921545
129	0x3d9b6114	0.075868756
130	0xbdfa5521	-0.12223268
131	0x3e4ca905	0.19986351
132	0x3c029cd6	0.007971963
133	0x3efc2ed7	0.49254486
134	0x3f0a4df8	0.5402522
135	0x3ef90439	0.48636034
136	0xbcabc92a	-0.020969946
137	0x3e2c312f	0.16815637
138	0xbed5c56d	-0.41752186
139	0x3ec064cb	0.375769
140	0xbd440403	-0.04785539
141	0xbf80fe59	-1.0077621
142	0xbe87596b	-0.26435408
143	0xbe09c3ca	-0.13453594
144	0xbe534da4	-0.20635086
145	0xbe1d77b2	-0.15377691
146	0x3e093b06	0.13401422
147	0xbef0d884	-0.47040188
148	0xbe088d76	-0.13335213
149	0x3eab4273	0.33449134
150	0x3f05fbf9	0.52337605
151	0x3d39d9ab	0.0453736
152	0x3e71e049	0.23620714
153	0xbd1b0e24	-0.037855282
154	0xbf113bb6	-0.56731737
155	0x3ee9172b	0.45525488
156	0xbec41151	-0.3829446
157	0x3daf99b1	0.08574236
158	0xbdf04ea3	-0.11733749
159	0xbd9094ae	-0.070596084
160	0x3cb8c8e3	0.022556728
161	0x3d95b9a7	0.07310801
162	0x3e467931	0.19382168
163	0x3d53843d	0.051639784
164	0x3e23659b	0.15956728
165	0xbf9cd6f1	-1.2253095
166	0xbe61fef4	-0.22069913
167	0xbe566186	-0.2093564
168	0xbd4b32bf	-0.049608942
169	0xbdfac690	-0.12244904
170	0x3d1102d0	0.035403073
171	0xbdfa977c	-0.122359246
172	0xbd1a2f85	-0.037642974
173	0xbeb13f41	-0.3461857
174	0xbe935bb1	-0.28780892
175	0xbeb55986	-0.35419863
176	0xbe751a7c	-0.23935884
177	0x3e05673a	0.13027659
178	0x3e095db7	0.13414656
179	0xbb867a27	-0.004103917
180	0x3deee6ca	0.11665113
181	0x3fa0095a	1.2502854
182	0x3e9aafa3	0.30212125
183	0x3e85c8a7	0.26129648
184	0xbd84bdf2	-0.06481542
185	0x3dc14d66	0.09438591
186	0x3dee92b6	0.11649077
187	0xbe2d4eda	-0.1692461
188	0xbdbf0e23	-0.09328868
189	0xbfc7e615	-1.561709
190	0xbeece7bb	-0.46270546
191	0x3e2bb856	0.16769537
192	0xbb852ed4	-0.0040644202
193	0x3d23280f	0.039833125
194	0x3e3a2e3e	0.18181702
195	0xbded157b	-0.11576363
196	0x3d57b3af	0.052661594
197	0xbfd8e405	-1.6944586
198	0xbe81dc92	-0.25363594
199	0xbdffcff0	-0.12490833
200	0x3e419324	0.18903786
201	0x3d8c6bca	0.06856497
202	0x3ec83266	0.3910095
203	0xbeb236b4	-0.3480736
204	0x3c96704e	0.018364098
205	0xbce53460	-0.027979076
206	0xbf007e1d	-0.50192434
207	0xbed28fff	-0.41125485
208	0xbe5c0c5c	-0.2148909
209	0xbe3b0c57	-0.18266426
210	0x3c200e1a	0.009768987
211	0x3e5c1b22	0.21494725
212	0xbdd24e91	-0.102688916
213	0x3fbfd653	1.4987282
214	0x3dde830c	0.10864839
215	0x3d6f8274	0.05847402
216	0x3ede16d7	0.433768
217	0x3de604e4	0.112314016
218	0xbe948052	-0.2900415
219	0x3e0b603c	0.13610929
220	0xbac935f5	-0.0015351163
221	0xbfc195ad	-1.5123802
222	0x3e828c8a	0.25497848
223	0x3e3ec14f	0.18628429
224	0xbe060bf0	-0.13090491
225	0x3e736bbe	0.23771569
226	0x3d31f9be	0.043451063
227	0xbea351af	-0.31898257
228	0xbd6a3d53	-0.05718739
229	0x3f4a70bd	0.79078275
230	0x3e967d3e	0.29392427
231	0x3e90615c	0.2819928
232	0x3e8efd22	0.279275
233	0x3e6aa1e5	0.2291332
234	0x3e8e5fea	0.27807552
235	0xbd6e5a87	-0.058191802
236	0x3e1c8c02	0.15287784
237	0x3ea29b39	0.3175905
238	0xbca9823b	-0.020691982
239	0xbee358cf	-0.44403693
240	0x3d6a410b	0.057190936
241	0x3e29904f	0.16558956
242	0xbdcbb2ba	-0.09946199
243	0xbe2c032c	-0.16798085
244	0x3e569a57	0.20957313
245	0x3fa90ea4	1.3207593
246	0x3ebad6e9	0.36492088
247	0x3eb8905a	0.36047632
248	0x3dab7b91	0.08373178
249	0xbd5e9979	-0.05434558
250	0xbdeb9f6d	-0.115050174
251	0x3e065178	0.13117015
252	0x3cb3bdfc	0.021941178
253	0x3f253075	0.64527065
254	0xbe5276a3	-0.20553069
255	0xbd83a707	-0.06428342

layers.0.bias f4 [128]
0	0xbe9ac24e	-0.30226368
1	0xbefa14ae	-0.48843902
2	0xbf4bc3c0	-0.79595566
3	0xbeff6f89	-0.49889782
4	0xbe5f192e	-0.21786949
5	0xbddfd645	-0.109295405
6	0xbecf679b	-0.40508732
7	0xbe821d62	-0.25413042
8	0xbec199eb	-0.37812743
9	0xbea703fb	-0.32620224
10	0x3cdd7673	0.02703402
11	0x3e2eada4	0.17058426
12	0xbec30c4b	-0.38095316
13	0xbeabfa0e	-0.33589214
14	0x3d4a7c5d	0.04943501
15	0xbeed2b21	-0.46321967
16	0x3e6fc607	0.23415385
17	0xbe89b985	-0.26899353
18	0xbf23e418	-0.6401992
19	0xbe949f65	-0.29027858
20	0x3e249455	0.16072209
21	0xbe182565	-0.14858015
22	0x3ed655a1	0.41862205
23	0xbf11c517	-0.5694136
24	0xbe0260a4	-0.12732178
25	0x3e22d031	0.15899731
26	0x3ee127fc	0.43975818
27	0xbf58ea73	-0.8473274
28	0xbd82f338	-0.063940465
29	0xbe4e6aaa	-0.20157877
30	0x3ea3c069	0.31982735
31	0xbe79e977	-0.24405466
32	0xbdb8f1bd	-0.09030483
33	0xbe9f045d	-0.31058016
34	0xbe609649	-0.21932329
35	0xbed80623	-0.42192182
36	0xbdbad95b	-0.091234885
37	0xbec4bacf	-0.38423774
38	0xbe9df75a	-0.30852777
39	0xbd9abe57	-0.07555836
40	0xbe10a08b	-0.14123742
41	0xbeb75252	-0.35804993
42	0xbe53785e	-0.20651385
43	0xbf26a449	-0.6509443
44	0xbeafaab4	-0.34309924
45	0xbebb8932	-0.3662811
46	0xbe9a998a	-0.30195266
47	0xbecb8835	-0.39752355
48	0xbf848718	-1.0353727
49	0xbed451dc	-0.41468704
50	0xbdb12533	-0.08649673
51	0xbe11836e	-0.14210293
52	0x3cdda838	0.027057752
53	0xbebf2cd8	-0.373389
54	0xbe3d999e	-0.18515632
55	0xbed7923d	-0.42103758
56	0xbf144d9f	-0.5793094
57	0xbef9bcff	-0.48777005
58	0x3e8a82ad	0.27052823
59	0x3e08d6d1	0.13363196
60	0xbec81f44	-0.39086354
61	0xbe252b3a	-0.16129771
62	0xbf04f8a7	-0.51941913
63	0xbdfd8ab2	-0.1237997
64	0xbef082bc	-0.46974742
65	0xbea59b24	-0.32344925
66	0x3d2a3524	0.041554585
67	0xbd9db1ae	-0.07699905
68	0xbecbfe67	-0.3984253
69	0xbd3f6d72	-0.046735235
70	0xbe4c87c7	-0.1997367
71	0x3dfbaf8e	0.12289344
72	0xbecd07d6	-0.4004504
73	0xbe9e1afb	-0.3087996
74	0xbf0f8b36	-0.56071794
75	0x3f0982e0	0.53715324
76	0xbce5147c	-0.02796387
77	0x3da76d11	0.081751
78	0xbeff6efe	-0.49889368
79	0xbdd75255	-0.105137505
80	0xbd965169	-0.073397465
81	0xbb9de510	-0.004818566
82	0xbf3e18da	-0.7425667
83	0xbec014bd	-0.37515822
84	0x3c6101c4	0.013733331
85	0xbe3d95a7	-0.18514119
86	0x3ec8c94e	0.39216083
87	0x3e3744d6	0.17897353
88	0x3ea04eaa	0.31310016
89	0xbe3e20d8	-0.18567216
90	0x3ec16f21	0.37780097
91	0xbe88985e	-0.26678747
92	0x3e9cd2c0	0.3062954
93	0x3f18a74b	0.5963027
94	0x3efa8b5e	0.48934454
95	0xbee824ec	-0.4534067
96	0xbd8445bf	-0.064586155
97	0x3d23cccd	0.039990235
98	0xbe7a7a63	-0.2446075
99	0xbe802145	-0.25025383
100	0xbf23d770	-0.64000607
101	0xbf0672bf	-0.5251884
102	0x3d7b8c93	0.06141336
103	0x3d42d797	0.047568884
104	0xbe5f70a1	-0.21820308
105	0xbf0dacad	-0.5534161
106	0xbda22d57	-0.07918804
107	0x3df09715	0.117475666
108	0xbe3310da	-0.17486897
109	0xbe9e3669	-0.30900887
110	0xbe1bfef1	-0.15233971
111	0xbde8ceb3	-0.1136755
112	0xbee5bda0	-0.44871235
113	0xbe50f776	-0.20406899
114	0xbf32c8d1	-0.6983767
115	0xbf11ae75	-0.56906825
116	0xbe419cb8	-0.1890744
117	0xbe65728c	-0.22406977
118	0xbf0f7562	-0.56038487
119	0x3d197ec1	0.037474398
120	0xbe03ff92	-0.12890461
121	0x3dc2a1fc	0.09503552
122	0xbf355b03	-0.70842
123	0xbecfe806	-0.40606707
124	0xbf3c06c1	-0.73447806
125	0x3e6d6cd1	0.23186041
126	0xbed113d5	-0.40835443
127	0xbf2a5d6b	-0.66548795

layers.2.weight f4 [64, 128]
0	0xbe318b06	-0.1733819
1	0xbee67a38	-0.4501512
2	0xbe16ee3f	-0.14739321
3	0x3f2f9c9c	0.6859834
4	0xbe4b321e	-0.19843337
5	0xbe327818	-0.17428625
6	0x3e98bf16	0.29833287
7	0x3f0194be	0.5061759
8	0x3df8ad8c	0.121424764
9	0xbd05fb90	-0.03271061
10	0xbd89f9c8	-0.06737095
11	0xbe35a5eb	-0.17739074
12	0x3f0a551f	0.54036134
13	0xbd2dbf97	-0.042419042
14	0xbde021e7	-0.10943966
15	0x3e4970ce	0.19671938
16	0x3b525d40	0.0032099038
17	0x3d9bccbd	0.0760741
18	0x3ecdd4db	0.40201458
19	0xb986ab51	-0.00025686112
20	0xbef58495	-0.47952715
21	0xbd98e833	-0.074661635
22	0xbe6b82fd	-0.22999187
23	0x3f0dbe2c	0.55368304
24	0x3d67276c	0.05643408
25	0xbd089450	-0.033344567
26	0xbe16ff90	-0.14745927
27	0xbf3cacdc	-0.7370126
28	0xbe341a69	-0.175882
29	0x3d5f98a0	0.054588914
30	0xbcc23311	-0.023705991
31	0x3d0c9a4d	0.03432684
32	0xbe4e598f	-0.20151351
33	0x3d743f15	0.059630472
34	0xbdaac6f8	-0.083387315
35	0x3edd17e9	0.43182305
36	0xbe35c35b	-0.17750303
37	0xbeb1cd5a	-0.34726983
38	0xbf3010a1	-0.68775374
39	0x3e0f6586	0.14003572
40	0x3e3df822	0.18551686
41	0x3daff0cf	0.085908525
42	0x3ee8630d	0.4538807
43	0x3eac4e00	0.3365326
44	0xbebd8232	-0.37013394
45	0x3e7df704	0.2480126
46	0x3eaef486	0.34170932
47	0x3d06cde9	0.032911215
48	0xbf1f7d7b	-0.62300843
49	0x3ea2f955	0.3183085
50	0xbce483fc	-0.027894966
51	0xbf1b46db	-0.6065499
52	0xbd8e158f	-0.06937706
53	0x3ec24e00	0.37950134
54	0x3de532b3	0.11191311
55	0xbed78fc2	-0.42101866
56	0xbd300e0e	-0.042982154
57	0x3ccd3ad0	0.025052458
58	0xbe7619a7	-0.24033223
59	0xbe917565	-0.28409877
60	0xbe771634	-0.24129564
61	0xbe594be0	-0.2122035
62	0x3c24aa57	0.010050378
63	0x3e64d375	0.2234629
64	0x3e361591	0.17781664
65	0x3e836a71	0.25667146
66	0x3d0dea54	0.0346473
67	0xbb66202c	-0.003511439
68	0x3db6c1e8	0.089237034
69	0xbebe500b	-0.37170443
70	0x3f911f18	1.1337614
71	0xbce074eb	-0.0273995
72	0x3e1bf80d	0.15231343
73	0x3e6ff1e0	0.23432112
74	0xbe9279f1	-0.2860866
75	0xbf442d55	-0.7663167
76	0xbd9d226d	-0.07672582
77	0xbe8d6b31	-0.27620843
78	0xbd5cf6c9	-0.05394629
79	0x3d8b8822	0.06813075
80	0xbe246994	-0.160559
81	0x3de64927	0.112444215
82	0x3e00554d	0.1253254
83	0x3e00c53c	0.12575239
84	0xbe4c1462	-0.1992965
85	0xbb5fa323	-0.0034124337
86	0xbf21fe42	-0.6327859
87	0x3d98c05b	0.07458564
88	0xbe30459d	-0.17214055
89	0xbe5f7a9f	-0.2182412
90	0xbe1e3cca	-0.15452877
91	0xbe23ecd5	-0.16008313
92	0xbf4ea72d	-0.8072384
93	0xbe598cee	-0.21245167
94	0xbdfd1e7d	-0.12359331
95	0x3d94cdf1	0.07265843
96	0xbd173fa6	-0.036925934
97	0xbe0e0eb2	-0.13872793
98	0xbd804abb	-0.06264254
99	0x3eb5dd72	0.35520512
100	0x3e6f47d6	0.23367247
101	0x3f760433	0.9610016
102	0xbe3ae7bc	-0.18252462
103	0xbe4f7549	-0.20259584
104	0x3be9cc1a	0.0071349265
105	0xbd02fad8	-0.031977504
106	0x3ef24cdb	0.4732426
107	0x3dad9236	0.08475153
108	0x3e8a9d0e	0.27072948
109	0x3de571cd	0.112033464
110	0xbdd54065	-0.10412673
111	0xbd744885	-0.059639473
112	0xbde983d0	-0.11402094
113	0xbc32bc18	-0.010909103
114	0x3f34dde9	0.7065111
115	0x3f051950	0.5199175
116	0xba9ac923	-0.0011809211
117	0x3e793690	0.2433722
118	0xbe593d78	-0.21214855
119	0xbef9c168	-0.4878037
120	0x3ecbefef	0.39831492
121	0x3de18cc4	0.11013177
122	0x3d916398	0.07099074
123	0x3dfebe68	0.12438661
124	0xbe22e087	-0.15905963
125	0xbe865420	-0.26236057
126	0xbe1b2767	-0.1515175
127	0xbe82ba9d	-0.25533
128	0xbccde2e4	-0.025132604
129	0xbe0573df	-0.13032483
130	0x3d77abb7	0.060466494
131	0xbd90b0ab	-0.07064947
132	0xbb924f22	-0.004465
133	0xbe49223d	-0.19641967
134	0xbded5098	-0.11587638
135	0xbfa26878	-1.2688131
136	0xbe740e0f	-0.23833488
137	0x3deb0a04	0.1147652
138	0xbe12479f	-0.14285134
139	0x3d107b0b	0.035273593
140	0xbd2c3160	-0.042039275
141	0xbd8489ae	-0.06471573
142	0x3e905328	0.28188443
143	0x3d1b3265	0.037889857
144	0xbed1e186	-0.40992373
145	0x3c2bb87d	0.010480997
146	0xbdb4797a	-0.08812232
147	0x3d60be38	0.054868907
148	0xbd28fa1f	-0.04125416
149	0x3d5b17a3	0.05348934
150	0xbbb73588	-0.005591098
151	0xa97d253d	-5.6209584e-14
152	0x3d58ba63	0.052912127
153	0x3d2c8c13	0.042125773
154	0xbd493a6d	-0.049127985
155	0xbcdb1148	-0.026741639
156	0xbe8468a0	-0.25861073
157	0xbcf4c7c0	-0.029880404
158	0xbd8f66bc	-0.07002017
159	0x3ddda26a	0.10821994
160	0xbeda3c58	-0.42624164
161	0xbd5a7874	-0.05333753
162	0xbe43a89c	-0.19107288
163	0xbd3298ee	-0.043602876
164	0x3e160a96	0.14652476
165	0x3cadaea8	0.021201447
166	0xbd57d2c4	-0.052691236
167	0xbde974a0	-0.113991976
168	0x3eadfc40	0.33981514
169	0xbc1e3af7	-0.009657613
170	0xbf99ea8e	-1.2024705
171	0xbe396f08	-0.18108761
172	0x3ddc35d1	0.10752452
173	0xbe8ec37a	-0.27883512
174	0xbc275d58	-0.010215126
175	0xbe3e2902	-0.1857033
176	0x3e21e101	0.15808488
177	0xbdff9c89	-0.124810286
178	0x3e55ebfd	0.20890804
179	0xbd79f31a	-0.061022855
180	0x3e8ad8f5	0.2711865
181	0xbd7f57c5	-0.062339563
182	0x3e60437f	0.21900748
183	0xbe16783b	-0.14694302
184	0x3d1687ac	0.03675048
185	0xbcd4aa61	-0.02596015
186	0x3dbf9733	0.09355011
187	0x3c10338a	0.00880135
188	0x3c2f07e0	0.01068303
189	0xbd6c978c	-0.057761714
190	0xbea97076	-0.33093613
191	0xbea17e8c	-0.3154186
192	0x3da410b6	0.08011
193	0xbd116e1f	-0.03550541
194	0xbddfd30b	-0.10928925
195	0xbdf3c8b2	-0.11903514
196	0xbdf97c85	-0.12181953
197	0xbc63c19b	-0.01390114
198	0xbed7645e	-0.42068762
199	0xbe51a937	-0.20474707
200	0x3cd0473b	0.02542459
201	0xbe1b925a	-0.15192547
202	0xbe877d0c	-0.2646259
203	0x3d69f80d	0.057121325
204	0xbdcdbe92	-0.10046114
205	0xbb2a3037	-0.002596868
206	0x3d30a831	0.04312915
207	0x3dfbb41c	0.122902125
208	0x3d853d10	0.065057874
209	0x3c2aa492	0.010415213
210	0xbcb148c3	-0.02164114
211	0x3e3634d6	0.17793593
212	0x3e8cfd26	0.27536887
213	0xbc3ab9f9	-0.011396878
214	0xbc563de5	-0.01307628
215	0xbf0d95df	-0.5530681
216	0xbe33d917	-0.17563282
217	0x3e8154fd	0.25260153
218	0x3df77cdb	0.12084361
219	0x3d1f4740	0.03888631
220	0x3d1d7b72	0.038447805
221	0x3c494197	0.012283704
222	0xbd06b007	-0.032882717
223	0xbc2a525b	-0.010395612
224	0xb9a0056d	-0.0003052162
225	0x3c956cf6	0.018240433
226	0xbe42a578	-0.19008434
227	0xbefdcd2a	-0.4957059
228	0xbe813798	-0.25237727
229	0xbda8cfe5	-0.08242778
230	0x3d867926	0.06566076
231	0xbd98cddd	-0.0746114
232	0x3e7204c4	0.2363463
233	0xbcaaf482	-0.020868544
234	0xbf3ca788	-0.7369313
235	0xbea52186	-0.3225214
236	0xbdf2f292	-0.11862673
237	0xbdb33aa2	-0.08751418
238	0x3e338f03	0.17535023
239	0xbdb59592	-0.08866419
240	0x3cd71f92	0.026260171
241	0xbe4b8101	-0.1987343
242	0xbd9e613c	-0.0773339
243	0x3d1ecd70	0.03877014
244	0xbc9abfae	-0.018890228
245	0xbe2ea0e2	-0.1705356
246	0x3dc99d3e	0.09844445
247	0x3d81663a	0.06318326
248	0x3dd2b7a0	0.1028893
249	0xbe9a086f	-0.3008456
250	0xbe2b9367	-0.16755448
251	0x3d21dee9	0.039519224
252	0x3e1d03a3	0.15333419
253	0xbca3a779	-0.019977318
254	0xbdcbc1d1	-0.09949077
255	0x3cf25b94	0.029584683

layers.2.bias f4 [64]
0	0xbe81ef24	-0.25377762
1	0xbd056f4b	-0.03257684
2	0x3cd7e1f4	0.02635286
3	0xbe6df02e	-0.23236153
4	0xbe12440b	-0.14283769
5	0xadb415bc	-2.0473283e-11
6	0xbd6a8f24	-0.057265416
7	0xb8004c93	-3.0588893e-05
8	0x3bc53bbe	0.0060190847
9	0xbd07278c	-0.0329967
10	0xbdbda6d4	-0.092603356
11	0xbe93750d	-0.2880024
12	0x3e763332	0.24042967
13	0x3e88e5e4	0.26737893
14	0xb4a17192	-3.007122e-07
15	0xbd7d3a86	-0.06182339
16	0xbbfff97a	-0.0078117223
17	0xb99a0983	-0.00029380256
18	0x3dcf9e68	0.101376355
19	0xbe5c4986	-0.21512422
20	0xb6f38974	-7.257966e-06
21	0xbd711590	-0.058858454
22	0x3d478e0e	0.04871946
23	0x3ef04835	0.4693009
24	0xbb0f6508	-0.0021880288
25	0xbdad0436	-0.08448069
26	0xbe15558a	-0.14583412
27	0xbd8a2d07	-0.067468695
28	0x3c1c32ec	0.009533625
29	0xbd7218f8	-0.059105843
30	0x3c988251	0.018616827
31	0x97015bc4	-4.1797973e-25
32	0xb0de3acd	-1.6169338e-09
33	0x3ccc6c37	0.024953945
34	0xbda4b5d6	-0.08042495
35	0xbd93e8cc	-0.07222137
36	0xbd6fbca4	-0.05852951
37	0xbe07eff3	-0.13275127
38	0xbe541dc4	-0.2071448
39	0xbc0a30fe	-0.008434532
40	0xbd47bd42	-0.048764475
41	0x3e223700	0.15841293
42	0x3da3a4ac	0.07990393
43	0x3d3b0b39	0.045665
44	0xbdbf300d	-0.09335337
45	0xbd148019	-0.036254976
46	0xbe879347	-0.2647955
47	0xba0cfe44	-0.00053784647
48	0xbb8afa9c	-0.0042413007
49	0xbdf58a73	-0.11989298
50	0x3da0f97d	0.07860086
51	0xbe5abd82	-0.21361354
52	0x3ce7e3bb	0.028306833
53	0xbb76c7e9	-0.0037655777
54	0x3d4e24d5	0.050328095
55	0xbd19b0a9	-0.037521992
56	0xbdb8b2a6	-0.090184495
57	0xbd9166d9	-0.07099695
58	0xbc5850f0	-0.013202891
59	0x9f73bd5a	-5.161388e-20
60	0xbe4328ab	-0.19058482
61	0x9e2d17df	-9.16348e-21
62	0xbe1e63ed	-0.15467806
63	0xbe333605	-0.17501076

layers.4.weight f4 [64, 64]
0	0xbba20ec6	-0.004945609
1	0xb5222220	-6.039936e-07
2	0xb99bf91c	-0.00029749505
3	0x35da7a85	1.6277924e-06
4	0xba2ce93b	-0.00065960333
5	0x80662075	-9.378864e-39
6	0x01131996	2.7017993e-38
7	0x00687f79	9.59662e-39
8	0xb9d6f43a	-0.00040999224
9	0xb94a784a	-0.00019309032
10	0xb69379de	-4.3951286e-06
11	0x804fb49c	-7.319795e-39
12	0xbad7180e	-0.0016410367
13	0xb7caccea	-2.4175697e-05
14	0x806c513e	-9.947378e-39
15	0x0042b4fa	6.126065e-39
16	0x8088c9f7	-1.2562079e-38
17	0x800b26a7	-1.024056e-39
18	0x3389e9b1	6.422068e-08
19	0xbb0f586a	-0.0021872767
20	0x00b3c311	1.650853e-38
21	0x3424f2a6	1.5361965e-07
22	0xbaf26811	-0.0018494149
23	0xb945aee7	-0.0001885254
24	0x80e65423	-2.1152347e-38
25	0x37568708	1.2786833e-05
26	0x002c2682	4.054576e-39
27	0xba8116a1	-0.0009848663
28	0xb8a9e865	-8.101835e-05
29	0xb6d9f1a6	-6.4952355e-06
30	0xba2e0d0b	-0.0006639517
31	0x000edfd5	1.365993e-39
32	0x00c58b10	1.8141479e-38
33	0xbb4ae44f	-0.0030958836
34	0xb8c4993a	-9.374549e-05
35	0x802e5b2e	-4.257142e-39
36	0x8012c03d	-1.722001e-39
37	0x80afc2be	-1.6141072e-38
38	0xb89c3e75	-7.450293e-05
39	0x39764d8c	0.00023489277
40	0x38c9019c	9.584727e-05
41	0xb9a59a35	-0.00031586146
42	0xbaacb92b	-0.0013177743
43	0xbb1b4dc0	-0.0023697466
44	0xb7e673d9	-2.7472082e-05
45	0x00118a44	1.610804e-39
46	0xbade6b6c	-0.001696927
47	0x010f2522	2.6291593e-38
48	0xba37f542	-0.0007017442
49	0x39809451	0.00024524567
50	0x365c5b30	3.2835633e-06
51	0x0098234a	1.3971655e-38
52	0xb914bb91	-0.00014184254
53	0xbb108062	-0.0022049178
54	0xba2f8ee0	-0.000669701
55	0xba1d3663	-0.0005997179
56	0x810b6332	-2.5601437e-38
57	0xba01d6e6	-0.0004952982
58	0x399208f8	0.00027853972
59	0x00288aea	3.723253e-39
60	0x80a786d3	-1.5384894e-38
61	0x0115b648	2.7497758e-38
62	0x398e3834	0.00027126225
63	0x801f7fd4	-2.892756e-39
64	0xbfbe4a6d	-1.4866463
65	0xbed52851	-0.4163232
66	0x3d78f5eb	0.0607814
67	0xbd7971dc	-0.0608996
68	0xbd8a97ac	-0.0676721
69	0x005f1278	8.730997e-39
70	0xbc8c2d86	-0.017111551
71	0xb9312d82	-0.00016896988
72	0xbe45ff83	-0.19335751
73	0xbf11042d	-0.56646997
74	0x3e400ba8	0.18754447
75	0x3e08d712	0.13363293
76	0x3ea46c22	0.3211375
77	0x3e1e6ba2	0.15470746
78	0x35c5a797	1.4726419e-06
79	0x3c84ea85	0.016225109
80	0x3ae8dfe8	0.0017766925
81	0xb856fdd3	-5.1257968e-05
82	0xbdb71f38	-0.089415014
83	0xbe99d9dc	-0.30049026
84	0xb752c9a4	-1.25639235e-05
85	0x3edcbb5f	0.43111703
86	0x3cbfd627	0.023417545
87	0x3ebf211f	0.37329957
88	0x36267e75	2.4809535e-06
89	0x3c680098	0.014160298
90	0x3eadbfd2	0.3393541
91	0xbe553c05	-0.20823677
92	0xbf0a203d	-0.5395544
93	0x3d87635d	0.06610749
94	0xbea77a2f	-0.32710406
95	0x9242f141	-6.1512975e-28
96	0xaccbac97	-5.7887683e-12
97	0xbe298277	-0.16553675
98	0x3cb44c1b	0.022008946
99	0xbba25d80	-0.0049549937
100	0xbd2f9ba4	-0.04287304
101	0x3d3135d9	0.043264244
102	0xbeee55b3	-0.46549758
103	0x3ecede6d	0.40404072
104	0x3e97b810	0.29632616
105	0xbc7e97ba	-0.015539104
106	0x3e6defdf	0.23236035
107	0x3d517d38	0.05114481
108	0x3e0e74f7	0.13911806
109	0xbc275a1a	-0.010214353
110	0xbe9d48ab	-0.30719504
111	0x3c4a4844	0.012346331
112	0x3e135c5c	0.14390701
113	0xbe5440fd	-0.20727916
114	0xbf1819e1	-0.5941449
115	0x3de959d8	0.113940895
116	0xbdf9e074	-0.12201014
117	0x3dbd362c	0.09238848
118	0xbd8814eb	-0.06644615
119	0x3e78298a	0.24234596
120	0xbe11f031	-0.14251782
121	0xbd9aa6a6	-0.07551317
122	0xbcb66ae6	-0.02226777
123	0x004bf4d8	6.975496e-39
124	0xbd99100b	-0.07473763
125	0x9f80132d	-5.424183e-20
126	0xbe42221f	-0.18958329
127	0xbcf2af0b	-0.029624483
128	0xbcf432f6	-0.029809456
129	0xba7bbd9f	-0.0009603146
130	0xbd34eea4	-0.044172898
131	0xbae49545	-0.0017439505
132	0xbd762e0f	-0.06010252
133	0x801aaec8	-2.450423e-39
134	0xba8dfc1b	-0.001083258
135	0x80a842e3	-1.5452358e-38
136	0x3cbb7171	0.022881242
137	0x8005ff06	-5.50663e-40
138	0x3a806efe	0.0009798703
139	0xbd1f8e4c	-0.038954064
140	0x3c8c6587	0.017138256
141	0x3d06fd26	0.032956265
142	0x80d4d4d0	-1.9545468e-38
143	0x3911818d	0.00013876539
144	0x018a7a67	5.086883e-38
145	0x8048a354	-6.670747e-39
146	0x00257de0	3.443069e-39
147	0xbd9b9869	-0.07597429
148	0x00f26f60	2.2264144e-38
149	0xbd64ab90	-0.055827677
150	0xbddde73f	-0.10835122
151	0x3c75b891	0.014997617
152	0x8173496f	-4.4684737e-38
153	0xb077f6c0	-9.020873e-10
154	0xbc87f1ce	-0.016594794
155	0xbca80064	-0.020507999
156	0x3d078650	0.033087075
157	0xbbf38280	-0.0074313283
158	0x26185465	5.284997e-16
159	0x00aa7d99	1.565709e-38
160	0x1701d5d2	4.1952027e-25
161	0xbd87ae36	-0.06625025
162	0xb7bd1668	-2.254099e-05
163	0xbd2e85ab	-0.042607944
164	0x38ea10ed	0.00011161142
165	0xbab67c15	-0.0013922477
166	0x3c124ef4	0.008929957
167	0x3a15953c	0.00057061366
168	0xbc4a0774	-0.0123308785
169	0xbd50b9b4	-0.05095835
170	0x3d0ba9bc	0.03409742
171	0xbcf94ecf	-0.030433087
172	0xbb686615	-0.0035461236
173	0x80bf87c5	-1.7589285e-38
174	0x3c440eaa	0.011966387
175	0x0038f399	5.230174e-39
176	0xb91e656a	-0.00015105834
177	0xb54b75a4	-7.579458e-07
178	0x3dbe18ac	0.092820495
179	0xbcec1727	-0.028819634
180	0x3b6539fa	0.0034977184
181	0xbca15222	-0.019692484
182	0xbd8d3a6d	-0.068959095
183	0xbd589fac	-0.05288665
184	0x3a0bc17d	0.0005331261
185	0x3bb0eeb5	0.00539955
186	0xb6a07895	-4.782409e-06
187	0x80c2feea	-1.7907532e-38
188	0x9dbbc340	-4.970037e-21
189	0x1b2b57c5	1.4173148e-22
190	0xbbc1a670	-0.0059097335
191	0x3b5f6ebf	0.003409311
192	0x801330db	-1.7624e-39
193	0x00cba753	1.870263e-38
194	0xb675fc38	-3.6654656e-06
195	0xa3e94c8d	-2.5294331e-17
196	0x9eb3e370	-1.9046428e-20
197	0x016e838e	4.3808082e-38
198	0x806c5c5d	-9.951367e-39
199	0x01453951	3.6224308e-38
200	0x8621804b	-3.037499e-35
201	0x9b596dee	-1.798534e-22
202	0x00ac9852	1.5850348e-38
203	0x000767af	6.80043e-40
204	0x972cf715	-5.588806e-25
205	0x08e14b11	1.3559343e-33
206	0x8098b250	-1.4022962e-38
207	0x80f4f06b	-2.2494107e-38
208	0x018805a6	4.9966615e-38
209	0x0136cfa0	3.3577084e-38
210	0x9f13e323	-3.1316344e-20
211	0xad138011	-8.384419e-12
212	0x0072217d	1.048126e-38
213	0x80e3f7a2	-2.0935492e-38
214	0xb6a05bc4	-4.7790545e-06
215	0x98e841eb	-6.0037155e-24
216	0x005e711d	8.673114e-39
217	0xa6568d10	-7.443734e-16
218	0x005cfb23	8.538957e-39
219	0xb60aeedb	-2.0702635e-06
220	0x96b23598	-2.8791273e-25
221	0xb38f5bcf	-6.675656e-08
222	0xb1497145	-2.9313736e-09
223	0x8093132b	-1.3506694e-38
224	0x007e57cd	1.160277e-38
225	0xaecd1e55	-9.327709e-11
226	0xab85b4c3	-9.50039e-13
227	0x8188179c	-4.999239e-38
228	0x81af115a	-6.4309746e-38
229	0x80bc849c	-1.7312645e-38
230	0x0024eb70	3.390537e-39
231	0x002ecd2b	4.298033e-39
232	0x80792951	-1.1126917e-38
233	0xb6c36fa5	-5.82445e-06
234	0x816b3132	-4.319798e-38
235	0xb2844213	-1.539687e-08
236	0xaa13380a	-1.3075665e-13
237	0x801d3d04	-2.685118e-39
238	0x9633c074	-1.4520232e-25
239	0x009ae2bb	1.4224002e-38
240	0xaeb3a659	-8.169527e-11
241	0x009bd2f2	1.4310175e-38
242	0xa9954711	-6.629257e-14
243	0x8047a363	-6.578932e-39
244	0xb1ad22ca	-5.0389177e-09
245	0xafaaba56	-3.105522e-10
246	0xb8975b01	-7.217192e-05
247	0x95b8d21e	-7.4648515e-26
248	0x01ac344d	6.325787e-38
249	0x08d6e4f2	1.2933481e-33
250	0xab2e83e5	-6.200026e-13
251	0x003120ef	4.511754e-39
252	0x00a953f4	1.5550316e-38
253	0x008a4870	1.2699284e-38
254	0x00b0ee5f	1.6248559e-38
255	0x81a4d9b2	-6.0556463e-38

layers.4.bias f4 [64]
0	0xbb88cd13	-0.0041748374
1	0x3ee92cc8	0.45541978
2	0x3b7468e9	0.0037293977
3	0xb0b44696	-1.3116785e-09
4	0x3e6d099c	0.23148197
5	0x3dc3cd5a	0.09560652
6	0x3de0a0c0	0.10968161
7	0x3e1c802a	0.15283266
8	0xbeafd7e8	-0.3434441
9	0x3cb95140	0.02262175
10	0xbc897f0a	-0.01678421
11	0xad92a0a8	-1.6669624e-11
12	0x3e4ba30e	0.19886419
13	0xbd36be43	-0.04461504
14	0xbd34747c	-0.0440564
15	0xbdc6fb7f	-0.09715938
16	0xbee006f4	-0.43755305
17	0x3e23fab3	0.16013603
18	0x3e348dde	0.17632243
19	0x3e8992c2	0.2686978
20	0xbcba717e	-0.022759195
21	0x3c9c892d	0.01910838
22	0x3ea0e9ff	0.31428525
23	0xbdcfcea9	-0.10146839
24	0xbde74428	-0.11292297
25	0x3e981f94	0.29711592
26	0x3d060a9c	0.03272496
27	0x3ea3ba18	0.31977916
28	0xbeb951ff	-0.3619537
29	0x3e4ab06c	0.19793862
30	0x3e45b701	0.19308092
31	0x3c4a6915	0.012354155
32	0x3d3b1a5a	0.045679428
33	0xbe17184a	-0.1475536
34	0x3ca49b7c	0.020093672
35	0xbd9d2b19	-0.07674236
36	0xbc121411	-0.008915917
37	0x3bcf575d	0.006327553
38	0xbde768fd	-0.11299322
39	0xbc0a0b9d	-0.00842562
40	0xbd557056	-0.052109085
41	0xbb9dde0c	-0.00481773
42	0xbdb8675b	-0.090040885
43	0x3b54d6bd	0.0032476627
44	0x3e0ae8eb	0.13565414
45	0x3dd33b28	0.103140175
46	0xbd4e3ca2	-0.050350793
47	0xbd3ba873	-0.045814943
48	0x3d9d32ea	0.07675727
49	0xbc064082	-0.008194091
50	0x3edf1686	0.43571872
51	0xbdad10e8	-0.0845049
52	0xba19810c	-0.00058557163
53	0x3e9fb994	0.31196272
54	0xbc4f7bc7	-0.012663788
55	0x3e3ca085	0.18420608
56	0x3f223e46	0.6337627
57	0xbda26942	-0.079302326
58	0x3e5e8bcf	0.2173302
59	0xbdb7ccbe	-0.08974598
60	0x3dce810d	0.10083208
61	0x3e015c61	0.12632896
62	0x3eb4cd08	0.35312676
63	0x3e73e956	0.2381948

layers.6.weight f4 [32, 64]
0	0x3af99f47	0.0019044661
1	0x3e839f14	0.25707304
2	0x3dcede3a	0.1010098
3	0xa2a50e89	-4.473873e-18
4	0xbe2799f2	-0.16367319
5	0x3d250c00	0.040294647
6	0x3db16dce	0.08663522
7	0x3e66c9ae	0.22537872
8	0xbd1ac342	-0.03778387
9	0x3c291c4f	0.010321691
10	0x3d2c6abe	0.042093985
11	0x8090a88a	-1.3284772e-38
12	0xbd2c41ba	-0.04205487
13	0xbc559036	-0.013034871
14	0xbbf19339	-0.0073722866
15	0x3e1fb2da	0.1559557
16	0xbe22191c	-0.15829891
17	0xbd51d4b1	-0.05122823
18	0xbf226220	-0.63430977
19	0xbe7c7fba	-0.24658099
20	0xbf1d8a5a	-0.6153923
21	0xbd9386e8	-0.07203466
22	0x3c0a3d6e	0.008437498
23	0xbd4160a3	-0.0472113
24	0xbdf8d87a	-0.12150665
25	0xbced5942	-0.028973226
26	0x3c902fc3	0.0176009
27	0xbdfbe967	-0.12300377
28	0xbe8ac4ef	-0.27103373
29	0x3d934a3a	0.07191892
30	0x3e6f8c5d	0.23393388
31	0xbe2a413c	-0.16626447
32	0x3d528c2b	0.051403206
33	0x3b9a781d	0.0047140257
34	0x3d3f536f	0.046710428
35	0x3d9b8a00	0.07594681
36	0xa732daf4	-2.4821157e-15
37	0x3c69cca9	0.014269986
38	0x3e5270bb	0.20550816
39	0x3d8c2e7e	0.06844805
40	0x3d00fdcf	0.03149205
41	0x3adf2921	0.0017025807
42	0x3ea20ec0	0.31651878
43	0xbc977272	-0.018487189
44	0xbd8eaa48	-0.06966072
45	0xbc735317	-0.014851353
46	0xba5586ca	-0.00081453903
47	0x3c67282b	0.014108698
48	0xb981d2d3	-0.00024761874
49	0xba576651	-0.00082168455
50	0xbde4e47e	-0.11176394
51	0x3cf28369	0.029603677
52	0x3a2328e1	0.0006224048
53	0xbc61e571	-0.013787613
54	0x385cec2c	5.267204e-05
55	0xbeed1e2d	-0.46312085
56	0xbf65aa7f	-0.8971328
57	0xbd70374d	-0.05864649
58	0x3d1c1725	0.03810801
59	0xb5d172eb	-1.5605159e-06
60	0x3d95d1ed	0.07315431
61	0x3d9bc450	0.07605803
62	0xbcb49436	-0.022043329
63	0x3d546b42	0.0518601
64	0x38b729b4	8.733888e-05
65	0x3c44baba	0.01200741
66	0xbad2a0fb	-0.0016069704
67	0x80664adf	-9.394079e-39
68	0x3d637bd9	0.055538032
69	0x3c0e4180	0.008682609
70	0xbcaa0a62	-0.020756904
71	0xbd1fbe79	-0.03900001
72	0xbcc33c30	-0.02383241
73	0x3d6df731	0.05809707
74	0x3122b3c2	2.3676283e-09
75	0x8119e114	-2.8263147e-38
76	0xbc388985	-0.011263256
77	0xbbb4c135	-0.005516196
78	0xbc8831bb	-0.016625276
79	0x3d264d15	0.040600855
80	0x3d3fed58	0.046857208
81	0xbca364c5	-0.019945512
82	0x3d84059a	0.06446381
83	0x3e28fcd6	0.165027
84	0x3e1681eb	0.14697997
85	0xbd37d409	-0.044879947
86	0x3d8302c2	0.063970104
87	0x3be6fd1d	0.0070492164
88	0xbc97878f	-0.018497257
89	0xbbaf4dac	-0.0053498354
90	0x3c841e4e	0.016127732
91	0xbd0ac83b	-0.03388236
92	0x3ce2e20b	0.027695676
93	0xbc9bd268	-0.019021228
94	0xbc731603	-0.014836791
95	0xbba96044	-0.0051689465
96	0x3d18f216	0.037340246
97	0xb812b470	-3.4977158e-05
98	0xbce5136f	-0.027963368
99	0x3cbaab79	0.022786843
100	0xa0141f76	-1.2546497e-19
101	0xbd63bf78	-0.05560252
102	0xbc9b5210	-0.018960029
103	0x3c4e3fbb	0.012588437
104	0xbbc43b46	-0.0059885113
105	0x80a45b50	-1.5093778e-38
106	0xbcabdffb	-0.020980826
107	0x3d1e7c66	0.038692854
108	0xbde798d1	-0.11308444
109	0xbdc38a66	-0.09547882
110	0x00014bbc	1.19004e-40
111	0xbd57c9df	-0.052682754
112	0xbd296f68	-0.04136601
113	0x814cdc0e	-3.7626764e-38
114	0x3de0e454	0.1098105
115	0x3d935649	0.07194192
116	0x01723ca3	4.4491885e-38
117	0x3ccaa46b	0.024736604
118	0x819efd83	-5.8403805e-38
119	0xbd012cb7	-0.031536784
120	0xbba3ee54	-0.005002776
121	0xbd33be37	-0.043882575
122	0xbd218de5	-0.03944196
123	0x010f55b2	2.6326435e-38
124	0xbca238af	-0.01980242
125	0xbc53f02b	-0.0129356785
126	0x3e126529	0.14296402
127	0xbc4d977f	-0.0125483265
128	0x39b1cacc	0.00033911166
129	0x3e5e101c	0.21685833
130	0x3d101688	0.035177737
131	0x014b73de	3.7368342e-38
132	0x3d44d160	0.048051238
133	0xbd038e60	-0.0321182
134	0xbddc65ba	-0.1076159
135	0xbd892515	-0.06696526
136	0xa594c789	-2.5809118e-16
137	0xbd04be23	-0.03240789
138	0xb7dd6668	-2.639294e-05
139	0x0035ef5f	4.953151e-39
140	0x3d006ee0	0.03135574
141	0xbbb130cd	-0.005407429
142	0x3c449497	0.011998317
143	0xbcd62a17	-0.026143117
144	0xbde15488	-0.11002451
145	0xbda54123	-0.080690645
146	0xbf11f2ed	-0.570113
147	0xbe2accb5	-0.16679652
148	0xbd4ddaf6	-0.050257646
149	0xbdcf9d8a	-0.1013747
150	0xbdbdd96c	-0.092699856
151	0xbd0603dc	-0.032718524
152	0xbcf514e9	-0.029917197
153	0x3d7453f6	0.059650384
154	0xbe027a3b	-0.1274194
155	0xbaf7e3ec	-0.001891253
156	0xbe800b2a	-0.25008518
157	0xbe814d59	-0.25254324
158	0x3d8c4dd4	0.06850782
159	0xbe59a069	-0.21252598
160	0xbdaeb6f0	-0.08530986
161	0x37513aab	1.24710305e-05
162	0x3d3eb20c	0.046556517
163	0x3d0dd46e	0.034626417
164	0x19fd1e0a	2.617172e-23
165	0xbcf7aa56	-0.03023259
166	0x3e08475b	0.1330847
167	0xbe8cbfd1	-0.27490094
168	0x3d1f3ddf	0.038877364
169	0x366de84c	3.5450967e-06
170	0xbd0e8f14	-0.03480442
171	0xbb8c0158	-0.004272621
172	0xbd8df61d	-0.06931708
173	0xbbc1893b	-0.0059062517
174	0xb83dba1e	-4.5234447e-05
175	0x3dbddfff	0.092712395
176	0x3c070d0f	0.0082428595
177	0x81940f6a	-5.438873e-38
178	0xbef99b98	-0.4875152
179	0x3d0d0bd6	0.034435116
180	0x2a91a5f6	2.5872333e-13
181	0xbdea89ce	-0.114520654
182	0x910b948f	-1.1010945e-28
183	0x01ba7f30	6.8508114e-38
184	0xbf1fd64f	-0.62436384
185	0x3c7ee001	0.015556336
186	0xbde20a54	-0.11037126
187	0xba84c2cf	-0.0010128858
188	0xbdb3f54b	-0.0878702
189	0xbc6a754a	-0.01431019
190	0x3d2730cf	0.040818032
191	0xbd45251c	-0.048131093
192	0xba294bf1	-0.00064581545
193	0x3f04933f	0.5178718
194	0xbd1ed982	-0.03878165
195	0xae2d8a47	-3.945846e-11
196	0xbf218c10	-0.63104343
197	0x3d97ba32	0.07408561
198	0xbd769963	-0.060204875
199	0x3d6da238	0.058016032
200	0x3c83e658	0.016101047
201	0x3c6c1a51	0.014410571
202	0xbbba8013	-0.005691537
203	0x8076fe91	-1.092791e-38
204	0xbd919c9f	-0.07109951
205	0xbcaa1f5a	-0.020766903
206	0xbc23e5e9	-0.010003545
207	0x3df71bda	0.12065859
208	0xbe90af6c	-0.28258836
209	0x3e07bc84	0.13255507
210	0xbf3ef549	-0.74593025
211	0xbe5c70fb	-0.21527474
212	0xbecb70ad	-0.39734402
213	0x3dc44512	0.095834866
214	0xbe21dda4	-0.15807205
215	0xbbb7aeec	-0.005605569
216	0x3d4e5c35	0.050380904
217	0x3d617293	0.055040907
218	0xbe051e27	-0.12999783
219	0x3dcb84fd	0.09937475
220	0xbe30040b	-0.17189042
221	0xbdc0f4fc	-0.09421727
222	0x3ea5a91e	0.3235559
223	0xbcd92b32	-0.026509855
224	0xbcffb1ac	-0.03121265
225	0x3d738ec7	0.059462335
226	0x3e1811b0	0.14850497
227	0xbe80f5e7	-0.2518761
228	0x32f2d298	2.8268275e-08
229	0x3d9fa1e8	0.07794553
230	0xbadb607f	-0.0016737132
231	0x3ca41af9	0.020032393
232	0x3d2ea55f	0.04263818
233	0xbaab8b11	-0.001308771
234	0x3eb7271a	0.3577202
235	0x3ca2ba7b	0.019864311
236	0xbeb4a454	-0.35281622
237	0x3d11bb14	0.035578802
238	0xbba14487	-0.004921499
239	0x3db00ecd	0.08596573
240	0x3e1c8b6c	0.1528756
241	0x38e4ceb9	0.00010910392
242	0xbd9ccddc	-0.07656452
243	0xbc574f19	-0.013141417
244	0x39426a61	0.00018540911
245	0x3e3ae4c6	0.18251333
246	0x39b1125f	0.00033773758
247	0xbeea67ea	-0.45782405
248	0xbfbb3b88	-1.4627542
249	0x3e498fe4	0.19683796
250	0xbd9f980f	-0.07792675
251	0xa2c0e4f9	-5.228414e-18
252	0x3df51bc1	0.11968184
253	0x3dfaef34	0.122526556
254	0xbe17595f	-0.14780186
255	0x3d4f8a9b	0.050669294

layers.6.bias f4 [32]
0	0x3ef09c76	0.4699437
1	0x3b88fb57	0.0041803527
2	0x3eab9487	0.33511755
3	0x3e2c72be	0.16840646
4	0x3d816205	0.06317524
5	0xb8eda8bb	-0.00011332469
6	0xbaf2c639	-0.001852221
7	0xa70c6941	-1.9485961e-15
8	0xbcc26540	-0.02372992
9	0xbd587554	-0.052846268
10	0xbdbcfc94	-0.09227863
11	0xbe01a45b	-0.12660353
12	0xbce378bf	-0.027767537
13	0xbe0d6b0d	-0.13810368
14	0xbd601d71	-0.054715578
15	0x3e213d12	0.15745953
16	0xbc7caac7	-0.015421576
17	0x3e24a49b	0.16078417
18	0x3e59f753	0.21285753
19	0x3e98de22	0.29856974
20	0x3ca00b3c	0.019536607
21	0xbd3a651d	-0.045506585
22	0xbb4e4af8	-0.003147779
23	0xbc9d7281	-0.019219639
24	0x3ee26e35	0.44224706
25	0x3ce4dbc1	0.027936818
26	0xbe0282b4	-0.12745172
27	0x3d7f9bdf	0.06240451
28	0x3e89e8bc	0.26935375
29	0xbdaa5be1	-0.08318306
30	0x3e490bc5	0.19633396
31	0xbdb4bac3	-0.088246845

layers.8.weight f4 [32, 32]
0	0x3cc8440b	0.024446508
1	0xbca26797	-0.019824786
2	0xbdd5e21c	-0.104435176
3	0x3e3cb6a0	0.18429041
4	0xbdda3f51	-0.10656608
5	0x35408ba3	7.172877e-07
6	0x3bfb8f53	0.0076769977
7	0xb0c05552	-1.3994088e-09
8	0x3def2d10	0.11678517
9	0xbda401d2	-0.0800816
10	0xbbbf57fb	-0.0058393455
11	0xbd42479f	-0.047431584
12	0x3b651931	0.0034957642
13	0x3b1e6003	0.0024166114
14	0x3b059441	0.0020382556
15	0x3d59e840	0.053200006
16	0xbbcda3cc	-0.0062756296
17	0xbe1179e9	-0.14206661
18	0xbc3b262c	-0.011422675
19	0x3dc03a62	0.09386136
20	0xbc59525e	-0.013264267
21	0xbc212010	-0.009834304
22	0x36eb9b85	7.0216506e-06
23	0xb53d0498	-7.041467e-07
24	0xbc792a1d	-0.0152077945
25	0xbca9c617	-0.02072434
26	0x388efd54	6.818274e-05
27	0xbd3922da	-0.045199253
28	0x3e57dcc7	0.21080314
29	0x3c41496a	0.011797288
30	0x3d21e56f	0.039525446
31	0x3cf3a9fa	0.029744137
32	0xbed6f155	-0.41980997
33	0x3d038716	0.03211125
34	0xbf103c72	-0.5634223
35	0xbea9a0f1	-0.331306
36	0x3e9a5d60	0.30149364
37	0xbbab0774	-0.0052193943
38	0xbc0a536a	-0.008442739
39	0xb6638819	-3.3904855e-06
40	0x3e83f4ba	0.2577265
41	0x3e19cb05	0.15018852
42	0xbe0312f2	-0.12800196
43	0xbc49d155	-0.012317975
44	0xbce931bd	-0.0284661
45	0x3e9b037b	0.30276093
46	0x3cc73a29	0.024319725
47	0xbe7c6df1	-0.24651314
48	0x36fbe195	7.506644e-06
49	0x3eb98e09	0.36241177
50	0xbe884663	-0.266162
51	0xbd8f25f9	-0.069896646
52	0xbd0b922a	-0.03407494
53	0xbcb0a6b0	-0.021563858
54	0xbb8c6508	-0.004284505
55	0xbbb15569	-0.005411793
56	0xbdf0fa26	-0.11766462
57	0xbd75ae6d	-0.0599808
58	0x3e91c15a	0.28467828
59	0x3ede045e	0.43362707
60	0x3da26721	0.079298265
61	0xbc4398f8	-0.011938326
62	0xbeec30f2	-0.46131092
63	0x3cb2796f	0.02178642
64	0x3e1d9983	0.15390591
65	0xbabb3620	-0.0014283098
66	0x3dd95aa5	0.10612992
67	0x3e945161	0.28968337
68	0xbeb7f190	-0.35926485
69	0x3ae702e2	0.001762476
70	0x3c5d7485	0.01351655
71	0xb5820d45	-9.689617e-07
72	0x3d24c123	0.040223252
73	0x3caca445	0.021074424
74	0x3b8dd075	0.0043278285
75	0xbd5684d4	-0.05237277
76	0xbbe6ac33	-0.0070395707
77	0xbda5c4ff	-0.08094215
78	0xbb5e7f30	-0.0033950321
79	0x3e63d8a3	0.22250609
80	0xbc3ff5bf	-0.011716305
81	0xbdf32b03	-0.11873438
82	0xbd58a6bf	-0.052893396
83	0x3e1e8374	0.15479833
84	0xbb913b23	-0.0044320985
85	0x3ba402b8	0.005005207
86	0xba480682	-0.0007630364
87	0x37e7a9d6	2.7616432e-05
88	0x3e23bf87	0.1599103
89	0xbdbb1546	-0.09134917
90	0xbe8092df	-0.25112054
91	0xbdddaf69	-0.108244725
92	0x3eb5ebd0	0.35531473
93	0x3ccb50d3	0.024818813
94	0x3d47924c	0.048723504
95	0x3c057379	0.008145207
96	0xbc844ca1	-0.01614982
97	0x23d3c456	2.2959817e-17
98	0xaaa65586	-2.9546867e-13
99	0xbc8ad757	-0.016948385
100	0xba6951a8	-0.00089004124
101	0x802c0489	-4.042389e-39
102	0x018a627a	5.08345e-38
103	0x01ac44cd	6.3281546e-38
104	0xbac9a615	-0.0015384579
105	0xb9a1d9ca	-0.00030870578
106	0x81474e84	-3.660686e-38
107	0x004d82ac	7.11821e-39
108	0x9f30cc84	-3.743862e-20
109	0x3868bf56	5.5491306e-05
110	0x81993710	-5.6282334e-38
111	0xbc95f038	-0.018303022
112	0x819d2826	-5.77303e-38
113	0xbb82cf02	-0.0039919624
114	0xa992540e	-6.4982836e-14
115	0xbcb03fd3	-0.021514809
116	0x015e9906	4.088475e-38
117	0x81541275	-3.8951493e-38
118	0x012207dd	2.9760342e-38
119	0x01a5395f	6.069375e-38
120	0xbca688c7	-0.020328892
121	0x0123cd08	3.0085474e-38
122	0x3b470493	0.0030367717
123	0xbbdb1c98	-0.0066867582
124	0xbcbc8a28	-0.023015097
125	0x204fce32	1.7601806e-19
126	0x22cd5235	5.56524e-18
127	0x1d5e8abb	2.9453177e-21
128	0xba51f46c	-0.0008009139
129	0x81a5466a	-6.0712467e-38
130	0x0123d4a9	3.0090948e-38
131	0xbade8610	-0.001697721
132	0xb05ad806	-7.9614926e-10
133	0x01a16004	5.9279835e-38
134	0x80a80974	-1.5431754e-38
135	0x003b2f6c	5.435306e-39
136	0xb6401283	-2.8621005e-06
137	0xb76849ed	-1.384549e-05
138	0x018541d8	4.8950965e-38
139	0xb69c3418	-4.655227e-06
140	0x9e0cb9ff	-7.450001e-21
141	0x162b0938	1.3816179e-25
142	0x019c64ec	5.7450165e-38
143	0xbaf31b4b	-0.0018547563
144	0x8072210c	-1.0481102e-38
145	0xb89d310f	-7.495481e-05
146	0x811c521b	-2.8711583e-38
147	0xbb8ea4dc	-0.004353149
148	0x80511923	-7.447693e-39
149	0x81320235	-3.269502e-38
150	0x80407a23	-5.921286e-39
151	0x81940880	-5.437881e-38
152	0xbab7e41e	-0.0014029776
153	0x016bf4f4	4.3338428e-38
154	0xae62a352	-5.1531508e-11
155	0xb8be9bc3	-9.088919e-05
156	0xbc90f5c6	-0.017695319
157	0x80e852c0	-2.133552e-38
158	0xb98a61e2	-0.0002639434
159	0x8196c568	-5.538456e-38
160	0xbdabdff5	-0.08392326
161	0xbd2da06e	-0.042389326
162	0xbdae0321	-0.084966905
163	0x3d4b31ed	0.04960816
164	0x3eaa0406	0.33206195
165	0x233505be	9.813246e-18
166	0x8c2e996b	-1.345064e-31
167	0x00c55f05	1.812568e-38
168	0x3db7f43c	0.08982131
169	0xbd48c84c	-0.049019143
170	0x3d3a998e	0.045556597
171	0xbc8bc593	-0.017061984
172	0x3c8ea211	0.017411264
173	0x3f4f6038	0.81006193
174	0xbc08932f	-0.008335873
175	0x3d595b51	0.0530656
176	0xb1a63e2c	-4.838304e-09
177	0xbd9de1b1	-0.07709063
178	0x3c55f76e	0.01305948
179	0x3d00fe49	0.031492505
180	0x890f5380	-1.725226e-33
181	0x35e6ac6f	1.718652e-06
182	0x88973718	-9.100934e-34
183	0x153ec7b0	3.852772e-26
184	0xbd52f77e	-0.05150556
185	0xb3c63228	-9.229217e-08
186	0x3e33d7a4	0.17562729
187	0xbc9ee5c4	-0.01939667
188	0xbe11ee1c	-0.14250988
189	0x3cd0a7b8	0.0254706
190	0xbd25a94a	-0.04044465
191	0xbce5fd03	-0.028074747
192	0x3d4dd4ca	0.05025176
193	0x3c8aa6c8	0.01692523
194	0xbe481a54	-0.19541293
195	0x3db1c5c6	0.086803004
196	0xbe872697	-0.2639663
197	0x38910c95	6.9164824e-05
198	0x3c29e486	0.010369426
199	0xb1eb19e5	-6.842344e-09
200	0xbd951487	-0.07279306
201	0xbd03e394	-0.032199457
202	0x3b825932	0.003977918
203	0x3d8e4997	0.0694763
204	0x3c51ee28	0.0128131285
205	0xbddafc2a	-0.10692628
206	0xbb2572f8	-0.0025245529
207	0x3d5cc02d	0.05389421
208	0xbbffb787	-0.0078038606
209	0xbdd5d661	-0.1044128
210	0xbca42c26	-0.020040583
211	0x3e4017ec	0.18759125
212	0xbc4a277a	-0.0123385135
213	0xbb13a14a	-0.0022526556
214	0x38025635	3.1074702e-05
215	0x3b9c4125	0.004768508
216	0x3e34602c	0.17614812
217	0xbd2884fa	-0.04114244
218	0xbe098f75	-0.13433631
219	0x3d4f8f97	0.050674047
220	0x3e6a1425	0.22859247
221	0x3d776053	0.060394596
222	0x3cb71885	0.022350559
223	0x3a38587d	0.0007032229
224	0xb09b5d1d	-1.1304199e-09
225	0x80376a33	-5.08905e-39
226	0x00615939	8.94005e-39
227	0xb3876b75	-6.305974e-08
228	0x013f8abc	3.5180697e-38
229	0x80ba7004	-1.7121586e-38
230	0x0064ce80	9.257628e-39
231	0x01391fe6	3.400202e-38
232	0x91524560	-1.6587457e-28
233	0x80a2909a	-1.4929224e-38
234	0x80032c2d	-2.91354e-40
235	0x01aed310	6.4220365e-38
236	0x0074e5b8	1.0735325e-38
237	0x81a9a7f2	-6.2321785e-38
238	0x80f874eb	-2.2817145e-38
239	0xb4651b7d	-2.1337287e-07
240	0x00b1f268	1.6341842e-38
241	0xa93c04bf	-4.1748502e-14
242	0x00843e4b	1.2144632e-38
243	0xb72905cf	-1.0074537e-05
244	0x80e209c0	-2.075832e-38
245	0x00514ee2	7.466973e-39
246	0x8063b4e0	-9.1566e-39
247	0x015d9c24	4.0703315e-38
248	0xb4892e0f	-2.555175e-07
249	0x80dbb5dc	-2.0177213e-38
250	0x83354046	-5.32649e-37
251	0xa2f50859	-6.641622e-18
252	0xba475385	-0.0007603693
253	0x8122b850	-2.9886938e-38
254	0x012648a4	3.0541502e-38
255	0x0035bd40	4.935171e-39

layers.8.bias f4 [32]
0	0x3e3bc9bf	0.18338679
1	0x3eb4dbaf	0.35323855
2	0x3efd1dff	0.49436948
3	0xbca023d5	-0.019548336
4	0xba00febd	-0.00049207715
5	0xbe1cccb7	-0.15312468
6	0x3ea2d652	0.31804138
7	0xadc54ffd	-2.2431829e-11
8	0xbc6a7383	-0.014309767
9	0xaad9edd6	-3.8711975e-13
10	0x3eae488e	0.3403973
11	0xbc92ca7b	-0.017918816
12	0xba372ffd	-0.0006988047
13	0x3e0b3948	0.1359607
14	0xbcca7dd7	-0.024718208
15	0xba3b0ccf	-0.00071353925
16	0xba21f503	-0.0006178172
17	0x3ed2a39f	0.41140458
18	0xb4142475	-1.3796837e-07
19	0xbbb76f0a	-0.0055979537
20	0xae9a065c	-7.004239e-11
21	0xbd2041f5	-0.0391254
22	0xae3e7914	-4.3308537e-11
23	0xbba2149d	-0.004946305
24	0x9dffd5cb	-6.7718995e-21
25	0x3e351311	0.17683055
26	0xbb9e7454	-0.0048356447
27	0xb14a4ee4	-2.9439713e-09
28	0x3e85405f	0.26025674
29	0xbc8d06dc	-0.017215185
30	0xb600dedc	-1.9203208e-06
31	0x3e18f06f	0.14935468

layers.10.weight f4 [16, 32]
0	0xad785595	-1.4116171e-11
1	0xa768bf78	-3.2300263e-15
2	0xb4ca8d5a	-3.772828e-07
3	0x010c66bc	2.5787647e-38
4	0x00c4bb88	1.8067031e-38
5	0x00cb57b1	1.8674063e-38
6	0xb112c639	-2.1358473e-09
7	0x8063eefa	-9.177443e-39
8	0x802c55f7	-4.0716e-39
9	0x00693f1e	9.665369e-39
10	0xaaf50abc	-4.352819e-13
11	0x00404d5a	5.90522e-39
12	0x01907f16	5.3079605e-38
13	0xab364d9c	-6.4767094e-13
14	0x00aff8e8	1.6160503e-38
15	0x019dc094	5.794903e-38
16	0x80978e44	-1.3918195e-38
17	0xb1d47b4d	-6.1840297e-09
18	0x006dc22c	1.0079725e-38
19	0x001d6eff	2.703047e-39
20	0x0089e22a	1.2662595e-38
21	0x81862004	-4.9269766e-38
22	0x0077bc4a	1.099597e-38
23	0x803a5f12	-5.360564e-39
24	0x80f79d0c	-2.2739705e-38
25	0x0049b706	6.769648e-39
26	0x80b602a2	-1.6715005e-38
27	0x00eefda4	2.1947837e-38
28	0xa5c1fc41	-3.3651097e-16
29	0x005310c7	7.628365e-39
30	0x8162cb1f	-4.1655377e-38
31	0xa93d7a97	-4.207276e-14
32	0xbb15339e	-0.0022766362
33	0xbb12dbf8	-0.0022408944
34	0xbb5a5a01	-0.0033317807
35	0x017f1592	4.685158e-38
36	0x80f20875	-2.2227224e-38
37	0x3217669a	8.812686e-09
38	0xbb0d0203	-0.0021516092
39	0x8006aefe	-6.13788e-40
40	0xa38445a7	-1.4340968e-17
41	0x818d1e78	-5.183894e-38
42	0x3a8eff75	0.0010909872
43	0x804f9a52	-7.310364e-39
44	0x014dd516	3.7805435e-38
45	0xbb257156	-0.0025244555
46	0x888f2dfe	-8.617312e-34
47	0x81afd6bf	-6.4592993e-38
48	0x0108c3fc	2.5119867e-38
49	0xbaeac21c	-0.0017910632
50	0x80d8ad08	-1.9898539e-38
51	0x00cf7f38	1.9055585e-38
52	0x80744bd3	-1.0680118e-38
53	0x819dc19e	-5.795052e-38
54	0x006982a8	9.689598e-39
55	0x011642c8	2.7598562e-38
56	0x8179ce85	-4.5882248e-38
57	0xb8a19fbd	-7.706832e-05
58	0x80a56976	-1.5190689e-38
59	0x0070f6cf	1.0374114e-38
60	0x38842606	6.301333e-05
61	0x00932a57	1.3515007e-38
62	0x80308243	-4.454833e-39
63	0xba9d4f7d	-0.0012001839
64	0xafaf7efa	-3.1922537e-10
65	0x9e35f4b8	-9.632667e-21
66	0xb60267e2	-1.9431977e-06
67	0x008a0f21	1.2678726e-38
68	0x805487b7	-7.762867e-39
69	0x812c7262	-3.1673476e-38
70	0xb2be4619	-2.2150788e-08
71	0x0056e19e	7.978789e-39
72	0x81a9572e	-6.220589e-38
73	0x009cc90a	1.4398457e-38
74	0xaf3619f2	-1.6562021e-10
75	0x01338d94	3.2978685e-38
76	0x803de1ef	-5.683015e-39
77	0xae272a6c	-3.8009082e-11
78	0x818ee09c	-5.248486e-38
79	0x010bd910	2.5686003e-38
80	0x8024fdc8	-3.397117e-39
81	0xb3be930c	-8.874312e-08
82	0x0033a2d3	4.74202e-39
83	0x80fb75c1	-2.3092952e-38
84	0x00a26bf3	1.4916075e-38
85	0x80d9440d	-1.9952715e-38
86	0x8084545e	-1.2152551e-38
87	0x00426566	6.097518e-39
88	0x809dd191	-1.4493351e-38
89	0x810450ba	-2.430249e-38
90	0x8083ba30	-1.2097241e-38
91	0x00464edf	6.456778e-39
92	0xa84212e4	-1.077326e-14
93	0x81396bfe	-3.4056614e-38
94	0x00e129ad	2.0677937e-38
95	0xaac57631	-3.5076241e-13
96	0x3e2f602a	0.17126527
97	0xbf195ee1	-0.599104
98	0x3e9028a8	0.28156018
99	0x3b7f4712	0.0038952273
100	0xbbc42db8	-0.0059868954
101	0x3caee786	0.021350633
102	0x3e4a1ec8	0.19738305
103	0x3c6a2999	0.014292144
104	0xbd8c9479	-0.068642564
105	0x0b9833ae	5.862603e-32
106	0x3e0c4e0a	0.13701645
107	0xbcb9f66e	-0.022700515
108	0x3c8af413	0.016962087
109	0x3e3bf67d	0.18355747
110	0x3cb31429	0.021860199
111	0xbc090e09	-0.008365163
112	0x38d582fe	0.00010181031
113	0x3df85e50	0.12127364
114	0x3aeb145c	0.0017935145
115	0xbc812f6a	-0.01576968
116	0xa6b7b636	-1.2747564e-15
117	0xbcb5cc1b	-0.022192052
118	0x22bf7f66	5.1905542e-18
119	0xbb02200a	-0.0019855523
120	0xb5c72432	-1.483719e-06
121	0xbeb8d82e	-0.36102432
122	0x3bf21292	0.0073874677
123	0xb8c5994a	-9.422244e-05
124	0xbd272177	-0.0408034
125	0xbca72cf3	-0.020407176
126	0x00eb39de	2.16021e-38
127	0x3d51333f	0.051074263
128	0xb0a7cae9	-1.220852e-09
129	0x00119e43	1.617977e-39
130	0xb58d78d2	-1.0540482e-06
131	0x801b9b7c	-2.535336e-39
132	0x80632b12	-9.107165e-39
133	0x81254c24	-3.0360342e-38
134	0xb30b7fac	-3.2479576e-08
135	0x002494f8	3.359518e-39
136	0x8037dd95	-5.130441e-39
137	0x803a64ad	-5.362574e-39
138	0xaf4f1449	-1.8833747e-10
139	0x80c31dac	-1.7918566e-38
140	0x004f6f8e	7.295022e-39
141	0xaf378d12	-1.6693871e-10
142	0x014038a1	3.530546e-38
143	0x008593da	1.226716e-38
144	0x802a232a	-3.869705e-39
145	0xb38356ff	-6.1159874e-08
146	0x013c9830	3.4639336e-38
147	0x800f4f41	-1.405963e-39
148	0x80ffd005	-2.3492675e-38
149	0x01962f4d	5.516917e-38
150	0x00b8b5ea	1.696299e-38
151	0x807f91d7	-1.1715425e-38
152	0x80d2d766	-1.9362725e-38
153	0x80dd70fc	-2.0336176e-38
154	0x00717864	1.0420599e-38
155	0x805dff1d	-8.632219e-39
156	0xab524b54	-7.4711526e-13
157	0x007f67a1	1.1700283e-38
158	0x01a9c078	6.2356975e-38
159	0xae14ddc3	-3.3848268e-11
160	0x3dda7586	0.10666947
161	0xbeb2a47c	-0.34891117
162	0x3d8c1805	0.06840519
163	0x3b0e73b7	0.0021736452
164	0x3b92002b	0.0044555864
165	0xbdca05d4	-0.09864393
166	0x3d691a0a	0.0569096
167	0x3b8d88f5	0.004319305
168	0x3d100020	0.03515637
169	0x80763a83	-1.0857579e-38
170	0x3d78ea85	0.06077053
171	0xbd1c4a8c	-0.03815703
172	0x3c37a8ba	0.011209661
173	0x3dc852d8	0.09781426
174	0x3cfba34b	0.030717513
175	0xbb07b403	-0.002070666
176	0x3bc9000f	0.00613404
177	0x3e39c4ea	0.18141523
178	0x39be573f	0.00036304627
179	0xbb013f98	-0.0019721743
180	0xa720ce24	-2.231621e-15
181	0x3bc7ebf6	0.006101127
182	0x2fd2a9fa	3.8319553e-10
183	0xb8f3d5ed	-0.0001162699
184	0xab97fc19	-1.0799166e-12
185	0xbd9649ae	-0.07338272
186	0xbb537892	-0.003226791
187	0xb6f7b6d3	-7.382457e-06
188	0x3d5d6600	0.054052353
189	0xbc9ea0db	-0.019363811
190	0xa8391514	-1.02741336e-14
191	0x3c8baf67	0.017051412
192	0x3d7843ad	0.060611416
193	0xbe830e37	-0.25596783
194	0x3e82bd26	0.25534934
195	0x3c24132b	0.010014336
196	0x3b685c98	0.003545558
197	0x3e1035a1	0.14082958
198	0x3def1574	0.11674014
199	0x3c6a7755	0.014310678
200	0x3d05780d	0.032585192
201	0x869654be	-5.6548246e-35
202	0x3d4689c3	0.048471224
203	0xbcfd7019	-0.030937241
204	0x3cd3dbdc	0.025861673
205	0x3d81e2c7	0.063420825
206	0xbd79f995	-0.061029036
207	0x3b80dbc9	0.0039324504
208	0x3b3fea8d	0.002928409
209	0x3e8bd6e7	0.27312395
210	0x3b2b76ef	0.002616342
211	0x3c10595d	0.008810368
212	0xac96c347	-4.2849366e-12
213	0x3c569fbf	0.01309961
214	0x35af898f	1.3078551e-06
215	0x3a88ef26	0.0010447248
216	0xb589d890	-1.0270323e-06
217	0x3d77ea27	0.06052604
218	0x3c18c0f2	0.0093233455
219	0x3a16c262	0.0005751011
220	0x3d8e7f07	0.06957822
221	0xbcc54f38	-0.024085626
222	0x36fa0edd	7.452311e-06
223	0x3db4fd13	0.088373326
224	0xbc6aa247	-0.0143209165
225	0xbb6cc81a	-0.0036130012
226	0xbc6c828d	-0.014435423
227	0x0148cc98	3.6880987e-38
228	0x011fad58	2.9328056e-38
229	0x39836c15	0.00025066794
230	0xbc6a6d60	-0.014308304
231	0x81336dbe	-3.2955844e-38
232	0x807ec964	-1.1643518e-38
233	0x80de4857	-2.0413431e-38
234	0xbc6accdb	-0.014331068
235	0x8143c3f8	-3.5956444e-38
236	0x81586163	-3.9742806e-38
237	0xbc6b0ea5	-0.014346753
238	0x8141bde8	-3.5584753e-38
239	0x809e24ee	-1.4523256e-38
240	0x8040329a	-5.895624e-39
241	0xbc6b82e4	-0.0143744685
242	0x004252a0	6.090783e-39
243	0x007dc9f6	1.1551887e-38
244	0x81676c12	-4.2505536e-38
245	0x009c56f6	1.4357533e-38
246	0x809102a4	-1.3317094e-38
247	0x01023bdc	2.3920176e-38
248	0x800843b7	-7.58975e-40
249	0x3a124e74	0.00055811484
250	0x808b4d0f	-1.2792777e-38
251	0x804e92a9	-7.21578e-39
252	0xbc58342f	-0.013196035
253	0x001b2989	2.494458e-39
254	0x01095d68	2.5229942e-38
255	0xbc68c79f	-0.01420775
