Compression_Test_MLP/models/model8_25ep_L2reg_increasedLR.pth (torch, 75182 bytes, 15 tensors)

layers.0.weight f4 [128, 8]
-0.0032203326 0.058683436 -0.029335361 0.010136498 -0.025036933 0.0232921 -0.0059257476 0.0074663186
-2.1701957e-05 -1.4105149e-05 -6.2282386e-05 -1.3289037e-06 -6.423366e-06 1.475135e-11 -7.656075e-06 5.870807e-05
-0.09823679 -0.05921634 0.007580918 -0.039791957 0.0028703716 -0.004748724 -0.006584134 0.029102871
-0.10595872 -0.0041147266 -0.005829953 0.0028819581 9.131527e-05 0.00037876487 -0.030888967 -0.013533772
0.12953421 0.056598503 0.21028748 -0.0026888987 -0.052826002 0.17765857 0.075136796 0.038006954
-0.064434074 0.12690297 0.06366387 -0.06730233 -0.028273692 -0.007791758 0.035379328 0.021655375
-0.14626193 0.19224247 0.15484549 0.28277275 0.10518482 0.39780104 0.013349103 0.17839238
-7.858679e-05 -0.005934818 -0.002776626 0.00015458252 -0.0010390832 -1.1333848e-09 -0.00078121456 0.00021543013
-0.07946401 -0.04865457 -0.07300047 0.0141502535 -0.041333966 -0.059558786 0.017230332 0.026613956
0.095375255 0.11394515 -0.20125903 -0.10913584 0.013447797 0.013087134 -0.03598817 0.045376718
-0.01610008 -0.028861618 -0.03422506 0.009904396 -0.057090938 -0.05279369 0.021931715 0.02762531
0.00027222696 -0.00026210502 -0.001967254 -0.0046236967 -0.0003747644 0.00016794275 0.0009247235 0.00052672264
-0.049444187 -0.00049039524 -0.04496635 0.02636134 -0.037177958 -0.13285819 -0.022517422 -0.016075814
0.42799157 0.34439865 0.47504434 -0.1624936 0.1066215 -4.5947576 -0.8130469 -0.7237635
-0.60785633 0.25484496 -0.08415679 0.42676184 -0.8775072 0.7557157 0.8997525 0.6400897
-0.31360003 0.059338603 0.20194751 -0.27453068 0.18075085 -0.10170171 0.11301458 0.15748416
-0.0017085086 0.0023153385 -0.0015509815 8.5164684e-05 0.0006687468 -7.3290903e-06 0.0019840398 0.0034946997
-1.1711423 0.26856333 0.6145147 -0.38594115 0.26978374 -0.009889077 -0.8881627 0.3853296
-0.00020215676 0.00014380476 -5.2070805e-05 7.6353257e-07 0.00018703913 7.719475e-10 0.0012650382 -0.0013141374
-1.8907754 -0.1718852 -0.13821387 0.55112714 0.19917682 -0.461758 0.7022396 0.55779046
-0.02859104 0.036390893 -0.012283603 -0.032996017 0.018371709 -0.11007019 0.027586758 0.023775544
-0.045229964 -0.049703352 0.09910031 -0.13465986 -0.33953607 0.001971793 0.01273131 0.11790562
-0.018837627 -0.0018285399 -0.0063693365 0.0019085613 -0.028399458 -0.016661782 -0.003740917 0.013012054
-0.039500467 0.010921573 0.008161181 -0.0056386148 0.007317334 0.001814472 -0.005362271 0.013620331
-0.49666855 -0.09486791 0.007923489 -0.8606373 -0.010219041 4.6537323 0.38578242 0.28921163
-0.2165085 -0.15918624 -0.21364571 0.24081935 0.20442171 -0.0143880425 0.035147414 -0.04017485
-0.010671408 0.054848794 0.023839213 -0.029914366 0.010036013 0.00078108837 0.011142992 0.0012589477
-0.003414525 -0.021799482 -0.0020589642 3.7041943e-06 -0.011330305 -0.023924503 0.00069556857 0.0025483072
0.18634264 0.03896404 -0.079067 0.18533768 -0.06706014 -0.20715307 -1.9879775 0.7972347
0.61619496 -0.35347223 -0.3295719 0.5330692 0.12311939 0.1068916 -0.07510248 -0.016174765
-0.26202536 -0.16165793 -0.16803612 -0.018467166 0.04427311 -0.033272732 -0.08733496 -0.12268334
-0.1568059 -0.083765745 -0.102656245 0.013467996 0.03802183 -0.032231554 0.0803528 -0.061021756
00000000: 370c 53bb 0b5e 703d b650 f0bc 8e13 263c
00000010: 411a cdbc 13cf be3c c62c c2bb 05a8 f43b
00000020: 990c b6b7 27a5 6cb7 9a9d 82b8 c95c b2b5
00000030: 4b88 d7b6 16c1 812d 9772 00b7 4f3d 7638
00000040: 5f30 c9bd d58c 72bd 5969 f83b e4fc 22bd
00000050: d81c 3c3b 2f9b 9bbb b8bf d7bb 2569 ee3c
00000060: e300 d9bd d4d4 86bb 3109 bfbb 3cdf 3c3b
00000070: 8380 bf38 f694 c639 dc0a fdbc c1bc 5dbc
00000080: 9ea4 043e d5d3 673d 9a55 573e 3c38 30bb
00000090: 1460 58bd 21ec 353e 52e1 993d 2ead 1b3d
000000a0: 03f6 83bd daf2 013e 3462 823d ced5 89bd
000000b0: 3b9e e7bc 0152 ffbb eae9 103d 9d66 b13c
000000c0: b0c5 15be 36db 443e d18f 1e3e 97c7 903e
000000d0: 246b d73d 94ac cb3e 32b6 5a3c 7eac 363e
000000e0: f6ce a4b8 dd78 c2bb 0ef8 35bb 6e17 2239
000000f0: d931 88ba 6fc5 9bb0 6cca 4cba 16e5 6139
00000100: 07be a2bd 044a 47bd 4581 95bd 77d6 673c
00000110: ce4d 29bd eaf3 73bd a026 8d3c 8305 da3c
00000120: 1a54 c33d 135c e93d d916 4ebe 9c82 dfbd
00000130: 2654 5c3c 6b6b 563c 5568 13bd f0dc 393d
00000140: 51e4 83bc 336f ecbc 942f 0cbd 0c46 223c
00000150: 30d8 69bd 323e 58bd 24aa b33c 794e e23c
00000160: afb9 8e39 246b 89b9 0ced 00bb 6182 97bb
00000170: 077c c4b9 ca19 3039 2569 723a c213 0a3a
00000180: fd85 4abd de8d 00ba a32e 38bd bdf3 d73c
00000190: ea47 18bd fa0b 08be 7576 b8bc 6db1 83bc
000001a0: b621 db3e 0555 b03e 0339 f33e b964 26be
000001b0: 5f5c da3d 4108 93c0 d723 50bf 9148 39bf
000001c0: 799c 1bbf 0a7b 823e 655a acbd 8780 da3e
000001d0: 50a4 60bf 9676 413f 2e56 663f ebdc 233f
000001e0: 2f90 a0be 090d 733d 54cb 4e3e 498f 8cbe
000001f0: c016 393e fc48 d0bd 3074 e73d 8743 213e
00000200: 09f0 dfba efbc 173b 4e4a cbba 719a b238
00000210: d74e 2f3a 68ec f5b6 aa06 023b 5507 653b
00000220: fee7 95bf 2281 893e d650 1d3f 149a c5be
00000230: 1821 8a3e cc05 22bc a15e 63bf ec49 c53e
00000240: 0bfa 53b9 4cca 1639 9a66 5ab8 8ff5 4c35
00000250: ef1f 4439 fa30 5430 a3cf a53a 223f acba
00000260: ee04 f2bf ad02 30be f087 0dbe ab16 0d3f
00000270: 02f5 4b3e 8b6b ecbe f9c5 333f 5bcb 0e3f
00000280: c237 eabc 9e0e 153d 2a41 49bc d526 07bd
00000290: 4480 963c 7b6c e1bd a0fd e13c eec4 c23c
000002a0: 0e43 39bd be95 4bbd 1af5 ca3d 46e4 09be
000002b0: acd7 adbe 3239 013b fc96 503c 8078 f13d
000002c0: 5e51 9abc 9eab efba deb5 d0bb b128 fa3a
000002d0: fba5 e8bc 4a7e 88bc 2c2a 75bb 8330 553c
000002e0: 3ecb 21bd 66f0 323c 79b6 053c 21c4 b8bb
000002f0: 3fc6 ef3b 94d3 ed3a fdb5 afbb cf27 5f3c
00000300: 574b febe 1b4a c2bd 86d1 013c ba52 5cbf
00000310: c46d 27bc 60eb 9440 4685 c53e 8c13 943e
00000320: 67b4 5dbe b801 23be f1c5 5abe 5999 763e
00000330: ed53 513e d3bb 6bbc bcf6 0f3d 628e 24bd
00000340: 21d7 2ebc 21a9 603d 744a c33c f90e f5bc
00000350: 176e 243c f4c1 4c3a 1991 363c 4603 a53a
00000360: 39c6 5fbb d494 b2bc b0ef 06bb 9395 7836
00000370: bea2 39bc 52fd c3bc d156 363a 8001 273b
00000380: 9bd0 3e3e c298 1f3d e1ed a1bd 29c9 3d3e
00000390: d456 89bd ef1f 54be 0c76 febf 9317 4c3f
000003a0: f4be 1d3f 50fa b4be a6bd a8be 3977 083f
000003b0: 0526 fc3d fce9 da3d 54cf 99bd f180 84bc
000003c0: 3028 86be a889 25be a911 2cbe 7448 97bc
000003d0: b857 353d fd48 08bd acdc b2bd 6741 fbbd
000003e0: ba91 20be 608d abbd 703d d2bd dfa8 5c3c
000003f0: c7bc 1b3d 3c05 04bd 0290 a43d f3f1 79bd

layers.0.bias f4 [128]
-0.23046173 -0.00032229314 -0.21494801 -0.24387485 -0.33809993 -0.3509764 -0.32697394 -0.021454811
-0.34205684 -0.46715155 -0.1927469 -0.006915195 -0.27237463 -0.048281405 -0.38829747 -0.77022594
-0.015011056 -1.5758818 -0.007255322 -0.38902223 -0.24988803 -0.483537 -0.083134554 -0.14520913
1.2931789 -0.23156616 -0.124699146 -0.07607611 -0.4061366 -1.085291 -0.22015803 -0.5857135
-0.29589015 -0.008931679 -0.26193142 0.19467354 -0.23603979 -0.46337968 -0.481628 0.13631731
-0.715548 -1.880946 -0.3280805 -0.7641402 -0.5070974 -0.27984127 -0.018635465 -0.18660924
-0.37693736 -0.0675491 -0.44028273 -0.27831188 -0.22894089 -0.109477766 -0.47300535 -0.037566606
-0.31710926 -0.51125145 0.4096494 -0.402309 -0.20329398 -0.8179123 -0.6148157 -0.41686964
-0.35706687 -0.48719165 -0.41379043 -0.5438211 -1.1092015e-06 -0.7278964 -0.64711034 -0.19069941
-3.198629e-14 -0.14348225 -0.42760235 -1.1640327 -0.31772962 -0.19378862 -0.46819863 -0.9807216
-0.37527198 -0.18874827 -1.523952 -1.7449738 -0.0114257615 -0.15373391 -0.5503909 -0.17704114
-0.2674932 -0.19219744 -0.4053557 -1.868625 -0.0095827095 -0.00011285856 -0.8997044 -0.68255585
-0.005508805 -0.2233003 -0.7954661 -1.2506939 -0.017987745 -0.9091153 -0.54414415 -0.38486907
-0.22707853 -1.2492452 -0.2937222 -0.07115344 -0.4649288 -0.54073465 -0.18269981 -1.3533368
-0.5492315 -2.1332298e-07 -0.02099556 -0.55013406 -0.009263641 -0.01730528 0.03883227 -0.025464341
-0.052433196 -0.44426093 -0.42480218 -0.3513183 -0.023987433 -0.4775661 -0.5154562 -0.4907946
00000000: 29fe 6bbe 74f9 a8b9 551b 5cbe 54ba 79be
00000010: 6f1b adbe 2eb3 b3be 2169 a7be 00c2 afbc
00000020: 1322 afbe 7d2e efbe 715f 45be dc98 e2bb
00000030: b074 8bbe b9c2 45bd edce c6be 872d 45bf
00000040: eff0 75bc 7fb6 c9bf 0dbe edbb ec2d c7be
00000050: a6e2 7fbe 2992 f7be 7342 aabd b4b1 14be
00000060: e386 a53f ae1f 6dbe 4462 ffbd cbcd 9bbd
00000070: 23f1 cfbe d1ea 8abf 1b71 61be 52f1 15bf
00000080: ea7e 97be 2d56 12bc e01b 86be 8058 473e
00000090: 6ab4 71be 1a40 edbe f297 f6be c496 0b3e
000000a0: 272e 37bf d7c2 f0bf 2bfa a7be b19e 43bf
000000b0: 23d1 01bf 5b47 8fbe 67a9 98bc 7e16 3fbe
000000c0: effd c0be 2f57 8abd bd6c e1be e57e 8ebe
000000d0: 7b6f 6abe e135 e0bd c22d f2be 71df 19bd
000000e0: 255c a2be 60e1 02bf 91bd d13e 72fb cdbe
000000f0: 4c2c 50be b362 51bf 9064 1dbf f06f d5be
00000100: 78d1 b6be 2f71 f9be 57dc d3be dc37 0bbf
00000110: e0df 94b5 6b57 3abf 06a9 25bf b546 43be
00000120: ae0d 10a9 03ed 12be b2ee dabe 06ff 94bf
00000130: 75ad a2be 8670 46be bbb7 efbe 9210 7bbf
00000140: a623 c0be 3a47 41be dc10 c3bf 4d5b dfbf
00000150: 1e33 3bbc 6c6c 1dbe 6be6 0cbf 464a 35be
00000160: def4 88be 68cf 44be c88a cfbe 1b2f efbf
00000170: cc00 1dbc 7aae ecb8 0753 66bf fbbb 2ebf
00000180: 3583 b4bb d5a8 64be aba3 4bbf bd16 a0bf
00000190: 095b 93bc c8bb 68bf 084d 0bbf 8f0d c5be
000001a0: 4687 68be 44e7 9fbf c262 96be e5b8 91bd
000001b0: 260b eebe 966d 0abf a915 3bbe 243a adbf
000001c0: 709a 0cbf c60d 65b4 e1fe abbc 96d5 0cbf
000001d0: 87c6 17bc cdc3 8dbc 960e 1f3d 989a d0bc
000001e0: 31c4 56bd 2b76 e3be ac7f d9be fedf b3be
000001f0: 4b81 c4bc 8b83 f4be f0f4 03bf 6e49 fbbe

layers.2.weight f4 [64, 128]
1.237851e-39 2.33025e-40 -1.45577e-40 2.111008e-13 -4.49269e-40 2.0745e-41 3.01309e-40 -9.4051e-41
-6.72794e-40 -5.00621e-40 1.090895e-39 1.255146e-39 -8.32534e-40 -1.5128705e-09 2.0328089e-23 -1.261672e-39
-1.95941e-40 3.6977372e-36 3.12232e-40 -4.0493317e-11 1.2105862e-38 1.2992e-40 4.42691e-40 6.64975e-40
-8.3115566e-07 7.0619e-40 1.301846e-39 -1.399005e-39 -6.414902e-07 -6.980867e-13 1.012699e-39 1.12418e-40
3.1101567e-07 -3.71191e-40 1.340401e-39 1.21593e-39 -1.268298e-39 -3.76735e-40 8.86945e-40 -1.015423e-09
-2.3987485e-07 8.823768e-09 -5.403778e-39 -9.38081e-40 4.63096e-40 -1.292691e-39 1.81095e-40 3.88949e-40
1.94715e-40 -6.14702e-40 -1.35158e-39 1.048241e-39 -4.44209e-40 -1.03493e-40 2.07883e-40 -5.3105e-40
2.16331e-40 4.09517e-40 -5.1960538e-17 1.224176e-39 4.86135e-39 -1.274226e-15 1.255175e-39 2.557604e-39
-1.23073e-40 -2.8661226e-11 -2.23913e-40 -1.2462489e-11 -8.7064e-41 -3.6514198e-19 -1.091675e-19 8.07875e-40
-6.25915e-40 -1.305406e-39 -1.1189e-40 2.39217e-40 -1.308568e-39 2.995e-42 -6.54251e-40 -2.7751118e-15
-7.69477e-40 -1.34518e-39 -6.794447e-09 -3.3408688e-25 1.418473e-39 -7.63867e-40 -3.461813e-39 6.02379e-40
5.14791e-40 3.6082e-41 2.87416e-40 -5.074123e-15 6.2321e-41 -3.8488e-41 -2.3801992e-26 -7.4729e-40
3.9453e-40 -1.02738e-40 1.74476e-40 -4.6770858e-11 5.481173e-39 -4.5997533e-22 1.13878e-40 6.96801e-40
3.4772255e-11 -1.0429487e-06 9.62143e-40 6.270716e-07 -1.336274e-39 8.63151e-40 4.8009e-40 2.5075764e-11
-7.17406e-40 3.38062e-40 -1.291088e-39 -7.05827e-40 5.6551e-41 1.25719e-39 -5.590979e-05 3.39933e-40
-2.34364e-40 5.89931e-40 7.189e-41 2.25547e-40 7.11045e-40 -8.05843e-40 1.7855116e-25 1.201988e-39
-1.65722e-40 4.23743e-40 -4.09811e-40 -4.2639214e-38 -1.65748e-40 -3.0832656e-05 -3.8007e-41 -2.8760625e-38
3.1001122e-38 -7.86842e-40 -1.6901e-41 -3.75325e-40 1.8050675e-38 -1.7471444e-05 -6.224137e-06 4.58188e-40
1.039571e-39 6.16634e-40 -1.229062e-39 -0.00034355698 -4.33601e-40 -3.49515e-40 -2.62212e-40 4.3844614e-07
-0.0044217445 -2.28234e-40 -1.1424076e-38 6.75915e-40 -0.0033649977 -2.8288233e-07 5.641309e-38 4.9687e-40
1.85749e-40 -2.01221e-40 -1.2634284e-37 7.03505e-40 -4.87485e-40 9.44219e-40 2.8643988e-12 -0.00021178863
-0.00033053142 3.490989e-06 1.73388e-40 -9.35487e-40 2.2466e-40 -8.72371e-40 -1.302035e-39 -3.5159e-41
4.1399117e-30 -2.80474e-40 -1.009019e-39 -3.8023e-41 -2.75949e-40 7.7358e-40 2.8123875e-38 1.6502761e-38
3.20809e-40 5.5919e-41 -0.00043641386 -2.2378837e-38 -1.260158e-39 -3.050471e-07 7.641546e-10 5.73899e-40
-2.4424226e-30 1.9239415e-05 8.96248e-40 -6.763961e-05 3.7664e-40 4.7662596e-08 -3.7621796e-06 1.059372e-39
9.20959e-40 1.2256611e-38 -5.42317e-40 1.3035898e-14 -3.6818e-41 -2.6433455e-21 1.223688e-39 -7.1337958e-09
3.889e-41 5.95144e-40 0.0007361367 -1.0990318e-15 -1.057725e-39 -5.50457e-40 -1.342836e-39 2.54186e-40
-4.24539e-40 7.86264e-40 -7.1022e-41 -4.5086742e-12 -3.29689e-40 1.77839e-40 -8.5198285e-19 1.139057e-39
-1.2385283e-38 -1.8496798e-38 -5.548673e-06 -1.2110857e-05 1.285128e-39 -6.5771997e-07 -2.70173e-40 5.77461e-40
-1.2928078e-07 -0.00044700707 7.541884e-39 1.69023e-40 -1.221013e-39 -2.28716e-40 3.9695e-40 -5.945517e-08
2.82065e-40 3.62285e-40 4.64392e-40 1.179494e-39 2.9278635e-38 -2.64655e-40 -0.0033234998 -9.52217e-40
1.185392e-39 1.9765e-41 4.4065e-41 -1.231853e-39 -1.44163e-39 -4.43683e-40 1.8448977e-08 -8.0299e-41
00000000: a07a 0d00 9489 0200 cf95 0180 aaad 6d2a
00000010: 61e4 0480 d439 0000 ed47 0300 2d06 0180
00000020: 7a53 0780 8773 0580 f9e0 0b00 d6aa 0d00
00000030: c410 0980 66ed cfb0 e999 c419 07bd 0d80
00000040: 3422 0280 cb48 9d04 6066 0300 6c17 32ae
00000050: 38d2 8300 2a6a 0100 0bd2 0400 ae3d 0700
00000060: 951c 5fb5 92b0 0700 042d 0e00 db3b 0f80
00000070: df32 2cb5 737e 44ab fe06 0b00 6039 0100
00000080: abf9 a634 bb0a 0480 7e98 0e00 853d 0d00
00000090: 80cf 0d80 2f1a 0480 71a8 0900 058f 8bb0
000000a0: 26c8 80b4 5897 1732 89d7 3a80 fd36 0a80
000000b0: ec0a 0500 7f13 0e80 d2f8 0100 3b3c 0400
000000c0: c91e 0200 8ab1 0680 a8b7 0e80 126a 0b00
000000d0: 46d6 0480 7f20 0180 7e43 0200 5ac8 0580
000000e0: 0b5b 0200 9175 0400 2da0 6fa4 8154 0d00
000000f0: 77ef 3400 a4a2 b7a6 ebaa 0d00 8fd9 1b00
00000100: 1457 0180 581b fcad 2e70 0280 103e 5bad
00000110: b3f2 0080 b28a d7a0 dae1 00a0 07cc 0800
00000120: ccd0 0680 f136 0e80 e737 0180 d79a 0200
00000130: c13f 0e80 5908 0000 c91f 0780 c7f7 47a7
00000140: fd60 0880 d1a5 0e80 9674 e9b1 2eca ce96
00000150: 2072 0f00 5a51 0880 20b2 2580 308f 0600
00000160: 079b 0500 9564 0000 3321 0300 86d0 b6a7
00000170: baad 0000 4a6b 0080 38b9 eb94 2423 0880
00000180: ca4b 0400 641e 0180 5ee6 0100 4eb3 4dae
00000190: 48af 3b00 de04 0b9c 723d 0100 6696 0700
000001a0: 14ee 182e 72fb 8bb5 107a 0a00 0854 2835
000001b0: fd8c 0e80 1d66 0900 4c3a 0500 9a91 dc2d
000001c0: d6cf 0780 61ae 0300 070f 0e80 8faf 0780
000001d0: a49d 0000 89b0 0d00 ae80 6ab8 98b3 0300
000001e0: 508d 0280 7d6c 0600 66c8 0000 bc74 0200
000001f0: 1bbe 0700 5dc6 0880 1f09 5d16 a716 0d00
00000200: f7cd 0180 399d 0400 6376 0480 6426 6881
00000210: 0ace 0180 5052 01b8 f369 0080 7696 1c81
00000220: 42c9 2801 6591 0880 1d2f 0080 4116 0480
00000230: f08d c400 a48f 92b7 eed8 d0b6 3efd 0400
00000240: e751 0b00 edb6 0600 2062 0d80 701f b4b9
00000250: b4b8 0480 4ece 0380 f1da 0280 9463 eb34
00000260: 48e4 90bb 397c 0280 ad65 7c80 2d5c 0700
00000270: 4b87 5cbb 0ddf 97b4 3092 9901 1269 0500
00000280: cb05 0200 ec30 0280 0ef8 2b82 16a9 0700
00000290: e94e 0580 1948 0a00 6c90 492c 9413 5eb9
000002a0: 2d4b adb9 bc46 6a36 56e3 0100 c22f 0a80
000002b0: 4372 0200 d17f 0980 8b2d 0e80 0262 0080
000002c0: 4def a70e d90d 0380 bcfc 0a80 fe69 0080
000002d0: 3c01 0380 6d6c 0800 f61e 1901 fcb2 b300
000002e0: 497e 0300 e19b 0000 7ace e4b9 18af f380
000002f0: cfb8 0d80 5bc5 a3b4 990c 5230 cc3f 0600
00000300: 2227 468e 5464 a137 60c2 0900 bdd9 8db8
00000310: eb19 0400 94b5 4c33 c179 7cb6 1989 0b00
00000320: 4207 0a00 7276 8500 c2e7 0580 78d5 6a28
00000330: a266 0080 bdb9 479d 2553 0d00 881d f5b1
00000340: 696c 0000 057b 0600 4cf9 403a 1e63 9ea6
00000350: 8284 0b80 73fe 0580 489f 0e80 91c4 0200
00000360: 719f 0480 c98f 0800 fbc5 0080 87a2 9eac
00000370: 0a97 0380 beef 0100 0176 7ba1 3a67 0c00
00000380: 21dd 8680 8c69 c980 bd2e bab6 bc2f 4bb7
00000390: 6afe 0d00 2c8e 30b5 22f1 0280 ba49 0600
000003a0: 6ed0 0ab4 465c eab9 b41f 5200 2bd7 0100
000003b0: b04b 0d80 917d 0280 8952 0400 a75b 7fb3
000003c0: 4812 0300 e7f1 0300 890e 0500 f3d7 0c00
000003d0: 7668 1f01 c0e1 0280 13cf 59bb 655e 0a80
000003e0: 64e8 0c00 1937 0000 d67a 0000 e869 0d80
000003f0: aeb2 0f80 cfd4 0480 bb79 9e32 d7df 0080

layers.2.bias f4 [64]
-3.892074e-09 -0.0030355665 1.757547 -0.19911736 -0.013668689 -0.0077837994 -0.25286904 -0.0010856622
0.65821564 -0.06275458 -1.0218319e-05 -0.0030829972 0.064317584 -0.030746154 -0.0055593876 -0.20386717
-0.0057487097 -0.14768632 -1.7927878e-05 -5.00033e-05 -1.8744414e-11 -0.05117692 -5.01629e-06 -0.3693804
-0.08425115 -3.2532596e-05 -3.582243e-05 -0.050123427 -0.11396785 -5.400906e-14 -0.26264665 -0.1327572
0.794192 -1.982637e-05 -0.1757179 -0.065868706 0.06167651 -0.6213621 -0.0053545632 -0.025498113
-0.114344545 -0.00043252655 -0.005194215 -0.0003348789 -6.7981746e-05 -0.01026889 -0.16311374 0.2150125
0.006307609 -0.15157713 -2.8952043e-06 -0.0005596869 0.17753443 -5.813105e-08 -0.18567798 -0.48497918
0.2269455 0.4521837 -0.22749963 -0.01800723 -0.0021029525 -0.17028154 -7.748609e-05 -0.13367906
00000000: 0cbb 85b1 5bf0 46bb 4df7 e03f 6ce5 4bbe
00000010: a3f2 5fbc 3e0f ffbb 0d78 81be c74c 8eba
00000020: d280 283f 7985 80bd 596f 2bb7 1c0c 4abb
00000030: f0b8 833d 5cdf fbbc 862b b6bb 8ec2 50be
00000040: ac5f bcbb 153b 17be d363 96b7 a2ba 51b8
00000050: abe0 a4ad e49e 51bd 9a51 a8b6 6e1f bdbe
00000060: de8b acbd 9c73 08b8 0b40 16b8 394e 4dbd
00000070: fa67 e9bd 353c 73a9 9f79 86be 81f1 07be
00000080: 2b50 4b3f ce50 a6b7 65ef 33be 2ce6 86bd
00000090: 82a0 7c3d 9611 1fbf 5575 afbb 6be1 d0bc
000000a0: 792d eabd bbc4 e2b9 3c34 aabb af92 afb9
000000b0: 6c91 8eb8 d93e 28bc 4a07 27be 3d2c 5c3e
000000c0: 0fb0 ce3b 0937 1bbe 3b4b 42b6 f4b7 12ba
000000d0: 96cb 353e c4ab 79b3 5e22 3ebe 314f f8be
000000e0: 6764 683e 9f84 e73e aaf5 68be e683 93bc
000000f0: b0d1 09bb 495e 2ebe 0780 a2b8 2ae3 08be

layers.4.weight f4 [64, 64]
-8.73682e-40 -1.002703e-37 -3.337683e-26 -3.15474e-40 1.080597e-39 4.96794e-11 -0.14269136 -0.0001112311
-0.0005530073 -3.52885e-40 -1.7686e-41 -2.09423e-40 -6.997787e-08 3.36171e-07 3.72842e-40 6.1661e-41
-8.77546e-40 5.29576e-40 -1.334699e-39 6.35545e-40 -3.7931238e-38 -8.8186e-40 -2.1998e-41 -5.84999e-40
-1.6373e-40 -4.27432e-40 1.224114e-39 -9.62238e-40 -1.3424768e-05 5.37402e-40 5.2482597e-24 -2.66544e-40
-0.00024736443 -1.5951e-41 -1.220043e-39 5.728633e-18 -1.79177e-40 -8.518909e-09 3.0005036e-16 0.007960677
3.80652e-40 5.74792e-40 1.9037994e-05 -1.377144e-39 3.7073206e-38 0.020159286 5.58573e-40 -0.0020837402
-5.536878e-29 4.51772e-40 1.7172106e-14 -1.5169e-41 -2.269916e-27 7.85122e-40 0.057991907 2.843e-40
-7.751113e-13 -0.006760751 -0.0012475738 -1.66462e-40 -4.4718385e-37 -6.97381e-40 4.2982e-41 9.56699e-40
-1.343167e-39 -8.66245e-40 -0.00022958269 -0.0008387928 -2.6731377e-06 -4.6043e-40 -0.050272662 0.0001192314
-0.01703541 3.95332e-40 5.774711e-26 9.78466e-40 -1.47074725e-05 -9.67563e-40 4.69914e-40 2.61379e-40
-1.5123703e-15 -7.230119e-09 -4.50861e-40 -1.23718e-39 -1.080465e-38 -4.6082e-40 5.06848e-40 1.0378205e-07
6.987835e-39 -2.27369e-40 4.75735e-40 3.95839e-40 -1.76676e-40 1.7076006e-38 -0.052295946 1.4624599e-37
-0.0057003684 1.180839e-39 3.5394757e-17 0.00090218394 -8.857266e-05 -0.0018629 0.06438162 0.00010159812
1.07718e-40 -9.188745e-25 -8.63582e-39 4.03254e-40 6.36714e-40 1.94603e-40 8.87399e-40 -0.03515329
-0.00028267325 -3.8607815e-17 1.246983e-39 5.9787344e-06 -4.3961467e-08 5.26068e-40 4.5133422e-08 1.194583e-39
-9.3790775e-05 -0.06856525 1.1625833e-21 -4.58045e-40 -3.0376967e-05 -1.62269e-40 1.114444e-39 2.509096e-23
-1.046516e-39 4.62084e-40 -0.00032956866 0.05621313 5.516044e-15 1.5985327e-29 -0.0349574 3.7719e-41
-0.0076524317 5.12694e-40 3.94452e-40 8.42328e-40 -6.469667e-05 -9.59725e-40 1.08138e-40 -1.018811e-39
1.083343e-38 -9.9254e-41 -1.70893e-40 1.81006e-40 -3.40786e-40 -0.0019168301 3.479738e-11 -3.4227913e-15
-1.054167e-39 -7.47628e-40 -1.320277e-39 1.336348e-39 -8.8527e-41 3.25589e-40 0.008376554 -6.6117e-41
-0.006674627 3.98e-40 -6.889851e-32 -1.74603e-40 -3.2710043e-10 -0.0006644668 -0.0060323267 -2.9855e-41
-1.311327e-39 -1.105559e-06 8.48706e-40 9.05443e-40 -2.40785e-40 -3.61199e-40 6.4545795e-32 -0.023608822
-4.8222284e-07 8.5974e-41 1.041404e-39 -1.3869586e-08 -3.1445024e-06 1.103569e-39 -0.009494302 0.0055761314
1.9320518e-13 -0.009999875 -0.0040479642 2.95546e-40 -1.389434e-39 6.72948e-40 1.152494e-39 -1.129353e-39
-4.9704766e-05 0.009453359 1.0969371 -0.0016537042 0.008963811 0.01727155 -0.22226673 -0.055228777
-1.1934768 0.002929015 0.027904898 -0.0036911145 -0.945558 -0.07655377 -0.024707465 -0.09655869
-0.006157066 0.040693514 0.0006557355 -0.0027257807 -1.8600738e-09 -0.033439007 -2.602542e-05 0.11739664
-0.0937152 0.0025714054 -5.75781e-06 0.014843057 -0.109127596 5.729875e-06 0.008909858 0.12307052
-0.6855834 -0.008464888 -0.22034284 -0.021134745 -0.39809078 1.0114323 0.008015869 -0.06841448
-0.09938882 -0.10655129 0.00437549 0.00100505 0.004322877 0.0003426506 -0.17929317 0.71108264
0.00026576105 -0.8143632 -0.0007004834 0.018234894 0.9333299 -0.0001200465 -0.08539121 -0.24176773
-0.29989582 -0.91322047 -0.2748201 0.12383272 0.024326943 -0.0538848 0.00056084595 -0.055826176
00000000: 7883 0980 1a7b 0882 2946 2595 6a6f 0380
00000010: 44c4 0b00 087e 5a2e af1d 12be be44 e9b8
00000020: b1f7 10ba b3d7 0380 4d31 0080 c947 0280
00000030: be46 96b3 fe7a b434 550f 0400 e3ab 0000
00000040: 3e8e 0980 3ec4 0500 9988 0e80 a4eb 0600
00000050: 6e84 4e81 449a 0980 523d 0080 bd5e 0680
00000060: 6ac8 0180 82a7 0480 5554 0d00 547a 0a80
00000070: f13a 61b7 0fda 0500 3f08 cb18 04e7 0280
00000080: b1b0 81b9 772c 0080 fc48 0d80 6959 d322
00000090: 79f3 0180 8f5a 12b2 9ef7 ac25 806d 023c
000000a0: 1a25 0400 4942 0600 c8b3 9f37 ebfe 0e80
000000b0: 82d8 4901 1625 a53c 1315 0600 5c8f 08bb
000000c0: 6560 8c90 5beb 0400 2eac 9a28 492a 0080
000000d0: 5ed7 3393 9a8c 0800 ec88 6d3d 8318 0300
000000e0: a82c 5aab 4a89 ddbb a185 a3ba 07d0 0180
000000f0: 352b 1883 0498 0780 d177 0000 e36a 0a00
00000100: 34a0 0e80 bd6e 0980 22bc 70b9 6fe2 5bba
00000110: 2864 33b6 7e03 0580 b5ea 4dbd df0b fa38
00000120: d88d 8bbc 064e 0400 94f9 8e15 91a7 0a00
00000130: 1dc0 76b7 2c89 0a80 ee1d 0500 9ed8 0200
00000140: 9ef4 d9a6 cd6c f8b1 d1e8 0480 c178 0d80
00000150: f8a6 7580 9404 0580 e384 0500 c9de de33
00000160: 3e17 4c00 d079 0280 282e 0500 704f 0400
00000170: 80ec 0180 f5f0 b900 4634 56bd 4a0f 4702
00000180: 28ca babb b3db 0c00 c13a 2324 8a80 6c3a
00000190: 16c0 b9b8 8d2c f4ba 83da 833d 1311 d538
000001a0: 462c 0100 5e30 8e97 2709 5e80 1c64 0400
000001b0: e6ee 0600 791e 0200 b5a9 0900 e5fc 0fbd
000001c0: c333 94b9 100c 32a4 1594 0d00 f09c c836
000001d0: 25d0 3cb3 77ba 0500 b9d8 4133 0302 0d00
000001e0: 8ab1 c4b8 f06b 8cbd 43af af1c d8fc 0480
000001f0: 0ad2 feb7 57c4 0180 9e22 0c00 35aa f219
00000200: 4365 0b80 1a08 0500 f5c9 acb9 bd3f 663d
00000210: 87bc c627 481c a20f 7e2f 0fbd 2569 0000
00000220: 40c1 fabb 2f95 0500 924b 0400 112c 0900
00000230: c3ad 87b8 5373 0a80 722d 0100 0818 0b80
00000240: 32f7 7500 ae14 0180 61dc 0180 92f8 0100
00000250: f9b5 0380 253e fbba 5e0a 192e 5ba3 76a7
00000260: 977a 0b80 1524 0880 6560 0e80 328d 0e00
00000270: c7f6 0080 9c8b 0300 d03d 093c 4fb8 0080
00000280: d4b6 dabb 7655 0400 eade b28b b9e6 0180
00000290: 4bd3 b3af 9d2f 2eba d3aa c5bb 3953 0080
000002a0: 7247 0e80 b862 94b5 d93d 0900 02dc 0900
000002b0: 369f 0280 e0ee 0380 0a92 a70b 4a67 c1bc
000002c0: 1a72 01b5 a9ef 0000 0357 0b00 1647 6eb2
000002d0: 2406 53b6 4d04 0c00 fd8d 1bbc fbb7 b63b
000002e0: 9a87 592a 84d6 23bc c9a4 84bb dd37 0300
000002f0: 2d21 0f80 e853 0700 af8c 0c00 2d4c 0c80
00000300: 167a 50b8 43e2 1a3c 6f68 8c3f 1bc1 d8ba
00000310: f3dc 123c 117d 8d3c e499 63be 9237 62bd
00000320: d9c3 98bf b8f4 3f3b d098 e43c a0e6 71bb
00000330: 1710 72bf 39c8 9cbd 4f67 cabc 90c0 c5bd
00000340: 37c1 c9bb 3eae 263d aae5 2b3a 03a3 32bb
00000350: 87a5 ffb0 57f7 08bd 2a51 dab7 a66d f03d
00000360: c1ed bfbd 0685 283b 3633 c1b6 4b30 733c
00000370: 4a7e dfbd 4043 c036 a7fa 113c 660c fc3d
00000380: 6582 2fbf 50b0 0abc 8ea1 61be c622 adbc
00000390: 8ed2 cbbe 9d76 813f fe54 033c e41c 8cbd
000003a0: 5e8c cbbd 9037 dabd 4560 8f3b e2bb 833a
000003b0: eca6 8d3b c9a5 b339 a198 37be 8309 363f
000003c0: d855 8b39 1b7a 50bf a5a0 37ba 5861 953c
000003d0: b5ee 6e3f 79c1 fbb8 96e1 aebd f691 77be
000003e0: f28b 99be d1c8 69bf 38b5 8cbe 029c fd3d
000003f0: 4c49 c73c 4fb6 5cbd bc05 133a fda9 64bd

layers.4.bias f4 [64]
-3.7573493e-05 -0.037188705 -0.026687715 0.6549701 -0.100044794 -7.3400424e-16 -2.6222568e-16 -0.004090075
-0.000459332 -0.053242568 -0.00014030107 -0.015358779 -0.34173307 -0.16850689 -0.007390736 -2.06807e-07
-7.9007145e-10 -0.062155295 -0.17090923 -0.62899476 -0.028832963 -0.001507619 -0.005229291 -4.456802e-23
-6.9050795e-05 -0.007952663 -3.918195e-07 -0.031012421 -0.008422376 -0.1942286 -0.11953131 -4.670877e-09
-0.20237836 -3.5597004e-05 -0.12628393 -0.11244437 -0.010080848 -0.13032721 -3.8312874e-06 -0.23276722
-4.0377646e-10 -0.0001213716 -0.009131571 -6.110912e-07 7.526653e-29 -0.03566021 -0.003225913 -0.023528263
-0.59670657 -1.5514197e-13 -4.515886e-12 -4.4074436e-06 -0.062637925 -1.4104248e-13 -4.602478e-15 -0.052691128
-8.698063e-11 -0.01428559 -0.0005155134 0.4337082 0.0022125738 -1.5991635e-08 -0.0028861212 -0.4425268
00000000: 3b98 1db8 2f53 18bd 32a0 dabc 1fac 273f
00000010: 49e4 ccbd f48f 53a6 ae29 97a5 0906 86bb
00000020: 7fd2 f0b9 e114 5abd c81d 13b9 63a3 7bbc
00000030: a3f7 aebe 128d 2cbe fd2d f2bb ad0e 5eb4
00000040: 562c 59b0 8d96 7ebd d402 2fbe cd05 21bf
00000050: 1b33 ecbc 4d9b c5ba 795a abbb 8984 579a
00000060: 5dcf 90b8 e34b 02bc 435b d2b4 c30d febc
00000070: 01fe 09bc dde3 46be d5cc f4bd 787d a0b1
00000080: 463c 4fbe fe4d 15b8 9350 01be 3c49 e6bd
00000090: 242a 25bc 7f74 05be 828e 80b6 885a 6ebe
000000a0: 7cfa ddaf e288 feb8 969c 15bc de09 24b5
000000b0: c5d2 be10 7110 12bd d769 53bb 58be c0bc
000000c0: c3c1 18bf a1ac 2eaa 7ce3 9eac a7e3 93b6
000000d0: 5048 80bd bacc 1eaa 5ed2 a5a7 a7d2 57bd
000000e0: be45 bfae 1b0e 6abc 8523 07ba 000f de3e
000000f0: d400 113b fa5d 89b2 1425 3dbb df92 e2be

layers.6.weight f4 [32, 64]
-6.74651e-40 1.058322e-39 7.4042595e-26 -0.043934215 -1.7964544e-31 4.549977e-14 -2.8232e-41 -2.37175e-40
8.01943e-40 -1.95937e-40 -5.30874e-40 -1.35777e-40 4.47216e-40 -4.1286587e-08 9.249455e-34 -9.58724e-40
6.314751e-14 1.49705e-40 0.046025693 -0.08193599 -2.4082429e-11 -2.24684e-40 -6.39251e-40 4.35448e-40
-5.34937e-40 -5.379515e-34 9.75839e-40 -4.42992e-40 1.63781e-40 -3.41447e-40 3.24857e-40 5.83254e-40
-0.0034419496 -9.50624e-40 -2.0203542e-23 1.13622e-39 8.5849286e-13 2.75453e-40 -1.044473e-39 -0.013581582
1.445417e-39 -8.60155e-40 -3.1613315e-36 9.175416e-39 5.72785e-40 -8.12167e-40 -1.213307e-39 -1.9515068e-34
0.021959696 -7.05435e-40 -8.4206e-40 -2.33643e-40 7.27934e-40 8.89368e-40 6.7135e-41 9.37607e-40
6.7245105e-11 3.5541346e-38 7.71722e-40 -0.012846166 3.2438243e-38 5.53506e-40 -5.17926e-40 -3.2163969e-21
3.287468e-26 -6.733455e-39 0.007184413 -0.030261042 -2.8792797e-26 1.251064e-39 3.34596e-40 1.3111619e-16
8.3239e-40 -1.04394e-39 3.42648e-40 -1.3346159e-24 -0.0033283255 0.041659683 -6.4806e-40 -2.33301e-40
9.0967e-41 1.4409639e-07 -0.00022546975 -0.0032310816 0.1771901 -5.67747e-40 1.047107e-07 1.4571778e-37
7.95172e-40 0.004316806 9.01804e-40 0.0033973434 -2.48422e-40 -0.01477591 -7.2618226e-05 5.87606e-40
-0.13209729 -8.67928e-40 -0.0019914352 -2.2858427e-13 9.56999e-40 8.195597e-08 1.26743e-40 -0.064873025
7.61541e-40 -2.924296e-15 1.8825641e-08 5.71438e-40 -4.87575e-40 0.000639742 -5.7844398e-12 -1.107038e-39
0.002246268 6.63836e-40 3.92764e-40 -1.5988785e-07 0.0074036005 -5.97872e-40 -3.62505e-40 -1.2323946e-26
-9.964e-40 -3.794422e-26 6.9699857e-38 -0.04028166 -0.010296519 4.41461e-40 5.50586e-40 -0.08827387
-2.62638e-40 -9.13878e-40 -1.4087e-41 -0.0828695 -1.095304e-39 1.7655e-41 1.3369e-40 -1.083169e-39
1.4754805e-06 -6.0158724e-38 -0.0003794821 -8.894469e-07 -0.027008317 2.7665715e-08 3.7779e-40 3.4986324e-06
1.0584e-41 -0.05265808 -2.0265954e-06 -0.00062059646 -3.0943493e-06 -4.226367e-39 -5.545189e-09 -7.3871904e-38
4.1987e-40 1.68891e-06 -1.317312e-39 -1.973651e-08 4.8028774e-13 1.14818e-39 -4.2711804e-06 -1.144316e-39
4.234097e-06 -6.55805e-40 5.22749e-40 4.52088e-40 -7.05834e-40 -0.0623803 -3.20258e-40 -0.09430949
1.027667e-39 -9.4857e-41 -0.09286678 4.69463e-40 -4.8874414e-13 -3.0519e-40 -2.01521e-40 3.55881e-40
-0.0667264 7.37089e-40 -1.3593994e-37 8.393776e-08 -7.1134e-40 2.0186758e-38 -4.19292e-40 -8.47421e-40
2.960289e-09 -6.15754e-40 -1.3653e-41 -0.020267954 -0.05155849 8.45626e-40 -9.85302e-40 -5.564647e-07
-0.01404287 -0.013418255 0.055628974 1.3493104 -0.038175303 1.1337171e-06 -1.138365e-05 -0.005401143
0.01235606 -0.009986787 0.0063797077 -0.003244273 -0.41654408 0.11929418 -0.028758692 -9.0557785e-07
2.104463e-25 0.13739659 -0.13973062 -0.06881893 1.5023397 -0.0399007 -0.0050030407 -0.00022992135
-0.0031496054 0.23662758 0.0006712435 0.053400476 -0.038787335 -0.16514283 0.1826058 -0.0001565285
0.09707815 0.0014864198 -0.102057524 0.066149175 -0.03707785 0.0112541495 -0.0005630599 -0.5028767
0.00024999943 -0.002729638 -0.009503307 0.00037505047 -4.121623e-05 -0.048738703 -0.007657229 -0.058092285
0.07369146 -0.00033333656 -0.00014860663 4.101415e-06 -0.10419446 1.5794489e-05 -6.419372e-18 0.014565401
-1.1365466e-05 -0.009412502 -0.01772798 0.2595323 0.13971579 3.4748357e-08 -0.0065700514 0.6205675
00000000: a758 0780 2c86 0b00 1252 b715 5df4 33bd
00000010: 7031 698c aae9 4c29 b34e 0080 2695 0280
00000020: 7ebb 0800 3122 0280 dcc7 0580 7e7a 0180
00000030: a8de 0400 1553 31b3 d5ae 9908 8870 0a80
00000040: 1032 8e29 51a1 0100 7085 3c3d 0ece a7bd
00000050: cfd4 d3ad 5472 0280 f9f5 0680 dabd 0400
00000060: 30d3 0580 dac3 3288 3ea0 0a00 e2d2 0480
00000070: 8ec8 0100 d1b7 0380 9289 0300 e059 0600
00000080: 5592 61bb f459 0a80 8c65 c399 525f 0c00
00000090: eea4 712b daff 0200 915f 0b80 4985 5ebc
000000a0: 3cbd 0f00 c35d 0980 da77 8684 54e9 6300
000000b0: b13c 0600 fed7 0880 3536 0d80 2bb3 8187
000000c0: d2e4 b33c 77ae 0780 522b 0980 4d8b 0280
000000d0: 2fed 0700 32af 0900 25bb 0000 ab35 0a00
000000e0: a1df 932e 6881 4101 3f67 0800 ba78 52bc
000000f0: 509c 3001 f306 0600 c4a3 0580 2a06 739d
00000100: 9cc9 2215 2252 4980 396b eb3b 01e6 f7bc
00000110: 3593 0e95 759f 0d00 b8a4 0300 ab2a 1725
00000120: 5d10 0900 145e 0b80 2abb 0300 9585 ce97
00000130: 0920 5abb 58a3 2a3d 870e 0780 598a 0280
00000140: 94fd 0000 eab8 1a34 136c 6cb9 8ec0 53bb
00000150: 5271 353e a62e 0680 51dd e033 3c57 4602
00000160: 9ea8 0800 fe73 8d3b ddd1 0900 f7a5 5e3b
00000170: 80b4 0280 a916 72bc 9d4a 98b8 0266 0600
00000180: 8344 07be 6e73 0980 bd82 02bb 77ae 80aa
00000190: b96b 0a00 c5ff af33 4f61 0100 26dc 84bd
000001a0: de4a 0800 bdb7 52a7 06b6 a132 f038 0600
000001b0: 294f 0580 5cb4 273a 9a85 cbac f90d 0c80
000001c0: 2036 133b 813a 0700 de46 0400 a3ad 2bb4
000001d0: e799 f23b a082 0680 84f2 0380 d519 7494
000001e0: 8fd9 0a80 03e4 3b95 b6bd bd01 62fe 24bd
000001f0: bbb2 28bc 9dce 0400 cffe 0500 eec8 b4bd
00000200: 21dc 0280 85f3 0980 4527 0080 7cb7 a9bd
00000210: 43ed 0b80 3731 0000 ac74 0100 6fcb 0b80
00000220: 2009 c635 83c4 a381 3af5 c6b9 53c2 6eb5
00000230: 8c40 ddbc 8da5 ed32 201d 0400 0cca 6a36
00000240: 811d 0000 00b0 57bd a500 08b6 86af 22ba
00000250: 84a8 4fb6 6405 2e80 0088 beb1 3419 c981
00000260: 6d92 0400 81ae e235 2158 0e80 0b89 a9b2
00000270: 6130 072b a980 0c00 2951 8fb6 e375 0c80
00000280: 9e12 8e36 1e24 0780 36b1 0500 3dec 0400
00000290: 94af 0780 7c82 7fbd c07c 0380 5525 c1bd
000002a0: b830 0b00 6c08 0180 f030 bebd ac1c 0500
000002b0: ba91 09ab bf52 0380 c231 0280 0de0 0300
000002c0: daa7 88bd b406 0800 2808 3982 4641 b433
000002d0: edbe 0780 78d0 db00 d190 0480 443a 0980
000002e0: f46d 4b31 79b4 0680 0f26 0080 fb08 a6bc
000002f0: ff2e 53bd 4335 0900 9fba 0a80 f75f 15b5
00000300: 1114 66bc 3ed8 5bbc 35db 633d 34b6 ac3f
00000310: b55d 1cbd 392a 9835 68fc 3eb7 12fc b0bb
00000320: 1271 4a3c 9f9f 23bc de0c d13b de9d 54bb
00000330: 4445 d5be 8250 f43d 5997 ebbc d616 73b5
00000340: 8c42 8216 b1b1 0c3e 8b15 0fbe f0f0 8cbd
00000350: ab4c c03f eb6e 23bd 8cf0 a3bb 0b17 71b9
00000360: 9c69 4ebb 804e 723e 64f6 2f3a 75ba 5a3d
00000370: 78df 1ebd 341b 29be 04fd 3a3e cd21 24b9
00000380: e9d0 c63d f9d3 c23a 8903 d1bd 3879 873d
00000390: f2de 17bd 5363 383c 4f9a 13ba 87bc 00bf
000003a0: 5b12 8339 bae3 32bb c2b3 1bbc 6ca2 c439
000003b0: 97df 2cb8 3ca2 47bd 7ee9 fabb 2df2 6dbd
000003c0: 8ceb 963d adc3 aeb9 4ad3 1bb9 e39e 8936
000003d0: e863 d5bd 687e 8437 41d5 eca2 b8a3 6e3c
000003e0: 4eae 3eb7 e536 1abc 453a 91bc 6be1 843e
000003f0: a811 0f3e 393e 1533 9649 d7bb 83dd 1e3f

layers.6.bias f4 [32]
-0.096201554 -0.0024929387 -0.069924824 0.45906347 -0.0005044756 -0.16259037 -0.02286969 -8.45919e-07
-1.6677286e-05 -0.000118945776 -0.09876191 0.034414314 -0.006562443 -6.3284045e-11 -0.061979678 -0.016889026
-0.00011296681 -0.02883719 -0.019635083 -0.029691355 -0.23134601 -0.044569813 -1.8858827e-06 -1.1623187e-06
-0.000170007 -0.016278522 -0.028047472 -2.7775166e-05 -0.024361182 -0.16717294 -0.029812155 -4.1574302e-07
00000000: 5205 c5bd 9260 23bb bf34 8fbd 5e0a eb3e
00000010: c93e 04ba 177e 26be 3759 bbbc 1c13 63b5
00000020: 33e6 8bb7 8772 f9b8 af43 cabd 06f6 0c3d
00000030: c309 d7bb c029 8bae 67de 7dbd db5a 8abc
00000040: 98e8 ecb8 f83b ecbc c1d9 a0bc 493b f3bc
00000050: f8e5 6cbe d68e 36bd 701e fdb5 f700 9cb5
00000060: e843 32b9 895a 85bc d0c3 e5bc b7fe e8b7
00000070: 1a91 c7bc 622f 2bbe 9f38 f4bc 4933 dfb4

layers.8.weight f4 [32, 32]
-3.39512e-40 4.178559e-10 -1.6903461e-38 -0.0011281188 5.551732e-16 6.295898e-08 -3.8845327e-10 -5.80458e-40
2.08742e-40 -1.3297734e-31 -1.2641062e-09 -4.741416e-08 5.0051135e-12 3.99345e-40 1.368543e-27 7.99727e-40
1.076117e-39 4.48298e-40 4.66432e-40 1.0438646e-09 -0.09328861 -1.249431e-39 -1.421467e-39 2.0997375e-13
-4.6118e-40 -7.606789e-11 2.48988e-40 -2.333054e-12 2.4963778e-10 -2.0262059e-09 3.92658e-40 1.13449e-40
1.3587099e-38 7.83954e-40 1.128338e-39 -0.0010943036 8.8582e-40 7.36905e-40 -4.3082475e-17 8.05797e-40
7.584889e-08 -2.551652e-38 -1.65e-43 5.2023463e-38 4.77928e-40 3.90058e-40 1.5321195e-24 8.273695e-06
-1.41479e-40 -1.9883455e-14 -6.66767e-40 -2.986427e-37 -0.018409967 5.15208e-40 -4.7945e-41 -7.9962e-40
3.7595795e-38 1.037866e-39 1.003422e-39 1.00964e-40 8.4353e-41 2.31224e-40 3.74616e-40 1.060833e-39
-7.75818e-40 6.907e-42 1.41253e-39 -0.044097736 3.23734e-40 6.16115e-40 4.95973e-40 6.35785e-40
2.6045495e-07 5.1502e-41 3.98274e-40 -6.12812e-40 1.067834e-39 3.63996e-40 -8.82295e-40 -4.3639456e-09
1.001969e-39 3.11823e-40 1.413976e-39 -1.083008e-39 -0.05953691 1.1565922e-12 -2.75406e-40 -8.69513e-40
3.31764e-40 -3.97082e-40 -1.395807e-39 1.14548e-40 -1.278301e-39 -7.7063e-41 4.38594e-40 6.12136e-40
4.95025e-40 1.26201e-39 6.80976e-40 -0.023469284 1.155268e-39 -9.79798e-40 5.79964e-40 -2.6133992e-38
-3.3039572e-17 1.081812e-39 -9.74e-42 -1.99217e-40 6.3412e-41 8.36734e-40 -7.22914e-40 -3.06943e-40
-1.3975e-39 -1.83684e-40 -1.30095e-40 3.75004e-40 -2.7455256e-12 -4.4064228e-38 5.92131e-40 6.73391e-40
-1.011143e-39 5.93601e-40 -1.62217e-40 1.022251e-39 1.16552e-39 -1.047692e-39 -1.53826e-40 7.4185585e-10
-1.122995e-39 2.00041e-40 8.54181e-40 -0.044823706 0.00013255491 -4.12332e-40 -2.2233946e-05 -2.7337022e-11
4.8727e-41 -3.3547594e-12 8.17966e-40 -6.450248e-07 0.08120685 -3.4639e-41 1.074087e-39 1.77326e-40
-6.68732e-40 1.0372e-41 -2.68231e-40 -1.109633e-25 -8.367144e-18 -4.2422e-41 -1.131726e-39 -8.480171e-18
5.7968e-40 -3.7362308e-05 -1.109359e-39 -1.37711e-40 1.05962e-40 2.5813217e-14 -5.34017e-40 8.08461e-40
9.064667e-35 -1.48105e-40 7.72232e-40 -0.02711179 7.08241e-40 1.42173e-40 -0.009891676 -4.73153e-40
-6.0004e-40 -2.42952e-40 -0.006648785 -0.0062819985 2.81016e-40 -5.07973e-40 -2.8221796e-06 -0.0025280968
9.56469e-40 -9.0569e-41 -3.76125e-40 -0.00069129706 -0.0015781343 -1.075e-41 4.3513e-40 -4.14427e-40
8.3332e-41 6.52257e-40 8.3365e-40 2.31209e-40 -1.1401594e-08 -1.6399588e-12 -1.203246e-39 -7.4715813e-19
1.031835e-39 -0.05795922 -4.540184e-06 -0.03623477 -2.970447e-06 -0.0032636132 0.14949372 -4.15796e-40
6.49628e-40 -1.8365441e-10 -0.01001558 -0.04728405 0.025849095 9.169937e-18 0.022171462 1.4547e-40
5.11761e-40 -3.2376712e-09 -1.0573537e-07 0.20602775 -0.02231706 3.6132687e-06 -1.2081807e-15 -8.3781e-40
7.7337e-40 -7.6279764e-05 -1.0520108e-38 3.8167e-40 -6.9888564e-18 -5.7287925e-05 -3.560025e-13 -1.106558e-39
2.4962359e-37 -4.1307e-40 -3.087e-40 -0.0002114132 5.03394e-40 7.3188227e-29 2.4769e-27 -2.9139073e-11
-7.81349e-40 4.71377e-40 4.712284e-27 -1.7700516e-26 1.327859e-39 -3.14164e-40 3.6638063e-28 1.90201e-40
-5.2738304e-14 6.1168e-40 3.3376543e-27 3.2584058e-27 -0.06250696 -3.98683e-40 -1.22405e-40 -6.282213e-16
1.5201732e-37 -1.867374e-27 -5.32873e-27 -2.19136e-40 9.26136e-40 2.9723206e-27 -7.2898673e-28 -1.090575e-39
00000000: 6cb2 0380 fdb7 e52f f90f b880 63dd 93ba
00000010: 8d04 2026 1134 8733 f08d d5af 1552 0680
00000020: e345 0200 4d9d 2c8c c8bc adb0 6ca4 4bb3
00000030: 0e1a b02c 3659 0400 b3da d812 50b5 0800
00000040: c7b7 0b00 ace1 0400 3914 0500 b877 8f30
00000050: 190e bfbd e89a 0d80 797a 0f80 d068 6c2a
00000060: 9505 0580 6a46 a7ae 14b6 0200 912c 24ac
00000070: 653d 892f 643d 0bb1 9246 0400 403c 0100
00000080: 4ef3 9300 5889 0800 5949 0c00 bc6e 8fba
00000090: 4ea5 0900 3106 0800 cfae 46a4 3cc6 0800
000000a0: 5ee2 a233 d7ec 0a81 7600 0080 109f 8d01
000000b0: 4534 0500 533f 0400 8215 ed17 40cf 0a37
000000c0: 638a 0180 2018 b3a8 ad42 0780 e63e cb82
000000d0: 80d0 96bc 319c 0500 a785 0080 04b5 0880
000000e0: e4b0 4c01 264d 0b00 22ed 0a00 7219 0100
000000f0: 24eb 0000 8f84 0200 4714 0400 2c8d 0b00
00000100: aa72 0880 4113 0000 8f61 0f00 d49f 34bd
00000110: 7086 0300 7ab5 0600 9266 0500 4fec 0600
00000120: a8d4 8b34 918f 0000 3a56 0400 45ac 0680
00000130: b0a0 0b00 acf6 0300 7b9b 0980 acf1 95b1
00000140: 15e9 0a00 3c65 0300 9765 0f00 fcca 0b80
00000150: fadc 73bd a0c6 a22b b8ff 0280 d977 0980
00000160: d39c 0300 e752 0480 f132 0f80 503f 0100
00000170: 62eb 0d80 d2d6 0080 9fc6 0400 63aa 0600
00000180: ee63 0500 f8bd 0d00 496a 0700 a842 c0bc
00000190: 6b94 0c00 47ab 0a80 b450 0600 7849 0e81
000001a0: 3e5e 18a4 a7c7 0b00 271b 0080 562b 0280
000001b0: c4b0 0000 791c 0900 31df 0780 a257 0380
000001c0: a937 0f80 0900 0280 a76a 0180 5c15 0400
000001d0: fe32 41ac 92e8 6f81 9f72 0600 2455 0700
000001e0: a802 0b80 b876 0600 32c4 0180 9f21 0b00
000001f0: ffb0 0c00 8a68 0b80 ceac 0180 77eb 4b30
00000200: 743a 0c80 a22d 0200 1c4d 0900 1099 37bd
00000210: 70fe 0a39 6a7d 0480 0983 bab7 8075 f0ad
00000220: d587 0000 f911 6cac 28e8 0800 c425 2db5
00000230: c74f a63d 8f60 0080 1eb2 0b00 50ee 0100
00000240: 2748 0780 ea1c 0000 b8eb 0280 ac5d 0996
00000250: b858 1aa3 4176 0080 cb52 0c80 7a6e 1ca3
00000260: e94f 0600 79b5 1cb8 7114 0c80 e27f 0180
00000270: 6127 0100 3a81 e828 9fd0 0580 a9cd 0800
00000280: edfa f006 db9c 0180 ab68 0800 8b19 debc
00000290: 4ab6 0700 528c 0100 b210 22bc f526 0580
000002a0: ab88 0680 40a5 0280 0dde d9bb 39d9 cdbb
000002b0: 5c0f 0300 0688 0580 ad64 3db6 6dae 25bb
000002c0: 3f6a 0a00 78fc 0080 7c18 0480 2938 35ba
000002d0: 66d9 ceba f71d 0080 f7bc 0400 4183 0480
000002e0: 4ce8 0000 3a1a 0700 e113 0900 8484 0200
000002f0: bee0 43b2 becd e6ab 291a 0d80 ac85 5ca1
00000300: 563c 0b00 a666 6dbd e257 98b6 e96a 14bd
00000310: e457 47b6 58e2 55bb e214 193e 1287 0480
00000320: e612 0700 1fee 49af 6318 24bc ecac 41bd
00000330: 7bc1 d33c ce27 2923 eda0 b53c 8395 0100
00000340: 9592 0500 b77d 5eb1 a210 e3b3 f0f8 523e
00000350: 44d2 b6bc 7c7b 7236 001e aea6 791f 0980
00000360: d76b 0800 63f8 9fb8 c88d 7280 f127 0400
00000370: f1eb 00a3 7148 70b8 5e69 c8aa a20c 0c80
00000380: 90e2 a902 797f 0480 885c 0380 ccae 5db9
00000390: 427b 0500 e08d b910 803d 4413 ae27 00ae
000003a0: 1582 0880 0222 0500 3dac ba13 244c af94
000003b0: 8875 0e00 c36b 0380 a838 e811 3412 0200
000003c0: 2083 6da9 1da9 0600 d637 8413 2914 8113
000003d0: a603 80bd 5e57 0480 3755 0180 8d12 35a6
000003e0: 4eea 4e02 d8f2 1393 be17 d393 dd62 0280
000003f0: b115 0a00 d37d 6b13 6e06 6792 14e0 0b80

layers.8.bias f4 [32]
-0.055429645 -0.027902037 -0.0025715323 -9.694364e-06 -0.0016434968 -0.0027007328 0.041347384 -0.0003621281
-5.7606554e-05 -0.039087184 1.7431749 -0.021033276 -0.19797891 -1.3505513e-07 -0.0014526314 -1.062555e-06
0.1413398 -0.045321252 -0.00049705355 -0.004117954 -4.4276604e-08 -0.009296903 -3.9778286e-05 -0.14496562
0.24562392 -0.0056416974 -5.5536475e-06 -5.5486056e-05 -0.10114554 -0.03155351 -2.0800852e-20 -0.00023270602
00000000: 320a 63bd d092 e4bc 2787 28bb faa4 22b7
00000010: 9a6a d7ba c7fe 30bb e05b 293d 03dc bdb9
00000020: 919e 71b8 e219 20bd 5b20 df3f fa4d acbc
00000030: fcba 4abe ac03 11b4 3966 beba 1d9d 8eb5
00000040: 61bb 103e c7a2 39bd b34c 02ba e7ef 86bb
00000050: a42a 3eb3 0a52 18bc 9cd7 26b8 de71 14be
00000060: d684 7b3e fddd b8bb 7859 bab6 b3b9 68b8
00000070: 6525 cfbd 413e 01bd 6075 c49e 8c02 74b9

layers.10.weight f4 [16, 32]
8.1246e-40 6.80878e-40 -5.56046e-40 -1.98501e-40 8.7577e-41 -1.93057e-40 -0.0014678293 -4.65265e-40
-3.1252513e-13 2.08585e-40 -0.05465539 -1.207562e-39 -6.2072766e-22 -2.8354e-40 1.47007e-40 1.328972e-39
4.3950398e-23 1.333184e-39 -2.01658e-40 -2.79464e-40 2.5878e-40 -1.109428e-39 9.08402e-40 -8.21109e-40
-0.05275065 8.32207e-40 -2.3144632e-13 -3.03743e-40 3.48315e-40 -4.751843e-21 -1.8353e-41 -3.24109e-40
-0.04061354 0.0062872847 -0.045244213 -0.03125261 -0.07466149 -0.033430498 -0.017033683 0.0022761736
1.15171e-36 0.0339778 0.47468755 -0.06873519 0.13122183 -3.5665373e-10 -0.012344913 -7.0161777e-16
-0.050287884 0.012412634 0.0017164745 0.012498599 -0.005375883 -0.004541312 -0.00025912357 -0.00013648631
-0.31110397 0.010955022 -0.0003716849 -0.0027315726 -0.21189885 0.06853652 -6.469984e-09 -0.026411543
9.4743e-41 2.57e-40 1.12314e-40 4.25738e-40 -1.5298881e-19 -1.201458e-39 -3.91373e-40 -8.147e-42
-4.11913e-40 -9.01579e-14 -0.007853978 3.2744e-40 -5.38799e-40 -1.1355352e-06 -2.33518e-40 1.133e-40
-2.415045e-39 -5.216818e-06 -7.3693185e-10 3.119009e-38 2.64262e-40 9.1084e-41 1.1435e-39 1.146091e-39
-0.037344873 4.42921e-40 1.7041e-40 -2.798e-40 1.216935e-39 -3.18042e-40 -1.174247e-39 2.8926e-40
4.23233e-40 1.6591e-40 -6.6726e-40 -3.4578e-40 -6.21888e-40 1.83536e-40 -2.34046e-40 -2.48026e-40
3.1748e-41 7.1780382e-06 -0.07413757 2.4956e-40 -4.54699e-40 -1.06644e-40 -4.05007e-40 -1.038e-41
-3.3738012e-11 5.87103e-40 -2.52298e-40 -8.717343e-17 -1.1038386e-36 -2.67592e-40 9.002307e-38 7.47695e-40
-1.9893937e-12 -1.596e-40 -2.7849088e-14 -2.58496e-40 -5.28246e-40 8.09722e-40 4.51487e-40 -2.61499e-40
0.083676435 -0.026558174 -0.06583632 -1.7503328e-32 -0.001997154 -0.00027473812 0.011878653 -0.066714555
0.0020730242 -0.008593092 -0.90400976 -0.053373948 0.12685212 0.014834256 4.1682652e-15 0.0039459146
-0.049343847 0.06621054 -0.0057111033 -6.5583566e-07 -1.78385e-40 0.02597002 0.0003397671 2.7818206e-09
0.6357853 -0.058524087 1.1792616e-05 0.00059648446 0.2348657 6.5806713e-13 -8.626146e-37 -0.001136475
-4.2262985e-07 -2.549496e-14 4.66443e-40 1.345768e-39 -1.85151e-40 -5.997531e-06 1.9662045e-06 4.7512464e-07
-3.54988e-40 7.86997e-40 -0.05361211 9.375553e-14 1.041127e-39 -1.5583346e-10 -8.56989e-40 -2.78483e-40
-2.5086187e-32 7.9888e-41 -1.354702e-39 -1.253452e-39 5.474841e-26 -1.380016e-39 2.739377e-38 -0.0024012031
-7.728667e-18 3.6033e-40 2.91605e-40 -1.6656e-40 -5.53133e-40 -7.22337e-17 7.78371e-40 1.99234e-40
-4.35475e-40 -0.0043898057 -4.12474e-40 -6.93542e-40 6.54339e-40 4.53328e-40 0.035161857 -4.39407e-40
-4.05553e-40 5.79922e-40 -0.16734271 -0.015164829 0.15981768 1.1949901e-15 -3.2317e-40 -7.16445e-40
2.5633468e-38 -9.52273e-40 1.0216296e-17 6.5331e-41 -1.113742e-39 -5.75611e-40 -1.3891695e-37 -1.081893e-37
-0.03146973 1.96005e-40 1.347355e-39 4.22741e-40 0.1388223 -9.49925e-40 9.87464e-40 -3.93894e-40
3.3179e-40 -6.8177e-41 -1.01433665e-16 -5.85286e-40 0.013535675 2.07932e-40 0.018840712 -5.17836e-40
-3.67237e-40 9.8133104e-14 -0.12411528 6.8972e-41 0.14718334 -6.4521e-40 -7.38592e-40 8.559021e-09
0.031545863 5.67751e-40 7.00925e-40 -3.3321947e-38 -6.01322e-40 -5.72863e-40 -4.7128478e-11 -5.719359e-10
-0.03628383 -1.290742e-39 6.823205e-39 -2.2717185e-08 0.15186703 -4.9397e-41 1.270005e-39 -1.46325e-40
00000000: cfd8 0800 036a 0700 080e 0680 5729 0280
00000010: 21f4 0000 2a1a 0280 2e64 c0ba f810 0580
00000020: 9eef afaa 7345 0200 55de 5fbd 3126 0d80
00000030: 7a9a 3b9c 6516 0380 cc99 0100 a278 0e00
00000040: f587 541a 6084 0e00 2432 0280 080b 0380
00000050: 60d1 0200 a214 0c80 41e4 0900 ebf0 0880
00000060: 1111 58bd db0f 0900 ee4a 82aa b64e 0380
00000070: f6ca 0300 0185 b39d 2933 0080 7c87 0380
00000080: 625a 26bd 9105 ce3b ff51 39bd bd02 00bd
00000090: 20e8 98bd 6bee 08bd 398a 8bbc db2b 153b
000000a0: 0cf4 c303 4e2c 0b3d 3f0a f33e 09c5 8cbd
000000b0: 045f 063e 8d12 c4af 5142 4abc 413a 4aa6
000000c0: abfa 4dbd 5c5e 4b3c 54fb e03a ecc6 4c3c
000000d0: 2d28 b0bb 49cf 94bb fada 87b9 c41d 0fb9
000000e0: 0549 9fbe b17c 333c b4de c2b9 2f04 33bb
000000f0: 03fc 58be e05c 8c3d 954e deb1 055d d8bc
00000100: 1b08 0100 69cc 0200 1639 0100 c9a2 0400
00000110: 089e 34a0 2d15 0d80 fd42 0480 b616 0080
00000120: 3f7c 0480 7e04 cba9 f9ad 00bc c590 0300
00000130: f4dd 0580 b168 98b5 f48a 0280 d63b 0100
00000140: 2a4c 1a80 200c afb6 f890 4ab0 a4d0 2901
00000150: a8e0 0200 e8fd 0000 9d73 0c00 d67a 0c00
00000160: f0f6 18bd afd2 0400 09db 0100 f80b 0380
00000170: 5240 0d00 9276 0380 53c9 0c80 5726 0300
00000180: cd9b 0400 7dce 0100 0d44 0780 e5c3 0380
00000190: 92c5 0680 a0ff 0100 6d8c 0280 65b3 0280
000001a0: 8058 0000 e1da f036 70d5 97bd acb7 0200
000001b0: 84f3 0480 4829 0180 ff68 0480 ef1c 0080
000001c0: a061 14ae 9b64 0600 4ebf 0280 1c02 c9a4
000001d0: f4ce bb83 f0e9 0280 ec10 f501 4524 0800
000001e0: bbfd 0bac e6bc 0180 a0d7 faa8 95d0 0280
000001f0: 89c0 0580 2dd1 0800 90ea 0400 f4d8 0280
00000200: 8d5e ab3d 8790 d9bc 31d5 86bd d4c3 b58a
00000210: afe2 02bb ba0a 90b9 af9e 423c a4a1 88bd
00000220: 93db 073b 0aca 0cbc 2f6d 67bf a49e 5abd
00000230: 86e5 013e 610b 733c 762d 9627 bb4c 813b
00000240: c61c 4abd 6499 873d 3524 bbbb af0c 30b5
00000250: 44f1 0180 14bf d43c c522 b239 4e2a 3f31
00000260: d3c2 223f f4b6 6fbd e6d8 4537 655d 1c3a
00000270: a280 703e bc3a 392b 2ac4 9283 c6f5 94ba
00000280: cee5 e2b4 60a3 e5a8 4114 0500 74a7 0e00
00000290: 2004 0280 663e c9b6 23f3 0336 a214 ff34
000002a0: 90dd 0380 d491 0800 5f98 5bbd 621e d329
000002b0: 3d56 0b00 3857 2baf f054 0980 4c08 0380
000002c0: 4341 028b b2de 0000 5cc0 0e80 1da6 0d80
000002d0: ed8c 8715 ec06 0f80 5825 1501 815d 1dbb
000002e0: 9991 0ea3 74ec 0300 e02c 0300 4dd0 0180
000002f0: e905 0680 408f a6a4 c879 0800 622b 0200
00000300: edbd 0480 5cd8 8fbb cf7d 0480 508d 0780
00000310: 0820 0700 b2ef 0400 e105 103d e3c8 0480
00000320: 846a 0480 9650 0600 e35b 2bbe e775 78bc
00000330: 3fa7 233e 5a37 ac26 de84 0380 28cd 0780
00000340: d78f 0b01 8d5e 0a80 1875 3c23 1eb6 0000
00000350: a920 0c80 9244 0680 7e15 3d82 7842 1382
00000360: 67e6 00bd 6222 0200 e1ab 0e00 6e9a 0400
00000370: 6f27 0e3e 0158 0a80 a6c0 0a00 044a 0480
00000380: e59c 0300 0dbe 0080 dee3 e9a4 8a5f 0680
00000390: bcc4 5d3c a143 0200 d657 9a3c 84a3 0580
000003a0: b5ff 0380 e2f9 dc29 2730 febd 44c0 0000
000003b0: 3bb7 163e 9506 0780 e50a 0880 f90a 1332
000003c0: 3c36 013d a92e 0600 e5a1 0700 046c 3581
000003d0: 3e8c 0680 e93c 0680 f345 4fae 6936 1db0
000003e0: 5a9e 14bd 100e 0e80 524c 4a00 9e23 c3b2
000003f0: 0883 1b3e b389 0080 42d4 0d00 e597 0180

layers.10.bias f4 [16]
-0.072961345 0.08921068 -0.000806933 -0.008063921 1.1099104 -5.5542398e-05 -0.05583462 0.14999135
-0.00012830604 -0.012605439 -0.036012083 -0.079154365 -1.0524917e-05 -9.004201e-25 -0.092422925 -0.07409323
00000000: c26c 95bd 17b4 b63d 5b88 53ba 891e 04bc
00000010: 8b11 8e3f 32f6 68b8 d8b2 64bd 5597 193e
00000020: e489 06b9 0b87 4ebc 6881 13bd af1b a2bd
00000030: 2d94 30b7 5155 8b97 3b48 bdbd 31be 97bd
