Compression_Test_MLP/models/model8_25ep_L2reg_reducedecay.pth (torch, 75550 bytes, 15 tensors)

layers.0.weight f4 [128, 8]
00000000: 72b5 1a3e d131 3e3e b4ed ba3c ea37 e63d
00000010: 69d7 c4be fd65 2a3e 039e ca3e 195e 9e3e
00000020: 0b3b 9f3b 5d2a 0cbd 8a71 79ba 5055 23bd
00000030: 3cef 12bc e7ce 2fbf 9fce 14bf 9d23 6d3e
00000040: 50a1 823c d4cf c6bb 2a91 393c d946 8ebb
00000050: bc0b 023c 853f 083e b24f 6e3f 377a 313f
00000060: f85c d23e 344b 1b3e c004 bdbd 0275 823e
00000070: 5222 013e 5550 e13e 8084 9cbd bbfd 73bc
00000080: 901c 6bbc 0ae2 a53a f680 023d 07dd abbd
00000090: 7f62 12bd 7c52 1f3d c98e e1be 5467 ab3e
000000a0: ce75 17bf 4d2a 143e 553b 0f3e 5325 e5be
000000b0: ad5c f7be faae f83e fc55 7e3e 9ae9 693e
000000c0: 3a6d 25bf 8f7c 213e 3bb7 f03e 1c3c f63d
000000d0: 341d 553e 38f4 e13e 4bde 57be 0a62 b43e
000000e0: af29 9cbe 4fce e6be 9b35 40bf 435b 193e
000000f0: 07ac bbbd 1cd1 7abe 68f0 e2bd 5049 3ebe
00000100: dc20 29bd 516a 66be a813 acbe 6425 263f
00000110: a644 ccbd 255e 69be 9246 aabd 0298 a9bd
00000120: 15ed 813e b905 8b3e 21d5 5ebe 8b02 e63e
00000130: 7463 513e 2fe1 9dbf a0ef b8be 67c1 b2be
00000140: 700c a43d 7b6c 853d 4fcf 7c3e ad7f 0cbe
00000150: 3233 893d 2961 01c0 b680 5cbd 449c 7cbd
00000160: 77f3 28bd d6d0 6bbd 1cf1 133e 377d 68be
00000170: e8de d5be 8edc 46bf 9d4f cebe 0582 cabe
00000180: 0681 a63e d56d 7b3e 3624 1dbd 31f7 043e
00000190: b688 89bd 270e 7bbe 249c 5c3e 0bf6 df3d
000001a0: 5223 003e 9caf d5bd 46a6 d73d ce64 193e
000001b0: a05f 293d 3d1b 2e3d 561c c93e afb5 a53e
000001c0: 199f f0bd 84f9 c43d 2a58 213e 28b4 c9bd
000001d0: 080e 97bd 1fe7 b3bf f95b b3be f730 b6be
000001e0: da92 2cbd f9c2 edbd ba85 96be 53b7 efbd
000001f0: 882b a1bc 5a99 513f 541c a7be fbbd d8be
00000200: ff72 2e3e 7590 9a3d ca68 1e3e a448 b5bd
00000210: e414 073e 6cd9 0ec0 f179 debd 12df 71bd
00000220: 31ef 09bd 2973 fa3d c55c 753e 72b0 39be
00000230: bd93 523e e0f3 cabf 3433 9dbe 38a9 3dbe
00000240: 0b08 4a3d b757 afbc 57e6 a4bd 9957 d0bc
00000250: 3d2c b23c e113 fbbf 03ce 01bd ff40 4c3f
00000260: 8302 01bd ad87 883b c6c6 f7bc fac7 193d
00000270: f1e6 92bc c11e 223f ebca acbe 8422 253f
00000280: ebff c7be 6c03 eabd c013 293e d313 42bf
00000290: 4ebb 323e c48d 533f 6c90 303d 682d f53e
000002a0: 22d4 ca3e 4244 13be 4a5c 0abf b111 02be
000002b0: d492 14be 9c09 61bf 0abe 7d3e 8b93 9d3e
000002c0: 249e f23d 1015 99be 457d a33e 6fcd 2cbf
000002d0: f440 40be 9498 103f 63f2 ab3d 0cfb 893e
000002e0: 61ad 0a3e b094 e23e 2e31 85bd 1833 9fbe
000002f0: 98cf 21be 3d2f 613f 6848 2b3e 28f6 df3e
00000300: c281 0fbe c503 28bd 864f c03d e1cc 293b
00000310: 1c79 933c 91c5 43bf 8194 e5bd 2a73 debd
00000320: 5638 01be af73 123e 0f7a 9abe fbf6 9a3d
00000330: 1d82 cabd 5514 dfbf 0fc8 babe 9d52 81be
00000340: 1036 0bbf c3f2 8e3e d518 f23e 1a2d 98be
00000350: 7dcb e33d edca 9f3e e5f7 34be 5614 8b3c
00000360: 3b9a 083e 9c84 f83d dbe3 26be 1a9f 653e
00000370: 6a16 0f3e 138a 493d f9bf 1f3f 4998 873e
00000380: ce01 0d3d 06ec 9abd c2c9 05be e20f 453e
00000390: f90c 08be 2840 12be b9d0 6fbc 55cc ecbd
000003a0: 7515 1e3e 6593 8d3c c24f 45be 4da7 b13e
000003b0: 61e6 353d 5463 66bf bd39 67be dbac 6ebe
000003c0: 86ba 813d 39f0 19bd 6ac5 643d 0361 72be
000003d0: e8b3 1f3d e039 d13e e209 6c3f cb96 0b3e
000003e0: 3f8d 37be 1d15 21be ff9d 22be f077 36bf
000003f0: 1717 b3be ce42 943f cabc 803d 96cc 533d
0.15108278 0.18573691 0.022818424 0.112411335 -0.38445595 0.16640468 0.39573678 0.30931166
0.0048593334 -0.03422009 -0.0009515515 -0.039876282 -0.008968171 -0.6867508 -0.5812778 0.23158117
0.01594606 -0.0060672555 0.011326114 -0.004341942 0.007937368 0.13305481 0.93090355 0.6932711
0.41086555 0.15165406 -0.092294216 0.25479895 0.12610748 0.440066 -0.0764246 -0.014892037
-0.014350072 0.0012655866 0.031861268 -0.08391767 -0.035738464 0.038897023 -0.4405425 0.3347727
-0.5916413 0.14469261 0.13987477 -0.4475504 -0.48312894 0.48570997 0.24837488 0.22843018
-0.6461979 0.15770172 0.47014794 0.12023184 0.20811921 0.44131637 -0.21080892 0.35231048
-0.30500552 -0.45079276 -0.75081795 0.1497622 -0.09163671 -0.24493831 -0.1108101 -0.18582654
-0.041291103 -0.22501494 -0.33608747 0.64900804 -0.09974031 -0.2278982 -0.083142415 -0.08280946
0.25376192 0.27152804 -0.2176099 0.44923815 0.20448095 -1.2334346 -0.3612032 -0.3491318
0.08010185 0.06514832 0.24688457 -0.1372058 0.06699218 -2.0215552 -0.053833686 -0.061672464
-0.04124781 -0.05757221 0.14447445 -0.22704016 -0.41771626 -0.7768029 -0.40295115 -0.39552322
0.32520312 0.24553616 -0.03836461 0.12984921 -0.06715529 -0.24517117 0.21543938 0.10935601
0.12513474 -0.104338855 0.10529761 0.1497986 0.04135096 0.042506445 0.3927943 0.32365176
-0.117490955 0.09617904 0.15756288 -0.09848815 -0.07375723 -1.4054908 -0.35031107 -0.35584232
-0.042132236 -0.11609454 -0.293989 -0.11704888 -0.019674078 0.8187462 -0.326388 -0.42332444
0.17036055 0.07547084 0.15469661 -0.08851746 0.13191563 -2.2320204 -0.10863102 -0.059050627
-0.033675376 0.12228996 0.2396117 -0.18133715 0.2056417 -1.5855675 -0.30703127 -0.18521583
0.049324077 -0.02140413 -0.08051746 -0.025432395 0.02174961 -1.9615442 -0.03169061 0.79786676
-0.031496536 0.0041665644 -0.03024615 0.037544228 -0.017932387 0.63328177 -0.33748564 0.6450579
-0.39062437 -0.11426434 0.1651144 -0.758115 0.17454264 0.8263819 0.04310648 0.47886205
0.3961497 -0.14381507 -0.5404707 -0.12702061 -0.14509135 -0.8790529 0.24779525 0.3077663
0.11846569 -0.29898882 0.3193151 -0.67500967 -0.18774778 0.56482816 0.08395841 0.26949346
0.13542701 0.44254065 -0.06503521 -0.3109367 -0.15801847 0.87962705 0.1672684 0.4374249
-0.14014342 -0.04101922 0.09390168 0.002590947 0.018002085 -0.7647334 -0.112099655 -0.108618096
-0.12619147 0.14301942 -0.30171248 0.07566639 -0.098880984 -1.742808 -0.36480758 -0.2525834
-0.5437937 0.27919587 0.4728457 -0.2972191 0.11122797 0.31209508 -0.1767269 0.01697747
0.13340084 0.12134668 -0.16297857 0.22423974 0.13973394 0.049203943 0.624023 0.26483372
0.03442555 -0.07564549 -0.13065246 0.1924434 -0.13286199 -0.14282286 -0.014637166 -0.11562411
0.15437873 0.017282197 -0.19268706 0.34697953 0.04440916 -0.8999531 -0.22580619 -0.23308127
0.06334405 -0.03758261 0.05585233 -0.2366982 0.03898993 0.40864468 0.9220258 0.13631742
-0.17924975 -0.1573071 -0.15880583 -0.7127676 -0.34978554 1.1582887 0.06286009 0.05170878

layers.0.bias f4 [128]
00000000: dc0c 1bbf 5a5f 3bbe 30aa 073e d870 f1be
00000010: 8f40 b3bd d5e5 23be 2a5d 0bbf acb5 71be
00000020: 2330 c6be 3851 623e 3799 913d 9c0d dabd
00000030: 9a0f 61bf 99e2 513e f0fa 86bd 0cf6 263e
00000040: 47b6 14be a86b a23d d827 a4be 810a 0ebf
00000050: 790c 75be 405b 25bf e840 babd a59e c8be
00000060: c1cc 30bd fe59 ebbd 13e7 dcbe a5f8 69be
00000070: 1db3 a2be faff 82bd ad82 9cbe 62dd e13e
00000080: 4d23 09bc 71a0 babd 748c 7dbf 2dd9 87be
00000090: 2488 02be 904b 71be 985b 9ebe 3ff5 d23d
000000a0: 07fa f8bd 4bed 97bb 5a75 99be 8dcf 00bd
000000b0: b25f acbe 1cd6 9d3e 387d f7bd 1f81 b9be
000000c0: 81f3 c4be 8742 bcbe 9b12 b9be c249 9cbe
000000d0: 5e48 813e f348 223e 5fbc cd3c 1ba6 0dbf
000000e0: ed6a fd3d 88bb 22be 18f0 853e b654 573e
000000f0: 0cbe 21be 8a6c 303e 15a9 89be 2df6 3bbe
00000100: dfe0 96be 8496 303e 7896 96bc c6b1 28be
00000110: 3416 febd 2488 fb3d 8c6a d7be ebdf e53c
00000120: 8a95 cbbe cdda c6bd c514 b83e be26 89be
00000130: 6af8 783e f542 8ebe e699 a4be 736d 813e
00000140: e43a 873a bafa 88be ab0f b8bd 08ae 96be
00000150: 06c4 043f 7c1b 24bf 3d25 393e 38fa e73c
00000160: 1865 8abd 7ad2 76be 9895 c0be 97b7 95bd
00000170: ab05 83be d6b8 893d 6905 1a3e 6441 c8bc
00000180: f04d 09bf 2fe7 873e 0e71 97be 86ef c1be
00000190: 47b0 303e 7c65 0cbe 2ad6 5abe 5857 be3d
000001a0: 09d1 59be d896 3ebf 1dcb a23e ead1 72be
000001b0: 3ed0 d1be 7bdc bcbe 8cd1 153e 8973 8bbe
000001c0: fd1c cdbe 1ea6 2bbe e6ec dabe 7560 14bf
000001d0: 0b6b f8be 5aa8 eebe 1e01 ab3d 03a9 2a3e
000001e0: 0bc1 12bf 8a01 eebe 2813 1dbf d937 91bd
000001f0: b51e e0be 2505 1f3f 6f15 68be 0d57 e13e
-0.60566497 -0.18298092 0.13248515 -0.47156405 -0.08752548 -0.16005643 -0.5443903 -0.23604459
-0.387086 0.22101295 0.071093015 -0.10647127 -0.8791443 0.20496596 -0.06590831 0.16304797
-0.14522658 0.0793069 -0.32061648 -0.5548478 -0.23930539 -0.6459236 -0.09094411 -0.39183536
-0.04316402 -0.11491774 -0.43145046 -0.22848757 -0.31777278 -0.0639648 -0.30568448 0.44114214
-0.008370233 -0.09112633 -0.9904244 -0.2653288 -0.12747246 -0.23563981 -0.30929255 0.10300683
-0.12157064 -0.004636442 -0.29972345 -0.031447936 -0.3366676 0.30827415 -0.120844305 -0.36231324
-0.3846703 -0.36769506 -0.36147007 -0.30525023 0.25250524 0.1584814 0.025114236 -0.5533158
0.1237391 -0.1589185 0.2615974 0.21028408 -0.15795153 0.17228904 -0.26886812 -0.18355627
-0.29468438 0.17244917 -0.018382296 -0.16474065 -0.12406579 0.12281826 -0.42073476 0.028060874
-0.39762527 -0.09709702 0.35953346 -0.2678737 0.24313512 -0.2778546 -0.32148665 0.25278816
0.0010317233 -0.2675379 -0.089873634 -0.2942965 0.5186161 -0.6410444 0.18080612 0.028317556
-0.06757563 -0.24103728 -0.3761413 -0.073104076 -0.25590262 0.06724708 0.15041126 -0.024445243
-0.5363455 0.26543567 -0.2957844 -0.37878054 0.17254744 -0.13710588 -0.2137076 0.09294003
-0.21271147 -0.7444892 0.31795588 -0.23712888 -0.4097919 -0.36886963 0.14630717 -0.27236584
-0.4006118 -0.16762587 -0.42758864 -0.5795968 -0.48519167 -0.46612817 0.083498225 0.16666035
-0.5732581 -0.4648555 -0.61357355 -0.0709073 -0.43773428 0.62117225 -0.22664426 0.44011727

layers.2.weight f4 [64, 128]
00000000: 7983 903b b601 e83c 0b07 adbc 8b1c 153c
00000010: e799 a43d d35d 19bf 7de1 47bd fe8e d5be
00000020: 4b05 76be ceb9 03be d22c b03e 6a98 483b
00000030: 2f94 86bd 889f 213e e20e 2a3d 67f8 42be
00000040: d001 be3c ec54 4a3e b421 59bd 20e7 dfbe
00000050: 4cff debe 662b 57be ae7e 5a3e 9674 d6bd
00000060: 5c94 8cbc 8b6f b9bd ff6f 513e 7144 e83a
00000070: 2671 0ebe a273 12be 32d1 783c 6d7a 44be
00000080: 7458 123e 5666 8ebe 4feb 8dbc 07be f3bd
00000090: 3db0 c2bc dadf 4fbe 6a2d 3f3c 2211 4e3e
000000a0: a120 febd 69e6 c83d 46ef 463d 3bd3 1abf
000000b0: 6d88 1e3e e432 a4be 74a9 1ebb 1d9d 10bf
000000c0: d9f7 af3b d886 00bc a6a9 483e 3fcb 023e
000000d0: a564 2ebe 4272 c23d a615 8e3c a0e5 d5bd
000000e0: 4cc2 193e 1f10 90be 5b79 87be 27c5 8dbd
000000f0: d280 363e 178c 573e 5cf5 003e 7fba 2b3d
00000100: 282f 02be e661 b13d 9ef9 ec3a 1dff 2e3e
00000110: c1e0 933d 6318 1cbe 5b08 e63d 4826 543c
00000120: 67f9 8d3e 356f 11be 8009 ccbe 3385 57be
00000130: 3d5d 1a3e 75df f7be 5357 10be 0bfa b53d
00000140: cd6e 74bc 3767 7f3e 5438 04bb ec5c b33e
00000150: 5725 94be df76 a7be 547f 4a3e 6108 c83e
00000160: bd01 213e dc99 003c 8566 f83e 39a4 fcbc
00000170: 1ba6 a9be 040b 38be 51f0 f33c 4b6a d83c
00000180: 3ee5 093c d5f0 823e 276e eebd d8f6 663d
00000190: a10d 583e 45d7 a73e 3efc 03be f5ea fcbd
000001a0: 2a2a 9abe 10f1 09bc 8cba 97be f5b4 f03a
000001b0: ca14 b1bc 5d24 843e 70ae b13e a5c0 55be
000001c0: 80ca 26be 4932 153d a207 ad3d 22d8 bebe
000001d0: 1c56 753d 4e2a 4d3b 95a8 6e3e 074c 4e3e
000001e0: b064 8a3b 6916 03bf fc06 993e a0eb bf3c
000001f0: 506b 233e 9fad 2fbc 3e8e 49be 20a2 50be
00000200: 2a05 87be 0948 b33c 32f6 c1bf e83b 2b3e
00000210: 27fa 913d b311 aebe a57f c8be 0e3d b93d
00000220: a0f3 363e 6636 473e 6ed9 12bd f40b b93d
00000230: a915 9cbe 7357 8abd 3595 6abd 4339 80bd
00000240: 38d0 d13c 4e5c 803e a3aa 3d3e 330c 56bf
00000250: 36bd 803e 0f25 03be ebf5 c53e e9ec 61be
00000260: e46d 32bd 820c 0f3e 1535 64be da63 95be
00000270: 3f77 a83d 8c23 54bc 5088 33bd d657 18be
00000280: 5304 953d 8f76 bebc 1524 febe bf87 183d
00000290: 022d 49be b732 133e fffd b33e 7568 8a3d
000002a0: 4672 38be 5035 91bd ad09 3e3c 58bb 31be
000002b0: 8e20 aabe 0ca4 febc fe94 c73d cb93 87be
000002c0: 94ad 19be f241 c8bd 1899 013e 8427 5e3e
000002d0: 5e1c e63b 1d0b 35be bdef 15bd e666 953e
000002e0: abd6 523e 3e40 cc3d bbe0 8f3c 2446 bebd
000002f0: 5618 463d 3cf7 d43d 3e74 a33c 1c2b 6ebd
00000300: 862b a03d 48ab 9ebb f6e1 54be 1605 b43d
00000310: 1fb3 2f3e 1927 21bd ff50 bb3d 4377 193e
00000320: e326 b7bd ed04 31be 1a2c 12be 532d 74be
00000330: 63e1 af3d 54b0 9dbc eabc 263d 4fa8 21be
00000340: f3b3 83be 6dba 65be acdc 8fbd d9ce b23c
00000350: 6cd8 28be a196 de3d 93fb 5a3c d3dd 973e
00000360: 4812 05bd 048c a3bd efdd ac3e bc4b 6bbc
00000370: 233b 463e fe7c 7cbe 5058 2abe 699e b3bd
00000380: 24cb 90bd 2574 083e 99c5 92bb b550 5fbe
00000390: 6312 623e 8bdc 9d3d 979e 783d c87e 21be
000003a0: e482 423e 464e 0a3e 03f2 9bbd 3888 fd3d
000003b0: 7940 c4be cc9a db3d b852 b53e ecfc 283e
000003c0: fb64 3fbe f264 0d3e d123 533e fb77 d73d
000003d0: 1778 063e 3a77 443d 73e8 41bc 9c54 133e
000003e0: 6936 2abe 7c6c 393e 1a14 fa3e be51 c53c
000003f0: 8c05 133d b332 58be 3739 56bc 59eb 5b3d
0.004410204 0.028321128 -0.021121522 0.009101043 0.08037167 -0.5990879 -0.048799027 -0.41710657
-0.24025457 -0.12863848 0.34409195 0.0030608424 -0.065712325 0.15783513 0.0415181 -0.1904007
0.023194224 0.19758958 -0.053010657 -0.43731022 -0.4355415 -0.21012649 0.21337387 -0.10471456
-0.017160587 -0.09054478 0.2045288 0.0017720592 -0.1391035 -0.14301923 0.015186595 -0.19187327
0.14291555 -0.2781245 -0.017324118 -0.11901479 -0.023765678 -0.20300236 0.011668542 0.20123723
-0.12408567 0.09809572 0.048568033 -0.6047856 0.1548173 -0.32070076 -0.0024209889 -0.56489736
0.005370122 -0.007844649 0.19595966 0.12772845 -0.1703058 0.09494449 0.017344307 -0.10444188
0.15015525 -0.281373 -0.26459774 -0.069223695 0.17822579 0.21049534 0.12593597 0.041925903
-0.12713301 0.08661251 0.0018079763 0.17089505 0.07220603 -0.15243678 0.112320624 0.01294858
0.2772934 -0.14202578 -0.39850998 -0.21046905 0.1507463 -0.48412672 -0.14095812 0.088855825
-0.014918995 0.24941717 -0.0020175176 0.3503183 -0.28934738 -0.3270788 0.19775134 0.39068893
0.1572332 0.007849183 0.48515716 -0.030840026 -0.3313454 -0.17972952 0.029777678 0.026417872
0.008416472 0.25574365 -0.11642104 0.056387752 0.21098949 0.32781425 -0.12889192 -0.12349502
-0.30110294 -0.00841929 -0.2963451 0.0018364476 -0.021616358 0.25808993 0.34703398 -0.2087427
-0.16288185 0.03642491 0.084487215 -0.3727427 0.059896573 0.0031305733 0.23306496 0.2014619
0.0042234287 -0.5120607 0.2988814 0.023427784 0.15958905 -0.010722547 -0.19683167 -0.20374346
-0.26371127 0.021884935 -1.5153258 0.16722071 0.07127791 -0.33997878 -0.39159885 0.090448484
0.17866373 0.19454345 -0.03585189 0.09035483 -0.30485275 -0.06754961 -0.0572712 -0.06260922
0.025611982 0.25070423 0.18522124 -0.83612365 0.25144356 -0.12807105 0.38664183 -0.2206303
-0.04356183 0.13969615 -0.22285874 -0.29177743 0.082258694 -0.012947928 -0.04383117 -0.14877257
0.072762154 -0.023249893 -0.49636903 0.037238833 -0.19646075 0.14374815 0.3515472 0.06758205
-0.18012342 -0.07090247 0.011598987 -0.17356622 -0.33227962 -0.031084083 0.09745215 -0.26479945
-0.15007621 -0.09778203 0.12656057 0.21694762 0.0070224246 -0.1768002 -0.036605585 0.29180068
0.20589702 0.09973191 0.017563215 -0.09290722 0.048363052 0.10398719 0.01995289 -0.05814658
0.078208014 -0.0048421957 -0.20789322 0.087900326 0.17158173 -0.039343927 0.09146308 0.14986901
-0.08942964 -0.17287035 -0.14274636 -0.23845415 0.08587911 -0.019249119 0.040707506 -0.15786861
-0.25723228 -0.22434397 -0.07024512 0.021827148 -0.16488808 0.10868574 0.013365644 0.29661426
-0.032488137 -0.0798569 0.33763072 -0.014361318 0.19358496 -0.24657056 -0.16635251 -0.08770449
-0.07069996 0.13325556 -0.004479122 -0.21808131 0.22077326 0.07708081 0.060698118 -0.1577102
0.18995243 0.13506421 -0.076145194 0.12379497 -0.3833044 0.107228845 0.35414672 0.16502732
-0.18690865 0.13808039 0.20619132 0.10520931 0.13131748 0.047965266 -0.011835205 0.14387745
-0.16622318 0.1810779 0.4884346 0.02408683 0.03589396 -0.2111309 -0.0130751645 0.053691242

layers.2.bias f4 [64]
00000000: 36f0 21bd e552 813d 89c4 5100 103b 3a3e
00000010: 6154 433e 974f 10be 0670 34b7 f18f 043e
00000020: 889c 47b3 7cf6 aa3d f1b0 1bbd 9181 8eb9
00000030: 3c28 093d 767d 14b1 5920 143e 5541 cfbd
00000040: d306 76bc aa67 1b3e 5117 feb3 8541 f1bc
00000050: 6000 e333 cb11 383e bd2f 883e f034 153d
00000060: e22f d6b9 813a 4ebc 2c1c 6fbd c1b4 043d
00000070: 8f56 5b3e 08e7 a5b9 c738 77ba 21f9 cfbb
00000080: cc54 abaa 967e 2b3e a37b 03bc 2404 b8bd
00000090: f867 e23d 807e 13be 4eec cebc 0772 f8bc
000000a0: e7f0 f0bc 9201 b5bd 2a09 ecbd 779e cabd
000000b0: c094 84bc aa97 b5bd 860d 63bc 7a76 c93d
000000c0: 772e 19bd afa4 99bd 1418 9e3e 2cfe ae3d
000000d0: 92f1 a1bd 0ae7 c93d 3ec0 ad3e 2e3d c9bc
000000e0: ddcd f83d 1efd ccbe 5cb3 4abd 7ff1 c7b9
000000f0: 6429 1bab 2b5c b7be fad4 523d d77b 99b7
-0.039535724 0.06314639 7.509179e-39 0.18186593 0.19075157 -0.14092861 -1.0754919e-05 0.12945534
-4.6475662e-08 0.083477944 -0.03801054 -0.00027180885 0.033485636 -2.160815e-09 0.14465465 -0.10119883
-0.015016275 0.15176263 -1.1832038e-07 -0.029450187 1.05705794e-07 0.17975537 0.2659892 0.03642744
-0.00040852936 -0.012587191 -0.058376476 0.032398943 0.21419738 -0.00031643384 -0.0009430763 -0.006346837
-3.0434542e-13 0.16747507 -0.008025083 -0.08985165 0.11054987 -0.14403725 -0.025259163 -0.03032781
-0.029411746 -0.0883819 -0.115251854 -0.09893506 -0.01618421 -0.08866818 -0.013858205 0.09837051
-0.037397828 -0.07502114 0.30877745 0.08544573 -0.07907404 0.0985852 0.33935732 -0.024565306
0.1214864 -0.40036863 -0.049487457 -0.00038136166 -5.5124503e-13 -0.35812506 0.05147264 -1.8296689e-05

layers.4.weight f4 [64, 64]
00000000: be9f c1bd 5233 02bd 055e ea00 ba34 eabe
00000010: 3ecd ecbd cc3b 99bc bcd8 6f35 e00f 483e
00000020: 2cd6 a981 58e8 ed3b 8eb5 953c 2dbd 8538
00000030: 8a90 82be 3026 1800 88e5 cb3d 058a 03bb
00000040: e4d9 4abb d9e8 c2be 5d64 8380 22d4 f4bd
00000050: 55b4 0d00 8d32 00bf a06b 78be 3005 be3c
00000060: 2d80 38b4 e14d 50b3 aa8f 83bc 8f81 a7be
00000070: 1577 e2bd 878e 5eb7 000c 2f36 d6c5 ba38
00000080: 95a1 0aa6 582f 5bbe e5eb 863b c318 ca38
00000090: 2a70 d73b e2b4 563e 2a4e 0abc 2ae2 ee3d
000000a0: 4e53 ecbc d098 983d 08b0 933d 16d3 c13c
000000b0: 61aa 613c e53a 6ebd 81b4 c63d 4d21 0f3d
000000c0: e835 01bd c225 83bb 49f4 03bf 0c58 433d
000000d0: 1707 8d3e 5c9e 553e 041a 683e c2c2 4cbc
000000e0: ecbf 55bd 4142 7900 be2e dd3b 19d2 c8bc
000000f0: 2d82 a824 a924 763e adcf e5ba 9a14 2530
00000100: 2047 acbb ad69 f8b6 0407 6300 6fe8 bcbc
00000110: 17c5 89ba dffd 6c80 19d4 8681 0ebb 05b8
00000120: 70ac 0380 e51a 01b9 68d4 68b4 805f 2500
00000130: f771 bbbb e4ce a500 d09f 18bb 0136 f9b2
00000140: c268 7f9a 8f65 18bc 8cdf 1980 cd73 93bc
00000150: 3ef2 5c01 5b10 86bc c964 3dbd 2834 7eb7
00000160: 2500 5d00 aa0c db00 15f5 6a3b 823d 6fbc
00000170: ea67 0dbb 5f96 3593 885c cc80 584f 0f01
00000180: 63b8 6300 b3c4 95bb 7961 8029 bdde 9099
00000190: 07f9 3fb6 a34c 123d d438 ad01 3ff9 b339
000001a0: 57be b5ad 1b83 0827 3c8c 28b9 c244 462f
000001b0: 7c51 4100 030f a8bb 81f8 67ba 99cd 7136
000001c0: aec1 24b9 776e a132 4a40 80bc 2095 ba38
000001d0: 030a afbb 30b8 20bb 687a d139 ea37 762e
000001e0: b12e 65ba f0ed 2ba5 5204 a7ae 6a6c 8abb
000001f0: d820 4c80 ba8f 6b3c e584 57ab 0976 3d80
00000200: 99d5 cabc 415d ba3a fdce 2101 9686 2abe
00000210: b26f c63c c814 0831 09da 6500 2526 fdbb
00000220: 74be 4180 3f87 58b8 013a 54ba ac19 82ab
00000230: ed38 3dbc cd6f a381 f41b 153d 76de e2bc
00000240: 44de 73ba 49e2 c7bd 633c eb80 1104 1bbe
00000250: c0da 5100 c186 833c 86a1 5abe 51a6 b2bb
00000260: f11e 21a6 8b4b 0400 7e90 8fbd 7edf 9bbd
00000270: acae 3ebd 23f7 1eae 7566 10b4 9374 9183
00000280: e700 1e00 f969 1b3d 1ee2 90bb 34ef ba39
00000290: 8ac3 d63c 447b a83c dc59 4a38 d03f acbd
000002a0: 5dff f808 54cf 1abb 259b de3b e35d 863c
000002b0: 5d64 ba37 609a 1ebd 5117 c83c 71e4 bf3b
000002c0: 5ddb edbc e4cb 0cbc 55f9 d0be 4690 2cbc
000002d0: c052 dabc 2205 2ebd d6c1 523e 1fdf 2a36
000002e0: 59e9 87bc f1f7 c480 80bd fbba 4da6 e1bd
000002f0: e0a2 2b80 9adf 5bbc 6599 c8b9 59e4 da80
00000300: a3f0 823e 1912 993d 80c0 8ba1 295c 5ebb
00000310: 30ef 9c3d 04c9 fe3c 5414 36b4 a00e 9c3d
00000320: aaf1 ac28 72b7 573d 97fa fc3e d777 7037
00000330: cc01 0c3e 65e1 cc31 035c 653e 403e db3e
00000340: 8630 893e 7ac5 ea3d 0697 22a7 4e81 a73d
00000350: 539e e2b4 2ec9 f33d 45e2 4f3e a12c 9b3e
00000360: 556e b438 b4aa 1c3c 9457 0a3d b463 613e
00000370: 42a7 e43d d4e1 26b7 faef 4cba 4471 89ba
00000380: 01b9 c22b 0bd4 8f3e f172 d63e 4e48 033f
00000390: 6f1f 173e 657a 18be 005f 4b3c fcf0 953e
000003a0: e6f8 943e 26e2 bf3e 84af 413e 7428 9d3d
000003b0: cda8 c53c b765 b33e 2a75 d53e 85bf 11bf
000003c0: 7601 1e3d 8567 aa3e 1703 2f3e 99cd a03e
000003d0: e000 0e3e 5688 6e3e cb51 d8be b539 afbb
000003e0: 16f4 043e c912 163e 5bd3 dc3d 6dd7 d33e
000003f0: a1b3 d52f e358 9bbe 75c6 a33e 3d84 4a30
-0.094542965 -0.031787224 2.1523234e-38 -0.45743352 -0.11562584 -0.018705271 8.934983e-07 0.19537306
-6.2388117e-38 0.0072603635 0.018275049 6.377171e-05 -0.255009 2.217751e-39 0.09955889 -0.002007128
-0.0030952627 -0.38068274 -1.2066454e-38 -0.119545236 1.258552e-39 -0.50077134 -0.24259806 0.023195833
-1.7182965e-07 -4.8499604e-08 -0.016059715 -0.32716033 -0.11057869 -1.3265416e-05 2.6084017e-06 8.906021e-05
-4.809735e-16 -0.21404779 0.0041174763 9.636723e-05 0.0065746503 0.20967439 -0.008441487 0.11664231
-0.028848317 0.07451022 0.0721131 0.023660224 0.013773532 -0.058161635 0.09702397 0.034943867
-0.03154555 -0.004002304 -0.51544625 0.04769139 0.27544472 0.2086119 0.22666174 -0.012497606
-0.052184984 1.1135862e-38 0.006749957 -0.024514245 7.307891e-17 0.24037422 -0.0017533206 6.0055927e-10
-0.005257502 -7.4032782e-06 9.094231e-39 -0.023060052 -0.0010511008 -1.0009305e-38 -4.952817e-38 -3.188388e-05
-3.37365e-40 -0.00012312418 -2.1683957e-07 3.432172e-39 -0.005720373 1.5227075e-38 -0.0023288615 -2.9011973e-08
-5.2817387e-23 -0.009301557 -2.376081e-39 -0.017999554 4.0581419e-38 -0.01636522 -0.046238694 -1.5151723e-05
8.540753e-39 2.0116517e-38 0.0035851647 -0.014602067 -0.002157683 -2.291955e-27 -1.8767635e-38 2.6321878e-38
9.15786e-39 -0.0045705675 5.701251e-14 -1.4979214e-23 -2.860617e-06 0.035717618 6.363171e-38 0.00034327243
-2.0661845e-11 1.8944864e-15 -0.0001607397 1.8032423e-10 5.998538e-39 -0.0051287427 -0.00088489807 3.6031472e-06
-0.0001571241 1.87931e-08 -0.015655655 8.896948e-05 -0.0053417697 -0.0024523847 0.00039954786 5.5983586e-11
-0.00087426143 -1.4912502e-16 -7.595048e-11 -0.0042243497 -6.99128e-39 0.014377529 -7.656777e-13 -5.644308e-39
-0.024760054 0.0014218466 2.9719537e-38 -0.16652903 0.024223182 1.9802417e-09 9.353601e-39 -0.0077254944
-6.037629e-39 -5.162437e-05 -0.00080958015 -9.244181e-13 -0.011549217 -6.003717e-38 0.03640361 -0.027693968
-0.00093028345 -0.09759957 -2.1603004e-38 -0.1513827 7.517148e-39 0.016055467 -0.21350679 -0.0054519554
-5.590003e-16 3.94442e-40 -0.070099816 -0.07610987 -0.0465533 -3.6144542e-11 -1.3448319e-07 -8.549098e-37
2.755389e-39 0.03794286 -0.0044214865 0.00035654905 0.026216287 0.02056659 4.824424e-05 -0.08410609
1.4985993e-33 -0.0023622112 0.006793397 0.01640219 2.2219663e-05 -0.038721442 0.02442518 0.0058560898
-0.029035265 -0.008593533 -0.40815225 -0.010532444 -0.026650786 -0.042485364 0.20581755 2.5461848e-06
-0.016590761 -1.8088702e-38 -0.0019206256 -0.110180475 -4.007355e-39 -0.01342001 -0.0003826126 -2.0102054e-38
0.25574216 0.07474155 -9.469961e-19 -0.0033929443 0.07662809 0.031101711 -1.6957466e-07 0.07619977
1.9200641e-14 0.05266518 0.49409935 1.4333017e-05 0.1367256 5.962806e-09 0.22398381 0.4282093
0.26794833 0.11463447 -2.2563886e-15 0.0817896 -4.2210976e-07 0.11903606 0.20301159 0.30307487
8.60362e-05 0.009562183 0.033774927 0.2201069 0.111647144 -9.946951e-06 -0.0007817742 -0.0010486026
1.3835878e-12 0.28091463 0.41884568 0.51282203 0.14758085 -0.1489044 0.0124127865 0.2928542
0.29096144 0.37477225 0.1891461 0.076737314 0.024128342 0.3503854 0.41690952 -0.5693286
0.038575612 0.33282104 0.17091022 0.3140686 0.13867521 0.23294196 -0.42249903 -0.0053474554
0.12983736 0.14655603 0.107825 0.41375294 3.8872108e-10 -0.30341253 0.31987348 7.3675094e-10

layers.4.bias f4 [64]
00000000: d4b8 583e f4de 76bd 8051 4a3d 087a be3d
00000010: e119 ba3e a718 8f3d 72f9 143e bb41 c73d
00000020: b85a 9d3e 76e3 393c b2d0 223e c589 179c
00000030: 439b 523e f5c2 31bd 35dc 47be 481a 59bb
00000040: b44c 003e 1680 033e 42e4 a53d 3d9a 0c3f
00000050: 0cab 493e 6cde 41bd 4863 c53e ecf6 03bd
00000060: 82f3 89bc e37c a4bd b545 063e e6db 903e
00000070: 122c e63e 30b7 c0bd 89d3 cdae bc96 16bd
00000080: 7fc0 283f 60ea c63c 8cb1 ddbc 2231 cbbd
00000090: 235e 8c3e 8a40 b7bd dbbf 78bd c497 82bc
000000a0: 0ee2 473e 3b4c 1d3d c0cc 113e b718 75bd
000000b0: a155 79b9 80c7 21bd 8f9c 683d c1d1 0d3e
000000c0: 9bf4 fc3d e938 0f3d a795 15be a875 96be
000000d0: a1ec f9be 3da9 8abc 3ddd f9b3 2c49 1d3e
000000e0: 649f 6d3d 719e 3cbc f8e4 00bd a1f8 e1bb
000000f0: 4d67 3c3e 568c 533e b4b2 cebd 6919 933e
0.21164256 -0.06027122 0.04939413 0.09300619 0.3634787 0.06987124 0.14548281 0.09729334
0.30733275 0.011345735 0.15899923 -5.013977e-22 0.2056704 -0.043398816 -0.19517596 -0.0033127237
0.1252926 0.1284183 0.08100177 0.5492285 0.19694155 -0.04733126 0.38552308 -0.032217905
-0.016839746 -0.08031633 0.13112529 0.2829277 0.44955498 -0.0940994 -9.359897e-11 -0.036764845
0.65918726 0.02428168 -0.0270622 -0.09921481 0.2741557 -0.08947857 -0.060729843 -0.015941508
0.19519827 0.038402777 0.14238262 -0.059838023 -0.0002377839 -0.0394969 0.05678993 0.13849546
0.12351342 0.034966383 -0.14607869 -0.2938664 -0.48813346 -0.016926402 -1.1635209e-07 0.15359944
0.058013335 -0.011512385 -0.03146836 -0.006896094 0.18398781 0.20659003 -0.10092679 0.28730324

layers.6.weight f4 [32, 64]
00000000: c43c 0abd b39b 433a 6397 94ba dc9a 2abe
00000010: 843e 2fba f02d c6ba 44d3 91bc 79fe 0fbc
00000020: 18a5 433c c9af 6a3b 2e6f 7dbc 0b99 0501
00000030: 8551 86bc ca60 d9ae 2749 123d 4aa8 c8bb
00000040: 067b 61bb 085a 78bb 161e 05bb 26dd b9bb
00000050: 3a5b ffbb ef07 7700 f855 48bd 4e21 98bb
00000060: 47d4 4a3b 7d73 7b39 a497 2abc daca 173d
00000070: 1a45 87bd 07f7 ce3b f88f 1d81 90d6 4ba9
00000080: d696 f2bc a6d2 31b7 7edf 9abb f83c 50bc
00000090: f163 42bd e83a ae81 6062 6e32 f079 6081
000000a0: 0998 81bd 8052 c2bb 80eb 36bc e4a3 3dae
000000b0: 02ed b580 ee22 a239 defd 0bbc 5115 72bd
000000c0: c567 edbb 33db aebc c8f8 9a3b fe96 dabd
000000d0: 9b67 093d 86f5 d0ad 30f3 8300 9b58 c23c
000000e0: 1109 bcbc cef2 49bc 64d2 2809 68ab dc00
000000f0: 032f adbd 23ec 1cbd 7616 75bc fc1b a93c
00000100: a5ab 09be baf3 433c 30a7 0fbd d942 313e
00000110: 4a1b e3be 662e 273e 9336 d9bd c503 cc3c
00000120: 94c6 f03c a003 133e a95a c8bd 72c9 bd9e
00000130: 2ddf 873d 4c71 db3c 7d50 123f c138 97bd
00000140: 7b73 0e3e b203 e6bc 1b88 45bd 7585 1bbe
00000150: 3bc3 663e 907a 313c 5ed1 4dbe e65b 6fbc
00000160: c60c a03d 3eb1 74bc 6de1 433e ecb0 3b3e
00000170: 8c67 d4be 4164 cebe ade2 a800 1d0d 63bc
00000180: 5f76 29bf 61ce 873d 7b89 e73c c71f b8bd
00000190: fde5 3abd eed4 ce3c ae7d 96bc 33e3 eabb
000001a0: 30ac 983b 0e4a 053d 92cd 323e 1283 8fb6
000001b0: 9512 9333 2471 0b3f 4a9c 833d 6a38 563e
000001c0: 58ea 1d3e 2436 b2bd 93ff 8cbe bf9d 893d
000001d0: 9bad 61be d6f9 88b9 1777 40b4 3799 c4bc
000001e0: 9a56 5dbc 04e8 6e3d 6561 b1bc fb92 2fb9
000001f0: 01db 183e 0159 89be 124a 153d c40b d3bc
00000200: f8a7 0c3f ff80 3bbc ef13 a33e 01fa 4cbe
00000210: dc2d bcbd 56d5 463d 6ffe 9a3e 02ac cd3e
00000220: fbd3 22be 73a0 813d 0b66 863e f3dd e700
00000230: 77da 08be 2515 883d 9b90 42bd 0002 c23d
00000240: 5237 32be 1efa 073f 9c30 1e3e a129 9d3d
00000250: 5c47 533c f931 5c80 db47 ad3d fe9a 90bd
00000260: 3ac0 303d b3d5 253c 1a86 ebbd 176e a73e
00000270: e627 f13e da30 a1bc 1e87 e28b f15c 393b
00000280: fad1 bf3d 95d0 cb3d c3e9 c33d d300 01be
00000290: 9938 c53e 5773 17bc 1c56 0f3e 8920 78a6
000002a0: 8ebe 8dbd e20d ef3d 8090 16be f441 dcbc
000002b0: 8895 7681 706f 293e 4a37 07bd 620f 60bd
000002c0: 75c0 0e3e 4990 733d 321b 4c3e d9d0 06bf
000002d0: c634 e0be c68f fb3a e6f2 4d00 8bc0 12bd
000002e0: 12bb d93b 6024 62be 947f 662c 6161 aa2f
000002f0: af8a f8bd e96a 0dbe f6c8 633d 7da8 ed3e
00000300: 6b32 e500 64ab 9f01 714f 3681 a6ad 6700
00000310: 3664 1d80 e6ae 7101 d5d1 8780 b442 a001
00000320: 67cf 2f8c 6e3e 5200 f203 4801 204f 2681
00000330: 82a5 ee00 0ce4 ed00 049a 0381 0526 2781
00000340: ebfb bf00 50fe 3a01 ee1f 6580 5317 e489
00000350: 2459 3a00 5251 0401 175d ae93 6c8e 3f01
00000360: f785 1800 e071 0f80 1e38 5000 5128 3d00
00000370: aa48 bc80 24d4 5781 98b7 3b01 2c19 a780
00000380: f90d 0292 959f b901 b1e3 7080 e431 cd00
00000390: 2959 8081 5d58 9a81 9dce ef00 18cf 4e80
000003a0: 0df1 0c81 a3bb 5480 71e4 4801 f0b4 e980
000003b0: 00ef 2301 9c32 4901 d467 5b00 ff60 6e00
000003c0: a71e 9f01 d0fc 5480 dc10 8280 ac0f 0a81
000003d0: 77bc d607 4248 fa80 3e13 1980 3beb 5c01
000003e0: 54e9 9801 3031 ce80 8e09 1481 caaa 0681
000003f0: 8beb 5380 00e1 fc80 8e6c 6681 2e99 2501
-0.033749357 0.00074618607 -0.0011336621 -0.16660637 -0.0006685036 -0.0015119892 -0.017800935 -0.008788698
0.011941217 0.0035810343 -0.015468402 2.4538045e-38 -0.016396293 -9.885211e-11 0.035714295 -0.0061235772
-0.0034405603 -0.003789546 -0.0020312122 -0.005672115 -0.0077928575 1.093127e-38 -0.04891011 -0.004642642
0.003094928 0.00023980248 -0.0104121305 0.03705869 -0.06604977 0.006316069 -2.8939638e-38 -4.5261158e-14
-0.02961294 -1.05990675e-05 -0.0047263494 -0.012709849 -0.047458593 -6.400203e-38 1.3875791e-08 -4.1229788e-38
-0.063278265 -0.005930245 -0.011164546 -4.311919e-11 -1.6707247e-38 0.00030925072 -0.008544413 -0.05910236
-0.0072450363 -0.021344757 0.004729364 -0.10673331 0.03354607 -2.3755897e-11 1.2117689e-38 0.023723891
-0.022953542 -0.012325956 2.032119e-33 2.0265298e-38 -0.084562324 -0.038311135 -0.014958968 0.020643227
-0.13444383 0.011959964 -0.03507155 0.17310657 -0.44356757 0.16326293 -0.10606112 0.024904141
0.029391564 0.14356852 -0.09782917 -2.009447e-20 0.06634364 0.026787423 0.57154065 -0.07383872
0.1391124 -0.028077934 -0.048225503 -0.15187629 0.22535412 0.010832444 -0.20099398 -0.014609313
0.07814936 -0.014934836 0.19128962 0.18329209 -0.4148525 -0.40310863 1.550968e-38 -0.013858107
-0.66196245 0.066311605 0.028263798 -0.08990436 -0.04562949 0.025248017 -0.018370476 -0.0071681975
0.004659198 0.032541327 0.17461231 -4.2769907e-06 6.848601e-08 0.54469514 0.06426294 0.20919958
0.15421426 -0.08701733 -0.27538738 0.06719541 -0.22038881 -0.00026126084 -1.7924718e-07 -0.02399884
-0.013509417 0.058326736 -0.021652887 -0.00016744055 0.14927293 -0.26825717 0.036447592 -0.025762446
0.549438 -0.011444329 0.31851146 -0.20017244 -0.091884345 0.048543297 0.30272242 0.40170294
-0.15901177 0.063294314 0.26249728 2.129362e-38 -0.13364588 0.06644658 -0.047501188 0.09473038
-0.17403916 0.53116024 0.1544823 0.07673956 0.012895431 -8.466792e-39 0.08460971 -0.070608124
0.04315207 0.010121751 -0.11500187 0.3270118 0.47100753 -0.019676615 -8.7255335e-32 0.0028284157
0.09366222 0.09951893 0.09566071 -0.1259797 0.38519743 -0.009243808 0.13997692 -8.608638e-16
-0.06921111 0.1167257 -0.1470356 -0.026886918 -4.5290348e-38 0.16546416 -0.033011712 -0.05470217
0.13940604 0.059463773 0.19932249 -0.52662426 -0.43790263 0.0019192628 7.158469e-39 -0.035828155
0.006644615 -0.22084188 3.2755786e-12 3.0992012e-10 -0.12135827 -0.13810314 0.055611573 0.4641761
2.1048415e-38 5.865331e-38 -3.3485117e-38 9.52135e-39 -2.699178e-39 4.4390193e-38 -1.2473066e-38 5.887043e-38
-1.3543922e-31 7.552906e-39 3.673703e-38 -3.0546154e-38 2.1916221e-38 2.184682e-38 -2.41714e-38 -3.0700333e-38
1.7630951e-38 3.4345265e-38 -9.28684e-39 -5.4910937e-33 5.358436e-39 2.4302915e-38 -4.401557e-27 3.5183342e-38
2.25211e-39 -1.418383e-39 7.366971e-39 5.616428e-39 -1.729114e-38 -3.9641467e-38 3.4478198e-38 -1.5345558e-38
-4.103799e-28 6.8187256e-38 -1.0367256e-38 1.8844174e-38 -4.714771e-38 -5.669746e-38 2.2022802e-38 -7.23746e-39
-2.5886884e-38 -7.781493e-39 3.6898097e-38 -2.1462579e-38 3.0109846e-38 3.695418e-38 8.394277e-39 1.01367e-38
5.845136e-38 -7.804874e-39 -1.1944663e-38 -2.535784e-38 3.230991e-34 -2.2984795e-38 -2.30279e-39 4.0576388e-38
5.617079e-38 -1.8935757e-38 -2.7190162e-38 -2.4734448e-38 -7.706843e-39 -2.322326e-38 -4.2322212e-38 3.0415615e-38

layers.6.bias f4 [32]
00000000: af25 773d 8eac 823e 218c 82bc 789c 018c
00000010: bf37 34aa 4d9b 98bb b3c3 b4b1 68e7 d73d
00000020: f115 9e3e c145 b33e ea2f af3e 56b4 95bc
00000030: ceea f43b 08ea babc 4778 ba3e 4ea2 453e
00000040: c89e 853e 8122 69bd 2d5c 0cbd 26d2 8abc
00000050: c5e1 753e 9874 a23e 7a24 853e 6bcf 95bc
00000060: 4563 c0b3 6cd1 cfbb 36c8 ad99 75dc 58bc
00000070: 4780 babc afab 01b3 95e4 9ebc b0c9 00bd
0.060338672 0.25522274 -0.01593596 -9.984884e-32 -1.6006552e-13 -0.004657185 -5.260938e-09 0.10542184
0.30876115 0.35014156 0.34216243 -0.018274467 0.00747428 -0.022816673 0.3641989 0.19300196
0.26097703 -0.05691767 -0.034267593 -0.01694591 0.24011905 0.3172958 0.26004392 -0.018287381
-8.958754e-08 -0.0063421037 -1.7968645e-23 -0.013236155 -0.022766246 -3.01913e-08 -0.019396106 -0.031442344

layers.8.weight f4 [32, 32]
00000000: 6b6b 07bc c574 a6be fcc2 083f f2b9 042c
00000010: 8791 3eb9 1b9b 993c 0e13 87ab 7333 4abc
00000020: a783 af3c 1892 74be e20c 143d caed bfbc
00000030: ef67 aeb4 c26f 24ba 3ece 203e c6e6 f53e
00000040: d4cc 553d 244a d03e 78dd 6b39 0820 05bd
00000050: 0795 92be 57d8 a23c dce1 c53e 8513 98bb
00000060: 3867 c180 646f 5a3c e0ab ac20 8434 3481
00000070: c361 c2bb fb3f dcb2 2d17 1bb3 672f 01bc
00000080: 9ac3 7680 6648 adb0 914f 0b81 69ac 6080
00000090: 0dfb 4b81 8382 aa80 f0bf 5000 7b2b 7400
000000a0: fb82 42a3 87d8 60af 82d5 8caa 8a2b 3001
000000b0: a749 b281 40c6 6980 eb85 e0b8 4eaf c400
000000c0: 9265 8ba7 80e8 3f80 f81b 3a80 3ec6 9881
000000d0: fd4b 40ab f5b4 81b9 af3e c885 809e 3700
000000e0: 1e86 4b01 a888 6580 4cc4 a080 6259 2a00
000000f0: c03d 6400 60c2 3800 ac75 ad01 207e d000
00000100: 2563 343a bf1a a4be c69a 013f 1d43 b424
00000110: f2fe 1fb7 5d1c b03c daa6 90a1 55a0 c3bb
00000120: e8c0 413d 135d 4ebe 04d2 aabc bb6f cabc
00000130: 93f0 aab1 448e 9cb8 28c6 8b3d 962f c43e
00000140: 53a7 523d ec50 bd3e aa7b fb3b 1575 97bc
00000150: b205 11be 3c81 8c3d fa5a 863e f323 8cba
00000160: f7b2 dd00 373e 633b b451 b892 218e 4481
00000170: 798f e0b9 8bf7 e5ae f671 7ab0 1092 54bc
00000180: 9c92 7980 bedf 5cb9 960a 2424 c0da b100
00000190: 8e28 0f80 d7e3 a280 9d84 7301 afd4 dfb7
000001a0: 17c0 38b9 30a8 16b9 8f39 00ba ed18 7d00
000001b0: 1e21 ac81 7c65 2981 adf6 bfbb f2b6 82b6
000001c0: fc23 7cb9 97d2 1817 ea58 9300 47b8 e680
000001d0: d230 34b8 3e0c c2b9 dcc8 2bb8 5c40 4d01
000001e0: 542a 4501 0096 1c81 7491 9c81 c969 1881
000001f0: 8359 e900 7a36 0901 e045 3a80 083f a080
00000200: 28b7 4780 dfe0 79bb 92ea 2b1c c869 9f01
00000210: acc9 2301 6b88 8801 8eb5 bd01 c612 dbba
00000220: ac5c 47bb 7a0c 7ebb c9c7 ccbb abd7 2121
00000230: 2165 8200 40a5 5200 94bb d021 b8d3 ec1d
00000240: 9905 6fbb 2963 1d1c 6d12 a001 a1bd 681f
00000250: 05ae f4ba a133 a3a2 08db 149f f0aa 6f01
00000260: 8dc1 7e00 951a a081 f7aa ae81 a48b 8281
00000270: f88e 7c80 4b5f b480 3085 6601 7cdb ad1d
00000280: c0b5 9fba 69ce 00be b1fd 7021 4487 5900
00000290: 46ef 3e28 33cd 0c3d 6f73 0901 048f 32be
000002a0: 4e46 99bb 0e5a 373a 0b9b 093e b736 27bc
000002b0: 9276 9439 dcc5 0511 e0f4 85be 7408 481e
000002c0: 36a3 9dbc 8d73 8600 67a4 673a 3edf 03bd
000002d0: 06d4 a2bd 3000 74be 5bbe e036 6ed7 3fa6
000002e0: 1c21 4c00 40f0 08ba 1ce7 4980 a395 5801
000002f0: ebd5 17bb 9c23 c400 1029 b180 afa1 e0ba
00000300: 63c2 5e80 0c70 92ba af0c eb9f 25b0 7580
00000310: 3867 fa80 ecfe 6901 50a5 d280 974f 87b9
00000320: 21fd 06ba 6557 0ebb 54bd d1ba cc80 a001
00000330: e7ab 8800 d625 7d81 1a71 d5bb 0a3d f2b9
00000340: 7306 a9ba 6e42 94b2 5cf8 7200 5c95 b7ba
00000350: ce6a 2039 0b80 0cba 1ee6 78ba 80d5 cb00
00000360: 424f 1880 28e8 c800 3e2d 1181 c802 4e81
00000370: 6e59 5981 34a7 ac01 74e8 1281 8a70 f000
00000380: 771e 9cbb 91c4 2b3c 8017 2b3d 26d5 2181
00000390: cf0e 4c39 9959 073d 7667 6b9b cd44 573d
000003a0: 12ba 2a3c 32af 63bc fdc1 7b3d 4f00 303b
000003b0: bf34 0e3d d521 d33a a54b a7be 4092 633d
000003c0: 0fd1 433e 3afd 65ba 2ed0 5c3a 17e0 b53a
000003d0: 73ef 383e 0947 a8be a947 cabd 81bd d7ba
000003e0: 3208 0301 f41e 6f3b 3222 6000 9cf4 863c
000003f0: 9d4f 35bb 5c93 24a1 dcbe d71f 0b39 543c
-0.0082653565 -0.32510963 0.5342252 1.8861549e-12 -0.00018174025 0.018750718 -9.597616e-13 -0.012341368
0.021425081 -0.23883855 0.0361451 -0.023428816 -3.2485647e-07 -0.0006272757 0.15703675 0.4802763
0.052197292 0.40681565 0.0002249385 -0.03250125 -0.28629324 0.01987855 0.3864888 -0.004640999
-1.7761279e-38 0.013332222 2.925167e-19 -3.3098457e-38 -0.0059320643 -2.5640466e-08 -3.6109828e-08 -0.007884837
-1.0906757e-38 -1.2607984e-09 -2.5587354e-38 -8.878057e-39 -3.7465332e-38 -1.5658853e-38 7.415694e-39 1.0668515e-38
-1.0544497e-17 -2.0449607e-10 -2.5017147e-13 3.2357332e-38 -6.549256e-38 -9.713846e-39 -0.000107060965 1.8062645e-38
-3.8690373e-15 -5.869042e-39 -5.336492e-39 -5.6120445e-38 -6.831756e-13 -0.0002473962 -1.8830936e-35 5.107811e-39
3.7381436e-38 -9.324408e-39 -1.4764097e-38 3.889155e-39 9.205701e-39 5.212516e-39 6.3719014e-38 1.9147028e-38
0.0006881229 -0.32051656 0.5062679 7.817625e-17 -9.536498e-06 0.0214979 -9.801985e-19 -0.005970041
0.04730311 -0.20152692 -0.020852096 -0.02471148 -4.9750013e-09 -7.465159e-05 0.06824905 0.38317555
0.051429104 0.369758 0.007674654 -0.018488446 -0.14162329 0.06860587 0.26241285 -0.0010691866
2.0359845e-38 0.0034674534 -1.1632174e-27 -3.6101487e-38 -0.00042831505 -1.0457687e-10 -9.111142e-10 -0.012974277
-1.1164689e-38 -0.00021064185 3.5570798e-17 1.6333356e-38 -1.392081e-39 -1.4959084e-38 4.4727196e-38 -2.668271e-05
-0.00017619166 -0.0001436777 -0.00048913894 1.1488379e-38 -6.323034e-38 -3.111321e-38 -0.0058582635 -3.8955995e-06
-0.00024045998 4.937965e-25 1.3531714e-38 -2.118827e-38 -4.296081e-05 -0.00037011685 -4.0956642e-05 3.769873e-38
3.6213554e-38 -2.8760295e-38 -5.7514065e-38 -2.7993888e-38 2.1429781e-38 2.520201e-38 -5.351525e-39 -1.4716291e-38
-6.586024e-39 -0.0038128418 5.688233e-22 5.8559164e-38 3.0083064e-38 5.015426e-38 6.9688153e-38 -0.0016713969
-0.0030420227 -0.003876476 -0.006249402 5.4834356e-19 1.1974893e-38 7.589791e-39 1.414428e-18 6.268759e-21
-0.0036471842 5.2075104e-22 5.880116e-38 4.9284768e-20 -0.0018667585 -4.4235903e-18 -3.1521397e-20 4.402001e-38
1.1640705e-38 -5.881286e-38 -6.416283e-38 -4.795483e-38 -1.1438889e-38 -1.6564574e-38 4.2339886e-38 4.601966e-21
-0.0012184903 -0.12578739 8.165092e-19 8.221883e-39 1.0599003e-14 0.03437538 2.5245745e-38 -0.17437369
-0.0046775704 0.0006994315 0.1343805 -0.010205916 0.00028317102 1.055282e-28 -0.26163387 1.058966e-20
-0.019242864 1.2347408e-38 0.00088364485 -0.032195322 -0.079505965 -0.23828197 6.6978805e-06 -6.65584e-16
6.991375e-39 -0.00052237883 -6.786898e-39 3.9780293e-38 -0.0023168277 1.8012531e-38 -1.6269613e-38 -0.0017138029
-8.70227e-39 -0.0011172309 -9.9547355e-20 -1.0807942e-38 -2.2995902e-38 4.297824e-38 -1.9344757e-38 -0.00025808506
-0.00051494135 -0.0021719572 -0.0016001859 5.895953e-38 1.2551294e-38 -4.6495907e-38 -0.006513727 -0.00046203315
-0.0012895599 -1.7259676e-08 1.0558341e-38 -0.0014006305 0.00015298577 -0.0005359656 -0.00094947394 1.8719195e-38
-2.232484e-39 1.8450381e-38 -2.6664754e-38 -3.783822e-38 -3.9920768e-38 6.3422746e-38 -2.6982742e-38 2.208089e-38
-0.004764374 0.010483877 0.04177046 -2.9723956e-38 0.00019460473 0.03304443 -1.9472174e-22 0.052555848
0.010420339 -0.01389675 0.0614643 0.0026855653 0.03471827 0.0016108105 -0.326749 0.055559397
0.19122718 -0.00087733904 0.0008423355 0.0013875988 0.18060093 -0.32866696 -0.09876949 -0.0016459675
2.406678e-38 0.0036486955 8.828475e-39 0.01647406 -0.0027665861 -5.576039e-19 9.137179e-20 0.012953053

layers.8.bias f4 [32]
00000000: e9be 623d b805 65b9 2b38 3a3d 21e5 9fb9
00000010: 761a f5b4 3717 c53d 2778 7cba a37c d23e
00000020: c882 ca3e 83db 23bc 215e bcbc f8e4 71b3
00000030: b43b c0a2 41d9 a5b5 d9e8 e4bb b25c f83b
00000040: 27f6 463d c243 2bb5 8875 fa3e ffeb 7a3e
00000050: 8087 c2b7 14df c9b1 012f babc c758 a9b5
00000060: f51b a4b7 7a45 763d e9ce f63e 5dc6 90bc
00000070: 14f6 3995 34f2 dfbd 74c2 f2bc 70c7 ab3c
0.055357847 -0.00021841272 0.045463722 -0.00030497558 -4.565406e-07 0.096235685 -0.0009630941 0.41110715
0.39552903 -0.010001066 -0.022994103 -5.632043e-08 -5.2104917e-18 -1.2356687e-06 -0.0069857654 0.0075794095
0.048574593 -6.3801065e-07 0.48917794 0.24504088 -2.31897e-05 -5.875231e-09 -0.022727491 -1.2617319e-06
-1.9563342e-05 0.06012485 0.48204735 -0.017672712 -3.7554574e-26 -0.109348685 -0.029633738 0.020969123

layers.10.weight f4 [16, 32]
00000000: 6076 2c3d 8f16 6701 8c8d 293d fb32 2100
00000010: 5cd1 8b01 9449 71bd 37e0 6501 b54e e5bc
00000020: d04d 08be ba09 1d01 4681 b234 206c 1281
00000030: c91c 0780 6727 c280 ebae 1d01 99a9 6437
00000040: 075f 313a f7e2 0b01 1fe4 e33b 42ee febd
00000050: 2eca 8d00 2a31 8701 8192 853b d2c3 1401
00000060: d259 5718 4811 1b3d ff6d 5cbd 6087 e800
00000070: eb54 5e01 de85 4ebc e295 c7ba 8fb5 7638
00000080: df8f ffb6 e55f 2000 eed7 36b4 40bc de80
00000090: 4676 7600 5432 87bb 5354 8981 9c15 e0bc
000000a0: 6bea 0cbd c6b6 9880 76ec 7280 70b3 4201
000000b0: f5b4 a181 5a38 8d01 a687 2f80 dcfd c200
000000c0: f649 1301 d483 eb00 012c 11bd eeaa f5ba
000000d0: 806f ae81 a531 ce00 97e2 7d80 b8db 9400
000000e0: 27c8 8680 3761 88b5 1441 05bd 0daa 0b00
000000f0: 581a d900 f84a 3380 3e51 2ba5 1389 dc80
00000100: cccb dd00 e8ba 0b81 b873 9781 d8a9 0400
00000110: f6d1 6281 b505 ccb2 5630 f600 8a0b b3b9
00000120: 494e c9bb 1d92 6e80 c98c a681 ee29 3a00
00000130: 589e 2180 001b 2301 a0c5 d900 370f 6f00
00000140: 9c13 8481 abb7 d180 2bd7 fabb a28d 8b01
00000150: cb76 9481 c6a6 a500 94fb 1d81 9b88 d400
00000160: 29d3 e500 dcfa 2581 dca8 babb 0ef7 8281
00000170: 98b1 fa00 f05e f200 03fa 0581 3807 1a01
00000180: 9a4b b8bb c767 9100 1a78 6cbb cbea 8d00
00000190: 11c7 4201 ee40 361b 1d9f 2581 46f5 30af
000001a0: 7224 b3b6 958f a401 a1fc cd80 7e13 c200
000001b0: d0eb 0e01 e246 9980 4260 5e00 9d80 2080
000001c0: 5396 0680 f81e 0400 263d 9ab7 5b42 0cbc
000001d0: 58ce 7e80 9497 6780 20a0 6d00 995d a100
000001e0: bcdc 4481 aebe 46bb 6064 9ab6 427b 5980
000001f0: a38d 3480 dbc8 982b 96c2 5bba be2c 9300
00000200: 75d9 94b9 b283 1781 bcef 2d3a 4421 b381
00000210: b81f 1601 a60c ab01 7cb8 5080 40e3 4c9e
00000220: 27d8 83b0 6a9e 2400 06cc 4d81 5899 3a00
00000230: 03cb f580 358b 7d01 3cb2 4680 25de 8604
00000240: efe3 ea00 fbd8 6a00 656f 07b5 4ad9 8cbb
00000250: 18d8 3000 d66f 0601 2ece 8d01 e895 3300
00000260: aefd ed00 7285 39ba 277d 24b4 904a 2281
00000270: 2cd9 9381 176d b139 04ae 5b3b 6dee 8f00
00000280: 9572 04bc 7388 6b00 83b0 e9bb 0731 0300
00000290: 80bd fe14 04e7 57ba c334 1901 d348 25ba
000002a0: 4bc4 2cbb 3241 4d01 4bac 10b6 10f0 a180
000002b0: 4a51 6601 d6d3 2501 2c0a 4001 8702 103a
000002c0: 5dd0 0dba 313f 3b00 1a29 34bb 4c54 96bb
000002d0: 786a 6b80 a07c 8881 9412 dfae d785 8481
000002e0: 80bd 7581 55ec f0bb 6d29 99bb 45ee bb0a
000002f0: de41 c680 2148 9abb a48c 04bc 1e82 fab8
00000300: 322a 059f 3835 8180 5282 858f 60f0 0100
00000310: 0777 a281 4ae7 d0bb c9f4 5e00 0b24 5fbc
00000320: 1d26 c1bc 9acb 8681 d9f2 0500 5155 8500
00000330: 07f3 1581 d95a 2981 ff32 3d80 aed4 0c01
00000340: 6fdf 3a80 5094 8281 3fdb c9bc 5eb4 e4b0
00000350: 183b 2381 ad23 6700 06d3 2901 aeab 7681
00000360: 2279 a101 4d3a 4793 01ec cbbc 718b c000
00000370: 20c1 e100 8fa5 b080 f821 7300 bd88 6880
00000380: e80e 4eb9 78a7 fd00 4a5c 18b8 95a3 6800
00000390: b80d 4300 9b3d 8681 5c78 3401 12cc 0a81
000003a0: c03c 8001 709d 8d01 c034 2981 1847 1580
000003b0: 3eeb 1e81 20d9 2680 2077 6600 b0e9 4300
000003c0: c406 3000 3945 2000 4786 b600 bb6a 1bbb
000003d0: c425 8981 644c 4701 823c 9f01 72c2 ca80
000003e0: 0603 6c81 894c 55b8 cbb2 5901 251e 7080
000003f0: 8c19 1381 6e5d 8f01 c0eb e1a1 728c 4480
0.04210508 4.2444184e-38 0.041394755 3.04886e-39 5.136095e-38 -0.05890806 4.2221524e-38 -0.027991632
-0.13310933 2.8843324e-38 3.3249142e-07 -2.689354e-38 -6.53175e-40 -1.7830221e-38 2.8961843e-38 1.36293465e-05
0.00067661743 2.5693107e-38 0.0069546844 -0.12447788 1.3021333e-38 4.9661715e-38 0.0040763025 2.73238e-38
2.7833446e-24 0.037858278 -0.053815838 2.1354399e-38 4.0835886e-38 -0.012605159 -0.0015227164 5.882006e-05
-7.616341e-06 2.973136e-39 -1.7028626e-07 -2.0455012e-38 1.0879017e-38 -0.0041258726 -5.044685e-38 -0.027354054
-0.034403246 -1.4024562e-38 -1.0554073e-38 3.5760913e-38 -5.940172e-38 5.187608e-38 -4.36493e-39 1.7907154e-38
2.70527e-38 2.1628633e-38 -0.035442356 -0.0018742958 -6.40775e-38 1.8935921e-38 -1.1560722e-38 1.3670474e-38
-1.2377758e-38 -1.0161083e-06 -0.032532766 1.071193e-39 1.9937753e-38 -4.710504e-39 -1.4859412e-16 -2.0252982e-38
2.0368753e-38 -2.5664367e-38 -5.563469e-38 4.2827e-40 -4.1660284e-38 -2.3751321e-08 2.2608872e-38 -0.00034150138
-0.0061433655 -1.015432e-38 -6.1180786e-38 5.3415e-39 -3.087374e-39 2.9957743e-38 1.9999197e-38 1.0199198e-38
-4.851728e-38 -1.9259506e-38 -0.0076550446 5.126377e-38 -5.4537073e-38 1.5212684e-38 -2.9016844e-38 1.951813e-38
2.1106079e-38 -3.0485697e-38 -0.005696399 -4.8108964e-38 2.3022583e-38 2.2258247e-38 -2.4607617e-38 2.8290512e-38
-0.005624247 1.3353375e-38 -0.0036082328 1.3033033e-38 3.5774996e-38 1.5075667e-22 -3.0419872e-38 -1.6094245e-10
-5.3388585e-06 6.0450116e-38 -1.8916903e-38 1.7823079e-38 2.6250468e-38 -1.4076259e-38 8.667067e-39 -2.984874e-39
-6.04939e-40 3.78451e-40 -1.8386705e-05 -0.008560742 -1.1645295e-38 -9.513432e-39 1.0067511e-38 1.4819091e-38
-3.6157884e-38 -0.0030326056 -4.601243e-06 -8.217576e-39 -4.826255e-39 1.0855998e-12 -0.00083831826 1.3515868e-38
-0.00028390778 -2.7828807e-38 0.00066351495 -6.580195e-38 2.7573406e-38 6.283363e-38 -7.41302e-39 -1.0846664e-20
-9.592939e-10 3.362906e-39 -3.7798933e-38 5.381468e-39 -2.2572523e-38 4.6568637e-38 -6.492423e-39 3.1707256e-36
2.1571273e-38 9.8124e-39 -5.045352e-07 -0.004298364 4.485624e-39 2.469215e-38 5.2091073e-38 4.737387e-39
2.1856016e-38 -0.0007077075 -1.531922e-07 -2.9808197e-38 -5.43109e-38 0.0003384135 0.003352047 1.3218007e-38
-0.008083959 9.875347e-39 -0.0071316375 2.93094e-40 2.572219e-26 -0.0008236023 2.8139517e-38 -0.0006305102
-0.0026362117 3.769933e-38 -2.155796e-06 -1.4871633e-38 4.230265e-38 3.0457699e-38 3.5272128e-38 0.00054935407
-0.00054097717 5.440963e-39 -0.0027490319 -0.0045876857 -9.864592e-39 -5.013734e-38 -1.0144166e-10 -4.868119e-38
-4.5135353e-38 -0.0073523917 -0.004674128 1.8097072e-32 -1.8207057e-38 -0.0047083055 -0.008090172 -0.00011945165
-2.819875e-20 -1.186587e-38 -1.316501e-29 1.78066e-40 -5.96802e-38 -0.006375228 8.720349e-39 -0.013619433
-0.023577744 -4.951598e-38 5.46295e-40 1.2244727e-38 -2.7541341e-38 -3.1105578e-38 -5.620259e-39 2.586653e-38
-5.406612e-39 -4.7967276e-38 -0.024640677 -1.6640447e-09 -2.998077e-38 9.471854e-39 3.11918e-38 -4.5306238e-38
5.9315877e-38 -2.5146076e-27 -0.024892809 1.7682437e-38 2.0732267e-38 -1.6222439e-38 1.0573268e-38 -9.599944e-39
-0.00019651244 2.3294457e-38 -3.6325575e-05 9.609574e-39 6.1579e-39 -4.9312225e-38 3.3147132e-38 -2.549301e-38
4.7106946e-38 5.202113e-38 -3.1078244e-38 -1.954049e-39 -2.9188795e-38 -3.567639e-39 9.409955e-39 6.23681e-39
4.410531e-39 2.963568e-39 1.676223e-38 -0.002371474 -5.0380043e-38 3.6605335e-38 5.84942e-38 -1.8620524e-38
-4.3348523e-38 -5.0854436e-05 3.9984883e-38 -1.029639e-38 -2.7017965e-38 5.266397e-38 -1.5308996e-18 -6.295196e-39

layers.10.bias f4 [16]
00000000: 91e6 823d 8ac0 08bd 7ac5 caaf b124 0ebc
00000010: a3a3 d0bc 368c d03b 8193 8fba b720 31b9
00000020: 9334 3fac 64b7 43a6 154b 143f 62b3 263d
00000030: 89a9 e3b6 7aea 06bd a468 23b4 33a3 28bc
0.06391633 -0.033386745 -3.6883901e-10 -0.00867574 -0.025468653 0.0063643707 -0.0010953994 -0.00016892223
-2.7171917e-12 -6.7902756e-16 0.57927066 0.040698417 -6.7848637e-06 -0.032938458 -1.5218626e-07 -0.010292816
