Compression_Test_MLP/models/Pruned_base.pth (torch, 38130 bytes, 11 tensors)

layers.0.bias f4 [64]
-0.23862766 -0.7863552 -0.5974921 -0.59102696 0.19467828 -0.80890673 -0.14881618 0.02006211
0.072397746 0.22962704 -0.014340701 0.07863652 0.20544077 0.036349736 0.14200532 0.03765346
-0.3465964 -0.00018756097 0.007956543 -0.3740774 -0.5123807 0.053694826 0.61426455 -0.19574492
-1.1415372 -0.22037683 -0.492473 0.22987309 -0.6254355 0.06713549 -0.20345794 -0.07529863
-0.020652696 -0.28049228 -0.13042983 -0.14324336 0.045501977 -0.30603284 0.015230884 0.021193555
-0.06681293 0.14197023 -0.21521913 -0.20873289 -0.11003811 -0.32434937 -0.14756879 0.29677385
0.038775973 -0.18760158 -0.07768317 -0.6629052 -0.41204625 -0.350744 -0.54719025 -0.5930922
-0.52654815 -0.6513237 -0.35389134 -0.5152268 -0.56110513 -0.36203584 0.28073615 -0.3597188
00000000: cf5a 74be 934e 49bf 3ef5 18bf 8b4d 17bf
00000010: be59 473e 8314 4fbf 4563 18be 4b59 a43c
00000020: 4545 943d 5a23 6b3e 42f5 6abc 2f0c a13d
00000030: 115f 523e 76e3 143d d869 113e 843a 1a3d
00000040: 1575 b1be 04ac 44b9 295c 023c 1387 bfbe
00000050: 622b 03bf 1bef 5b3d 7140 1d3f 5b71 48be
00000060: e41d 92bf 77aa 61be 6c25 fcbe da63 6b3e
00000070: 8a1c 20bf 557e 893d 4757 50be 2b36 9abd
00000080: d82f a9bc af9c 8fbe 668f 05be 63ae 12be
00000090: 4860 3a3d 56b0 9cbe f58a 793c 1b9e ad3c
000000a0: 38d5 88bd a560 113e 6762 5cbe 13be 55be
000000b0: a95b e1bd 1f11 a6be 461c 17be bef2 973e
000000c0: 8ed3 1e3d a11a 40be 5b18 9fbd 28b4 29bf
000000d0: baf7 d2be b894 b3be a914 0cbf e4d4 17bf
000000e0: dccb 06bf 26bd 26bf 3f31 b5be e7e5 03bf
000000f0: 96a4 0fbf c35c b9be a6bc 8f3e 102d b8be

layers.0.weight f4 [64, 8]
0.28912756 0.23054074 0.0 0.14450422 0.0 0.18695149 -0.65738827 0.0
0.39164805 -0.42416704 0.16889419 -0.0 0.0 0.0 -0.0865492 -0.0
0.17374066 -0.085276276 -0.19271724 0.2995885 -0.0 -0.890211 -0.2579243 0.59871656
-0.0 -0.0 0.1331151 -0.39586627 -0.14039004 -0.16680087 0.434384 -0.57841283
0.2310626 0.0 -0.40826946 0.32759207 0.14927447 0.0 -0.35299715 -0.3985279
0.22540277 0.09502396 0.20341606 0.63135123 0.0 -1.0552708 -0.108845815 0.0
-0.11947405 -0.29271433 -0.5937976 0.19849283 -0.19077085 -0.83166754 0.23266967 0.22972436
0.0 -0.0 0.55189055 -0.43741617 0.18678285 -0.4850806 -0.20322067 -0.15298031
-0.0 0.0 0.26501328 -0.39306948 -0.18247761 -0.0 0.68579566 0.3455803
0.37228203 -0.0 -0.5462109 -0.0 -0.0 0.16312954 0.25861463 0.28456098
-0.10366682 -0.19981615 0.32698813 -0.0 0.15304627 0.1462557 0.59803927 0.0
-0.0 -0.0 0.0 -0.0 0.0 0.0 -0.73090655 -0.5637362
0.110931665 -0.11705567 -0.0 -0.3547829 -0.0 -0.54844 -0.31162927 -0.33451384
0.0 -0.15729432 -0.2916472 -0.16688755 -0.6552745 0.17733957 0.63420564 0.3376156
-0.0 -0.2927873 -0.21616945 0.2540258 -0.0 -1.9755996 -0.3090191 -0.26869282
-0.17079093 -0.0 0.11966587 -0.16607806 -0.0 -2.1327612 -0.434918 -0.36690155
-0.0 0.0 0.0 -0.1549595 0.0 -0.0 -0.45649517 -0.60634995
-0.3961675 -0.32429644 0.14768906 0.104830086 0.0 -0.85372984 0.4152733 -0.0
-0.1077912 -0.0 0.0 -0.14866096 0.08719616 -2.3776731 -0.0 -0.0
0.108934686 -0.28966364 0.1808442 -0.39665285 -0.0 0.1303326 0.08383769 -0.40312594
0.111388646 -0.10112775 0.0 -0.46560133 0.12994301 0.08624393 -0.1505195 0.41635758
0.0 -0.0 -0.1125007 0.1033935 0.0 -0.9324366 -0.40403438 -0.4263409
-0.33784196 0.09873181 0.17365324 -0.93503433 0.0 1.0309346 0.0 0.0
0.2045285 0.12789857 0.13056508 -0.0 0.0 -2.1713552 -0.1989194 -0.19304647
0.3931002 0.22531448 0.12629634 0.0 0.0 -1.2829266 0.19443503 0.0
-0.7024678 -0.23123579 -0.38231692 0.42840943 0.18876447 -0.516062 -0.20838454 -0.2052448
-0.5810473 0.0 0.48556814 -0.14427185 0.0 -0.34848133 -0.18029149 0.29653767
0.0 0.0 0.3799149 -0.10592089 -0.12856412 0.0 -0.45034054 -0.39750192
-0.26594612 0.20215745 0.22950205 -0.16420408 -0.23889232 0.1140951 -0.5120547 0.2732213
0.27225676 0.16797796 0.29216495 -0.0 0.0 -1.9345155 -0.52776635 -0.44507366
0.0 0.0 0.11188213 -0.13713922 0.0 -1.820856 -0.5657106 0.10504852
0.18135001 0.13142717 -0.0 0.0 0.0 -1.9574733 -0.2608652 -0.38552344
00000000: 8708 943e df12 6c3e 0000 0000 eaf8 133e
00000010: 0000 0000 3670 3f3e 994a 28bf 0000 0000
00000020: 1886 c83e 6c2c d9be 99f2 2c3e 0000 0080
00000030: 0000 0000 0000 0000 b540 b1bd 0000 0080
00000040: 12e9 313e 54a5 aebd ab57 45be aa63 993e
00000050: 0000 0080 dee4 63bf a70e 84be 7d45 193f
00000060: 0000 0080 0000 0080 534f 083e fcae cabe
00000070: 68c2 0fbe d9cd 2abe 9467 de3e dd12 14bf
00000080: ad9b 6c3e 0000 0000 b208 d1be 26ba a73e
00000090: 68db 183e 0000 0000 0bbc b4be d90b ccbe
000000a0: fccf 663e ec9b c23d 4d4c 503e 3ca0 213f
000000b0: 0000 0000 1d13 87bf 8eea debd 0000 0000
000000c0: d0ae f4bd a7de 95be 1f03 18bf b441 4b3e
000000d0: 6f59 43be 2ae8 54bf f540 6e3e dd3c 6b3e
000000e0: 0000 0000 0000 0080 b348 0d3f 03f5 dfbe
000000f0: 0144 3f3e 7c5c f8be 1419 50be dfa6 1cbe
00000100: 0000 0080 0000 0000 d2af 873e 6740 c9be
00000110: 69db 3abe 0000 0080 4e90 2f3f e7ef b03e
00000120: c09b be3e 0000 0080 7ad4 0bbf 0000 0080
00000130: 0000 0080 6e0b 273e 2369 843e fab1 913e
00000140: 454f d4bd 9b9c 4cbe fd6a a73e 0000 0080
00000150: 29b8 1c3e 0ec4 153e 1a19 193f 0000 0000
00000160: 0000 0080 0000 0080 0000 0000 0000 0080
00000170: 0000 0000 0000 0000 b11c 3bbf 0451 10bf
00000180: 2430 e33d e2ba efbd 0000 0080 1ba6 b5be
00000190: 0000 0080 9066 0cbf df8d 9fbe 6645 abbe
000001a0: 0000 0000 c311 21be c852 95be 92e4 2abe
000001b0: 12c0 27bf 8198 353e 4d5b 223f f4db ac3e
000001c0: 0000 0080 38e8 95be 865b 5dbe ab0f 823e
000001d0: 0000 0080 73e0 fcbf c037 9ebe 1b92 89be
000001e0: d1e3 2ebe 0000 0080 6113 f53d 5e10 2abe
000001f0: 0000 0080 297f 08c0 92ad debe 85da bbbe
00000200: 0000 0080 0000 0000 0000 0000 b4ad 1ebe
00000210: 0000 0000 0000 0080 bcb9 e9be c039 1bbf
00000220: 77d6 cabe 2f0a a6be cd3b 173e 28b1 d63d
00000230: 0000 0000 0a8e 5abf b49e d43e 0000 0080
00000240: a2c1 dcbd 0000 0080 0000 0000 943a 18be
00000250: e693 b23d cc2b 18c0 0000 0080 0000 0080
00000260: 2619 df3d cb4e 94be 392f 393e 1516 cbbe
00000270: 0000 0080 e975 053e 18b3 ab3d 8666 cebe
00000280: bb1f e43d 111c cfbd 0000 0000 4c63 eebe
00000290: c80f 053e a8a0 b03d c921 1abe d22c d53e
000002a0: 0000 0000 0000 0080 c466 e6bd f9bf d33d
000002b0: 0000 0000 2ab4 6ebf 98dd cebe 5b49 dabe
000002c0: 9ff9 acbe e733 ca3d 28d2 313e 695e 6fbf
000002d0: 0000 0000 aaf5 833f 0000 0000 0000 0000
000002e0: eb6f 513e d8f7 023e dab2 053e 0000 0080
000002f0: 0000 0000 7cf7 0ac0 87b1 4bbe f9ad 45be
00000300: 6e44 c93e d7b8 663e d453 013e 0000 0000
00000310: 0000 0000 f036 a4bf fa19 473e 0000 0000
00000320: eed4 33bf 13c9 6cbe 0bbf c3be 7b58 db3e
00000330: 794b 413e a41c 04bf c262 55be b12b 52be
00000340: 84bf 14bf 0000 0000 639c f83e 00bc 13be
00000350: 0000 0000 256c b2be 559e 38be c9d3 973e
00000360: 0000 0000 0000 0000 3584 c23e 0ded d8bd
00000370: 50a6 03be 0000 0000 0993 e6be 5f85 cbbe
00000380: 172a 88be 5d02 4f3e 9602 6b3e 1d25 28be
00000390: 30a0 74be b1aa e93d 0416 03bf aae3 8b3e
000003a0: 3d65 8b3e 6a02 2c3e a596 953e 0000 0080
000003b0: 0000 0000 349e f7bf b21b 07bf b2e0 e3be
000003c0: 0000 0000 0000 0000 7522 e53d 396e 0cbe
000003d0: 0000 0000 cf11 e9bf 69d2 10bf ae23 d73d
000003e0: d1b3 393e d894 063e 0000 0080 0000 0000
000003f0: 0000 0000 7c8e fabf 2090 85be 5463 c5be

layers.2.bias f4 [64]
-0.018437468 -0.14181775 -0.1572842 -0.009645982 -0.0053066094 -0.21258494 -0.33407608 0.008042137
-0.088348754 0.15762131 -0.14709258 -0.15729421 -0.0022703705 0.094596475 -0.08320656 0.21838577
-0.26849985 -0.019444397 0.21622013 -0.07870939 -0.13970962 0.07569422 0.15362024 -0.07990082
0.17833953 -0.10564759 -0.1479585 -0.03238702 0.11159445 -0.10731395 -0.10720443 0.046413846
0.14011219 -0.21084376 0.00511857 0.105165266 -0.18631704 -0.1998766 0.27036306 0.13536505
-0.24111916 -0.15733826 -0.14574078 -0.06280325 -0.14444508 0.015104935 -0.26888755 -0.048202977
0.18230218 -0.278453 -0.39473766 -0.07949205 -0.16188027 0.13055062 0.086660616 -0.007976892
-0.06064713 0.15268734 -0.25622788 0.071943305 0.016857857 0.12897553 -0.15403998 -0.23804066
00000000: 2c0a 97bc ac38 11be 1c0f 21be 2e0a 1ebc
00000010: 11e3 adbb deaf 59be 050c abbe 2bc3 033c
00000020: 31f0 b4bd 7b67 213e 709f 16be bc11 21be
00000030: 7fca 14bb ccbb c13d 3368 aabd 85a0 5f3e
00000040: d078 89be db49 9fbc cf68 5d3e 6332 a1bd
00000050: 0a10 0fbe 9205 9b3d a04e 1d3e 0ba3 a3bd
00000060: a39e 363e c35d d8bd 6f82 17be 40a8 04bd
00000070: a28b e43d 6bc7 dbbd ff8d dbbd 721c 3e3d
00000080: 9279 0f3e 6de7 57be adb9 a73b e360 d73d
00000090: e5c9 3ebe 74ac 4cbe 076d 8a3e 239d 0a3e
000000a0: f1e7 76be 481d 21be 123d 15be fe9e 80bd
000000b0: 69e9 13be b07a 773c a1ab 89be 7c70 45bd
000000c0: 6cad 3a3e 6491 8ebe 0e1b cabe bacc a2bd
000000d0: f1c3 25be 10af 053e 1f7b b13d 83b1 02bc
000000e0: 2069 78bd 125a 1c3e 4d30 83be 0357 933d
000000f0: 7d19 8a3c 2912 043e a8bc 1dbe eec0 73be

layers.2.weight f4 [64, 64]
0.23102395 0.0 -0.09896548 0.30088335 0.23114026 -0.63589513 -0.28398588 0.27193677
-0.2521821 -0.26060304 -0.4378811 0.4821414 0.0 -0.28351662 -0.14806879 0.33493948
-0.26664042 -0.3451666 0.14034879 -0.2821403 0.086702526 -0.30121797 0.0 -0.2738485
-0.28587133 0.3030649 0.2018038 0.1860053 0.46728164 0.16387525 0.27044857 0.0
-0.0 0.40005067 0.090919465 0.26168266 -0.2684116 0.28632614 -0.07969789 0.0
0.26105085 -0.1567319 0.0 0.16214697 -0.10624871 0.0 0.18538749 -0.90693086
0.14283071 -0.0 0.15395628 -0.13825935 0.42212045 -0.0 0.0 -0.3408636
0.13735974 0.24106888 -0.12134997 0.15908901 -0.29761457 0.0 -0.6470332 0.33822402
0.1290577 -0.73558736 0.13048756 0.31668624 -0.105044916 -0.8849902 -0.4441997 -0.3195248
0.0 0.0 -0.0 -0.16238652 0.0 -0.12612265 0.20129845 0.51436484
0.10704602 -0.16949284 0.26527998 0.2228295 -0.5012366 -0.0 -0.73645985 0.36479402
-0.30704865 -0.77193236 0.2306607 -0.11365035 0.10057925 0.2432029 0.0 0.32835817
0.14326425 0.18349913 -0.0 0.1493452 0.08316374 -0.0926155 -0.42456317 -0.0
0.11327198 -0.0 0.2793168 -0.6067519 0.0 0.1925905 -0.07550419 0.075224556
-0.0 0.17826293 0.35882184 0.3674076 -0.15746793 0.22345823 0.0 0.17138523
-1.0057375 0.18984307 -0.51088285 0.0 0.2231334 -0.2268171 -0.0 -0.0
0.18692075 -0.18596189 0.18838762 0.48262414 -0.22543295 -0.30885717 -0.17404985 0.31458342
0.22179633 -0.1630782 0.10582976 0.0 -0.0 -0.0802964 0.14646852 0.38299927
-0.4012361 0.0 0.18579924 0.24315189 -0.53385025 -0.0 -0.25879058 0.24761176
-0.7568276 -0.2771683 -0.18066594 -0.12710814 -0.08997059 0.3869999 0.42965767 0.29648873
-0.0 0.0 0.0 0.38213345 0.14187376 0.22093765 -0.5251386 0.119192876
-0.2392759 -0.13304392 0.36129242 -0.12587322 0.0 0.3994424 -0.11949397 0.18260825
0.0 -0.10746541 0.13656427 0.0 -0.07860489 0.12633635 -0.3603758 0.10797537
-0.29423517 0.10952844 -0.3327779 -0.17036022 0.20514037 0.10041376 -0.0 0.0
-0.0 0.0 0.0 0.2522561 -0.29317445 -0.70349395 -0.337682 0.13333002
0.0 -0.55928075 -0.08469677 0.11051609 -0.2191241 -0.7294415 0.13545911 0.2747102
-0.70554525 -0.45188114 -0.13295983 -0.2427113 -0.26723942 0.0 -0.57874763 0.0
-0.5505859 -1.1961036 -0.1460235 0.0 0.12854886 0.14637463 0.0 -0.0
-0.32603985 -0.0 -0.42332867 0.27327588 -0.13649346 -0.0 0.109352745 0.07706066
0.28497484 -0.19812219 -0.0 0.243698 0.0 0.0 0.30110282 -0.18534812
-0.14677209 -0.13717054 0.0 0.21783975 -0.29802066 -0.0 -0.121126175 -0.0
-0.26969606 0.33007666 -0.39961675 -0.0 -0.109353766 -0.58323747 -0.0 -0.47724995
00000000: 8b91 6c3e 0000 0000 6aae cabd 620d 9a3e
00000010: 08b0 6c3e 06ca 22bf 9966 91be 4c3b 8b3e
00000020: 031e 81be c36d 85be f431 e0be 3ddb f63e
00000030: 0000 0000 1729 91be 589f 17be 307d ab3e
00000040: 1885 88be adb9 b0be 98b7 0f3e b274 90be
00000050: 1891 b13d 3e39 9abe 0000 0000 df35 8cbe
00000060: ba5d 92be 532b 9b3e a8a5 4e3e 2c78 3e3e
00000070: 8a3f ef3e eace 273e 3c78 8a3e 0000 0000
00000080: 0000 0080 71d3 cc3e fc33 ba3d 45fb 853e
00000090: 3f6d 89be 5799 923e a638 a3bd 0000 0000
000000a0: 75a8 853e 547e 20be 0000 0000 db09 263e
000000b0: ec98 d9bd 0000 0000 38d6 3d3e 9f2c 68bf
000000c0: 3742 123e 0000 0080 b7a6 1d3e dc93 0dbe
000000d0: 2c20 d83e 0000 0080 0000 0000 ac85 aebe
000000e0: 08a8 0c3e c3da 763e 5586 f8bd 3be8 223e
000000f0: f060 98be 0000 0000 f8a3 25bf b32b ad3e
00000100: b427 043e 744f 3cbf 889e 053e b324 a23e
00000110: ca21 d7bd b88e 62bf 256e e3be c198 a3be
00000120: 0000 0000 0000 0000 0000 0080 a748 26be
00000130: 0000 0000 4c26 01be 2e21 4e3e 6aad 033f
00000140: f23a db3d 888f 2dbe c7d2 873e 6b2d 643e
00000150: 0b51 00bf 0000 0080 a288 3cbf 48c6 ba3e
00000160: 7b35 9dbe 5c9d 45bf 5232 6c3e 84c1 e8bd
00000170: 7efc cd3d 2e0a 793e 0000 0000 901e a83e
00000180: ddb3 123e 32e7 3b3e 0000 0080 f3ed 183e
00000190: c051 aa3d 32ad bdbd 5860 d9be 0000 0080
000001a0: 24fb e73d 0000 0080 9d02 8f3e 1854 1bbf
000001b0: 0000 0000 7236 453e f1a1 9abd 550f 9a3d
000001c0: 0000 0080 8f8a 363e 7fb7 b73e d91c bc3e
000001d0: 463f 21be 3cd2 643e 0000 0000 9c7f 2f3e
000001e0: 02bc 80bf 3966 423e 38c9 02bf 0000 0000
000001f0: 157d 643e be42 68be 0000 0080 0000 0080
00000200: 2768 3f3e cb6c 3ebe afe8 403e 831a f73e
00000210: e5d7 66be 8722 9ebe 203a 32be 1411 a13e
00000220: 941e 633e f9fd 26be 46bd d83d 0000 0000
00000230: 0000 0080 7072 a4bd d8fb 153e 7b18 c43e
00000240: d16e cdbe 0000 0000 2842 3e3e cffc 783e
00000250: 69aa 08bf 0000 0080 3380 84be f08d 7d3e
00000260: 74bf 41bf 01e9 8dbe 7e00 39be a328 02be
00000270: 8042 b8bd da24 c63e 17fc db3e 5fcd 973e
00000280: 0000 0080 0000 0000 0000 0000 ffa6 c33e
00000290: 5b47 113e 7b3d 623e 7c6f 06bf 651b f43d
000002a0: be04 75be aa3c 08be 52fb b83e e9e4 00be
000002b0: 0000 0000 b783 cc3e 41b9 f4bd a8fd 3a3e
000002c0: 0000 0000 d316 dcbd 81d7 0b3e 0000 0000
000002d0: 9afb a0bd 515e 013e 2d83 b8be 3122 dd3d
000002e0: fea5 96be 7250 e03d dd61 aabe e972 2ebe
000002f0: 5110 523e bba5 cd3d 0000 0080 0000 0000
00000300: 0000 0080 0000 0000 0000 0000 b627 813e
00000310: f61a 96be 2e18 34bf a8e4 acbe aa87 083e
00000320: 0000 0000 062d 0fbf 8075 adbd 4356 e23d
00000330: 1162 60be aebc 3abf cbb5 0a3e d1a6 8c3e
00000340: 9d9e 34bf f75c e7be 9f26 08be 5089 78be
00000350: 9bd3 88be 0000 0000 ce28 14bf 0000 0000
00000360: 33f3 0cbf ec19 99bf 2f87 15be 0000 0000
00000370: 50a2 033e 3be3 153e 0000 0000 0000 0080
00000380: b2ee a6be 0000 0080 89be d8be d1ea 8b3e
00000390: f1c4 0bbe 0000 0080 55f4 df3d fbd1 9d3d
000003a0: 39e8 913e 8be0 4abe 0000 0080 f88b 793e
000003b0: 0000 0000 0000 0000 262a 9a3e e6cb 3dbe
000003c0: 6c4b 16be 6f76 0cbe 0000 0000 6211 5f3e
000003d0: 2a96 98be 0000 0080 0011 f8bd 0000 0080
000003e0: 9a15 8abe cfff a83e 919a ccbe 0000 0080
000003f0: def4 dfbd 0d4f 15bf 0000 0080 1b5a f4be

layers.4.bias f4 [32]
-0.12351134 0.20170376 0.025597354 0.039367102 0.18513179 0.35673618 0.10320203 -0.07233562
-0.017420394 -0.56539077 0.23141918 0.23457532 0.24374957 -0.15461154 0.06082526 -0.20565516
-0.19331387 0.23152356 -0.20282647 -0.0947847 -0.05056231 -0.17174812 0.2285762 0.41936755
0.28175044 -0.16895466 0.13120534 0.044472158 0.112515636 -0.20805155 0.11428568 -0.14026515
00000000: 83f3 fcbd 6e8b 4e3e 8bb1 d13c 663f 213d
00000010: 3093 3d3e 20a6 b63e 965b d33d b324 94bd
00000020: 37b5 8ebc 73bd 10bf 26f9 6c3e 8334 703e
00000030: 7d99 793e 7d52 1ebe e823 793d 4497 52be
00000040: 12f4 45be 8314 6d3e beb1 4fbe 7b1e c2bd
00000050: 6d1a 4fbd bdde 2fbe e10f 6a3e 58b7 d63e
00000060: 9841 903e 7302 2dbe b15a 063e 7028 363d
00000070: 996e e63d 770b 55be 9c0e ea3d aba1 0fbe

layers.4.weight f4 [32, 64]
-0.0 -0.0 -0.0 -0.13135788 -0.0 -0.10881085 -0.0 -0.0904229
-0.0910225 -0.13199475 -0.14094323 -0.077328585 -0.081308454 0.0 -0.0 0.0
-0.0 0.0 0.0975044 -0.10378449 -0.0 0.0 -0.0 -0.0
-0.0 -0.087449275 0.0 -0.06372468 0.0 -0.0 -0.0 -0.15757579
0.0 0.0 -0.13922107 -0.13091628 -0.12680309 -0.0 0.0 -0.1948893
0.0 0.0 -0.06707907 -0.076733336 0.0646744 0.12260868 0.0 -0.0
-0.13324331 -0.16431378 -0.07117508 -0.0 0.08628662 -0.17727041 -0.0626082 -0.0
-0.0 0.09658506 0.0 -0.0 -0.0 -0.1506775 -0.1508723 0.0
0.06276577 -0.22305183 -0.105259396 -0.44917917 0.4538801 -0.12476137 -0.2794208 0.24025963
0.62106746 -0.16622323 -0.11581326 -0.856336 0.41995627 0.27859855 -0.07151815 -0.9101593
0.083796166 -0.0 -1.8631997 -0.13017192 -0.120917924 -0.122017436 -0.0 0.1494564
-0.09337011 0.0 -0.2915723 -0.3263229 -0.5810276 -0.24779554 -0.076424666 0.32978722
0.0 -0.0722238 0.18707946 -0.0 0.0 0.0 0.46518457 -0.0
0.090199165 -0.0 0.14091294 -0.0 -0.13374524 -0.15040943 0.4956864 -0.0
-0.41085792 -0.4065935 -1.7879771 0.0 -0.0672624 -0.0 0.08514115 0.101319656
0.0 -0.26844224 0.0 -0.0 0.0 0.15654504 0.0 -0.0
0.091755345 0.21539432 0.17669578 0.082896225 0.16320236 0.13825917 0.29952943 0.26468724
0.25842553 -0.42825863 -0.07922423 -2.0330007 0.16186856 -0.612584 -0.0 -0.36352113
0.0 -0.061779406 -0.77515835 -0.15507473 -0.0960989 -0.53029716 0.173945 0.13311976
0.0 -0.08093651 -0.12830557 0.106038444 -0.0 0.68918717 0.0 0.16896704
0.109849006 0.14292747 0.13560048 -0.0 -0.14358616 -0.6476001 -0.0 -0.15467413
0.10011698 0.2262721 0.10073069 0.0 0.13969198 0.29654637 0.0 -0.0
-0.0936486 -0.68881387 -0.15702629 -0.0 -0.16641825 -0.13692598 0.16933489 -0.0
-0.1109101 -0.36893538 0.0 0.09592959 -0.10406589 0.277122 0.06199757 0.27994168
0.6084066 -0.27833024 -0.25237104 -0.078001074 -0.12268046 0.23222007 -0.8309185 0.18066329
-0.10919469 0.3821413 -0.23423566 -0.59321624 -0.25910863 -0.0 0.0 0.0
0.0 -0.0 0.0 -0.13883549 0.0 0.07001429 -0.45579612 0.19561994
-0.14541304 0.14139354 -0.0 -0.14731456 -0.35961887 -0.50062037 -0.073243156 0.5331305
0.06754866 -0.21474975 0.31085995 0.4620188 0.0 -0.4025599 0.19945587 -0.37547597
-0.2291465 -0.21891902 -0.07133212 0.0915851 -0.62101185 -0.17332526 -0.0 0.1487806
-0.5779802 -0.3485214 -0.06829667 0.1860806 -0.10264416 -0.18148936 -0.18200126 -0.11145119
-0.2896643 0.34771296 0.4302225 0.0 0.1106354 -0.14964361 -0.15477996 -0.11614618
00000000: 0000 0080 0000 0080 0000 0080 ae82 06be
00000010: 0000 0080 39d8 debd 0000 0080 a42f b9bd
00000020: 016a babd a229 07be 6c53 10be 735e 9ebd
00000030: 0c85 a6bd 0000 0000 0000 0080 0000 0000
00000040: 0000 0080 0000 0000 63b0 c73d f68c d4bd
00000050: 0000 0080 0000 0000 0000 0080 0000 0080
00000060: 0000 0080 9b18 b3bd 0000 0000 1682 82bd
00000070: 0000 0000 0000 0080 0000 0080 8c5b 21be
00000080: 0000 0000 0000 0000 f88f 0ebe eb0e 06be
00000090: abd8 01be 0000 0080 0000 0000 1091 47be
000000a0: 0000 0000 0000 0000 c060 89bd 5e26 9dbd
000000b0: 0374 843d 421a fb3d 0000 0000 0000 0080
000000c0: ef70 08be df41 28be 3ec4 91bd 0000 0080
000000d0: 0ab7 b03d 6086 35be ba38 80bd 0000 0080
000000e0: 0000 0080 63ce c53d 0000 0000 0000 0080
000000f0: 0000 0080 344b 1abe 457e 1abe 0000 0000
00000100: 578b 803d b367 64be 3d92 d7bd d0fa e5be
00000110: f962 e83e e482 ffbd 3e10 8fbe 9f06 763e
00000120: 47fe 1e3f 6c36 2abe 812f edbd d638 5bbf
00000130: 8204 d73e 78a4 8e3e 1c78 92bd 3300 69bf
00000140: 539d ab3d 0000 0080 547d eebf ca4b 05be
00000150: d1a3 f7bd 47e4 f9bd 0000 0080 190b 193e
00000160: d438 bfbd 0000 0000 f748 95be cc13 a7be
00000170: 3abe 14bf 1dbe 7dbe 8984 9cbd dfd9 a83e
00000180: 0000 0000 12ea 93bd c291 3f3e 0000 0080
00000190: 0000 0000 0000 0000 ac2c ee3e 0000 0080
000001a0: 57ba b83d 0000 0080 7b4b 103e 0000 0080
000001b0: 83f4 08be ee04 1abe 9cca fd3e 0000 0080
000001c0: f85b d2be 062d d0be 6fdc e4bf 0000 0000
000001d0: dfc0 89bd 0000 0080 7c5e ae3d ae80 cf3d
000001e0: 0000 0000 4371 89be 0000 0000 0000 0080
000001f0: 0000 0000 584d 203e 0000 0000 0000 0080
00000200: 3aea bb3d 5490 5c3e bdef 343e 7fc5 a93d
00000210: 851e 273e d093 0d3e ec5b 993e 1685 873e
00000220: 5a50 843e b744 dbbe 5040 a2bd af1c 02c0
00000230: dfc0 253e 4ed2 1cbf 0000 0080 711f babe
00000240: 0000 0000 670c 7dbd c770 46bf e9cb 1ebe
00000250: 80cf c4bd 8ec1 07bf a31e 323e 8c50 083e
00000260: 0000 0000 0ac2 a5bd 8962 03be af2a d93d
00000270: 0000 0080 926e 303f 0000 0000 b205 2d3e
00000280: 84f8 e03d 945b 123e dada 0a3e 0000 0080
00000290: 4008 13be 1fc9 25bf 0000 0080 e562 1ebe
000002a0: 220a cd3d e0b3 673e e44b ce3d 0000 0000
000002b0: 6a0b 0f3e edd4 973e 0000 0000 0000 0080
000002c0: d6ca bfbd 1b56 30bf 80cb 20be 0000 0080
000002d0: 8c69 2abe 5336 0cbe 2066 2d3e 0000 0080
000002e0: d624 e3bd 19e5 bcbe 0000 0000 bc76 c43d
000002f0: 7f20 d5bd efe2 8d3e 2af1 7d3d 8454 8f3e
00000300: 89c0 1b3f 4d81 8ebe c736 81be 07bf 9fbd
00000310: e53f fbbd 19cb 6d3e 13b7 54bf ccff 383e
00000320: 77a1 dfbd 06a8 c33e 79db 6fbe 05dd 17bf
00000330: e3a9 84be 0000 0080 0000 0000 0000 0000
00000340: 0000 0000 0000 0080 0000 0000 e42a 0ebe
00000350: 0000 0000 a763 8f3d 1c5e e9be 9850 483e
00000360: 28e7 14be 78c9 103e 0000 0080 a1d9 16be
00000370: f71f b8be a828 00bf 8200 96bd 3e7b 083f
00000380: f456 8a3d 5ce7 5bbe 0929 9f3e ba8d ec3e
00000390: 0000 0000 551c cebe 293e 4c3e 633e c0be
000003a0: 61a5 6abe 4f2c 60be 9316 92bd f890 bb3d
000003b0: a2fa 1ebf 2d7c 31be 0000 0080 f159 183e
000003c0: 83f6 13bf 6671 b2be 20df 8bbd ea8b 3e3e
000003d0: 1a37 d2bd 59d8 39be 8a5e 3abe 8640 e4bd
000003e0: e14e 94be 6f07 b23e 2046 dc3e 0000 0000
000003f0: d094 e23d 2d3c 19be a37e 1ebe 0cde edbd

layers.6.bias f4 [32]
-0.08583091 0.5425645 -0.09898132 0.08120186 0.0027816042 0.19549684 -0.27417564 -0.08528834
-0.03191648 0.118819654 0.21982674 -0.06330546 0.15537785 0.4581989 0.5395958 0.49106508
-0.27810463 -0.2500592 0.31559947 -0.13048254 -0.2068086 -0.3169442 -0.30307433 -0.35341823
-0.19072366 -0.40492594 -0.51358634 -0.36906636 0.27300707 -0.23205966 0.61494726 0.18925372
00000000: 1ec8 afbd 82e5 0a3f b8b6 cabd 294d a63d
00000010: 934b 363b 5330 483e c060 8cbe a7ab aebd
00000020: dbba 02bd b857 f33d 431a 613e 4ba6 81bd
00000030: 5f1b 1f3e 0c99 ea3e f322 0a3f e26c fb3e
00000040: bb63 8ebe c207 80be 4196 a13e 379d 05be
00000050: a2c5 53be 8346 a2be 8f2c 9bbe 3cf3 b4be
00000060: 104d 43be 7452 cfbe 657a 03bf 44f6 bcbe
00000070: 95c7 8b3e 0ca1 6dbe 2f6d 1d3f bacb 413e

layers.6.weight f4 [32, 32]
0.11096088 -0.16734578 -0.0 -0.0 -0.16077383 -0.6703633 -0.14371626 -0.1322005
0.0 -0.2376989 -0.3202115 -0.14236432 -0.0 0.1226185 0.13818969 0.11616871
-0.17260848 -0.10248638 -0.09207799 0.24374671 -0.1956953 -0.23348303 0.0 -0.120060526
-0.096715115 0.0 0.0 -0.0 -0.18803947 -0.07306852 0.0 0.09897135
-0.0 0.6576666 0.19095716 -0.11249316 0.0 -0.7576918 0.16583689 0.29691148
0.0 0.0 -0.46224934 0.20757665 0.09107237 0.078981355 0.12629436 0.32721302
0.16289282 0.16936597 -0.0 -0.0 -0.38468134 -0.0 0.5954701 -0.086744405
0.0 0.098120295 0.16221271 -0.07203112 0.0 0.0885912 0.18841971 -0.0
-0.0 -0.10790071 -0.1588631 -0.16021836 -0.149075 -0.12833403 0.09195983 -0.0
-0.13889855 -0.09985343 -0.13299239 -0.0 0.10608992 -0.16814527 -0.1727651 0.0
0.118027695 -0.18651797 0.0 0.16913746 -0.0 -0.10430983 0.06622698 0.0
-0.0 -0.14940117 -0.0 -0.15538482 -0.17249887 0.0 0.06818768 0.0
-0.15118462 0.37895444 -0.45652437 0.19920793 -0.0 -1.2493467 0.0 0.49885762
0.41283023 -0.2812442 -0.12760523 -0.0 -0.09783194 -0.0 -0.3856041 0.28992784
0.14317174 -0.19445482 0.40982607 0.15101635 -1.0049416 -0.07221962 -0.37095168 0.23004684
-0.2837658 0.1097465 0.22207648 -0.16516984 0.31659877 0.50227743 -0.23956572 0.12307424
-0.0 0.45994624 -0.07888752 0.0 -0.069032475 -0.80939054 -0.09140371 0.21861438
0.2900306 -0.36476436 -0.6498185 -0.11784001 -0.24323475 -0.14955896 0.16704284 0.15487172
-0.0 -0.0 -0.08961165 0.0 0.13846849 -0.0 0.45420197 -0.47785303
-0.19212861 -0.0 0.114286706 -0.0 0.085331224 0.33212048 -0.17033254 -0.0
-0.14281514 0.18775418 -0.0 -0.19539376 -0.0 -0.7211225 -0.2266525 0.57598335
-0.0 -0.27766943 -0.7752123 -0.0 -0.07821715 0.0 -0.2455746 0.3135461
0.17327295 0.077768914 0.123259485 0.10818311 -0.29813045 -0.20227957 0.41028196 0.0
-0.20952228 -0.0 -0.09515641 -0.13119663 -0.1491014 0.18211691 -0.0 -0.1153823
0.0 0.10159309 -0.0 -0.07485475 -0.18037565 -0.0 -0.21981688 0.119488284
0.10694047 -0.0 0.0832649 0.0 0.0 0.16327612 -0.13275672 -0.0
0.066412434 -0.09201825 -0.12539834 -0.0 -0.11933031 -0.0 -0.14511107 -0.1071133
0.0 -0.077588364 0.0 -0.18846878 -0.1255993 -0.0 0.06897169 -0.23481356
0.07694669 0.0 -0.124832824 -0.1036439 0.0 -0.109183386 0.09045173 -0.082131885
0.08576287 -0.11948822 0.0 0.0 -0.15341054 -0.09270882 -0.0 -0.0
0.087304816 -0.11111362 -0.0 -0.12765716 -0.13967898 0.115360096 -0.0 -0.14880763
0.0 -0.0 0.0 -0.11774221 0.0 -0.12289169 -0.14551982 0.0
00000000: 753f e33d b15c 2bbe 0000 0080 0000 0080
00000010: e5a1 24be ee9c 2bbf 5b2a 13be 915f 07be
00000020: 0000 0000 5767 73be c3f2 a3be f4c7 11be
00000030: 0000 0080 681f fb3d 9981 0d3e dce9 ed3d
00000040: 47c0 30be 61e4 d1bd 6393 bcbd bd98 793e
00000050: 5964 48be 2d16 6fbe 0000 0000 4be2 f5bd
00000060: 9312 c6bd 0000 0000 0000 0000 0000 0080
00000070: 6b8d 40be f3a4 95bd 0000 0000 7eb1 ca3d
00000080: 0000 0080 d75c 283f 468a 433e d062 e6bd
00000090: 0000 0000 17f8 41bf 25d1 293e c804 983e
000000a0: 0000 0000 0000 0000 f2ab ecbe f98e 543e
000000b0: 2784 ba3d fac0 a13d 4f53 013e 7788 a73e
000000c0: 60cd 263e 466e 2d3e 0000 0080 0000 0080
000000d0: f4f4 c4be 0000 0080 ba70 183f 0da7 b1bd
000000e0: 0000 0000 4bf3 c83d 171b 263e 0d85 93bd
000000f0: 0000 0000 4e6f b53d 19f1 403e 0000 0080
00000100: 0000 0080 0cfb dcbd 02ad 22be 4810 24be
00000110: 1ea7 18be ff69 03be 6f55 bc3d 0000 0080
00000120: 6c3b 0ebe f57f ccbd 282f 08be 0000 0080
00000130: ac45 d93d 462e 2cbe 56e9 30be 0000 0000
00000140: 81b8 f13d 91fe 3ebe 0000 0000 5f32 2d3e
00000150: 0000 0080 64a0 d5bd 03a2 873d 0000 0000
00000160: 0000 0080 9ffc 18be 0000 0080 331d 1fbe
00000170: 8ba3 30be 0000 0000 fba5 8b3d 0000 0000
00000180: 24d0 1abe 5106 c23e 90bd e9be 2afd 4b3e
00000190: 0000 0080 98ea 9fbf 0000 0000 446a ff3e
000001a0: 7c5e d33e 3dff 8fbe f2aa 02be 0000 0080
000001b0: 1d5c c8bd 0000 0080 e76d c5be 6c71 943e
000001c0: 9d9b 123e 2a1f 47be b9d4 d13e 08a4 1a3e
000001d0: eda1 80bf e1e7 93bd 61ed bdbe 6691 6b3e
000001e0: c049 91be c6c2 e03d 0468 633e 4822 29be
000001f0: 3c19 a23e 4195 003f b750 75be 590e fc3d
00000200: 0000 0080 137e eb3e c88f a1bd 0000 0000
00000210: e660 8dbd 3834 4fbf de31 bbbd 73dc 5f3e
00000220: e47e 943e 65c2 babe 815a 26bf 1a56 f1bd
00000230: 8812 79be fc25 19be 470d 2b3e b196 1e3e
00000240: 0000 0080 0000 0080 5086 b7bd 0000 0000
00000250: afca 0d3e 0000 0080 298d e83e 27a9 f4be
00000260: 5dbd 44be 0000 0080 260f ea3d 0000 0080
00000270: 23c2 ae3d b20b aa3e a76b 2ebe 0000 0080
00000280: 223e 12be a242 403e 0000 0080 4d15 48be
00000290: 0000 0080 7c9b 38bf 9817 68be a573 133f
000002a0: 0000 0080 b02a 8ebe 5074 46bf 0000 0080
000002b0: 5030 a0bd 0000 0000 e877 7bbe 1d89 a03e
000002c0: 776e 313e 4f45 9f3d 786f fc3d 1b8f dd3d
000002d0: 8ea4 98be 6022 4fbe 7a10 d23e 0000 0000
000002e0: 028d 56be 0000 0080 5de1 c2bd 6958 06be
000002f0: 0aae 18be db7c 3a3e 0000 0080 8e4d ecbd
00000300: 0000 0000 0a10 d03d 0000 0080 724d 99bd
00000310: 65b4 38be 0000 0080 ad17 61be 46b6 f43d
00000320: 9b03 db3d 0000 0080 ca86 aa3d 0000 0000
00000330: 0000 0000 db31 273e 61f1 07be 0000 0080
00000340: 3e03 883d 1074 bcbd 6c68 00be 0000 0080
00000350: 7363 f4bd 0000 0080 ff97 14be 385e dbbd
00000360: 0000 0000 a6e6 9ebd 0000 0000 f6fd 40be
00000370: 1a9d 00be 0000 0080 0841 8d3d f772 70be
00000380: 3a96 9d3d 0000 0000 5aa8 ffbd 4143 d4bd
00000390: 0000 0000 8a9b dfbd c23e b93d c334 a8bd
000003a0: 72a4 af3d 3db6 f4bd 0000 0000 0000 0000
000003b0: a717 1dbe 1fde bdbd 0000 0080 0000 0080
000003c0: decc b23d 8a8f e3bd 0000 0080 8fb8 02be
000003d0: 0208 0fbe ea41 ec3d 0000 0080 0761 18be
000003e0: 0000 0000 0000 0080 0000 0000 d422 f1bd
000003f0: 0000 0000 a3ae fbbd 2603 15be 0000 0000

layers.8.bias f4 [16]
0.6003849 0.36969483 -0.066191934 0.5869294 -0.13115197 0.14086218 0.5811396 -0.11039901
0.50058246 -0.14081886 0.21335448 -0.16082278 0.49406394 -0.10809927 0.6150231 0.44484547
00000000: d3b2 193f a448 bd3e a38f 87bd 0141 163f
00000010: b44c 06be 2d3e 103e 91c5 143f e018 e2bd
00000020: 2c26 003f d232 10be 9979 5a3e baae 24be
00000030: f3f5 fc3e 2663 ddbd 2772 1d3f c9c2 e33e

layers.8.weight f4 [16, 32]
0.0927002 0.15455444 -0.12617962 0.1509268 0.16349195 0.0 -0.12224016 -0.09958812
0.16204764 -0.44829586 -0.073072396 -0.0 -0.0 0.14583477 -0.32379058 -0.0
0.08894468 -0.15799285 -0.3410295 0.0 0.067651235 0.44181383 -0.14788134 0.07152011
0.22243859 0.0 0.12214448 -0.123543374 -0.5711507 -0.0 0.11820099 0.0
-0.0 0.1512161 0.109572046 0.35338223 -0.0 -0.09322101 -0.0 -0.14308624
-0.0698116 -0.5376328 -0.25927797 -0.0 0.26708713 0.0 -0.82363135 -0.0
0.17864591 0.0 -0.24193569 0.100384645 -0.14616212 -0.17387567 -0.083755784 -0.061782077
-0.32126126 -0.120603174 0.10211828 -0.0 -0.5055049 -0.09704526 -0.0 -0.0
-0.0 -0.27477592 0.092053555 0.094533734 -0.06492028 -0.0 -0.0 0.12117709
-0.0 -0.31589797 0.0 0.080120556 -0.14957185 -0.13762389 -0.0 -0.0
-0.09519339 -0.095002204 0.0 0.09501802 0.15715571 -0.16911204 -0.24039508 -0.21979965
-0.4275022 0.14038074 -0.122923866 -0.0 -0.08566776 -0.18582682 0.0 0.0
-0.071699284 0.1404165 -0.069437146 0.07421289 0.122500904 0.0 -0.06251462 0.16022569
-0.0 -0.33670098 -0.0 0.070495434 -0.0 0.19714797 -0.4819824 0.3245482
0.08617637 0.106648706 -0.35363486 0.18948725 0.0 0.25649372 -0.13049993 -0.09043937
0.17466246 -0.1260524 -0.14468132 0.09422714 -0.32024854 -0.0 0.0 -0.0
-0.08095965 -0.07704895 -0.11536746 0.121324696 -0.0 -0.17603868 -0.0 -0.12791543
-0.11429646 0.0 -0.0 0.0 -0.0 -0.08419471 -0.0 -0.16686867
-0.20757978 0.087167144 -0.0 0.06638245 0.13301079 0.0 -0.09218608 -0.0
-0.0 0.0 -0.0 -0.1811374 -0.10918595 0.12882482 -0.0 -0.12076522
0.07257023 -0.21204081 -0.07190347 0.10128515 -0.30629325 -0.16499767 0.13378502 -0.0
-0.08578591 0.24177872 -0.15428178 -0.16609257 -0.24502738 -0.20003615 -0.09112935 -0.41714922
-0.30963823 -0.0 -0.43160224 -0.17835289 0.17673835 -0.142487 -0.19299477 -0.17878568
-0.0 0.1764222 -0.14078419 0.08870538 -0.52673995 0.09858472 -0.41740006 -0.118381105
0.10562919 0.1854936 -0.09744314 0.29398128 0.27409288 -0.14436068 -0.12569523 -0.16555475
-0.07963599 -0.36327228 -0.2792236 -0.15688059 0.0 0.27961364 -0.18842575 0.21237068
0.11390464 -0.074549936 -0.36814618 -0.0 0.22796081 0.3575691 -0.0 -0.17627285
0.06424762 -0.06638344 -0.0 -0.0 -0.3809738 -0.10719449 0.0 -0.13316742
0.0 -0.21968147 0.0 -0.20466241 -0.13256896 0.17092668 -0.0 -0.0
0.09119634 -0.20059404 -0.072488464 -0.0 -0.0 -0.0 -0.1246975 -0.23062626
-0.06754142 0.11585509 -0.11120689 0.0 0.0 -0.2044865 0.09618439 0.093817905
-0.10908934 0.12265421 0.0 0.08332926 0.079173736 0.0 0.0 -0.09465489
00000000: 9ad9 bd3d 8543 1e3e 3b35 01be 8e8c 1a3e
00000010: 6f6a 273e 0000 0000 0d59 fabd dbf4 cbbd
00000020: d1ef 253e 0987 e5be fba6 95bd 0000 0080
00000030: 0000 0080 b655 153e e1c7 a5be 0000 0080
00000040: a128 b63d e1c8 21be 6b9b aebe 0000 0000
00000050: bb8c 8a3d 6c35 e23e 356e 17be 2379 923d
00000060: f1c6 633e 0000 0000 e326 fa3d 4f04 fdbd
00000070: ef36 12bf 0000 0080 5c13 f23d 0000 0000
00000080: 0000 0080 65d8 1a3e 4f67 e03d 84ee b43e
00000090: 0000 0080 a8ea bebd 0000 0080 3385 12be
000000a0: 62f9 8ebd 4ea2 09bf 15c0 84be 0000 0080
000000b0: a5bf 883e 0000 0000 81d9 52bf 0000 0080
000000c0: f4ee 363e 0000 0000 fdbd 77be 7796 cd3d
000000d0: 86ab 15be 770c 32be 2788 abbd 340f 7dbd
000000e0: 5b7c a4be ccfe f6bd 6423 d13d 0000 0080
000000f0: c568 01bf aabf c6bd 0000 0080 0000 0080
00000100: 0000 0080 6eaf 8cbe 9386 bc3d e79a c13d
00000110: ecf4 84bd 0000 0080 0000 0080 b22b f83d
00000120: 0000 0080 61bd a1be 0000 0000 3f16 a43d
00000130: 5d29 19be 47ed 0cbe 0000 0080 0000 0080
00000140: c1f4 c2bd 8490 c2bd 0000 0000 cf98 c23d
00000150: 6ded 203e b52b 2dbe 212a 76be 2913 61be
00000160: 91e1 dabe f8bf 0f3e 82bf fbbd 0000 0080
00000170: 9472 afbd 6349 3ebe 0000 0000 0000 0000
00000180: 13d7 92bd 58c9 0f3e 1035 8ebd edfc 973d
00000190: c1e1 fa3d 0000 0000 aa07 80bd 3412 243e
000001a0: 0000 0080 1264 acbe 0000 0080 e95f 903d
000001b0: 0000 0080 28e1 493e 66c6 f6be 2f2b a63e
000001c0: 3d7d b03d a36a da3d a10f b5be f208 423e
000001d0: 0000 0000 2553 833e c6a1 05be 4738 b9bd
000001e0: b7da 323e e113 01be 5727 14be 29fa c03d
000001f0: 9ef7 a3be 0000 0080 0000 0000 0000 0080
00000200: 2cce a5bd d7cb 9dbd c645 ecbd 1579 f83d
00000210: 0000 0080 7c43 34be 0000 0080 43fc 02be
00000220: 4314 eabd 0000 0000 0000 0080 0000 0000
00000230: 0000 0080 476e acbd 0000 0080 9fdf 2abe
00000240: cb8f 54be b084 b23d 0000 0080 86f3 873d
00000250: fb33 083e 0000 0000 0ecc bcbd 0000 0080
00000260: 0000 0080 0000 0000 0000 0080 157c 39be
00000270: e29c dfbd a7ea 033e 0000 0080 c153 f7bd
00000280: b39f 943d 3a21 59be 2042 93bd 976e cf3d
00000290: 78d2 9cbe 26f5 28be f1fe 083e 0000 0080
000002a0: 86b0 afbd d794 773e 0bfc 1dbe 2c14 2abe
000002b0: 75e8 7abe 47d6 4cbe 06a2 babd 9594 d5be
000002c0: e788 9ebe 0000 0080 f8fa dcbe 24a2 36be
000002d0: e6fa 343e 1de8 11be 6ca0 45be 9813 37be
000002e0: 0000 0080 05a8 343e bb29 10be 2bab b53d
000002f0: 6ed8 06bf c9e6 c93d 76b5 d5be cb71 f2bd
00000300: 1e54 d83d 09f2 3d3e 4590 c7bd b784 963e
00000310: e755 8c3e 49d3 13be 40b6 00be 2f87 29be
00000320: 3218 a3bd d3fe b9be 65f6 8ebe 4ea5 20be
00000330: 0000 0000 8529 8f3e aef2 40be b377 593e
00000340: d646 e93d a3ad 98bd a87d bcbe 0000 0080
00000350: 8f6e 693e 4c13 b73e 0000 0080 df80 34be
00000360: 4294 833d 0af4 87bd 0000 0080 0000 0080
00000370: ff0e c3be c988 dbbd 0000 0000 0a5d 08be
00000380: 0000 0000 2ef4 60be 0000 0000 0693 51be
00000390: 28c0 07be 6707 2f3e 0000 0080 0000 0080
000003a0: 26c5 ba3d 8668 4dbe d574 94bd 0000 0080
000003b0: 0000 0080 0000 0080 6761 ffbd 4a29 6cbe
000003c0: 2853 8abd 6f45 ed3d 70c0 e3bd 0000 0000
000003d0: 0000 0000 e964 51be 52fc c43d 9a23 c03d
000003e0: 3b6a dfbd 2132 fb3d 0000 0000 88a8 aa3d
000003f0: d725 a23d 0000 0000 0000 0000 6cda c1bd

layers.10.weight f4 [1, 16]
0.13320744 0.09047783 0.0 0.3121505 -0.0 -0.32209775 0.22144803 -0.1320911
0.20086072 -0.0 -0.106119916 0.34967598 0.29861704 -0.0 0.17700358 0.0
00000000: 8867 083e 714c b93d 0000 0000 31d2 9f3e
00000010: 0000 0080 ffe9 a4be 46c3 623e e442 07be
00000020: 6fae 4d3e 0000 0080 6655 d9bd bb08 b33e
00000030: 55e4 983e 0000 0080 6d40 353e 0000 0000
