CNN_3/models/CNN3QAT_quantized.pth (torch, 126516 bytes, 8 tensors)

cpu f8 [32]
00000000: 0000 0040 9c24 703f 0000 00e0 4fe5 733f
00000010: 0000 0060 3dbc 703f 0000 0080 1c61 6e3f
00000020: 0000 0040 7ae7 6e3f 0000 00c0 7a0d 6b3f
00000030: 0000 0060 95fd 723f 0000 0000 4ac4 6d3f
00000040: 0000 00e0 61e6 673f 0000 0080 c0df 6f3f
00000050: 0000 0040 07d1 723f 0000 00a0 b12d 733f
00000060: 0000 0020 09d5 6e3f 0000 00e0 6b32 713f
00000070: 0000 0000 2293 713f 0000 0020 2499 703f
00000080: 0000 0000 f9c3 703f 0000 00e0 d3ef 6b3f
00000090: 0000 0000 febd 6e3f 0000 0080 38bc 723f
000000a0: 0000 00c0 8ebd 6f3f 0000 00e0 aad9 6d3f
000000b0: 0000 0040 983b 6f3f 0000 0020 ff8f 703f
000000c0: 0000 00a0 c31a 693f 0000 0060 86ef 6c3f
000000d0: 0000 00c0 6eb2 703f 0000 0040 4ca6 6c3f
000000e0: 0000 00e0 b883 6d3f 0000 0080 0f67 6d3f
000000f0: 0000 00a0 8461 6e3f 0000 00c0 4652 683f
0.00394116435199976 0.004857360851019621 0.004085769411176443 0.003708415664732456 0.0037724864669144154 0.0033023259602487087 0.004636367317289114 0.0036336369812488556
0.0029174720402806997 0.003890872932970524 0.00459387619048357 0.0046822489239275455 0.0037636926863342524 0.004198476206511259 0.0042907074093818665 0.004052296746522188
0.004093144088983536 0.00341025716625154 0.0037527047097682953 0.004574032500386238 0.0038745678029954433 0.003643831005319953 0.003812596667557955 0.004043575841933489
0.0030645199585705996 0.003532183123752475 0.004076416604220867 0.0034972657449543476 0.0036028490867465734 0.003589182160794735 0.00370860961265862 0.0029689199291169643

conv1.0.bias f4 [32]
00000000: 0a8d 62bd 719d d1bc 32eb 65be 7594 03be
00000010: 981e cc3c 94ec 9cbe 3c4e 19be 61de f93d
00000020: 9dc1 0f3e eff0 73be 6db0 02bc 7002 22be
00000030: 9712 9cbd 5640 c83b 9379 0dbd 988e 08bd
00000040: eca7 ecba 2a95 a73d 3322 e6bc 05d7 7dbc
00000050: 661d adbe 228f b33c 0cdf 7d3d daa1 37bd
00000060: 0fa5 853d daf0 6bbd 34ff 9fbc 3bbd 4fbe
00000070: 1092 80be bb06 b0b9 1141 c93b d4e6 8a3d
-0.055310287 -0.02558777 -0.22453001 -0.128496 0.024916932 -0.30649245 -0.1497125 0.122006185
0.14038701 -0.23822378 -0.0079766335 -0.15821242 -0.07620733 0.006111185 -0.03453977 -0.033339113
-0.0018055416 0.08182748 -0.02809248 -0.015493159 -0.33811492 0.021918837 0.061980292 -0.044832088
0.06525623 -0.05760274 -0.01953087 -0.2028703 -0.25111437 -0.0003357435 0.0061417897 0.06782308

cpu f8 [64]
00000000: 0000 00a0 2111 6d3f 0000 0080 f40c 6d3f
00000010: 0000 0080 dfe4 6b3f 0000 0000 9d0f 713f
00000020: 0000 00e0 d3c3 6e3f 0000 00c0 3ff1 6c3f
00000030: 0000 00a0 2c52 6e3f 0000 0080 1f4a 703f
00000040: 0000 0000 40e4 713f 0000 00c0 5a28 713f
00000050: 0000 0060 3dd1 643f 0000 0020 5bf6 723f
00000060: 0000 0080 ee97 6c3f 0000 0040 8f54 703f
00000070: 0000 0080 dd7d 713f 0000 0080 3b24 733f
00000080: 0000 00a0 6eb1 683f 0000 0000 a1f7 6a3f
00000090: 0000 0060 0c58 713f 0000 0060 c265 6f3f
000000a0: 0000 0000 7e36 6f3f 0000 00c0 a050 6f3f
000000b0: 0000 0000 200f 713f 0000 0020 85cb 703f
000000c0: 0000 0080 53f4 703f 0000 00e0 10c2 683f
000000d0: 0000 0000 2e28 663f 0000 00a0 c7bc 703f
000000e0: 0000 0080 e92d 6a3f 0000 0080 e2af 753f
000000f0: 0000 0080 c07d 703f 0000 00c0 4c6c 6b3f
00000100: 0000 0000 ca9c 6f3f 0000 0060 28a3 6c3f
00000110: 0000 0000 7895 6f3f 0000 0080 2c8c 683f
00000120: 0000 0020 0e1d 6f3f 0000 0000 ad13 6f3f
00000130: 0000 00a0 0917 6b3f 0000 00e0 fe56 673f
00000140: 0000 00a0 41d2 6a3f 0000 00a0 8158 703f
00000150: 0000 0060 6a71 733f 0000 0080 c473 6c3f
00000160: 0000 00e0 5ed2 703f 0000 0040 0899 513f
00000170: 0000 0060 52ce 473f 0000 0080 1721 723f
00000180: 0000 0080 5def 693f 0000 0060 0cab 713f
00000190: 0000 0020 7051 6d3f 0000 0060 d31f 6e3f
000001a0: 0000 00c0 0283 673f 0000 0080 b986 6c3f
000001b0: 0000 00c0 8793 713f 0000 0040 7e9c 6f3f
000001c0: 0000 0080 b828 6e3f 0000 0080 cc06 723f
000001d0: 0000 00c0 0e97 703f 0000 0000 dfc0 763f
000001e0: 0000 0040 67bf 653f 0000 00e0 a496 6c3f
000001f0: 0000 0080 44a4 683f 0000 0040 9504 6c3f
0.003548207925632596 0.0035462165251374245 0.0034050336107611656 0.004165280610322952 0.0037554872687906027 0.0035330052487552166 0.0037012931425124407 0.003976939246058464
0.0043680667877197266 0.004188875667750835 0.002541179535910487 0.004629474598914385 0.0034904154017567635 0.00398689229041338 0.0042704250663518906 0.0046732258051633835
0.003014293732121587 0.003291906788945198 0.0042343600653111935 0.0038327022921293974 0.003810163587331772 0.003822626080363989 0.0041648149490356445 0.0041003418155014515
0.004139257594943047 0.0030222253408282995 0.0027047060430049896 0.0040862844325602055 0.003195720724761486 0.005294689908623695 0.004026176407933235 0.003347539808601141
0.003858942538499832 0.0034957684110850096 0.0038554519414901733 0.0029965275898575783 0.0037980342749506235 0.0037935618311166763 0.0033068836200982332 0.002849099924787879
0.0032740861643105745 0.003990656230598688 0.004746833350509405 0.0034731710329651833 0.004106875043362379 0.0010740833822637796 0.0007264997693710029 0.00442609004676342
0.003165896050632 0.004313515033572912 0.0035788717214018106 0.0036772850435227156 0.0028700879774987698 0.003482210449874401 0.004291086457669735 0.003858801443129778
0.003681526519358158 0.004401015117764473 0.004050309769809246 0.005555029958486557 0.002654744777828455 0.003489801427349448 0.003008016385138035 0.0034201540984213352

conv2.0.bias f4 [64]
00000000: 27c1 09be 345f 413e 0f08 24be e25b 81bd
00000010: d4eb b6bc 4981 72bc 5797 8bbd f772 aebd
00000020: 8b6d 1d3d cdbb b53d d5fe 49be 64a6 9a3e
00000030: 02c9 753b 613f 863d b527 ca3d 78cc adbd
00000040: d729 183d d69b b43d 1f22 10bd db80 fb3d
00000050: a97d eabb 7e99 72be ab7f 9d3d 417c dcbd
00000060: ba7e 703e 5e9a ac3d 5cb7 50be c509 fd3d
00000070: 632d b3bd c70e 623e 08fe e53d b02d 50be
00000080: 9359 4ebe f760 0cbc 6b31 763d 5bd2 9bb9
00000090: 3b0d 53bd 0834 643d 4e8f 363e d460 2e3d
000000a0: 0f5c 243e 3dea 1b3d fd15 ce3e d90d 7a3c
000000b0: 448f e83d 5d31 623c 8bdd b4bd 7599 a03d
000000c0: d54c 8abe 82b9 2d3b bbc4 5e3d 162a 6bbe
000000d0: a72b 6f3c ba54 81be c326 b5bd 03a1 5b3d
000000e0: 38fa 453e fc9a a4bd ede3 16be 4e22 7c3e
000000f0: c991 00be ea8f 7dbe a851 2fbc cd6d d43d
-0.13452588 0.18883973 -0.16018699 -0.063163534 -0.022329248 -0.014801332 -0.06815975 -0.085180216
0.038434546 0.08873711 -0.19726117 0.3020507 0.0037503843 0.06555057 0.09870855 -0.08486265
0.037149277 0.08818786 -0.03518879 0.122804366 -0.007156093 -0.23691365 0.07690366 -0.10765887
0.23485842 0.08427881 -0.20382446 0.12355379 -0.08748891 0.2207595 0.11230093 -0.20329928
-0.20151357 -0.00856804 0.060105722 -0.0002972063 -0.05152629 0.055713683 0.17828104 0.04257281
0.16050743 0.038065184 0.4025115 0.015262091 0.11355451 0.013805714 -0.088313185 0.078417696
-0.27011743 0.0026508276 0.054386836 -0.22965273 0.01459781 -0.25259954 -0.08845284 0.05362035
0.19333732 -0.080373734 -0.14735384 0.24622461 -0.12555613 -0.2476193 -0.010700621 0.10372505

cpu f8 [128]
00000000: 0000 0080 75f4 403f 0000 0060 d166 403f
00000010: 0000 0080 2181 723f 0000 0020 5637 703f
00000020: 0000 0000 7ec9 6e3f 0000 00c0 90f5 6a3f
00000030: 0000 00c0 6e7e 6a3f 0000 00a0 6aa5 683f
00000040: 0000 00c0 3802 6e3f 0000 0020 1440 6b3f
00000050: 0000 0020 a22b 643f 0000 00c0 93f2 713f
00000060: 0000 0080 f3ab 6d3f 0000 0020 2d52 713f
00000070: 0000 00e0 d5dc 4e3f 0000 00a0 b640 6a3f
00000080: 0000 00a0 0d45 6f3f 0000 00c0 b48a 673f
00000090: 0000 0060 59fa 3f3f 0000 0060 19cf 6c3f
000000a0: 0000 0020 016f 703f 0000 0080 4a1c 723f
000000b0: 0000 0060 bac2 6c3f 0000 0080 740a 433f
000000c0: 0000 0080 92f9 6e3f 0000 0040 53c3 703f
000000d0: 0000 0000 73cd 6b3f 0000 0020 c2ce 6c3f
000000e0: 0000 0020 3866 683f 0000 0040 e370 6d3f
000000f0: 0000 00c0 a877 6e3f 0000 0020 a12d 453f
00000100: 0000 0040 d779 6d3f 0000 0060 29e9 6f3f
00000110: 0000 00c0 1a86 6b3f 0000 0060 878f 6e3f
00000120: 0000 00a0 0bb3 6e3f 0000 0060 4fda 6b3f
00000130: 0000 0040 0f4d 483f 0000 0040 7dff 6d3f
00000140: 0000 0040 7210 443f 0000 0020 2ea8 413f
00000150: 0000 0000 9b56 6a3f 0000 0060 3c5c 6c3f
00000160: 0000 0080 ad57 6e3f 0000 0080 9d77 6e3f
00000170: 0000 00c0 793c 4e3f 0000 00e0 03eb 6d3f
00000180: 0000 0000 f149 473f 0000 00e0 72ed 6e3f
00000190: 0000 00c0 5447 713f 0000 00e0 0998 6f3f
000001a0: 0000 0000 7faa 4a3f 0000 0080 bf75 713f
000001b0: 0000 0000 b663 703f 0000 0080 d0df 653f
000001c0: 0000 00a0 a1c9 703f 0000 00c0 6053 703f
000001d0: 0000 0020 6b9e 703f 0000 00a0 88fb 6b3f
000001e0: 0000 0040 a0ec 6f3f 0000 0000 b1dd 6c3f
000001f0: 0000 00c0 e2d6 513f 0000 00e0 20be 693f
00000200: 0000 0040 e9af 6b3f 0000 0080 c182 6e3f
00000210: 0000 00c0 70ba 6d3f 0000 0060 f490 713f
00000220: 0000 0040 fcee 6a3f 0000 0060 6fdf 4e3f
00000230: 0000 0060 9415 503f 0000 0020 39c2 6c3f
00000240: 0000 0060 511c 6b3f 0000 00e0 e090 6b3f
00000250: 0000 0080 5543 6a3f 0000 0040 5b58 6f3f
00000260: 0000 0080 7b34 6e3f 0000 0060 7acd 683f
00000270: 0000 0080 71b4 433f 0000 0080 7091 453f
00000280: 0000 0040 0fdc 6c3f 0000 0000 fecd 413f
00000290: 0000 00c0 b486 693f 0000 00c0 7967 683f
000002a0: 0000 00e0 4aa1 6b3f 0000 00c0 e809 6f3f
000002b0: 0000 00a0 4983 6c3f 0000 0000 fd76 693f
000002c0: 0000 00e0 ccb9 6c3f 0000 00e0 6d5a 413f
000002d0: 0000 0060 e79f 6f3f 0000 00c0 f722 6d3f
000002e0: 0000 0000 77ff 4e3f 0000 00c0 c16b 6d3f
000002f0: 0000 0060 fb6a 6a3f 0000 00e0 cdcd 6a3f
00000300: 0000 00e0 d20b 6a3f 0000 00c0 0308 413f
00000310: 0000 0020 3991 6a3f 0000 0060 1529 6c3f
00000320: 0000 00c0 46c1 423f 0000 00c0 329a 6c3f
00000330: 0000 0080 f3b0 3f3f 0000 00a0 542b 6a3f
00000340: 0000 00a0 ee86 703f 0000 0060 b15b 6e3f
00000350: 0000 0000 78bd 493f 0000 00a0 a869 713f
00000360: 0000 0020 64e7 6f3f 0000 0080 d59d 6b3f
00000370: 0000 00c0 c305 4e3f 0000 00c0 9e0b 6f3f
00000380: 0000 0000 8ab5 6d3f 0000 00c0 8447 6b3f
00000390: 0000 00a0 1c70 713f 0000 0060 81a3 683f
000003a0: 0000 0060 1240 713f 0000 00c0 e399 6a3f
000003b0: 0000 0040 a7f8 6b3f 0000 0020 51ce 6e3f
000003c0: 0000 00e0 5f42 6d3f 0000 00a0 dd77 703f
000003d0: 0000 0080 c60d 4c3f 0000 0040 a3b5 6e3f
000003e0: 0000 00c0 70c1 423f 0000 0040 20ac 6e3f
000003f0: 0000 0020 a26b 533f 0000 00a0 d948 6b3f
0.0005174230318516493 0.0005005380953662097 0.004517680034041405 0.003959022928029299 0.0037581883370876312 0.003290922846645117 0.003234115894883871 0.0030085642356425524
0.003663168754428625 0.0033264535013586283 0.0024622122291475534 0.00438173022121191 0.003622031770646572 0.004228760022670031 0.0009418529807589948 0.0032046858686953783
0.003817106829956174 0.0028737573884427547 0.0004879444313701242 0.0035167213063687086 0.0040121120400726795 0.00442151166498661 0.003510822309181094 0.0005810803268104792
0.0037811147049069405 0.004092526622116566 0.003393864259123802 0.003516558790579438 0.0029784294310957193 0.0035938681103289127 0.0037191673181951046 0.0006463085883297026
0.00359813729301095 0.0038953598123043776 0.0033598444424569607 0.003730549244210124 0.003747484879568219 0.0033999967854470015 0.0007416080916300416 0.003661865834146738
0.0006123121129348874 0.0005388474673964083 0.0032151248306035995 0.0034619502257555723 0.0037039173766970634 0.0037191463634371758 0.0009227365953847766 0.0036521030124276876
0.0007107187993824482 0.0037753337528556585 0.004218417219817638 0.0038566773291677237 0.0008137817494571209 0.004262683913111687 0.004001341760158539 0.0026701996102929115
0.004098540637642145 0.003985765390098095 0.00405732961371541 0.003415839048102498 0.0038970117457211018 0.0035236794501543045 0.0010888304095715284 0.0031424181070178747
0.003379779402166605 0.0037244586274027824 0.003628940787166357 0.004288630094379187 0.0032877852208912373 0.0009421628783456981 0.0009817074751481414 0.003510581562295556
0.003309401450678706 0.0033649818506091833 0.0032059354707598686 0.0038263113237917423 0.0036871349439024925 0.0030276670586317778 0.00060134450905025 0.0006582068745046854
0.0035229013301432133 0.0005433550104498863 0.0031159906648099422 0.0029790285043418407 0.003372808685526252 0.0037889047525823116 0.0034805715549737215 0.003108495846390724
0.003506565233692527 0.0005295788287185133 0.0038604277651757 0.0035567129962146282 0.0009459811262786388 0.003591421525925398 0.003224841086193919 0.0032719632145017385
0.0031794661190360785 0.0005197542486712337 0.003243075916543603 0.003437558887526393 0.0005723567446693778 0.0034914962016046047 0.00048356957267969847 0.003194489749148488
0.004034931305795908 0.003705831943079829 0.0007855258882045746 0.004251154605299234 0.0038945155683904886 0.0033711595460772514 0.0009162145433947444 0.003789720591157675
0.0036266036331653595 0.0033300011418759823 0.0042573087848722935 0.003007652936503291 0.004211494233459234 0.0032472084276378155 0.003414465580135584 0.003760488936677575
0.0035716888960450888 0.00402056286111474 0.0008561343420296907 0.0037487209774553776 0.0005723763024434447 0.003744185436517 0.0011853297473862767 0.0033306360710412264

conv3.0.bias f4 [128]
00000000: 9781 22bd 1e3a 7bbd 107c 333d dcb3 463e
00000010: 86bf 9cbd 051b 343e fe55 81bd acc4 afbd
00000020: e83e bebd 95e4 0e3d 3e95 21bd 226a 583d
00000030: 079c 38bd b646 adbc 35bf a9bc 60e0 2e3d
00000040: 938b 3cbd 591d 64bd 4ee8 cebc 31f0 8cbd
00000050: d01e 29be 7251 91bc d25a 8abd 5a1d 8fbc
00000060: 9e03 5a3e 1b46 23be 4a25 b63d 0c29 463e
00000070: 244a febd 4ec7 38bd de22 2cbd 4460 27bd
00000080: f67a 9dbc 6f49 4abd 6866 d7bc 5bc1 b0bd
00000090: d9e2 7f3d abc8 42bd 2857 38bd 8f1a 103d
000000a0: dcc0 043c 705d 8c3b db29 7fbd 93f7 34bd
000000b0: a05d 473e 510e 2f3c 6d80 0cbd d39d 023e
000000c0: 9b6c 1dbd 0b31 a73d 873e c93c 1da5 a03d
000000d0: c6a3 1fbd 177b ac3b 3832 2dbe 8bdb 383e
000000e0: 20e2 373e 8a0d dcbd 56ce 0ebe c3d2 a739
000000f0: 4b92 ba3c f380 f13c 6457 70bd 648c 75bb
00000100: 7fad 85bd 3d97 9e3d 0b81 d1bd 556f f7bc
00000110: 443f 923d ae94 2abd c128 e8bc a63a ac3d
00000120: f941 aabb c306 80bc 13c8 0d3e 0314 cfbd
00000130: e6e1 a5bd 11b1 31be f8a5 a93b 6e05 77bd
00000140: c331 19bd f1d6 95bc 5035 b7bd 49e1 debc
00000150: 4930 223d 72bb ee3d 98fc d3bd d340 16be
00000160: c1bb d03c 9e40 73bb 3605 0b3d b686 063e
00000170: c68f 22bd 3b6b dabd e462 91bd b4b2 15be
00000180: f06c ea3d a703 3ebd 58bf 373e ad09 a93d
00000190: 754d ddbc 1c2f f4bd 4aec 0dbd 480b b1bd
000001a0: 92cd 693e b95c 7ebe 7093 22bd 8588 6a3e
000001b0: bbeb 98bd 4d25 76bd d4af 02bd f743 a13d
000001c0: 4f78 2dbe 810e 8a3d 8231 953d fa19 a43b
000001d0: 5409 4f3e 74c5 99bc 3840 363d ee0b 6f3d
000001e0: 14cf f6bd de25 adbd a69b cebc b831 0f3d
000001f0: 260a 34bd 21f0 b73d 0ebf 5a3c a4bd 6b3c
-0.039674368 -0.06133472 0.043819487 0.19404548 -0.07653718 0.17588432 -0.0631523 -0.08582434
-0.09289342 0.03488596 -0.03944897 0.05283559 -0.045070674 -0.021151882 -0.020721057 0.04269445
-0.046031546 -0.05569205 -0.025257256 -0.068817504 -0.1651566 -0.017739031 -0.06755604 -0.01747005
0.21290442 -0.15944712 0.08893831 0.19351596 -0.12416485 -0.045111947 -0.04202544 -0.04086329
-0.019223671 -0.049386438 -0.026293948 -0.0863063 0.0624722 -0.047554653 -0.045004994 0.03518158
0.008102622 0.0042835996 -0.062295776 -0.044181418 0.19469309 0.010684566 -0.034302164 0.12755518
-0.038433652 0.08163651 0.024565948 0.07843993 -0.038974546 0.005263697 -0.16913688 0.18052499
0.17957354 -0.1074477 -0.13945898 0.00032009752 0.022774836 0.029480433 -0.058677092 -0.0037467713
-0.065272324 0.0774369 -0.10229691 -0.030204454 0.07140973 -0.0416457 -0.028339745 0.08409624
-0.005195853 -0.015628224 0.13845854 -0.10111239 -0.08099727 -0.17352702 0.0051772557 -0.060307913
-0.037400972 -0.018290969 -0.089457154 -0.027207034 0.03959683 0.11656846 -0.10350913 -0.14673166
0.025480153 -0.0037117372 0.033940516 0.13137326 -0.039687894 -0.10664984 -0.0709894 -0.14618951
0.114465594 -0.046390202 0.17944086 0.08253799 -0.027014473 -0.11923048 -0.03464917 -0.0864473
0.22832325 -0.24840058 -0.03969139 0.2290364 -0.07466837 -0.060094167 -0.031905964 0.078742914
-0.16940425 0.06741048 0.072848335 0.0050079795 0.20218402 -0.01877091 0.044494838 0.058360986
-0.12051216 -0.08454488 -0.025220703 0.034959525 -0.04395499 0.08981348 0.013351215 0.014388476

cpu f8 [10]
00000000: 0000 0020 849f 6a3f 0000 0040 3199 703f
00000010: 0000 00e0 ec5d 693f 0000 0080 bd6e 713f
00000020: 0000 0020 14d3 6d3f 0000 00c0 0531 6a3f
00000030: 0000 0000 8ec3 713f 0000 0080 7bd9 6d3f
00000040: 0000 0040 7cef 6b3f 0000 0040 caf8 6d3f
0.003249891335144639 0.0040523456409573555 0.0030965448822826147 0.004256000742316246 0.0036406891886144876 0.003197203855961561 0.0043368861079216 0.003643742762506008
0.003410093951970339 0.003658671397715807

cpu f4 [10]
00000000: e3fa 63bc 8a51 80be 34de 1bbd 3cb2 6e3d
00000010: 0f89 283e 05ce fe3b 8075 d93d a342 80bd
00000020: 3189 0fbc 1f62 8bbd
-0.0139147965 -0.2506221 -0.038053706 0.058275446 0.16458534 0.0077760243 0.106181145 -0.0626271
-0.008760736 -0.068058245
