CNN_3/models/CNN3QAT_preconvert.pth (torch, 483322 bytes, 20 tensors)

conv1.0.weight f4 [32, 3, 3, 3]
000000 c0 10 8b be 22 8a 81 3b 69 84 26 be 40 59 ab 3c
       -0.27161217 0.0039532343 -0.16261448 0.020916581
000010 de e6 80 3d 24 2f f4 3c 9f 55 0b bd 1c 72 5a bb
       0.062940344 0.029807635 -0.0340172 -0.0033332175
000020 1b 18 f1 3d c6 04 09 3e 00 17 50 3e a0 48 12 3e
       0.11772176 0.13380727 0.20321274 0.14285517
000030 8c c0 d5 3d e9 99 7d 3e 2e 62 dd 3d 63 4e 9d 3d
       0.10437116 0.24765743 0.10809742 0.07680967
000040 9d 1d ff 3d 0f 5a 06 3e 01 1f c1 bd 7a 29 43 be
       0.1245682 0.13120292 -0.09429742 -0.19058791
000050 4f 39 b1 bd 74 88 9a 3d 31 0b 01 bf 9e d4 47 bc
       -0.08653509 0.075455576 -0.504077 -0.012196688
000060 4f 1e 44 be 2b e6 cb 3d dc 9b 7b be 8e a9 fb 3d
       -0.19152187 0.099560104 -0.24571174 0.12288199
000070 00 a6 2a be 84 66 12 3c 04 66 90 3e be ad b7 bd
       -0.16664886 0.008935574 0.28202832 -0.089686856
000080 3c 3b ce bd 82 6d 97 3e 2d 6b a4 be b0 28 43 bd
       -0.10069892 0.29575735 -0.3211302 -0.047646224
000090 2e 9a 1f 3e f1 2c 4c be 8c d0 24 bd 9b 7c c1 3e
       0.15586159 -0.19939019 -0.04023795 0.3779038
0000a0 d2 4e f8 bd 0d 83 1d be df b5 5b 3e b7 58 73 be
       -0.12124409 -0.15382023 0.21456097 -0.23764311
0000b0 35 d7 c5 bd 06 5c 02 3e a5 20 a6 bc 3f 5f 21 be
       -0.09660188 0.12730417 -0.020279238 -0.1575899
0000c0 38 40 89 3e 4f 97 14 be 69 a7 76 be 41 34 1f 3f
       0.26806808 -0.14510845 -0.240873 0.6218911
0000d0 b9 7b 9a be b9 89 85 bd 4c 96 df 3c a8 12 ca bc
       -0.30172518 -0.06520409 0.027293347 -0.0246671
0000e0 0a ff 94 be 3c 12 63 bd 2d e8 8b bd 9c 70 1e be
       -0.2910083 -0.05543731 -0.068313934 -0.15472645
0000f0 13 bd c5 bc 46 5b e8 3d 2b 24 6c be e4 6d aa bd
       -0.02413801 0.11345534 -0.23060672 -0.08321741
000100 78 8f d9 3c d8 12 97 be 35 44 34 bd 01 dd 05 3f
       0.026557669 -0.29506564 -0.04401036 0.5229035
000110 47 05 ae be 35 3c 89 bc e6 ba c9 3e 38 b5 46 3e
       -0.339884 -0.016752342 0.39400405 0.19405067
000120 59 0c 29 be 28 e7 a1 3d 67 0e 8f be ce a6 29 3e
       -0.16508617 0.07905418 -0.27940676 0.16567537
000130 27 d8 e1 bd 6d ad fd bc b5 55 c2 3b 15 d0 00 3e
       -0.11027556 -0.030966485 0.005930627 0.12579377
000140 cb 98 45 bd ac 97 8f bd 57 a6 51 3e 99 f7 a9 3d
       -0.048241418 -0.07011351 0.2047361 0.08299179
000150 fb b5 0b 3e 2a 6c 39 3e cb af ba be eb f8 ef bb
       0.13643639 0.18107668 -0.36462244 -0.0073233745
000160 0c 63 8d be 9f 14 21 be 2a 9a ec 3d f3 83 a0 3e
       -0.2761463 -0.15730523 0.11552842 0.3135067
000170 b4 d9 8e 3e ff fb f1 3e d6 2c 82 3e 1a 6a a8 be
       0.2790047 0.4726257 0.25424832 -0.3289345
000180 6e f1 04 3d 8e 36 b6 be 1c d9 4f be 46 ab 2f be
       0.032456808 -0.35588497 -0.20297664 -0.1715518
000190 d7 e6 28 3e 84 1b 06 3d e5 17 23 3d 25 c6 db bd
       0.16494308 0.032741085 0.03981771 -0.107311524
0001a0 09 47 8d be 10 01 04 be 2c 88 a5 bd e1 b6 04 3e
       -0.27593258 -0.1289103 -0.08082613 0.12960388
0001b0 e3 05 9f 3e cd 87 db bd 88 b9 3d 3e e4 8f 8d 3e
       0.3105918 -0.10719261 0.18527806 0.27648842
0001c0 f8 af 8f be 71 d9 ba bd af 05 76 3e ca 19 9a be
       -0.2806394 -0.09123505 0.24025606 -0.300978
0001d0 a3 9f fb bd eb 6c ff 3c 07 0b 90 be f6 cb 88 3a
       -0.12286308 0.031179866 -0.28133413 0.0010436762
0001e0 91 94 92 bd 5b 74 91 be 9f d2 3a 3e 4c 8e 6b 3e
       -0.07157243 -0.28409085 0.18244408 0.230035
0001f0 9f 81 ef bd ab d0 f7 3e 34 98 40 3b 39 3b 06 be
       -0.11694645 0.4840139 0.0029387595 -0.13108529
000200 65 53 c5 3b 31 f7 72 bd b2 56 c1 bc 03 17 e6 3d
       0.0060219043 -0.05931777 -0.02360091 0.11234858
000210 bd a9 b7 3d 6e 89 fb bd c8 ea 05 3d af e5 38 be
       0.08967922 -0.12282072 0.032694608 -0.18056367
000220 a2 54 9d 3d 5a c2 00 3e 3d fb ad 3d 58 7c e4 3d
       0.07682158 0.12574139 0.084951855 0.11156529
000230 ee 66 9b 3e 2f ee a0 be b8 85 ab 3c 6e 8d e7 bc
       0.30351967 -0.3143172 0.020937786 -0.028265681
000240 50 9d e1 3c 58 6b 72 bd 4e db 1a bd 0a 4a 29 3e
       0.027540833 -0.059184402 -0.0378068 0.1653215
000250 ab a9 a4 3e 35 6e af 3e 6f d7 33 bd b7 18 cf 3d
       0.32160696 0.3426377 -0.043906625 0.10112136
000260 4a 4e eb 3d 9a d9 15 be 3c b4 f6 3d 95 05 77 be
       0.11489542 -0.1463379 0.12046096 -0.24123223
000270 af 29 53 3d b3 49 94 3e 25 1b 68 bd 28 40 d8 be
       0.051553424 0.28962478 -0.056666512 -0.42236447
000280 db 0f 11 3c 0c 5a b4 bd 6a db cc 3d 4d b0 b2 3b
       0.008853878 -0.088062376 0.100027874 0.0054531456
000290 10 5f 7f 3d a0 83 89 3e 21 11 36 3e 09 4c 04 3e
       0.062346518 0.26858234 0.17779972 0.1291963
0002a0 f3 71 41 3e 16 07 9c bc 2c 0e 7c be 7d 0c b8 3d
       0.18891124 -0.019046348 -0.24614781 0.08986757
0002b0 79 05 17 3e a0 8a 80 3e 9e 5a 2d be 2f e7 39 bd
       0.14748181 0.25105762 -0.16929099 -0.04538649
0002c0 09 3e 1b be 61 85 8b be a6 ae a2 be b6 7b 17 bf
       -0.15160383 -0.27250198 -0.3177387 -0.5917314
0002d0 a6 cb 6d 3e a1 f6 a6 3e 21 b3 7e 3e 06 84 d9 bd
       0.23222217 0.32610038 0.2487302 -0.106208846
0002e0 b4 33 8d 3e f6 83 49 3d c9 99 76 be ab 83 39 be
       0.2757851 0.049198113 -0.24082102 -0.18116634
0002f0 05 ed 5d be 12 81 2f be 43 fd 0c be 78 f7 19 be
       -0.21672447 -0.1713908 -0.13768487 -0.15035808
000300 e9 ba fe bd 70 c1 2a 3e 10 8f 14 be 97 d9 30 be
       -0.12437994 0.16675353 -0.14507699 -0.17270504
000310 18 2d 6c be 11 d6 70 be 81 da 39 bd 01 95 10 be
       -0.23064077 -0.2351916 -0.045374397 -0.1411934
000320 05 82 1b 3e 71 0b 83 3d 9c dc ec 3e 3a 91 a3 3e
       0.15186317 0.06398667 0.46262062 0.31946737
000330 60 86 35 3e 18 1e a8 3d 6a a4 48 3e ec 05 f9 bd
       0.17727041 0.08208865 0.19593969 -0.12159333
000340 b5 88 71 be 13 d5 13 be fa a6 32 3e 73 f0 73 bd
       -0.23587306 -0.1443675 0.17446509 -0.059555482
000350 77 cd 39 3e 4e b4 ab 3c 3a aa 27 3e 3e f9 0c be
       0.18144785 0.02096 0.1637353 -0.13766953
000360 e5 a3 cf bd 0f 7c 13 be f5 6e 94 3d 3f 1f 1f 3e
       -0.10138682 -0.14402793 0.07247726 0.15539263
000370 be c2 23 3e 55 9a 28 3e 51 af d9 bd 2c df db 3d
       0.15992257 0.16465123 -0.10629142 0.10735926
000380 2a b1 25 3e b7 f2 76 bd 7f 67 4d be 20 f8 0e 3e
       0.16180864 -0.060290065 -0.20059012 0.1396184
000390 59 39 01 3e 0a 6b 2b 3d 04 c0 be be b0 fb 1a be
       0.12619533 0.041850127 -0.3725587 -0.15135074
0003a0 33 c5 7b bd f4 c9 f9 bd 48 d2 83 bd 33 f9 de bc
       -0.06146736 -0.121967226 -0.06436592 -0.027218437
0003b0 60 00 4f be cf 3d 50 3e f4 c3 6e 3e 5f 4e f0 3c
       -0.20214987 0.20336078 0.23316938 0.029334245
0003c0 74 84 63 3e 91 90 6e 3d 87 8f 82 3e 1e 1e c9 bd
       0.22218496 0.058243338 0.25500128 -0.098201975
0003d0 2d 9d ac 3d 95 68 93 3d 46 0e e7 bd e5 43 cc 3d
       0.084284164 0.07197682 -0.11282019 0.09973887
0003e0 48 f5 9c 3d 97 fc 75 3e a4 d2 06 3e b2 14 a3 3e
       0.07663971 0.24022137 0.1316629 0.31851727
0003f0 40 c3 0b be f3 17 de bd 17 57 a0 be 90 13 76 3e
       -0.136487 -0.10844412 -0.31316444 0.240309

conv1.0.bias f4 [32]
000000 0a 8d 62 bd 71 9d d1 bc 32 eb 65 be 75 94 03 be
       -0.055310287 -0.02558777 -0.22453001 -0.128496
000010 98 1e cc 3c 94 ec 9c be 3c 4e 19 be 61 de f9 3d
       0.024916932 -0.30649245 -0.1497125 0.122006185
000020 9d c1 0f 3e ef f0 73 be 6d b0 02 bc 70 02 22 be
       0.14038701 -0.23822378 -0.0079766335 -0.15821242
000030 97 12 9c bd 56 40 c8 3b 93 79 0d bd 98 8e 08 bd
       -0.07620733 0.006111185 -0.03453977 -0.033339113
000040 ec a7 ec ba 2a 95 a7 3d 33 22 e6 bc 05 d7 7d bc
       -0.0018055416 0.08182748 -0.02809248 -0.015493159
000050 66 1d ad be 22 8f b3 3c 0c df 7d 3d da a1 37 bd
       -0.33811492 0.021918837 0.061980292 -0.044832088
000060 0f a5 85 3d da f0 6b bd 34 ff 9f bc 3b bd 4f be
       0.06525623 -0.05760274 -0.01953087 -0.2028703
000070 10 92 80 be bb 06 b0 b9 11 41 c9 3b d4 e6 8a 3d
       -0.25111437 -0.0003357435 0.0061417897 0.06782308

conv1.0.weight_fake_quant.scale f4 [32]
000000 b1 a2 80 3b 32 c9 9f 3b 8b 67 86 3b 1a fe 73 3b
       0.0039256443 0.0048762793 0.0041016988 0.0037230314
000010 f8 30 78 3b ab 91 57 3b 59 54 97 3b 36 13 6f 3b
       0.0037870985 0.0032893221 0.0046182093 0.0036479956
000020 17 73 3e 3b 6a fc 7f 3b 43 1e 97 3b 5c 07 9a 3b
       0.0029060298 0.0039060363 0.004611762 0.0047005843
000030 6f 9e 77 3b de 08 89 3b ac 0b 8c 3b 4f 4e 85 3b
       0.0037783643 0.0041819653 0.0042738523 0.004068173
000040 1b 99 85 3b b7 9d 5e 3b b9 e6 76 3b 43 4b 95 3b
       0.0040770895 0.0033968517 0.0037674143 0.004556091
000050 88 eb 7c 3b ea c2 6f 3b 69 d7 7a 3b 37 04 85 3b
       0.0038592536 0.0036584684 0.0038275367 0.0040593403
000060 df 09 48 3b 74 93 66 3b dd 0e 85 3b a8 1a 66 3b
       0.0030523462 0.0035183104 0.0040606097 0.0035111103
000070 15 30 6b 3b f7 4b 6a 3b 86 06 74 3b 17 ce 41 3b
       0.0035886813 0.0035750845 0.0037235334 0.0029572302

conv1.0.weight_fake_quant.activation_post_process.min_val f4 [32]
000000 b1 a2 00 bf 19 2a a4 be 18 d3 ad be c2 4a b9 be
       -0.5024825 -0.32063368 -0.33950114 -0.36189848
000010 75 fe 99 be ab 91 d7 be 59 54 17 bf 21 5e 72 be
       -0.30076948 -0.42103323 -0.5911308 -0.2366872
000020 17 73 be be 54 c6 df be 2b a1 cb be 1a 7c 99 be
       -0.37197182 -0.43706 -0.397714 -0.29977494
000030 87 23 56 be de 08 09 bf ac 0b 0c bf ec 98 89 be
       -0.2091199 -0.53529155 -0.5470531 -0.26874483
000040 1b 99 05 bf b7 9d de be 3a 60 af be 43 4b 15 bf
       -0.52186745 -0.43479702 -0.34253103 -0.58317965
000050 88 eb fc be 27 ca 80 be cb b1 86 be 2d 17 90 be
       -0.49398446 -0.2515423 -0.2630752 -0.28142682
000060 df 09 c8 be 74 93 e6 be dd 0e 05 bf 6a af c6 be
       -0.3907003 -0.45034373 -0.51975805 -0.38805705
000070 15 30 eb be f7 4b ea be ec 27 ac be 17 ce c1 be
       -0.4593512 -0.45761082 -0.33624208 -0.37852547

conv1.0.weight_fake_quant.activation_post_process.max_val f4 [32]
000000 78 61 7d 3e a0 89 1e 3f bc 5a 05 3f 1e 16 f2 3e
       0.24744213 0.6192875 0.52091575 0.472825
000010 96 40 f6 3e 6c 6b b0 3e 3f a2 a5 3e 10 35 ed 3e
       0.4809615 0.34456956 0.32350346 0.46329546
000020 5b ee 81 3e 71 fc fd 3e 06 f0 15 3f 4d d3 18 3f
       0.25377163 0.4960666 0.5856937 0.5969742
000030 32 af f5 3e ed a7 fa 3e 23 ac d2 3e b2 43 04 3f
       0.47985226 0.48956242 0.41146955 0.51665795
000040 f8 5a a9 3e db 22 ba 3e ec f8 f4 3e 08 ed bf 3e
       0.33077216 0.36354718 0.47846162 0.37485528
000050 74 a8 a2 3e 64 e3 ed 3e ba e1 f8 3e 2f fa 03 3f
       0.31769145 0.46462548 0.48609716 0.51553625
000060 9f f3 61 3e f0 40 aa 3e 9f 5e ab 3e 73 4e e4 3e
       0.2206559 0.33252668 0.33470628 0.44591102
000070 78 46 91 3e 0b f1 90 3e 79 1e f2 3e 45 78 8c 3e
       0.28374076 0.283089 0.47288874 0.27435508

conv2.0.weight f4 [64, 32, 3, 3]
000000 8a b5 16 3e 5a 4f 20 be d7 8d 2b be 24 12 02 3d
       0.14717689 -0.1565527 -0.16753326 0.03175558
000010 2f 1c 42 be 4f 29 30 be cf aa 20 3d d7 00 dc bd
       -0.18956064 -0.17203258 0.039225396 -0.10742348
000020 8f 43 cc bd f3 45 c8 bc ed 77 8b 3d 3e 3a 0e bd
       -0.09973823 -0.024447417 0.068099834 -0.034723513
000030 60 0d 76 3d b8 31 90 3d af 3d 54 be 82 7e a7 bc
       0.06007135 0.07040733 -0.20726655 -0.020446066
000040 4b 8a 32 3c a4 b9 6b be 61 80 4f be 26 32 45 be
       0.010897229 -0.23020035 -0.20263816 -0.19257411
000050 f9 19 cf bd eb 20 45 be 74 0b 99 be ab 47 12 be
       -0.10112376 -0.19250838 -0.2989155 -0.14285152
000060 c2 d2 e7 bb 3a 35 45 be 17 0e d3 bd 8f 96 de bd
       -0.007074685 -0.19258586 -0.10305422 -0.108685605
000070 a6 20 24 be 9b 3c c8 be 14 af bc 3b ed cf 57 be
       -0.1602808 -0.39108738 0.0057581756 -0.21075411
000080 7f e2 e7 be 7c 9e 0c be 28 7e d2 be e2 a5 d9 be
       -0.4528999 -0.13732332 -0.41111875 -0.4250937
000090 48 e6 4e be 97 96 d8 bd b6 6c 2c 3d ab 1e e8 bd
       -0.20205033 -0.10575598 0.042095862 -0.113339745
0000a0 88 43 79 bc d1 13 24 3e 69 d5 d8 bd 06 80 07 be
       -0.015213855 0.16023184 -0.1058758 -0.13232431
0000b0 e0 4c ec 3d 4e 12 ac 3d 4a 35 f8 bd 2c ca 70 be
       0.115381 0.08401929 -0.12119539 -0.23514622
0000c0 d4 95 5b ba 60 cf 05 be 25 86 21 bc 9b d6 94 bd
       -0.0008376513 -0.13067389 -0.009858643 -0.07267495
0000d0 07 0e b4 bc bf 29 fe 3d be f6 7e be 87 6e 51 3e
       -0.021979345 0.12410306 -0.24898812 0.20452319
0000e0 ad f1 b2 3e df 0a dc bd 61 6f ad 3d 8e 70 00 3e
       0.3495001 -0.10744261 0.084685095 0.12542936
0000f0 ea 35 8c be 8d 1d c6 3c 41 24 00 3e 84 d9 47 3e
       -0.27384883 0.024184013 0.1251383 0.1951657
000100 95 e7 c5 bd d8 db 2d 3c 5d 20 14 3e e7 9a 5c be
       -0.096633114 0.010611497 0.1446547 -0.21543466
000110 8a 35 ea bc 5f ca 2a 3d c0 db 39 be 18 75 22 3d
       -0.028589983 0.041696902 -0.18150234 0.03966245
000120 26 c3 1b be a4 29 17 3e 0a 60 aa 3a db 1f d9 bc
       -0.15211162 0.14761978 0.0012998593 -0.026504448
000130 6d 62 0a 3e fa d7 4d 3d c0 42 58 bc a9 af fb 3d
       0.13514109 0.0502548 -0.013199508 0.12289364
000140 25 9f 31 3c a6 e2 ca bd 24 cc 85 3e 7b 86 4b 3e
       0.010841166 -0.09906511 0.2613231 0.19875519
000150 48 ce 7b 3d 34 78 bb 3e 16 f5 22 3e cd f6 4e 3c
       0.061476022 0.36615145 0.15913805 0.012632084
000160 fc 76 97 3e 47 47 32 3e 73 1b b0 be 3a 68 0d be
       0.29582965 0.17410003 -0.34395942 -0.1380929
000170 b0 fc 04 3c b3 16 76 be b2 82 d8 bd 65 69 92 3d
       0.008116886 -0.24032097 -0.10571803 0.07149009
000180 cf 6c 82 be 70 84 0a be f8 e9 19 b9 12 71 59 be
       -0.2547364 -0.13527083 -0.00014678377 -0.21234539
000190 fe cb 61 3e 0d d3 76 3e ff 76 93 bd be 0c a4 3e
       0.22050473 0.24103947 -0.07200431 0.32040972
0001a0 ef 6e 62 3e 14 58 e4 bd f4 58 8e 3e be c8 28 3e
       0.2211263 -0.11149612 0.2780224 0.16482827
0001b0 73 2b 69 be ab 15 28 bc 86 93 4d 3d dd 19 57 be
       -0.22770481 -0.010259072 0.050189517 -0.2100596
0001c0 fd 31 4f 3c 32 b9 6a 3d 51 70 75 be 76 21 82 bd
       0.0126461955 0.057305522 -0.23968627 -0.063540384
0001d0 84 8e 52 bd 54 dd 53 3c 97 2b d8 bd 47 b1 07 3c
       -0.051405445 0.012931187 -0.10555189 0.008282012
0001e0 b9 8e 6a bd 3a e7 3f be 92 be 31 3d 1a 8e 36 be
       -0.057265017 -0.1874055 0.043394633 -0.17827645
0001f0 28 01 30 be 88 74 eb 3c 32 a4 31 bd f8 d8 31 bd
       -0.17187941 0.02874209 -0.04336948 -0.04341981
000200 fc ce 00 3c e5 13 9a be 3e 11 f8 bd 68 4e 53 bd
       0.007861849 -0.30093303 -0.12112664 -0.051588446
000210 f8 56 13 be fb 1f 2e be 99 15 03 be 3f 3c bc 3d
       -0.14388645 -0.17004387 -0.12801208 0.091911785
000220 27 e2 08 be 57 4c 18 3e ff ca cd bc 26 7e 17 bd
       -0.1336752 0.14872871 -0.02512121 -0.03698554
000230 4d 50 21 3e 65 23 30 be 07 f5 fa bc 90 b2 05 3e
       0.15753289 -0.17201002 -0.030634416 0.13056397
000240 32 a7 dd bd ac d7 9e bc 5c b4 94 bd 76 57 fd bd
       -0.108229056 -0.01938995 -0.07260963 -0.123701975
000250 ea ef 5c be bb 3b 3c 3e 75 f8 67 bd 05 70 2d be
       -0.21575895 0.1838216 -0.05663343 -0.16937263
000260 b6 cc a6 3d c7 d4 11 3e ad d1 65 bd b1 db 11 3e
       0.08144514 0.14241324 -0.056108166 0.14243962
000270 52 25 3b 3e f8 c1 85 3d a9 bd 42 3e 4c 0b e5 bd
       0.18275955 0.06531137 0.19017662 -0.11183795
000280 8b 66 81 3d d1 00 dd 3d 19 fc 7f bd db 85 67 3e
       0.06318387 0.10791171 -0.06249628 0.22609656
000290 7f eb 9a bd bb 42 c5 bb 1c 0b 2b 3e 61 f9 47 be
       -0.075644486 -0.006019918 0.16703457 -0.19528724
0002a0 ce 94 fa 3d 6d 97 91 3d f5 15 56 be c8 15 f2 bc
       0.122354135 0.0710896 -0.20906813 -0.029551402
0002b0 77 1c 8d 3c 13 eb 3d be 49 d0 7c be 2d 17 23 3c
       0.017225487 -0.18546705 -0.2468883 0.009954256
0002c0 8e 67 30 be 27 3e 6c be 02 f2 cb bc b7 62 42 be
       -0.17227003 -0.23070584 -0.024895672 -0.18982969
0002d0 90 a3 0f be 38 ed 70 3d 45 1d bb 3c f1 ac 43 be
       -0.14027238 0.05881998 0.022841105 -0.1910894
0002e0 2d b2 b1 3e 85 fd 8d 3d e1 0e 0c be 23 20 43 3d
       0.3470625 0.06933121 -0.13677551 0.04763807
0002f0 49 f0 33 3d cd c3 af 3b e0 07 47 be ba b7 38 be
       0.043930326 0.0053639174 -0.19436598 -0.18038836
000300 6e 12 6a bd 0b 66 76 be 60 e3 c6 bd 9b bd 39 be
       -0.057146482 -0.24062364 -0.09711337 -0.18138735
000310 10 4a 75 be 4c 5b 75 3a 31 68 fa bc 6f 35 ae bc
       -0.23954034 0.00093596126 -0.03056726 -0.021265713
000320 d5 4a 1e ba 9a 05 e5 bd 89 bc 16 bc cb bb 39 3d
       -0.00060383725 -0.11182709 -0.009200224 0.04534511
000330 73 61 1c be a3 c5 7a bd 3d 36 d1 bc 3c ee 80 bd
       -0.15271549 -0.061223637 -0.025538558 -0.062954396
000340 32 b8 b5 be 5f 3f 1d be 33 16 ce bd 3c 88 78 be
       -0.35492092 -0.15356205 -0.10062828 -0.2427072
000350 e5 ad 22 bd 9c 3e 40 bd 09 7f a4 bd 71 bd 87 bc
       -0.03971662 -0.04693471 -0.080320425 -0.016569825
000360 41 39 9a bd e6 3d 42 be 9d fa a9 be f9 eb d0 bd
       -0.075304516 -0.18968925 -0.33199015 -0.10201258
000370 c2 b6 0f be 0f 58 bc be 5a 42 27 bd 77 b4 24 be
       -0.1403456 -0.36785933 -0.040834762 -0.16084467
000380 3e b3 87 be 87 19 24 3e f2 31 88 be 72 45 0a be
       -0.26503938 0.16025363 -0.26600605 -0.13503054
000390 81 bf b9 3d 82 0c 37 be 77 99 0e be da 1d 11 3e
       0.090697296 -0.17875865 -0.1392573 0.14171544
0003a0 cc 41 89 be 2a 4a 88 bd 76 d2 0e be ea 8c 51 bd
       -0.26808012 -0.06654771 -0.13947472 -0.051159777
0003b0 6c 22 b7 bd 5e fd 19 be 5f 38 c9 bd e7 b9 ca bd
       -0.08942112 -0.15038058 -0.09825205 -0.09898739
0003c0 93 05 16 be c0 c2 18 3e 89 3f 08 be 9a 8f 55 be
       -0.14650564 0.14918041 -0.13305487 -0.20855561
0003d0 75 5e a3 bd 0d 71 87 3d f0 84 ea bd 01 24 8a bd
       -0.079770006 0.066133596 -0.11451137 -0.067451485
0003e0 04 30 16 3e fa c8 50 be 4f 9d 3a bd 9c d0 17 3e
       0.14666754 -0.20389166 -0.045560177 0.14825672
0003f0 17 e5 b4 3d a3 26 20 be 71 7a 90 3d 10 53 6b 3c
       0.08832758 -0.15639739 0.07054604 0.014363065

conv2.0.bias f4 [64]
000000 27 c1 09 be 34 5f 41 3e 0f 08 24 be e2 5b 81 bd
       -0.13452588 0.18883973 -0.16018699 -0.063163534
000010 d4 eb b6 bc 49 81 72 bc 57 97 8b bd f7 72 ae bd
       -0.022329248 -0.014801332 -0.06815975 -0.085180216
000020 8b 6d 1d 3d cd bb b5 3d d5 fe 49 be 64 a6 9a 3e
       0.038434546 0.08873711 -0.19726117 0.3020507
000030 02 c9 75 3b 61 3f 86 3d b5 27 ca 3d 78 cc ad bd
       0.0037503843 0.06555057 0.09870855 -0.08486265
000040 d7 29 18 3d d6 9b b4 3d 1f 22 10 bd db 80 fb 3d
       0.037149277 0.08818786 -0.03518879 0.122804366
000050 a9 7d ea bb 7e 99 72 be ab 7f 9d 3d 41 7c dc bd
       -0.007156093 -0.23691365 0.07690366 -0.10765887
000060 ba 7e 70 3e 5e 9a ac 3d 5c b7 50 be c5 09 fd 3d
       0.23485842 0.08427881 -0.20382446 0.12355379
000070 63 2d b3 bd c7 0e 62 3e 08 fe e5 3d b0 2d 50 be
       -0.08748891 0.2207595 0.11230093 -0.20329928
000080 93 59 4e be f7 60 0c bc 6b 31 76 3d 5b d2 9b b9
       -0.20151357 -0.00856804 0.060105722 -0.0002972063
000090 3b 0d 53 bd 08 34 64 3d 4e 8f 36 3e d4 60 2e 3d
       -0.05152629 0.055713683 0.17828104 0.04257281
0000a0 0f 5c 24 3e 3d ea 1b 3d fd 15 ce 3e d9 0d 7a 3c
       0.16050743 0.038065184 0.4025115 0.015262091
0000b0 44 8f e8 3d 5d 31 62 3c 8b dd b4 bd 75 99 a0 3d
       0.11355451 0.013805714 -0.088313185 0.078417696
0000c0 d5 4c 8a be 82 b9 2d 3b bb c4 5e 3d 16 2a 6b be
       -0.27011743 0.0026508276 0.054386836 -0.22965273
0000d0 a7 2b 6f 3c ba 54 81 be c3 26 b5 bd 03 a1 5b 3d
       0.01459781 -0.25259954 -0.08845284 0.05362035
0000e0 38 fa 45 3e fc 9a a4 bd ed e3 16 be 4e 22 7c 3e
       0.19333732 -0.080373734 -0.14735384 0.24622461
0000f0 c9 91 00 be ea 8f 7d be a8 51 2f bc cd 6d d4 3d
       -0.12555613 -0.2476193 -0.010700621 0.10372505

conv2.0.weight_fake_quant.scale f4 [64]
000000 d9 9f 67 3b 0a 81 67 3b ea 04 60 3b b3 05 89 3b
       0.003534308 0.0035324716 0.0034182617 0.0041815876
000010 34 24 75 3b 9b a0 66 3b 93 9b 71 3b c4 d3 82 3b
       0.0037405612 0.0035190943 0.003686641 0.0039925296
000020 4d 91 8e 3b ba b8 88 3b 18 31 27 3b 5b 1a 97 3b
       0.0043508173 0.0041724117 0.002551144 0.004611296
000030 6c a3 65 3b ee 1f 82 3b dc 61 8b 3b 2c be 99 3b
       0.0035040034 0.0039710915 0.004253609 0.0046918597
000040 af c4 44 3b 14 e2 56 3b 0a 35 8a 3b b2 31 7a 3b
       0.003002446 0.0032788562 0.0042177485 0.0038176593
000050 98 ae 7a 3b 63 87 79 3b 37 05 89 3b 9d d5 85 3b
       0.0038251039 0.0038075082 0.00418153 0.0040843026
000060 5f 1a 87 3b b2 47 45 3b 0b 8f 30 3b 9a 5f 85 3b
       0.0041230167 0.0030102548 0.002694073 0.0040702345
000070 ae 9c 50 3b a6 d0 ac 3b 8c 69 83 3b f0 43 5c 3b
       0.003183167 0.0052738963 0.004010385 0.003360983
000080 ce e3 7d 3b 01 33 64 3b 82 ad 7b 3b 9c 9b 43 3b
       0.0038740519 0.003482044 0.003840298 0.002984739
000090 29 ee 77 3b 33 a2 77 3b ed dd 57 3b c1 fb 39 3b
       0.0037831163 0.0037785887 0.0032938675 0.0028378817
0000a0 0f bd 55 3b f8 42 82 3b 3e ef 9a 3b c6 b8 62 3b
       0.0032613908 0.0039752685 0.004728227 0.0034594997
0000b0 cb 0b 86 3b 26 56 8d 3a 20 b4 3d 3a ba 76 90 3b
       0.0040907613 0.001078312 0.00072366185 0.0044086846
0000c0 86 4a 50 3b 64 ca 8c 3b 70 74 6b 3b 33 f0 71 3b
       0.00317827 0.004296588 0.0035927556 0.0036916852
0000d0 37 5b 3b 3b c7 1a 65 3b 1b 0e 8c 3b 02 e6 7b 3b
       0.0028588304 0.0034958587 0.0042741424 0.0038436656
0000e0 f9 52 70 3b 63 a5 8f 3b 62 3c 85 3b e0 4f b5 3b
       0.003667055 0.0043837293 0.004066036 0.0055332035
0000f0 17 4c 2d 3b 80 ce 63 3b b8 e7 45 3b 73 41 5f 3b
       0.0026443058 0.0034760535 0.003019793 0.003406611

conv2.0.weight_fake_quant.activation_post_process.min_val f4 [64]
000000 d9 9f e7 be 0a 81 e7 be 2b 31 a4 be c8 60 ba be
       -0.45239142 -0.45215636 -0.32068762 -0.36401963
000010 34 24 f5 be 9b a0 e6 be 93 9b f1 be a9 7d e9 be
       -0.47879183 -0.45044407 -0.47189006 -0.45603684
000020 4d 91 0e bf ba b8 08 bf ac 37 a4 be 5b 1a 17 bf
       -0.5569046 -0.5340687 -0.32073724 -0.5902459
000030 f8 b4 be be ee 1f 02 bf dc 61 0b bf 78 3f c1 be
       -0.37247443 -0.5082997 -0.54446197 -0.37743735
000040 af c4 c4 be 14 e2 d6 be 0a 35 0a bf b2 31 fa be
       -0.38431308 -0.4196936 -0.5398718 -0.4886604
000050 cc 25 d3 be 63 87 f9 be 86 51 db be 9d d5 05 bf
       -0.41239774 -0.48736104 -0.42835635 -0.52279073
000060 5f 1a 07 bf b2 47 c5 be 0b 8f b0 be 9a 5f 05 bf
       -0.52774614 -0.38531262 -0.34484133 -0.52099
000070 ae 9c d0 be a6 d0 2c bf 8c 69 03 bf 62 af 9c be
       -0.40744537 -0.6750587 -0.51332927 -0.30602556
000080 b2 f2 ac be 01 33 e4 be 82 ad fb be 9c 9b c3 be
       -0.33778912 -0.44570163 -0.49155813 -0.38204658
000090 29 ee f7 be 33 a2 f7 be ed dd d7 be c1 fb b9 be
       -0.4842389 -0.48365936 -0.42161503 -0.36324885
0000a0 0f bd d5 be f8 42 02 bf 3e ef 1a bf c6 b8 e2 be
       -0.41745803 -0.50883436 -0.60521305 -0.44281596
0000b0 cb 0b 06 bf fe eb fc bd 20 b4 bd bd ba 76 10 bf
       -0.52361745 -0.123496994 -0.09262872 -0.5643116
0000c0 7a 27 8b be 64 ca 0c bf 4c 6c da be f8 f8 df be
       -0.27178556 -0.54996324 -0.4266075 -0.43744636
0000d0 37 5b bb be 59 9a 9b be 1b 0e 0c bf 02 e6 fb be
       -0.3659303 -0.30391195 -0.54709023 -0.4919892
0000e0 f9 52 f0 be 63 a5 0f bf 18 08 d3 be e0 4f 35 bf
       -0.46938303 -0.56111735 -0.41217113 -0.70825005
0000f0 17 4c ad be 80 ce e3 be 58 61 be be 73 41 df be
       -0.33847114 -0.44493484 -0.37183642 -0.4360462

conv2.0.weight_fake_quant.activation_post_process.max_val f4 [64]
000000 3c 0a bc 3e 7b 8b 98 3e e0 44 de 3e a8 f3 07 3f
       0.36726558 0.29793915 0.43411922 0.53106165
000010 93 e6 af 3e 76 ef 9e 3e 27 11 b0 3e 1c ce 01 3f
       0.34355602 0.3104207 0.34388086 0.5070512
000020 44 41 9f 3e 17 88 f6 3e b6 e2 a5 3e f0 d9 9c 3e
       0.3110448 0.48150703 0.3239953 0.30635023
000030 25 d8 e3 3e 4e be 97 3e de fd ee 3e b0 8a 18 3f
       0.44500843 0.29637378 0.4667806 0.5958662
000040 f7 44 7c 3e 19 8f a0 3e 6c f8 c7 3e 8a ce d3 3e
       0.24635683 0.31359175 0.39056718 0.41368514
000050 3b b9 f8 3e 28 5c 8a 3e 2d f3 07 3f c4 b4 00 3f
       0.4857882 0.27023435 0.5310543 0.50275826
000060 a0 70 98 3e fe 08 b7 3e dd 87 a2 3e 47 8c d8 3e
       0.29773426 0.35749048 0.3174428 0.42294523
000070 35 f2 c1 3e d9 3a d8 3e 09 6a b2 3e 68 8b da 3e
       0.37880102 0.42232397 0.34846523 0.42684484
000080 06 e8 fb 3e 06 01 96 3e 5c ff 93 3e 35 a5 ab 3e
       0.49200457 0.29297656 0.2890576 0.3352448
000090 88 e2 f5 3e ab 83 d3 3e 0e ea 99 3e 71 b1 93 3e
       0.48024392 0.41311392 0.30061382 0.28846315
0000a0 40 af 6f 3e d9 4b 9d 3e 42 96 bd 3e 7b 17 bd 3e
       0.23406696 0.3072193 0.370287 0.36931977
0000b0 2c ba 8a 3e 7a 3b 0c 3e ea 24 b1 3d c7 6d bd 3e
       0.27095163 0.13694564 0.08649619 0.36997816
0000c0 f1 a9 ce 3e 06 f2 c7 3e 87 9d e9 3e 53 0c f0 3e
       0.4036403 0.39051837 0.45627996 0.46884403
0000d0 76 82 a1 3e 91 50 e3 3e a1 cb a5 3e 9d 4b f3 3e
       0.31544846 0.44397405 0.3238192 0.47518626
0000e0 a2 ed 87 3e 1e 55 6e 3e e9 31 04 3f 5c d2 a6 3e
       0.26548487 0.23274657 0.51638657 0.32582366
0000f0 30 be 8c 3e 4f 11 86 3e e9 5b c4 3e 13 a4 b0 3e
       0.27488852 0.2618508 0.38351372 0.3450018

conv3.0.weight f4 [128, 64, 3, 3]
000000 7a a5 31 bc be 9a 96 3c 3b bf c1 3c 5d a8 93 bc
       -0.010842675 0.018384334 0.023650756 -0.018024618
000010 be 24 de bc de b1 3d 3c b2 f0 51 bb 01 82 c2 bc
       -0.02711713 0.011578051 -0.0032034335 -0.023743631
000020 f0 54 38 3c a1 b1 11 3d f5 c5 0a 3c 89 8d f3 bc
       0.011250719 0.03556979 0.008470048 -0.029730575
000030 e3 37 a0 bc 50 5a 68 bd 41 a4 35 bc 63 95 b9 bc
       -0.019557899 -0.056726754 -0.011086524 -0.022654241
000040 d4 9b a5 3c e8 9b 92 3c 1b b9 f4 bc 42 cb 88 bc
       0.020215906 0.017896608 -0.029873421 -0.016698483
000050 de 29 ad 3c a3 8c a4 bc 86 44 cc 3c d0 20 79 bc
       0.021138128 -0.020086592 0.024935018 -0.015205577
000060 02 42 ea bc eb 93 37 bd b6 b5 bc 3c 7e 7b d2 3c
       -0.028595928 -0.0448188 0.023035865 0.025693651
000070 e6 40 9f bc 2b a2 cd bc 39 aa 43 bb 30 6c 6e 3c
       -0.019440126 -0.025101742 -0.00298561 0.014552161
000080 f0 81 2f 3b 55 19 8d 3c 66 b7 d5 bc c6 2a 28 bb
       0.002678033 0.017223993 -0.026088428 -0.002566026
000090 ff 55 e7 3c 04 43 f7 38 8e 56 b9 3b de 20 f2 3b
       0.028239248 0.000117903604 0.00565607 0.007389172
0000a0 70 c0 d0 bc 45 e4 1e bd 04 a3 02 3d b5 53 1b bc
       -0.025482386 -0.038791914 0.031893745 -0.0094804065
0000b0 54 da f9 bc 77 9c fa bc f8 71 36 bd d4 f0 01 bd
       -0.030499615 -0.030592186 -0.044542283 -0.031723812
0000c0 24 28 71 3c 46 7c d9 3b d1 1c 20 ba d9 48 80 bc
       0.014719043 0.006637129 -0.00061078096 -0.015659736
0000d0 1f 02 ac 3c b6 49 07 3d c6 12 24 3c 59 41 db 3b
       0.020997105 0.03302928 0.010014242 0.0066911397
0000e0 2c 86 29 bd cc 9f bf bb 64 1a 82 bd 41 bc bc 3b
       -0.041387722 -0.0058479067 -0.0635269 0.0057597463
0000f0 6c af b6 3c 64 1f ba 3c f6 6c 8b 3c 54 24 1b bc
       0.022300445 0.022720046 0.01701973 -0.0094691105
000100 b1 2a d6 3c 00 0d 2f 3d 02 09 fe 3a ff 44 a4 bb
       0.026143404 0.042737007 0.0019381347 -0.005013108
000110 58 30 1d 3b a8 86 03 bb 10 bf 5f bb 12 19 14 bd
       0.0023985114 -0.0020069275 -0.0034140982 -0.03615672
000120 4d af 77 3b 6a b9 3f 3d 2a a6 cd 3c b4 5f 15 bd
       0.0037793696 0.046807684 0.025103647 -0.036468223
000130 18 08 9a bb 2c b4 9d bc 46 f9 35 3c b5 59 39 bd
       -0.004700672 -0.019250952 0.011106795 -0.045251567
000140 48 1f a5 3b 0f b8 0c 3d cc f6 17 bd f0 37 15 3d
       0.0050391294 0.03435522 -0.0371006 0.0364303
000150 5b 7e c3 bc 7b 53 25 bd ad 02 15 bd 56 71 ef 3c
       -0.023863962 -0.040362816 -0.036379505 0.029228847
000160 19 1f 03 bd b0 84 fa bb 45 e7 43 3c d0 3e 37 bd
       -0.03201208 -0.007645212 0.011956994 -0.044737637
000170 19 61 8e bc 17 b3 3e bd 16 45 2c bd 32 4f a4 bc
       -0.017380284 -0.046557512 -0.042058073 -0.020057295
000180 3e fc 8a bb a2 bb 16 3c 82 6f dd bc 68 b4 2e 3b
       -0.0042414954 0.009200009 -0.02703071 0.0026657823
000190 f8 26 01 bd d9 c7 b5 3b c9 4b ae 3c 48 28 f3 3b
       -0.031531304 0.0055475053 0.021276372 0.0074205734
0001a0 8c ac c6 3b fd d9 e0 bc 10 32 a0 3c e6 a1 09 bd
       0.0060630497 -0.027447695 0.019555122 -0.033601664
0001b0 2b ca 02 bd 8c 20 55 bc 6f e7 da 3c 93 67 ea bc
       -0.031931084 -0.013008248 0.026721684 -0.028613841
0001c0 98 5d 8f 3c 59 96 da bb c3 b0 d8 3c 68 31 16 bd
       0.017500684 -0.006670755 0.026451474 -0.03666821
0001d0 7c 42 95 bc 4f 80 a8 3c 9a 0d 27 bd e6 2f 04 3c
       -0.018220179 0.020568995 -0.040784456 0.0080680605
0001e0 1e 15 f4 bc 23 fc 10 bc b7 90 2a bd 5b c0 1f bb
       -0.029795226 -0.008849177 -0.041641917 -0.0024376127
0001f0 d9 7e ce 3c f5 51 01 bd 5c e7 29 bc c7 4b 47 3c
       0.02520697 -0.0315723 -0.010370102 0.012164063
000200 8e 25 c2 bc f4 84 1a bd 76 10 f9 3c 91 d9 3a bd
       -0.023699548 -0.03772445 0.030403357 -0.045617644
000210 9f f6 a8 bc d5 72 01 bd 42 7f de 3c 56 66 85 b9
       -0.02062541 -0.031603653 0.02716029 -0.00025443983
000220 b9 60 22 bc d1 4e 97 bc f7 02 84 3c 3a 1c 87 bd
       -0.009910756 -0.0184702 0.016114695 -0.06597181
000230 88 1f bc 3b e3 d6 f9 bc a9 45 f3 bc 67 37 1e 3d
       0.0057410635 -0.030497974 -0.029696302 0.038627055
000240 15 1e cb bc f4 b7 35 bd 5c d4 38 bd 95 28 0b 3c
       -0.024794618 -0.044364884 -0.045124397 0.008493562
000250 18 b4 04 bd 70 62 4f bd aa b0 24 bd 3f 09 50 3c
       -0.032398313 -0.050630987 -0.040207542 0.012697517
000260 d1 5f a1 3c 56 4c 0f 3d 39 43 e7 3c 17 1e f4 bc
       0.01969901 0.03498491 0.028230296 -0.029799504
000270 21 82 f2 bc f4 f3 7b 3c fb 68 df bc 21 74 10 bd
       -0.029603066 0.015377987 -0.027271738 -0.035267
000280 e3 c8 ea 3c ba 76 97 3c 67 d0 dd 3b 2b 18 39 3c
       0.028660243 0.01848923 0.0067692283 0.011297266
000290 9e 16 f9 3b ad aa 5e bc 6e 3b 7b 3c 73 6e 95 bc
       0.007601573 -0.013590497 0.015333993 -0.018241143
0002a0 d0 41 15 bd 9d df 16 3d 43 be 16 3c 2e 32 b4 bb
       -0.036439717 0.036834348 0.009200635 -0.005499146
0002b0 f4 59 f0 3a ca 85 a9 bc fb 21 f0 bc f1 ff 3b bc
       0.0018337355 -0.020693678 -0.029313078 -0.011474595
0002c0 38 d5 df bb 9c 47 12 bd 2b c3 c7 3c 68 63 fa bb
       -0.0068308376 -0.035712823 0.024385056 -0.0076412447
0002d0 76 ec 31 3c 94 ba ab bc 0c f3 63 bd ef 95 f4 bc
       0.010859599 -0.02096299 -0.05565171 -0.02985665
0002e0 a6 ce 69 bc 2e fc b1 b9 74 64 10 3c a1 c6 0c bd
       -0.01427046 -0.0003394796 0.008813012 -0.034369115
0002f0 14 ac 42 bd b4 ef ad 3c 09 6e 67 bc 5e e3 1c bd
       -0.047527388 0.021232463 -0.0141253555 -0.03830277
000300 7e 5b a9 bc 43 9d 82 bb 04 d4 ae 3c 8c 6b 48 3b
       -0.02067351 -0.003986032 0.021341331 0.003058168
000310 1f 19 82 3c 2d b5 a6 bc 58 47 c0 3c 66 14 12 bd
       0.01588112 -0.020350063 0.02347152 -0.035663985
000320 f2 8e 11 3d ac 88 cb 3a 99 f9 d0 3b e8 d6 64 bc
       0.035536714 0.0015528402 0.0063774106 -0.013967253
000330 86 f5 b5 bc 20 c5 9d bc b7 05 b3 3c 68 de ef bc
       -0.022211801 -0.019259036 0.021853311 -0.029280856
000340 d5 ce ec bb 24 90 07 3d 77 fa 9e bc 79 3c 3d 3b
       -0.0072268047 0.033096448 -0.01940654 0.0028875156
000350 4a cc 43 3b 13 3c b0 3b 22 c5 1f 3c 86 96 63 3c
       0.0029876404 0.005378255 0.00975159 0.013890868
000360 de fe c8 bb 9e e0 0f bd 82 73 d9 bb f1 01 de bc
       -0.006133898 -0.03512632 -0.006636084 -0.027100535
000370 bf 92 33 bd d6 9b 2b bd 40 1e 28 bc 98 c5 1a bd
       -0.04384112 -0.041896664 -0.010261118 -0.037786096
000380 f7 54 41 bd 4c 2f 2d bd b8 b3 f8 bb ef 05 f1 bc
       -0.04720017 -0.042281434 -0.0075897835 -0.029421775
000390 7a fb 06 b9 12 d0 b7 bc f4 bc bd bc 89 d9 c2 bc
       -0.00012872918 -0.022438083 -0.023161389 -0.02378537
0003a0 2a 80 f5 bc 39 6a a7 bc 99 54 53 bb 76 30 98 bc
       -0.02996834 -0.020436393 -0.003224647 -0.018577795
0003b0 38 c2 1b bd 71 4f 14 bd 61 8a 6a bc 63 13 6a bd
       -0.03802702 -0.036208574 -0.014315219 -0.057147395
0003c0 e9 9f 07 3d 2d ec fe bc f3 c8 80 3c ce 66 d1 bc
       0.033111487 -0.031118477 0.01572082 -0.025561716
0003d0 ef 6e ea bb 73 b5 23 bd 5d 9d 60 3c 13 90 8d bc
       -0.0071543376 -0.039967965 0.013709393 -0.017280614
0003e0 66 ba 72 bc 75 a8 ec 3a 12 f8 10 bd 30 29 0a 3d
       -0.014814949 0.0018055575 -0.03539283 0.033730686
0003f0 88 a2 cf 3a 3a b6 8f bc fe b1 e1 bc 47 f2 16 bd
       0.0015841285 -0.017542947 -0.027550694 -0.036852147

conv3.0.bias f4 [128]
000000 97 81 22 bd 1e 3a 7b bd 10 7c 33 3d dc b3 46 3e
       -0.039674368 -0.06133472 0.043819487 0.19404548
000010 86 bf 9c bd 05 1b 34 3e fe 55 81 bd ac c4 af bd
       -0.07653718 0.17588432 -0.0631523 -0.08582434
000020 e8 3e be bd 95 e4 0e 3d 3e 95 21 bd 22 6a 58 3d
       -0.09289342 0.03488596 -0.03944897 0.05283559
000030 07 9c 38 bd b6 46 ad bc 35 bf a9 bc 60 e0 2e 3d
       -0.045070674 -0.021151882 -0.020721057 0.04269445
000040 93 8b 3c bd 59 1d 64 bd 4e e8 ce bc 31 f0 8c bd
       -0.046031546 -0.05569205 -0.025257256 -0.068817504
000050 d0 1e 29 be 72 51 91 bc d2 5a 8a bd 5a 1d 8f bc
       -0.1651566 -0.017739031 -0.06755604 -0.01747005
000060 9e 03 5a 3e 1b 46 23 be 4a 25 b6 3d 0c 29 46 3e
       0.21290442 -0.15944712 0.08893831 0.19351596
000070 24 4a fe bd 4e c7 38 bd de 22 2c bd 44 60 27 bd
       -0.12416485 -0.045111947 -0.04202544 -0.04086329
000080 f6 7a 9d bc 6f 49 4a bd 68 66 d7 bc 5b c1 b0 bd
       -0.019223671 -0.049386438 -0.026293948 -0.0863063
000090 d9 e2 7f 3d ab c8 42 bd 28 57 38 bd 8f 1a 10 3d
       0.0624722 -0.047554653 -0.045004994 0.03518158
0000a0 dc c0 04 3c 70 5d 8c 3b db 29 7f bd 93 f7 34 bd
       0.008102622 0.0042835996 -0.062295776 -0.044181418
0000b0 a0 5d 47 3e 51 0e 2f 3c 6d 80 0c bd d3 9d 02 3e
       0.19469309 0.010684566 -0.034302164 0.12755518
0000c0 9b 6c 1d bd 0b 31 a7 3d 87 3e c9 3c 1d a5 a0 3d
       -0.038433652 0.08163651 0.024565948 0.07843993
0000d0 c6 a3 1f bd 17 7b ac 3b 38 32 2d be 8b db 38 3e
       -0.038974546 0.005263697 -0.16913688 0.18052499
0000e0 20 e2 37 3e 8a 0d dc bd 56 ce 0e be c3 d2 a7 39
       0.17957354 -0.1074477 -0.13945898 0.00032009752
0000f0 4b 92 ba 3c f3 80 f1 3c 64 57 70 bd 64 8c 75 bb
       0.022774836 0.029480433 -0.058677092 -0.0037467713
000100 7f ad 85 bd 3d 97 9e 3d 0b 81 d1 bd 55 6f f7 bc
       -0.065272324 0.0774369 -0.10229691 -0.030204454
000110 44 3f 92 3d ae 94 2a bd c1 28 e8 bc a6 3a ac 3d
       0.07140973 -0.0416457 -0.028339745 0.08409624
000120 f9 41 aa bb c3 06 80 bc 13 c8 0d 3e 03 14 cf bd
       -0.005195853 -0.015628224 0.13845854 -0.10111239
000130 e6 e1 a5 bd 11 b1 31 be f8 a5 a9 3b 6e 05 77 bd
       -0.08099727 -0.17352702 0.0051772557 -0.060307913
000140 c3 31 19 bd f1 d6 95 bc 50 35 b7 bd 49 e1 de bc
       -0.037400972 -0.018290969 -0.089457154 -0.027207034
000150 49 30 22 3d 72 bb ee 3d 98 fc d3 bd d3 40 16 be
       0.03959683 0.11656846 -0.10350913 -0.14673166
000160 c1 bb d0 3c 9e 40 73 bb 36 05 0b 3d b6 86 06 3e
       0.025480153 -0.0037117372 0.033940516 0.13137326
000170 c6 8f 22 bd 3b 6b da bd e4 62 91 bd b4 b2 15 be
       -0.039687894 -0.10664984 -0.0709894 -0.14618951
000180 f0 6c ea 3d a7 03 3e bd 58 bf 37 3e ad 09 a9 3d
       0.114465594 -0.046390202 0.17944086 0.08253799
000190 75 4d dd bc 1c 2f f4 bd 4a ec 0d bd 48 0b b1 bd
       -0.027014473 -0.11923048 -0.03464917 -0.0864473
0001a0 92 cd 69 3e b9 5c 7e be 70 93 22 bd 85 88 6a 3e
       0.22832325 -0.24840058 -0.03969139 0.2290364
0001b0 bb eb 98 bd 4d 25 76 bd d4 af 02 bd f7 43 a1 3d
       -0.07466837 -0.060094167 -0.031905964 0.078742914
0001c0 4f 78 2d be 81 0e 8a 3d 82 31 95 3d fa 19 a4 3b
       -0.16940425 0.06741048 0.072848335 0.0050079795
0001d0 54 09 4f 3e 74 c5 99 bc 38 40 36 3d ee 0b 6f 3d
       0.20218402 -0.01877091 0.044494838 0.058360986
0001e0 14 cf f6 bd de 25 ad bd a6 9b ce bc b8 31 0f 3d
       -0.12051216 -0.08454488 -0.025220703 0.034959525
0001f0 26 0a 34 bd 21 f0 b7 3d 0e bf 5a 3c a4 bd 6b 3c
       -0.04395499 0.08981348 0.013351215 0.014388476

conv3.0.weight_fake_quant.scale f4 [128]
000000 08 1c 07 3a 54 b3 02 3a 06 74 93 3b 14 38 81 3b
       0.0005154018 0.00049858284 0.004499915 0.0039434526
000010 75 54 75 3b f0 d3 56 3b e8 1b 53 3b 43 f1 45 3b
       0.0037434374 0.0032780133 0.0032212678 0.0030203618
000020 1c 01 71 3b d3 24 59 3b ae b9 20 3b a4 03 8f 3b
       0.0036774343 0.0033133521 0.0024524736 0.0043644477
000030 99 70 6c 3b 34 07 8a 3b 87 df 77 3a 34 31 51 3b
       0.0036077856 0.0042122845 0.00094556104 0.0031920196
000040 ff 2c 79 3b b2 11 3d 3b f8 d2 fe 39 f8 90 65 3b
       0.0038021205 0.0028849659 0.0004860384 0.0035029035
000050 9c f3 82 3b 48 73 91 3b a2 fc 66 3b 50 bb 17 3a
       0.0039963257 0.0044387914 0.0035245796 0.00057881046
000060 e2 d3 76 3b e2 93 85 3b 4e 8c 5d 3b 6f 8e 65 3b
       0.0037662913 0.004076467 0.0033805552 0.0035027524
000070 b1 f3 43 3b 54 99 6a 3b b2 c7 72 3b 9c c3 28 3a
       0.002989989 0.0035796957 0.0037045297 0.00064378395
000080 3e e1 6a 3b 99 47 7e 3b 25 58 5b 3b ae 85 73 3b
       0.0035839821 0.00388 0.0033469286 0.0037158537
000090 68 aa 74 3b ec b1 5f 3b 6b 2c 43 3a f9 ea 70 3b
       0.0037333015 0.003413315 0.00074452785 0.0036761148
0000a0 0e e3 1f 3a 30 b4 0c 3a 11 e0 51 3b 96 fd 61 3b
       0.00060992024 0.0005367426 0.0032024423 0.0034483424
0000b0 13 c9 71 3b e5 ca 72 3b ea f1 70 3a 63 6e 6e 3b
       0.0036893531 0.0037047204 0.00091913214 0.0036381714
0000c0 38 95 39 3a af 71 76 3b 28 af 89 3b d9 bf 7b 3b
       0.0007079425 0.0037604382 0.0042017885 0.003841391
0000d0 a4 7e 54 3a 10 3a 8c 3b d5 99 82 3b cd 4e 2e 3b
       0.0008106029 0.0042793825 0.0039856234 0.0026597262
0000e0 b1 d3 86 3b c3 17 82 3b d2 78 85 3b 9c fd 5e 3b
       0.004114591 0.003970118 0.004073241 0.0034025675
0000f0 60 63 7e 3b 7f 05 66 3b ad 46 8f 3a 7b 20 4d 3b
       0.0038816556 0.003509849 0.0010931097 0.0031299877
000100 c0 a0 5c 3b 62 20 73 3b 80 e0 6c 3b 76 fa 8b 3b
       0.003366515 0.003709816 0.0036144555 0.0042718006
000110 b6 9e 56 3b 80 04 76 3a 2d e3 80 3a 9e 2a 65 3b
       0.0032748408 0.0009384826 0.0009833329 0.0034968029
000120 e8 09 58 3b 78 a9 5b 3b bf 47 51 3b 1c be 7b 3b
       0.003296489 0.003351776 0.0031933633 0.0038412875
000130 fb b0 70 3b 8f a3 45 3b e8 05 1d 3a f8 de 2b 3a
       0.0036726582 0.0030157303 0.0005989955 0.0006556357
000140 4b f8 65 3b 80 e1 0d 3a 1c 66 4b 3b cf 75 42 3b
       0.003509062 0.0005412325 0.0031036204 0.002967227
000150 89 2b 5c 3b 8a 55 77 3b e7 34 63 3b 3c 85 4c 3b
       0.0033595285 0.0037740194 0.0034668983 0.0031207344
000160 5a e6 64 3b 9c 48 0a 3a e7 03 7c 3b b4 2d 68 3b
       0.003492734 0.0005275102 0.0038454474 0.0035427632
000170 a7 f5 78 3a 69 d8 6a 3b 49 81 52 3b c5 93 55 3b
       0.0009497054 0.0035834557 0.0032120517 0.0032589298
000180 e9 8b 4f 3b de b7 07 3a eb b3 53 3b be 65 60 3b
       0.0031669086 0.00051772397 0.0032303284 0.003424033
000190 2c 74 15 3a 1f e8 63 3b 22 87 fe 39 96 86 50 3b
       0.000570121 0.0034775806 0.00048547337 0.00318185
0001a0 a2 b2 83 3b df e8 71 3b d4 1d 4d 3a 78 c2 8a 3b
       0.0040190974 0.0036912484 0.0007824574 0.0042346083
0001b0 35 3b 7e 3b 2e 14 5c 3b f0 3d 6f 3a 29 63 77 3b
       0.0038792614 0.0033581364 0.0009126356 0.0037748313
0001c0 f1 bc 6c 3b f3 65 59 3b 4e f4 8a 3b d4 e1 45 3b
       0.003612336 0.0033172339 0.004240549 0.0030194419
0001d0 e3 77 89 3b e1 f8 53 3b 2a e4 5e 3b ca 7a 75 3b
       0.0041952 0.0032344388 0.0034010508 0.0037457221
0001e0 fe 26 69 3b 65 39 83 3b c6 8d 5f 3a 6b a2 76 3b
       0.003557622 0.0040046447 0.0008527901 0.003763343
0001f0 bf a2 16 3a aa 61 76 3b a7 f9 9b 3a 35 6b 59 3b
       0.0005746297 0.0037594833 0.0011899964 0.0033175473

conv3.0.weight_fake_quant.activation_post_process.min_val f4 [128]
000000 08 1c 87 bd 54 b3 82 bd 06 74 13 bf 14 38 01 bf
       -0.065971434 -0.063818604 -0.5759891 -0.50476193
000010 75 54 f5 be f0 d3 d6 be e8 1b d3 be c8 17 ac be
       -0.47915998 -0.4195857 -0.41232228 -0.33611894
000020 cc e9 c8 be d3 24 d9 be ae b9 a0 be a4 03 0f bf
       -0.39240873 -0.42410907 -0.31391662 -0.5586493
000030 99 70 ec be 34 07 0a bf ac 04 e8 bd 34 31 d1 be
       -0.46179655 -0.5391724 -0.11329016 -0.40857852
000040 ff 2c f9 be 5f f8 ad be f8 d2 7e bd f8 90 e5 be
       -0.48667142 -0.33978555 -0.062212914 -0.44837165
000050 9c f3 02 bf fb 17 09 bf e2 46 e4 be 50 bb 97 bd
       -0.5115297 -0.53552216 -0.4458533 -0.07408774
000060 e2 d3 f6 be e2 93 05 bf 4e 8c dd be 6f 8e e5 be
       -0.4820853 -0.52178776 -0.43271106 -0.4483523
000070 19 fc b1 be 54 99 ea be b2 c7 f2 be 9c c3 a8 bd
       -0.34762648 -0.45820105 -0.4741798 -0.082404345
000080 3e e1 ea be 99 47 fe be 25 58 db be ae 85 f3 be
       -0.4587497 -0.49664 -0.42840686 -0.47562927
000090 68 aa f4 be f6 af d7 be 54 0c a9 bd 06 c1 e6 be
       -0.4778626 -0.42126435 -0.082543045 -0.4506914
0000a0 0e e3 9f bd 30 b4 8c bd 11 e0 d1 be 96 fd e1 be
       -0.07806979 -0.068703055 -0.40991262 -0.44138783
0000b0 13 c9 f1 be e5 ca f2 be ea f1 f0 bd 63 6e ee be
       -0.4722372 -0.4742042 -0.117648914 -0.46568593
0000c0 38 95 b9 bd af 71 f6 be 28 af 09 bf d9 bf fb be
       -0.09061664 -0.4813361 -0.5378289 -0.49169806
0000d0 a4 7e d4 bd 40 5a d6 be d5 99 02 bf cd 4e ae be
       -0.10375717 -0.4186573 -0.5101598 -0.34044495
0000e0 6d 4c c9 be c3 17 02 bf 6a ae d0 be 9c fd de be
       -0.3931612 -0.5081751 -0.40758067 -0.43552864
0000f0 60 63 fe be 7f 05 e6 be 16 2e 08 be 7b 20 cd be
       -0.49685192 -0.44926068 -0.1329883 -0.40063843
000100 c0 a0 dc be 62 20 f3 be 80 e0 ec be 76 fa 0b bf
       -0.43091393 -0.47485644 -0.4626503 -0.5467905
000110 b6 9e d6 be 80 04 f6 bd f6 2b 00 be 9e 2a e5 be
       -0.41917962 -0.12012577 -0.1251677 -0.44759077
000120 e8 09 d8 be 78 a9 db be bf 47 d1 be dc 44 eb be
       -0.42195058 -0.42902732 -0.4087505 -0.45950973
000130 fb b0 f0 be 8f a3 c5 be e8 05 9d bd f8 de ab bd
       -0.47010025 -0.38601348 -0.07667142 -0.08392137
000140 4b f8 e5 be 80 e1 8d bd 1c 66 cb be cf 75 c2 be
       -0.44915995 -0.06927776 -0.3972634 -0.37980506
000150 89 2b dc be 8a 55 f7 be e7 34 e3 be 12 3b ca be
       -0.43001965 -0.4830745 -0.443763 -0.39498192
000160 5a e6 e4 be 9c 48 8a bd e7 03 fc be b4 2d e8 be
       -0.44706994 -0.067521304 -0.49221727 -0.4534737
000170 08 f5 f0 bd 6e 71 ea be 49 81 d2 be c5 93 d5 be
       -0.11765486 -0.45789665 -0.41114262 -0.41714302
000180 e9 8b cf be de b7 87 bd eb b3 d3 be be 65 e0 be
       -0.4053643 -0.06626867 -0.41348204 -0.43827623
000190 2c 74 95 bd 1f e8 e3 be 14 69 79 bd 96 86 d0 be
       -0.07297549 -0.44513032 -0.060891226 -0.4072768
0001a0 a2 b2 03 bf df e8 f1 be d4 1d cd bd 78 c2 0a bf
       -0.5144445 -0.4724798 -0.10015455 -0.54202986
0001b0 35 3b fe be 2e 14 dc be f0 3d ef bd 29 63 f7 be
       -0.49654546 -0.42984146 -0.116817355 -0.4831784
0001c0 f1 bc ec be f3 65 d9 be 4e f4 0a bf f8 5c ad be
       -0.462379 -0.42460594 -0.5427903 -0.33859992
0001d0 e3 77 09 bf e1 f8 d3 be 2a e4 de be ca 7a f5 be
       -0.5369856 -0.41400817 -0.4353345 -0.47945243
0001e0 fe 26 e9 be 65 39 03 bf c6 8d df bd 3b 9b dd be
       -0.4553756 -0.5125945 -0.10915713 -0.43282494
0001f0 06 fe 8f bd 7b 9c f2 be 48 4a eb bd 35 6b d9 be
       -0.07030873 -0.4738501 -0.114887774 -0.42464605

conv3.0.weight_fake_quant.activation_post_process.max_val f4 [128]
000000 9c b9 3f 3d e6 8f 29 3d 72 e8 9f 3e 1e 8e c2 3e
       0.04680787 0.041396998 0.3123203 0.37999052
000010 36 24 9d 3e 7a 04 c4 3e 1a 81 95 3e 60 65 c4 3e
       0.3069169 0.38284665 0.2920006 0.38358593
000020 1a 1f ef 3e de 6a d2 3e 8d 3c 9f 3e 55 3c e6 3e
       0.46703416 0.41097158 0.31100884 0.44967905
000030 87 cf bf 3e a5 6f a9 3e c8 ef f5 3d 86 45 b5 3e
       0.37463018 0.3309299 0.12008625 0.35404605
000040 9c 66 9f 3e 8f 97 bb 3e 10 0b 42 3d 86 25 b6 3e
       0.31132972 0.36639068 0.04737383 0.35575503
000050 fb e7 ab 3e 61 50 10 3f a9 2e e5 3e 12 1e 5a 3d
       0.33575425 0.5637265 0.4476216 0.053251334
000060 ee 0f c0 3e 4a e0 fc 3e f9 44 d3 3e 45 04 96 3e
       0.37512153 0.4938987 0.4126356 0.29300132
000070 ca 6b c2 3e 70 c9 8e 3e 0a 28 e7 3e 2e 1f 73 3d
       0.37972862 0.2788806 0.45147735 0.059355907
000080 cc ad 99 3e 94 f6 a1 3e 6b cd c6 3e 8b 5e 82 3e
       0.3001541 0.31633437 0.38828596 0.25462756
000090 51 a9 a3 3e 88 f2 dd 3e 12 a6 c1 3d 23 09 ef 3e
       0.31965116 0.433491 0.094555035 0.46686658
0000a0 e4 3d 9d 3d 52 a5 57 3d 30 63 ac 3e ff 6c d1 3e
       0.0767782 0.052647896 0.33669424 0.4090347
0000b0 a4 bc c8 3e 78 9d ec 3e 2c a0 e1 3d 46 9b 92 3e
       0.3920642 0.4621389 0.110168785 0.2863409
0000c0 16 79 46 3d e5 ea cd 3e f5 7c 07 3f d5 49 b0 3e
       0.04845532 0.40218273 0.52925044 0.3443133
0000d0 74 e4 c9 3d 9c 21 0b 3f f1 96 b8 3e 92 d1 91 3e
       0.09858027 0.5434816 0.3605266 0.28480202
0000e0 0a c6 05 3f e2 e5 00 3f e0 6d 04 3f 68 c4 b9 3e
       0.5225531 0.50350773 0.51730156 0.3628266
0000f0 46 e0 b8 3e 27 7b ae 3e 20 28 0e 3e 24 b9 b2 3e
       0.36108607 0.34078333 0.13882494 0.34906876
000100 98 5c c9 3e 74 1b b8 3e 46 90 d3 3e 45 e0 c5 3e
       0.39328456 0.35958445 0.4132101 0.38647667
000110 0a b4 cc 3e 58 cc df 3d ce c2 ff 3d 1a b1 b9 3e
       0.3998111 0.10927647 0.12488328 0.3626793
000120 53 2d c7 3e 3e 0f a1 3e 9f 2c 9b 3e a0 c6 f9 3e
       0.38901767 0.3145694 0.3030748 0.4878435
000130 91 63 e7 3e af 57 92 3e 88 f5 2d 3d f6 18 70 3d
       0.4519315 0.28582522 0.042470485 0.058617555
000140 81 7d b4 3e ae 0b 27 3d 33 dc ad 3e 74 2a 9e 3e
       0.35252002 0.040782623 0.3395706 0.30891764
000150 8c 76 94 3e ec 7d 9b 3e 21 89 d1 3e 32 ec ca 3e
       0.28996694 0.30369508 0.40924934 0.39633328
000160 f7 79 aa 3e 82 97 5f 3d 03 1a b9 3e c3 6b d1 3e
       0.33296177 0.05458785 0.36152658 0.40902528
000170 bc 03 f7 3d b8 02 e9 3e 8c 36 9c 3e 35 58 a8 3e
       0.12061259 0.45509887 0.30510366 0.32879797
000180 88 46 af 3e 9c 02 59 3d ba 7e a9 3e a9 f1 a2 3e
       0.342335 0.052981004 0.33104497 0.31824997
000190 66 67 84 3d 69 85 8a 3e 14 8a 7c 3d fe 76 95 3e
       0.06465034 0.2705491 0.06165512 0.29192346
0001a0 5d b2 ac 3e 20 43 ca 3e e0 82 88 3d 68 dd ff 3e
       0.3372983 0.39504337 0.066655874 0.49973607
0001b0 5d d4 ab 3e 6a cc b2 3e b0 91 de 3d c7 f1 d6 3e
       0.33560458 0.3492158 0.108676314 0.41981336
0001c0 6b ae a5 3e c4 18 ad 3e e0 9c af 3e 10 56 c4 3e
       0.32359633 0.33807957 0.34299374 0.3834691
0001d0 78 8a d4 3e 48 2a 9c 3e 97 8c af 3e 66 09 95 3e
       0.41511893 0.30501008 0.3428695 0.29108733
0001e0 a2 49 8d 3e ac 0a 9c 3e 3c 1a cc 3d 26 b5 f4 3e
       0.2759524 0.30476892 0.09965941 0.47794455
0001f0 7a 75 95 3d e7 74 f4 3e b4 c1 1a 3e 5c 18 9c 3e
       0.072977975 0.4774544 0.15112954 0.30487335
