CNN_3/models/CNN3_cifar10.pth (torch, 458172 bytes, 8 tensors)

conv1.weight f4 [32, 3, 3, 3]
0	0xbd33c7da	-0.043891765
1	0x3d58aa96	0.05289706
2	0x3e3d9bc3	0.1851645
3	0xbe28b668	-0.16475832
4	0x3d3f0ba0	0.046641946
5	0x3ead9ceb	0.3390878
6	0xbe32243b	-0.17396633
7	0xbe2d9783	-0.16952328
8	0xbc77f032	-0.015132951
9	0xbe069159	-0.13141383
10	0xbdb4f19f	-0.08835148
11	0xbdf5da08	-0.12004477
12	0xbe7098c3	-0.23495774
13	0xbe3de947	-0.1854602
14	0x3e65d71b	0.22445337
15	0xbdb61791	-0.08891214
16	0xbe8e4bfc	-0.27792346
17	0x3cc49070	0.023994654
18	0x3acf074b	0.001579502
19	0x3e5c7366	0.21528396
20	0x3e4e1b5d	0.20127626
21	0xbe07ff0b	-0.13280885
22	0x3d38f293	0.04515321
23	0x3e11f37b	0.14253037
24	0xbe2d2bd5	-0.16911252
25	0x3d9164a2	0.07099272
26	0x3e31d046	0.17364606
27	0xbd82fd70	-0.063959956
28	0xbe7882c9	-0.2426864
29	0x3e7be565	0.24599226
30	0xbe2cc04e	-0.16870233
31	0x3d6c8c1e	0.057750814
32	0x3e9c5438	0.30533004
33	0x3cc602b0	0.024171203
34	0xbe2cdfc6	-0.16882238
35	0xbe43b6cd	-0.19112702
36	0xbe14ec1f	-0.14543198
37	0xbe267e1e	-0.16259047
38	0xbc113201	-0.0088620195
39	0xbe266d49	-0.16252626
40	0xbdbafa05	-0.09129719
41	0x3e94f498	0.2909286
42	0x3e44359a	0.19161072
43	0x3e3e8b18	0.18607748
44	0xbe2bb379	-0.16767682
45	0xbe39854a	-0.18117252
46	0xbde19a59	-0.110157676
47	0x3e9961ba	0.29957372
48	0xbe308c26	-0.17240962
49	0xbdee97fe	-0.11650084
50	0x3e2c625e	0.16834399
51	0x3e168c12	0.1470187
52	0xbdb42684	-0.08796409
53	0x3e1474d6	0.14497694
54	0x3d9f03c0	0.07764387
55	0x3e23f15a	0.16010037
56	0x3db87c9d	0.09008143
57	0x3e06856e	0.13136837
58	0x3e436948	0.1908313
59	0x3c5c0394	0.0134285875
60	0xbe48ae43	-0.19597726
61	0x3d97570f	0.07389652
62	0xbc15add1	-0.009135679
63	0xbe546812	-0.20742825
64	0x3dcc6d3a	0.09981771
65	0x3cda0080	0.026611567
66	0x3d9bd4ee	0.076089725
67	0x3dbe2ba5	0.09285668
68	0xbccb283b	-0.024799457
69	0xbe6fecc9	-0.2343017
70	0xbddd88ca	-0.10817106
71	0x3c869ecc	0.016433142
72	0x3e0dd031	0.1384895
73	0x3e45c69c	0.19314045
74	0x3e39f260	0.18158865
75	0x3c0749cc	0.008257341
76	0x3d35a9cf	0.044351395
77	0x3e112302	0.1417351
78	0x3dc0377a	0.09385581
79	0x3da88ff8	0.08230585
80	0xbe1047c5	-0.14089878
81	0x3e3bd7d1	0.18344046
82	0xbe86fcfb	-0.26364884
83	0xbe4cf78c	-0.20016307
84	0x3e054f69	0.13018574
85	0x3ec966ac	0.39336145
86	0xbdcd1393	-0.10013499
87	0xbe47340b	-0.19453447
88	0x3d7a3920	0.061089635
89	0x3e6c6e46	0.23088941
90	0x3e85c425	0.2612621
91	0xbc70e164	-0.014702175
92	0xbe3b79f3	-0.18308239
93	0xbd918de6	-0.07107143
94	0x3e4b6bd4	0.19865352
95	0xbc5c7e02	-0.013457777
96	0xbe77896a	-0.24173513
97	0xbd3ed8ea	-0.046593584
98	0x3e4eceea	0.20196119
99	0xbd189724	-0.037253514
100	0xbea4ea4c	-0.32210004
101	0xbe7e1fd0	-0.24816823
102	0x3e826a37	0.2547166
103	0x3e9bd99a	0.30439454
104	0xbe507098	-0.20355451
105	0xbe4d34eb	-0.20039718
106	0x3df475e2	0.11936547
107	0x3e1ba4c8	0.15199578
108	0x3e317a26	0.17331752
109	0x3e16470f	0.14675544
110	0xbe5a175b	-0.21297972
111	0xbe35339a	-0.17695466
112	0x3e7e7e48	0.2485286
113	0x3e968ac1	0.29402736
114	0xbe790cf6	-0.2432135
115	0xbeac3296	-0.33632344
116	0x3e106196	0.14099726
117	0x3c8dd11a	0.017311621
118	0x3e2c4a9c	0.16825336
119	0xbe9f1f14	-0.31078398
120	0xbd017f89	-0.031615768
121	0x3e88afb2	0.26696545
122	0x3eca4720	0.3950739
123	0xbe7229ea	-0.23648801
124	0xbecc86a8	-0.39946485
125	0x3d83a734	0.06428376
126	0x3e5778c1	0.21042158
127	0x3d40d684	0.047079578
128	0xbdf79263	-0.12088468
129	0x3d53e771	0.05173439
130	0x3e8e223e	0.277605
131	0x3e67e704	0.22646719
132	0xbe5c74cb	-0.21528928
133	0xbe657c22	-0.22410634
134	0xbe306925	-0.1722761
135	0xbdde43ef	-0.10852801
136	0x3e43ba83	0.19114117
137	0xbc80b9f4	-0.01571367
138	0x3e2c866a	0.1684815
139	0x3dd08400	0.10181427
140	0x3df76b90	0.12081063
141	0x3e1b0925	0.15140207
142	0x3e0a785f	0.1352248
143	0xbe0c87cd	-0.13723679
144	0xbd651c42	-0.055935152
145	0x3e1272ad	0.14301558
146	0xbe84d5ba	-0.2594431
147	0x3db33611	0.08750547
148	0xbd4db247	-0.050218847
149	0xbe843b19	-0.25826338
150	0xbcce5ef2	-0.025191758
151	0xbe0996a6	-0.13436374
152	0xbe402cae	-0.18767044
153	0x3cf610c4	0.030037291
154	0x3d704c2f	0.058666404
155	0x3d5e827e	0.054323666
156	0xbd8219a4	-0.06352547
157	0x3e58ab2e	0.2115905
158	0xbe46ba63	-0.19407038
159	0x3e37871a	0.17922631
160	0x3d399d6a	0.045316137
161	0xbdbef2ac	-0.0932363
162	0xbdea4c6a	-0.11440356
163	0xbee8fe43	-0.45506486
164	0xbbc08917	-0.0058757174
165	0x3ea08194	0.3134886
166	0x3e65db84	0.2244702
167	0x3eb81c8d	0.35959283
168	0x3ceb46e1	0.028720321
169	0x3d370242	0.044679888
170	0x3e2bc054	0.16772586
171	0x3d6f53ef	0.058429655
172	0xbe4033ff	-0.18769835
173	0xbdfb50d2	-0.122712746
174	0x3df39f1a	0.118955806
175	0xbe6f424c	-0.23365134
176	0x3e847c36	0.25876015
177	0x3d7f50dc	0.062332973
178	0xbeb96978	-0.3621328
179	0xbe684231	-0.226815
180	0xbd34a3cd	-0.044101525
181	0xba402b8a	-0.00073307066
182	0x3e20c791	0.15701129
183	0x3e7cd5d5	0.24690945
184	0x3cb08694	0.021548547
185	0x3e2a2b29	0.16618027
186	0x3cd56c8d	0.026052738
187	0xbe50aa80	-0.2037754
188	0xbda71882	-0.08158971
189	0x3e956762	0.29180437
190	0x3d99780e	0.07493602
191	0xbcd0bbac	-0.025480114
192	0x3eaecaae	0.34139007
193	0xbe288fbb	-0.16461079
194	0x3e8505ac	0.2598089
195	0xbe64a2ad	-0.22327681
196	0xbeb2d12c	-0.3492521
197	0xbe3f2ebf	-0.18670176
198	0xbd1e17ee	-0.03859704
199	0xbeb46de3	-0.35240087
200	0xbdb4babd	-0.0882468
201	0x3ea08751	0.31353238
202	0xbe32e9b3	-0.17471962
203	0x3e9eca35	0.31013647
204	0x3d810625	0.063
205	0xbe105939	-0.14096536
206	0x3d814fd3	0.063140534
207	0xbe531381	-0.20612909
208	0xbe33429e	-0.17505881
209	0x3e396578	0.18105114
210	0x3dd597b3	0.10429325
211	0x3e13a529	0.14418472
212	0x3d9b07a9	0.075698204
213	0xbd44179c	-0.04787408
214	0xbe05acaf	-0.13054155
215	0x3d4d7039	0.050155852
216	0x3ecea802	0.40362555
217	0x3e085333	0.13312988
218	0xbd814fab	-0.063140236
219	0xbdaa5b40	-0.08318186
220	0xbe7d7ca5	-0.2475458
221	0x3bbe52b6	0.0058081998
222	0xbd972d18	-0.07381648
223	0xbd99d9fa	-0.07512279
224	0x3e1367d8	0.14395082
225	0x3e64cef5	0.22344573
226	0xbe77b853	-0.24191408
227	0xbd83b650	-0.06431258
228	0x3e181d82	0.14855006
229	0xbea8ec95	-0.32992998
230	0xbe029d28	-0.12755263
231	0xbc9f964b	-0.019480845
232	0xbc2e9b40	-0.010657132
233	0x3e788dc2	0.24272826
234	0x3ebdae52	0.37047058
235	0xbddc4262	-0.10754849
236	0xbd4ec37d	-0.0504794
237	0x3d7c10ea	0.061539568
238	0xbeab78ef	-0.33490703
239	0x3dd6bca5	0.104852
240	0xbdf35545	-0.11881498
241	0x3bac3fc1	0.0052566235
242	0x3c86464a	0.016390938
243	0x3ea520ac	0.3225149
244	0x3ea2bebb	0.3178614
245	0xbe7426fa	-0.23842993
246	0x3e6c6b7c	0.23087877
247	0x3c794900	0.015215158
248	0xbe31f1c9	-0.1737739
249	0x3d460f9d	0.048354734
250	0xbe68777d	-0.22701831
251	0xbdcf1dc8	-0.10113102
252	0xbe1bee51	-0.15227629
253	0x3e44bded	0.19213076
254	0xbe3c945c	-0.1841597
255	0x3e094ea9	0.13408913

conv1.bias f4 [32]
0	0xbdf9d2b2	-0.1219839
1	0x3ddff9ff	0.10936355
2	0x3c6fb4d9	0.01463052
3	0xbdc948dc	-0.0982835
4	0xbdeca50d	-0.115549184
5	0xbd1bccd7	-0.038037147
6	0xbde877b1	-0.11350954
7	0xbd0d691a	-0.03452406
8	0xbd038f20	-0.032118917
9	0x3cf42579	0.029803025
10	0x3db1d384	0.086829215
11	0xbe22dda5	-0.15904863
12	0xbd2f8642	-0.042852648
13	0xbd2bec92	-0.041973658
14	0xbc4c31a5	-0.012463008
15	0xbd077df1	-0.03307909
16	0xbc452919	-0.012033724
17	0xbecbdbff	-0.3981628
18	0xbacb6bb9	-0.0015519775
19	0xbcc7edd4	-0.024405397
20	0xbe42695d	-0.18985505
21	0xbd4a6dd2	-0.04942114
22	0xbe1026d9	-0.14077319
23	0xbe030f01	-0.12798692
24	0xbdf6c5eb	-0.120494686
25	0xbcb08029	-0.021545487
26	0xbda48f20	-0.080351114
27	0x3d1c73c1	0.03819633
28	0xbe72bafb	-0.2370414
29	0xbca9194b	-0.020641943
30	0x3d8f3ad3	0.06993642
31	0xbe5b725a	-0.2143034

conv2.weight f4 [64, 32, 3, 3]
0	0x3e506f48	0.2035495
1	0xbe1c7140	-0.15277576
2	0xbe83edc0	-0.25767326
3	0x3e2fb61a	0.1715931
4	0x3d4d22cc	0.050082013
5	0xbd8eefe9	-0.06979353
6	0x3cef000c	0.029174827
7	0x3d92de1a	0.07171269
8	0xbc295020	-0.010334045
9	0x3e55bee9	0.20873608
10	0xbe0e5542	-0.13899711
11	0xbe5552bb	-0.2083234
12	0x3e42b842	0.19015601
13	0xbd60a33b	-0.05484317
14	0xbe203f43	-0.15649132
15	0x3e75e925	0.24014719
16	0x3c462cf6	0.01209568
17	0xbd192b39	-0.037394736
18	0x3c9f48c4	0.019443877
19	0xbde55b1b	-0.111990176
20	0xbe29717e	-0.165472
21	0xbdef96a1	-0.11698652
22	0x3dbdcb4c	0.092672914
23	0xbc99d855	-0.018779913
24	0xbdd318f6	-0.10307495
25	0xbce0cc73	-0.027441239
26	0x3d167759	0.036734913
27	0x3e26b98b	0.16281717
28	0x3e3c374d	0.1838047
29	0xbcafe6c6	-0.021472346
30	0x3ca1e7b4	0.019763805
31	0x3e1e69f2	0.15470102
32	0x3dcb2d2e	0.09920727
33	0x3d9a9081	0.07547093
34	0x3e35147a	0.17683592
35	0xbd21186f	-0.039329942
36	0x3eacffd2	0.33788925
37	0x3d3ba26b	0.04580919
38	0xbe054c30	-0.13017344
39	0x3daf1c5c	0.08550331
40	0x3e4b793b	0.19870465
41	0x3d50ac09	0.050945316
42	0xbd6b8a6d	-0.05750506
43	0x3dd25677	0.10270398
44	0x3d732f01	0.059371
45	0xbdc01f47	-0.09380966
46	0xbdbd7ab3	-0.09251919
47	0xbe352a29	-0.17691864
48	0xbc69214c	-0.01422913
49	0xbbbb8dd9	-0.0057236967
50	0x3d0050a8	0.03132692
51	0xbd804151	-0.06262458
52	0x3d0804fb	0.033207875
53	0xbd9a8e57	-0.075466804
54	0x3e676329	0.2259642
55	0x3dfd82b0	0.12378442
56	0xbdaecc89	-0.08535106
57	0x3dc40c8f	0.09572708
58	0x3e710cae	0.23539993
59	0xbc5291a1	-0.012852103
60	0x3e23908f	0.15973113
61	0x3e8eeeed	0.2791666
62	0xbda9befd	-0.08288381
63	0x3e97e5c4	0.29667485
64	0xbe5b41e3	-0.21411853
65	0xbebdb75d	-0.37053958
66	0x3e9b0e7e	0.30284494
67	0xbdab39ab	-0.08360609
68	0xbe40cae3	-0.18827395
69	0x3d13f170	0.036118925
70	0xbb271c5c	-0.0025499081
71	0xbe2b08cc	-0.16702574
72	0xbc9abc6d	-0.018888677
73	0xbe6a1153	-0.22858171
74	0xbe682643	-0.22670846
75	0x3e4b9759	0.19881953
76	0xbe823d68	-0.25437474
77	0xbec0b0bb	-0.37634835
78	0x3dd009ec	0.101581424
79	0x3d9bd1a9	0.07608349
80	0xbe8292e8	-0.25502706
81	0x3ea4bcd8	0.32175326
82	0xbbe90022	-0.0071106115
83	0xbe9d0f6c	-0.30675828
84	0x3e7b9383	0.2456799
85	0x3ccaeac5	0.02477015
86	0xbe196ebf	-0.14983653
87	0x3e9be491	0.3044782
88	0x3e40942a	0.1880652
89	0xbc2288dd	-0.009920326
90	0xbd229e6f	-0.039701875
91	0xbe08a910	-0.13345742
92	0xbe28c364	-0.16480786
93	0x3d3f07d5	0.04663833
94	0xbddd5a9c	-0.10808298
95	0xbda3e7bd	-0.08003185
96	0x3cda674e	0.026660588
97	0x3cc1a7fa	0.023639668
98	0xbbd9a25e	-0.00664167
99	0x3d97bdce	0.07409249
100	0x3dd0a1ac	0.101870865
101	0xbd98473a	-0.074354604
102	0xbc90d447	-0.017679347
103	0x3a688927	0.0008870535
104	0xbe063f17	-0.13110004
105	0x3de44462	0.111458555
106	0x3d3bc653	0.045843434
107	0xbe025d5b	-0.12730925
108	0x3d8344dc	0.06409618
109	0xbe5c758e	-0.21529219
110	0x3cdc4fe2	0.02689356
111	0x3e03c448	0.12867844
112	0xbe23a58c	-0.1598112
113	0xbe308363	-0.1723762
114	0x3dd5be6c	0.10436711
115	0xbd42c3f5	-0.04755016
116	0xbd9d931d	-0.07694075
117	0xbc45c60e	-0.012071146
118	0xbe169765	-0.1470619
119	0xbe8d026a	-0.27540904
120	0x3d83659d	0.064158656
121	0xbdec0de3	-0.11526086
122	0xbda4c12c	-0.08044657
123	0x3e306eba	0.17229739
124	0xbd29f7e0	-0.041496158
125	0xbe265cd6	-0.16246352
126	0xbe81ee07	-0.25376913
127	0xbe2d5d1b	-0.16930048
128	0x3d30ccbc	0.043164
129	0x3d059399	0.032611463
130	0xbdf52354	-0.11969629
131	0x3dac7382	0.08420469
132	0x3ddd5ea4	0.10809067
133	0xbcae9e43	-0.0213157
134	0x3d2012da	0.03908048
135	0xbc5eb22d	-0.013592285
136	0xbdf80095	-0.12109486
137	0xbd2dfeb7	-0.042479243
138	0x3e14d524	0.14534432
139	0xbb8174c0	-0.0039506853
140	0x3cbd2b58	0.023091957
141	0x3e0a1c6f	0.13487409
142	0x3d800b30	0.06252134
143	0xbe1fd2f5	-0.15607817
144	0xbd2339b7	-0.039849963
145	0xbba567ff	-0.0050477977
146	0xbdcaf600	-0.09910202
147	0x3d8c5119	0.06851406
148	0x3d1ce60f	0.03830534
149	0xbd282b4c	-0.041056916
150	0x3d2850eb	0.041092794
151	0x3db90ad4	0.090352684
152	0xbe2c68e5	-0.16836889
153	0x3e09e70f	0.13467048
154	0xbd66bb2c	-0.056330845
155	0xbc8f64b1	-0.017504068
156	0x3e8bdbe2	0.27316195
157	0xbe40406d	-0.18774576
158	0xbdf8f5c1	-0.12156249
159	0x3e093f85	0.13403137
160	0xbd3be6a6	-0.04587426
161	0xbe7d1dbb	-0.24718373
162	0x3cb7c2eb	0.022431811
163	0xbda00eb9	-0.07815308
164	0xbdd8cf39	-0.105863996
165	0x3ddffc27	0.10936766
166	0xbd0200b2	-0.031738944
167	0xbd0cada5	-0.034345288
168	0x3e1691a0	0.14703989
169	0x3c6d78b9	0.014494115
170	0xbdea6e8a	-0.11446865
171	0x3e27771f	0.16354035
172	0xbe2c25fc	-0.16811365
173	0xbe43bed4	-0.19115764
174	0x3e4a29fd	0.1974258
175	0x3dee208e	0.11627303
176	0x3c8f7226	0.017510485
177	0x3de1cffb	0.11025997
178	0x3da3690f	0.07979023
179	0x3d91b71f	0.07115006
180	0x3cf1a1f8	0.029496178
181	0xbe0fc63e	-0.14040467
182	0xbd546b49	-0.051860128
183	0x3e0e649b	0.13905565
184	0xbc8e6e18	-0.017386481
185	0x3d878567	0.06617241
186	0xbd25e798	-0.040504068
187	0xbe093828	-0.13400328
188	0x3d8d51d8	0.06900376
189	0x3e816bc8	0.25277543
190	0xbc0af2f8	-0.00848078
191	0xbe6b909d	-0.23004384
192	0xbb00c3d6	-0.0019647977
193	0xbd26c7ec	-0.040718004
194	0xbe10cb79	-0.14140119
195	0x3bfcf3b5	0.007719482
196	0x3dc2ed59	0.09517927
197	0xbd9c2db8	-0.07625908
198	0x3dd38344	0.10327771
199	0x3b3644f1	0.0027812088
200	0xbe302353	-0.17200975
201	0xbd609baf	-0.05483597
202	0x3da01380	0.07816219
203	0xbcab82ef	-0.020936457
204	0x3d96b002	0.073577896
205	0x3e72fd31	0.23729397
206	0x3de2d82c	0.11076388
207	0xbe2f404b	-0.1711437
208	0xbce73d3c	-0.028227441
209	0x3dcef400	0.10105133
210	0xbccb198c	-0.024792455
211	0xbe1c999c	-0.15292972
212	0x3d2eafc8	0.042648107
213	0x3d926775	0.07148639
214	0x3e0dc5f2	0.13845041
215	0x3cea5861	0.028606595
216	0xbd83aae2	-0.06429078
217	0x3d6fdb66	0.058558844
218	0x3ddb619a	0.107119754
219	0xbda85759	-0.08219785
220	0x3df2bed6	0.11852805
221	0x3d836d7c	0.06417367
222	0xbe15ddf3	-0.14635448
223	0x3d03eb9f	0.032207128
224	0xbbe613bf	-0.007021397
225	0x3cb171e2	0.021660749
226	0xbd167bc3	-0.036739122
227	0xbe4a5fd9	-0.19763125
228	0x3e7917bd	0.24325462
229	0x3cd98eb7	0.02655731
230	0xbe027117	-0.12738453
231	0x3e0c15bb	0.13680165
232	0x3e785ba3	0.24253707
233	0xbdeefb20	-0.11668992
234	0x3d83a07b	0.064270936
235	0x3de896d3	0.113568924
236	0xbbc3c754	-0.0059746895
237	0xbe0c01e5	-0.13672598
238	0xbd5bebce	-0.053691678
239	0x3cf6727f	0.030083893
240	0xbd3af4c0	-0.045643568
241	0xbd948fc5	-0.07253984
242	0xbe8cc7ba	-0.2749613
243	0x3e15d227	0.14630948
244	0x3ddaa789	0.10676486
245	0xbbbd172e	-0.0057705855
246	0x3ef62c3b	0.4808062
247	0x3d8c98ea	0.068651035
248	0xbe16fd46	-0.14745054
249	0x3eb1e2d8	0.3474338
250	0x3e9771ab	0.2957891
251	0xbd34cf46	-0.044142984
252	0x3e606a4c	0.21915549
253	0xbd06263f	-0.032751318
254	0x3e012b1c	0.12614101
255	0xbc284f96	-0.010272881

conv2.bias f4 [64]
0	0xbe3dd7f0	-0.18539405
1	0x3e2e3038	0.17010581
2	0x3e1df1f3	0.15424328
3	0x3d925b2d	0.07146297
4	0x3ec36168	0.38160253
5	0x3e3aa48d	0.18226834
6	0xbd38a84a	-0.045082368
7	0x3db6ebe9	0.08931715
8	0x3bf5959b	0.007494641
9	0x3e3fad61	0.18718483
10	0xbe2a1810	-0.16610742
11	0xbe144c31	-0.1448219
12	0x3e011121	0.1260419
13	0xbd856b0a	-0.06514557
14	0xbe4218a3	-0.1895471
15	0xbcdb23ae	-0.026750412
16	0x3cb3fffc	0.021972649
17	0x3df7ce7a	0.12099929
18	0xbe0b46b4	-0.1360119
19	0x3d49669c	0.04917012
20	0xbde43739	-0.111433454
21	0xbced29b0	-0.028950542
22	0x3ca2f18d	0.019890571
23	0x3d8f8be1	0.07009102
24	0xbd5fe47e	-0.054661267
25	0xbd7f1142	-0.062272318
26	0x3e91cf56	0.28478497
27	0xbd303b2e	-0.04302519
28	0x3e14822f	0.14502786
29	0xbe800e91	-0.25011113
30	0xbe32916f	-0.17438291
31	0x3c7cc6aa	0.015428225
32	0x3d7f1c82	0.062283047
33	0x3d05159b	0.032491308
34	0xbd9dd91e	-0.077074274
35	0xbd112e80	-0.035444736
36	0xbda6deba	-0.081479505
37	0x3e2b66de	0.1673846
38	0xbe7aa0c7	-0.24475394
39	0x3d5acf35	0.053420264
40	0xbe17d72e	-0.14828178
41	0x3dfba984	0.12288192
42	0x3bccd3e5	0.0062508457
43	0xbe60f145	-0.21967037
44	0xbeb132e0	-0.34609127
45	0xbd8b02f6	-0.06787674
46	0x3de84837	0.11341899
47	0xbe249531	-0.16072537
48	0xbd62dacd	-0.055384446
49	0x3ddc6f25	0.10763387
50	0xbda999e1	-0.08281303
51	0x3ec512be	0.38490862
52	0xbdd68944	-0.104754
53	0xbde9ae36	-0.11410181
54	0x3e82f5a5	0.25578037
55	0x3e0acc10	0.13554406
56	0x3e865b59	0.26241568
57	0xbe462209	-0.19348921
58	0x3dce2572	0.10065736
59	0xbd70bec1	-0.058775667
60	0xbda9e151	-0.08294929
61	0xbe451a67	-0.19248353
62	0xbd9acd8a	-0.07558735
63	0xbc7a2689	-0.015267977

conv3.weight f4 [128, 64, 3, 3]
0	0xbbd316c3	-0.0064419224
1	0xbc81268e	-0.015765455
2	0x3d13291f	0.035927888
3	0xbd277105	-0.04087927
4	0xbcdd9dfa	-0.027052868
5	0xbd40b4fd	-0.047047604
6	0xb89d48f3	-7.499931e-05
7	0xbc419f58	-0.011817776
8	0xbd29bd52	-0.041440316
9	0xbd23f898	-0.040032
10	0xbca64bc0	-0.020299792
11	0x3ca07cda	0.019590784
12	0xbc2f61e5	-0.010704492
13	0xbd214dae	-0.03938072
14	0xbd45c9a8	-0.048288018
15	0xbcb9c85f	-0.022678552
16	0x3c9cdbf0	0.019147843
17	0xbab164b7	-0.0013534044
18	0xbd05d735	-0.03267594
19	0x3cd74cc6	0.026281726
20	0x3ab525a1	0.0013820418
21	0xbcdab92a	-0.026699621
22	0xbc8d16af	-0.01722273
23	0xbce7f667	-0.028315736
24	0x3c1a71db	0.009426559
25	0xbc9ac806	-0.018894207
26	0x3c98e1e4	0.0186624
27	0x3cc188a3	0.023624724
28	0xbcf23268	-0.029565051
29	0x3c175feb	0.009239177
30	0x3ab2b4d6	0.0013634216
31	0x3c538287	0.012909538
32	0xbd689a8d	-0.056788016
33	0xbc7a5ebb	-0.015281375
34	0xbd2dc5ff	-0.042425152
35	0x3bc71160	0.0060750693
36	0x3c4add9d	0.012381938
37	0x3b76979c	0.0037626987
38	0x3ca2d24b	0.019875666
39	0x3c38a14e	0.011268927
40	0x3cd290e6	0.025703859
41	0xbb1e1a55	-0.0024124582
42	0xbc9f7f20	-0.019469798
43	0xbd4b623d	-0.049654234
44	0x3cb866f5	0.022510031
45	0x3c3051e3	0.010761711
46	0x3caa30fe	0.020775314
47	0xbd0119b4	-0.031518653
48	0x3cf02f7e	0.029319521
49	0xbb7a9a7b	-0.003823905
50	0xbd444a0d	-0.047922183
51	0x3cc764de	0.02434009
52	0x3b8d9167	0.004320312
53	0xbceccf60	-0.028907478
54	0xbd62aeff	-0.05534267
55	0xbce1477d	-0.027499909
56	0x3c3073b9	0.010769778
57	0x3cc99ebb	0.024611821
58	0xbd61079a	-0.05493889
59	0xbbdae1c4	-0.0066797454
60	0xbd4594cb	-0.048237603
61	0xbd4745c0	-0.048650503
62	0xbd0b58ea	-0.034020342
63	0x3b3ca75e	0.0028786282
64	0xbc992aa6	-0.018697094
65	0x3cdbe833	0.02684412
66	0x3ca45e75	0.020064572
67	0xbc031c9f	-0.008002429
68	0xbd41a057	-0.047272053
69	0xbc5945e0	-0.013261288
70	0x3c8e28c3	0.017353421
71	0x3cdb7f20	0.026794016
72	0x3c8c092d	0.01709422
73	0xbd0ea677	-0.034826722
74	0xbb98d181	-0.0046636467
75	0x3b497514	0.003073995
76	0xbd3e3618	-0.046438307
77	0x3bcd22c8	0.0062602498
78	0xbc8334e5	-0.016016433
79	0xbc3ee736	-0.011651805
80	0x3af027f4	0.0018322454
81	0xbc5fa059	-0.01364907
82	0xbc6090d8	-0.013706408
83	0x3d11bc10	0.03557974
84	0xbc4d3986	-0.012525922
85	0x3bf14ca4	0.0073638726
86	0xbc61ba0a	-0.013777265
87	0xbc20a5ec	-0.009805184
88	0x3d22fa99	0.03978977
89	0xbcc6eb4c	-0.02428212
90	0xbcb02f4b	-0.021506926
91	0x3c6e1e18	0.014533542
92	0x3cd978d3	0.026546871
93	0x3c336c6f	0.010951146
94	0x3c72720c	0.014797699
95	0xbc161dc0	-0.009162366
96	0xbd539243	-0.051653158
97	0xbc985687	-0.018595947
98	0xbcac6436	-0.021043878
99	0xbbc88ae7	-0.006120074
100	0xbd30b2aa	-0.043139137
101	0xbc97a3a9	-0.018510656
102	0x3cbf3b20	0.023343623
103	0xbd20ee57	-0.0392898
104	0xbcd53bb8	-0.026029453
105	0xbd115414	-0.035480574
106	0xbc9d3373	-0.019189572
107	0xbd13073b	-0.035895567
108	0xbca0a356	-0.019609135
109	0xbd25e1df	-0.04049861
110	0x3c6c9966	0.01444087
111	0xbc4ffe95	-0.012694974
112	0x3b9eb718	0.004843604
113	0xbd38d680	-0.04512644
114	0x3c886456	0.016649406
115	0xbcc4402c	-0.02395638
116	0xbd20b2cd	-0.039233018
117	0xbcafd575	-0.021464089
118	0xbcca4d69	-0.024695115
119	0x3c9f0630	0.01941213
120	0xbac1ad6b	-0.0014776414
121	0xbc8354bb	-0.016031614
122	0xbbba20de	-0.0056801876
123	0xbc5b3b7b	-0.0133808805
124	0xbd2d05cb	-0.042241853
125	0x3cc9b6c7	0.024623288
126	0x3cb357f5	0.021892527
127	0xbcab1e34	-0.020888425
128	0xbc0e0dc2	-0.008670272
129	0xbcc97d3f	-0.024595855
130	0x3cfb33b0	0.030664295
131	0xbcb4af14	-0.02205614
132	0xbd45f55c	-0.048329696
133	0xbc373683	-0.01118243
134	0xbd688ced	-0.056775022
135	0xbd437775	-0.047721345
136	0x3cc645dd	0.024203235
137	0xbcb6a4f0	-0.022295445
138	0x3cd713e7	0.026254607
139	0xbcf9a10f	-0.030472307
140	0x3cde7a6c	0.027157985
141	0x3b91d203	0.004450084
142	0xbc4cb63a	-0.012494618
143	0xbcd04b28	-0.025426462
144	0xbc928518	-0.01788573
145	0x3c51fdc6	0.012816852
146	0xbcd612a3	-0.026131934
147	0xbcf8db71	-0.030378075
148	0x3c9efe64	0.019408412
149	0xbc51aa91	-0.012797014
150	0x3cf9a0f5	0.030472258
151	0x3cd07c3e	0.025449868
152	0x3cbf0b43	0.0233208
153	0xbc92ad46	-0.017904889
154	0x3c89a862	0.016803924
155	0x3c97341c	0.018457465
156	0xbd37fd11	-0.044919077
157	0x3c48f16b	0.01226459
158	0xbccbb9e4	-0.024868913
159	0x3c2e0b50	0.010622814
160	0xbd04c39a	-0.032413103
161	0xbcdf63c2	-0.027269248
162	0x3bfef42a	0.0077805715
163	0xbcd894fe	-0.026438233
164	0x3cdbeeca	0.026847262
165	0x3d0a9de3	0.03384198
166	0x3d249dd9	0.040189598
167	0xbd323f94	-0.043517664
168	0xbc4228f7	-0.011850587
169	0xbcb5e10e	-0.022202041
170	0x3acb62d2	0.0015517122
171	0xbcc92b5d	-0.02455681
172	0xbc96b0ef	-0.018394915
173	0x3c88286b	0.016620835
174	0xbd04a214	-0.032381132
175	0x3cc35ef5	0.02384899
176	0x3c213d76	0.009841314
177	0x3b975463	0.004618214
178	0xbc524133	-0.0128329275
179	0x3cce0e8e	0.025153425
180	0xbbfa9ada	-0.0076478543
181	0x3ce49b68	0.027906135
182	0x3ca563c1	0.020189168
183	0x3c4a3205	0.012341027
184	0xbd1503aa	-0.036380447
185	0xbd090b15	-0.033457834
186	0x3caf09f0	0.021367043
187	0x3c210c11	0.009829537
188	0xbd1bbd9d	-0.038022626
189	0xbcfc71f7	-0.030816061
190	0x3a15bb7b	0.00057118357
191	0x3c20ebd4	0.009821851
192	0xbc07931a	-0.008274818
193	0x3c68173e	0.014165698
194	0x3c5f0904	0.013612989
195	0x3c67de4f	0.014152124
196	0xbd538ab2	-0.051645942
197	0xbd09b4f1	-0.033619825
198	0xbd4dfd4d	-0.050290395
199	0xbcc0e58d	-0.023546958
200	0xbae2cb51	-0.0017303025
201	0xbcda517b	-0.026650181
202	0xba0370f3	-0.0005014084
203	0xbd4121fc	-0.04715155
204	0xbcb778b0	-0.022396415
205	0xbc505d92	-0.012717621
206	0x3c7f4a60	0.015581697
207	0xbd40efbd	-0.047103632
208	0xbd3f3d4c	-0.046689317
209	0x3c5c1778	0.01343333
210	0x3cdaa5d3	0.0266904
211	0xbd559fcc	-0.052154347
212	0xbc1926dd	-0.009347645
213	0x3bef7750	0.0073079243
214	0xbd18b813	-0.03728492
215	0x3cd55ea7	0.02604611
216	0x3c38b1cf	0.011272862
217	0xbd2471db	-0.040147644
218	0xbd1103ff	-0.0354042
219	0x3cb7c323	0.022431916
220	0x3d0d3a7d	0.034479607
221	0xbcbcabb5	-0.023031095
222	0xbb953300	-0.004553199
223	0xbcaf60b0	-0.021408409
224	0x3d1f1719	0.038840387
225	0xbc83ec51	-0.016103895
226	0xbd4c201a	-0.049835302
227	0xbc85ae7c	-0.016318552
228	0x3ca77c9b	0.020445159
229	0x3cfa03e8	0.03051944
230	0x3b0d78a8	0.002158681
231	0xbccaebe1	-0.024770679
232	0xbba0a185	-0.004902067
233	0xbc3cbe19	-0.011519932
234	0xbbaa6480	-0.005199969
235	0x3c6c614d	0.014427495
236	0xbd3fcf21	-0.046828393
237	0x3cb2b8c6	0.021816622
238	0x3c91ffcf	0.017822174
239	0xb94a1ff5	-0.00019276126
240	0x3c6d86f8	0.014497511
241	0x3cb15511	0.021647008
242	0xbc6b3b40	-0.014357388
243	0xbc41742d	-0.011807484
244	0xbd215b34	-0.03939362
245	0xbceb56ff	-0.028728006
246	0x3c025dfe	0.00795698
247	0xbd2b9915	-0.041894037
248	0x3d40d40a	0.047077216
249	0x3bc03d43	0.005866678
250	0xbd632420	-0.055454373
251	0xbba51536	-0.005037929
252	0xbb81b167	-0.0039579156
253	0x3ca44f38	0.020057306
254	0xbd02e9d2	-0.03196127
255	0xbc932a33	-0.017964458

conv3.bias f4 [128]
0	0xbd186b89	-0.03721193
1	0xbcd3aafe	-0.025838371
2	0x3d1c01d4	0.03808768
3	0x3cf65774	0.030070998
4	0x3e901a47	0.28145048
5	0x3da7b7a8	0.081893265
6	0x3c865872	0.016399596
7	0x3da44f37	0.080229215
8	0x3d89f406	0.06735997
9	0x3def08e6	0.11671619
10	0x3e89fd6b	0.26951155
11	0xbd558119	-0.05212507
12	0x3d37a3d3	0.04483397
13	0xbc1b4a7c	-0.009478208
14	0x3e8cfc1d	0.27536097
15	0xbda04bd3	-0.07826962
16	0x3e199980	0.14999962
17	0x3df0920c	0.11746606
18	0xbde964d2	-0.11396183
19	0xbdc5a5f6	-0.09650795
20	0xbdd9f5bb	-0.106425725
21	0x3e012772	0.12612703
22	0xbbdf1668	-0.006808091
23	0xbd60783d	-0.05480217
24	0x3dccb730	0.09995878
25	0xbd88342f	-0.06650578
26	0xbc877e8c	-0.016539834
27	0xbe0265ba	-0.12734118
28	0x3d70007c	0.058594212
29	0xbde5e6c3	-0.11225655
30	0xbd8f18cc	-0.069871515
31	0xbcd3822a	-0.025818903
32	0xbb2e5082	-0.002659828
33	0xbd66f2d0	-0.056383908
34	0x3e25af1e	0.16180083
35	0x3db52789	0.08845431
36	0x3d551539	0.052022193
37	0x3d8ed858	0.06974858
38	0xbd838923	-0.06422641
39	0x3d96aa85	0.07356743
40	0xbd22bdc3	-0.039731752
41	0xbd16bba2	-0.036800034
42	0x3dbf7984	0.09349349
43	0x3e37e1cc	0.17957228
44	0x3dec3a44	0.11534551
45	0x3cbadb0c	0.022809528
46	0xbd8b9fa7	-0.06817561
47	0x3e32e345	0.17469509
48	0x3db28d02	0.08718301
49	0xbcdd8a6f	-0.02704355
50	0xba9517fd	-0.0011374947
51	0xbd3c8b90	-0.046031535
52	0x3d123912	0.035698958
53	0xbca1d2ed	-0.019753898
54	0x3d171547	0.036885526
55	0x3cf1f459	0.02953546
56	0x3c9fa874	0.019489504
57	0xbda9acac	-0.08284888
58	0x3e0db835	0.138398
59	0xbd1ab9b5	-0.03777476
60	0xbd8aed9a	-0.067836
61	0xbe027b83	-0.12742428
62	0xbd44f8a4	-0.048088685
63	0xbe213046	-0.15741071
64	0xbdfda494	-0.123849064
65	0x3e30e701	0.17275621
66	0xbdbf0703	-0.09327509
67	0xbd8f2b8e	-0.06990729
68	0x3db049b6	0.08607809
69	0x3d943b74	0.07237902
70	0x3e21db43	0.15806298
71	0x3d58ae5b	0.052900653
72	0x3dcb32fe	0.09921835
73	0xbdccae80	-0.09994221
74	0x3afeaed1	0.0019430761
75	0xbd33e079	-0.043915246
76	0x3d86e67b	0.065869294
77	0xbc0af579	-0.008481377
78	0x3e70d799	0.23519744
79	0xbd1f3903	-0.03887273
80	0xbbbb4914	-0.0057154987
81	0x3dfaac4a	0.12239893
82	0xbde1e622	-0.110302225
83	0xbc7a58a9	-0.015279927
84	0xbc8c3bc7	-0.017118348
85	0x3e461592	0.19344166
86	0x3d27a505	0.04092886
87	0x3d1822f4	0.03714271
88	0x3e4ee61c	0.20204967
89	0xbe22f250	-0.15912747
90	0x3b97c825	0.0046320134
91	0x3bf5b049	0.0074978215
92	0xbe6b2a3c	-0.2296533
93	0xbd926e8a	-0.0714999
94	0xbe0b70cb	-0.13617246
95	0xbca98288	-0.020692125
96	0x3c8cddb3	0.017195558
97	0x3dbb2df0	0.09139621
98	0x3d48a451	0.04898483
99	0x3e5192bf	0.20466135
100	0xbe4c87d7	-0.19973694
101	0x3e23f560	0.16011572
102	0x3d21d7d4	0.03951247
103	0xbca88a9d	-0.020573908
104	0xbd035874	-0.032066777
105	0xbcf5f683	-0.030024773
106	0xbdaa40d1	-0.08313144
107	0x3d63e950	0.055642426
108	0x3d0d4f59	0.0344995
109	0x3d9ca262	0.076481596
110	0x3d98c96d	0.07460294
111	0x3e0ecf63	0.13946299
112	0xbe266338	-0.16248786
113	0x3dd7a0ad	0.10528693
114	0x3e25dbd7	0.16197143
115	0xbd922a0e	-0.071369275
116	0xbc2e6ba5	-0.010645782
117	0x3d7a0bea	0.06104652
118	0x3e613e91	0.21996523
119	0x3db3f05b	0.087860785
120	0x3e16069c	0.14650959
121	0xbdf45d24	-0.11931828
122	0xbd1948f3	-0.037423085
123	0xbe2a7594	-0.16646415
124	0x3e20b501	0.15694048
125	0x3df9fa46	0.12205939
126	0x3de2f2ad	0.11081443
127	0xbdb1dcae	-0.086846694

fc.weight f4 [10, 2048]
0	0x3cad7a90	0.021176606
1	0xbc9e5140	-0.019325852
2	0xbbfc36bd	-0.007696955
3	0xbc9e680b	-0.01933672
4	0x3c360baa	0.011111179
5	0x3b441922	0.0029922207
6	0xbbf7d1b0	-0.0075628385
7	0x3cc970ee	0.024589982
8	0x3c4098fd	0.011755225
9	0xbb6efec8	-0.003646778
10	0xbb6c99fc	-0.0036102524
11	0x3c9ffc5e	0.019529518
12	0xbc1a20ce	-0.009407235
13	0x3c9741d0	0.018463999
14	0x392f6e39	0.00016730362
15	0x3b3b26f3	0.002855715
16	0x3c437c7c	0.011931535
17	0xbba284fe	-0.0049597016
18	0x3aea5cbe	0.0017880423
19	0x3b28ce3f	0.0025757698
20	0xbc540a07	-0.012941844
21	0x3c21de99	0.009879732
22	0x3c54914a	0.012974093
23	0xba2b0056	-0.00065231824
24	0x3c3f138f	0.011662378
25	0x3cc5de9b	0.024153998
26	0x3c121a26	0.008917367
27	0xbc6a071a	-0.01428392
28	0x3bd2c7d9	0.006432515
29	0xbc10e3bc	-0.008843359
30	0xbba2fd94	-0.0049740765
31	0x3cbd850d	0.023134733
32	0xbc217b9a	-0.009856129
33	0x3d2806c3	0.041022073
34	0xbe389bf3	-0.1802824
35	0xbd7a14b3	-0.061054897
36	0x3dc3e802	0.09565736
37	0x3d976256	0.07391803
38	0x3cfadfb4	0.030624248
39	0x3e358be4	0.17729145
40	0xbd0b8f80	-0.0340724
41	0x3dafba23	0.08580425
42	0xbc9b94c3	-0.018991834
43	0x3cc832b2	0.024438236
44	0x3d1a2887	0.037636306
45	0x3dd9dd64	0.1063793
46	0x3d988382	0.07446958
47	0xbde57556	-0.11204021
48	0xbe097f6d	-0.13427515
49	0xbce837c3	-0.028346902
50	0xbd51dfbe	-0.051238768
51	0x3d85217e	0.06500529
52	0x3c66c013	0.01408388
53	0x3c3b267e	0.0114227515
54	0xbdf4286d	-0.11921773
55	0xbda09243	-0.07840397
56	0x3dcaf2db	0.09909602
57	0xbe824117	-0.25440285
58	0xbee263fa	-0.442169
59	0xbe20c458	-0.15699899
60	0x3d119201	0.03553963
61	0x3e2ebe93	0.17064886
62	0xbcf16b31	-0.029470058
63	0xbe472188	-0.19446385
64	0xbba97e62	-0.0051725367
65	0xbe07c873	-0.13260059
66	0xbe0443a9	-0.12916435
67	0x3db7c0d3	0.08972325
68	0x3bfca152	0.0077096606
69	0x3dddcb9a	0.108298495
70	0xbcf8a3b9	-0.030351507
71	0x3d80f2ae	0.062962875
72	0x3c93bb56	0.018033665
73	0xbe3e4b54	-0.18583423
74	0xbec271b4	-0.37977374
75	0x3c1e7d80	0.009673476
76	0x3e8a6cba	0.27036077
77	0x3d9443ae	0.072394714
78	0xbc03400c	-0.008010875
79	0x3e636624	0.22206932
80	0xbc18107a	-0.009281272
81	0x3de43453	0.111427926
82	0x3d9aa6d3	0.075513504
83	0xbe13fbeb	-0.14451568
84	0xbd812aa6	-0.06306963
85	0xbcf1c74d	-0.02951398
86	0xbe960129	-0.2929776
87	0xbd9797e8	-0.07402021
88	0x3cb28449	0.021791594
89	0x3d477fac	0.04870574
90	0xbd40c354	-0.04706128
91	0x3ca802e6	0.020509195
92	0x3d301d9b	0.042996984
93	0x3e77f14e	0.24213144
94	0xbdb45305	-0.08804897
95	0xbe597f84	-0.2124005
96	0xbc7b1d5f	-0.015326827
97	0x3eb11fc8	0.3459456
98	0xbd4be18c	-0.049775645
99	0xbce55475	-0.027994374
100	0x3d7f9edd	0.062407363
101	0xbbd73052	-0.0065670395
102	0x3daf61fb	0.0856361
103	0xbbc317d9	-0.0059537706
104	0xbde86086	-0.113465354
105	0xbe09866d	-0.13430186
106	0xbda56fa6	-0.08077936
107	0xbe2da726	-0.16958293
108	0x3d13574b	0.03597192
109	0x3d944477	0.07239621
110	0xbd3f362f	-0.046682533
111	0x3c540f4c	0.0129431
112	0xbe7c63c5	-0.24647434
113	0xbe0db748	-0.13839447
114	0xbe1c2599	-0.15248717
115	0x3ce863ac	0.02836784
116	0xbd837aaf	-0.064198844
117	0xbdce22a4	-0.10065201
118	0xbd99916b	-0.074984394
119	0xbe14ae4e	-0.14519617
120	0xbde85dc7	-0.113460116
121	0xbe2c1652	-0.1680539
122	0xbe11777a	-0.14205733
123	0x3e0b7e35	0.13622363
124	0xbdd94256	-0.10608356
125	0xbe60ab0b	-0.21940248
126	0xbe3fd556	-0.18733725
127	0x3d7c559e	0.06160509
128	0xbe04c214	-0.1296466
129	0x3da57043	0.08078053
130	0x3c857b7e	0.016294237
131	0x3e262ad3	0.16227274
132	0xbdf78492	-0.12085833
133	0x3d139f96	0.036040865
134	0xbda5b181	-0.08090497
135	0x3de77818	0.11302203
136	0x3d8f4e72	0.06997384
137	0x3c41a268	0.011818506
138	0x3de08e1b	0.109646045
139	0xbdc1b4b2	-0.09458293
140	0x3d21504e	0.039383225
141	0x3d8a53df	0.067542784
142	0xb8586002	-5.1587827e-05
143	0x3da15831	0.07878149
144	0xbda3723e	-0.07980774
145	0x3dfff856	0.12498538
146	0x3dcea7ad	0.10090575
147	0x3d872fb3	0.06600895
148	0x3dff98a0	0.12480283
149	0x3e505ae6	0.20347175
150	0x3c23bdf9	0.0099940235
151	0x3e09a395	0.13441308
152	0xbdc40a00	-0.0957222
153	0x3e1c2b6b	0.15250938
154	0x3ea5c818	0.32379222
155	0x3d020fd5	0.03175338
156	0xbe503b15	-0.20335038
157	0xbe48373a	-0.19552317
158	0xbdf44312	-0.11926855
159	0xbd315fd1	-0.04330427
160	0xbd0fd42f	-0.035114463
161	0xbcbc7530	-0.023005098
162	0x3d4a635e	0.04941117
163	0x3da7d86b	0.08195575
164	0xbd4c01d1	-0.04980642
165	0xbe25118f	-0.1611998
166	0xbdb4e631	-0.08832968
167	0xbe0a0366	-0.13477859
168	0x3d1deb27	0.038554337
169	0x3dbe28d7	0.09285133
170	0x3e47cea5	0.19512422
171	0x3e7250b4	0.23663598
172	0x3c418ddb	0.011813606
173	0x3e920e44	0.2852651
174	0x3e0a8bcd	0.13529892
175	0xbe275d08	-0.16344082
176	0xbe1dc18e	-0.15405867
177	0xbe4d9951	-0.20078017
178	0xbe8c3695	-0.27385393
179	0x3e402916	0.18765673
180	0xbe1ae347	-0.15125762
181	0x3d57c96c	0.052682325
182	0x3deb5760	0.11491275
183	0xbb40e637	-0.0029434094
184	0x3dfb3b95	0.12267224
185	0x3d9478ce	0.07249604
186	0x3bc50d1f	0.006013527
187	0xbdaa8735	-0.0832657
188	0xbdc4a9e1	-0.09602714
189	0x3d9d1a17	0.07670992
190	0xbd5a9456	-0.05336412
191	0x3db9e968	0.09077722
192	0xbe709a3a	-0.23496333
193	0xbe205d39	-0.15660562
194	0x3e3b6050	0.18298459
195	0xbe205077	-0.15655695
196	0xbd919ad0	-0.07109606
197	0x3ded7af3	0.11595716
198	0x3dd39a8c	0.10332212
199	0xbe59de61	-0.21276237
200	0xbd4d14a2	-0.050068505
201	0x3e9ddc21	0.30832008
202	0x3e98f735	0.29876104
203	0xbe1a7bb6	-0.15086254
204	0xbd4addf9	-0.049528096
205	0xbdafcf50	-0.085844636
206	0xbb9cfc65	-0.00479083
207	0xbb8eec4c	-0.004361665
208	0xbe2ae09b	-0.16687243
209	0xbe4561ff	-0.19275664
210	0xbc40176a	-0.011724332
211	0xbbb7cd2c	-0.005609175
212	0x3de99f1a	0.11407299
213	0xbe827735	-0.25481573
214	0xbe019472	-0.12654284
215	0x3dbace65	0.09121398
216	0xbe4742b5	-0.1945904
217	0x3d3206fe	0.0434637
218	0x3d128cd4	0.035778835
219	0x3e271dcf	0.16319965
220	0xbea8ef2d	-0.32994977
221	0xbba91881	-0.005160392
222	0xbdbfbfde	-0.09362768
223	0xbe03ba4e	-0.12864038
224	0xbe9d4be6	-0.30721968
225	0xbdf4d629	-0.1195491
226	0xbe0059ba	-0.12534228
227	0xbdd31e78	-0.10308546
228	0xbe021631	-0.12703778
229	0x3d5da8ca	0.054116048
230	0x3e426cb7	0.18986784
231	0xbdf7f15b	-0.12106582
232	0x3c23ab92	0.009989636
233	0xbcc06539	-0.023485767
234	0x3e120e3c	0.14263242
235	0xbe074ec1	-0.13213636
236	0x3e5f4b7c	0.21806139
237	0x3d9a0b80	0.07521725
238	0xbe9b8fb3	-0.3038307
239	0xbe6b8270	-0.22998977
240	0xbda4eb20	-0.08052659
241	0x3d876fa8	0.066130936
242	0x3d99b841	0.07505847
243	0x3da9c8df	0.08290266
244	0xbc90bcae	-0.017668094
245	0xbd9d4661	-0.07679439
246	0x3ddd350d	0.10801134
247	0xbe3f7398	-0.1869644
248	0x3d27ffeb	0.041015547
249	0xbc873fc7	-0.016509904
250	0xbd536dde	-0.05161845
251	0xbb2f5a73	-0.0026756793
252	0xbdc7074e	-0.0971819
253	0xbc93204f	-0.017959742
254	0x3cdd7efa	0.027038086
255	0x3e698161	0.2280326

fc.bias f4 [10]
0	0xbc93fedf	-0.018065868
1	0xbe5583ee	-0.20851108
2	0xbd8084b6	-0.062753126
3	0x3d5fcc06	0.05463793
4	0x3e3ff4e7	0.18745767
5	0xbd501a09	-0.05080608
6	0x3d88bb47	0.06676345
7	0xbd82c669	-0.063855
8	0x3ca8baa7	0.020596815
9	0x3c80d92c	0.015728556
