MLP_3/models_AME/base.pth (torch, 74026 bytes, 5 tensors)

model.0.weight f4 [64, 246]
000000 f4 c0 90 bd 73 32 aa bd 97 5b 83 3c 27 34 e8 3a
       -0.07068053 -0.08310404 0.016034884 0.0017715738
000010 79 b8 a5 3d 7a 35 ad 3c ef a7 75 3d 90 42 1f bc
       0.08091826 0.021143664 0.059974607 -0.00972046
000020 f9 9b 23 3c 27 c4 74 3d 8d 42 a0 3c 6f 76 b9 bc
       0.009985917 0.059757378 0.019562984 -0.022639481
000030 ab 9a 6b bc 87 23 91 3d 9a d1 5e 3d 34 08 64 3d
       -0.014380137 0.070868544 0.05439911 0.055671886
000040 c0 08 a9 3d c0 f9 b1 3d 53 8c 8c bd b3 b8 b5 3d
       0.08253622 0.08690214 -0.06862702 0.08873119
000050 cc a3 aa bc 5b b2 2c 3d 29 50 d2 3b e5 dd b0 3d
       -0.020830058 0.04216228 0.0064182472 0.08636073
000060 8f 53 e9 bc ef 59 ed bc 0c 58 4a 3c b0 c8 99 3c
       -0.028482227 -0.028973548 0.012350094 0.018772453
000070 ed a4 db bc 63 2d 8c 3d 55 a6 18 bd a5 be 6c 3d
       -0.026812041 0.06844594 -0.037268 0.057799
000080 31 46 da 3c f5 ce ce 3c 61 68 81 bb 58 f8 4b 3d
       0.026644798 0.02524517 -0.0039492105 0.049797386
000090 d9 6a 9c bc 93 7a 55 3d e1 14 38 bd b3 69 90 bc
       -0.019093918 0.05211885 -0.044941787 -0.017628526
0000a0 89 e5 1b 3d 2d e8 1f 3d b5 a9 ec bd 25 df 11 3d
       0.0380607 0.03903978 -0.115558065 0.035613198
0000b0 97 00 15 bc 57 bc 55 bd 0a 56 12 3d bb 10 94 3c
       -0.009094379 -0.052181568 0.035726584 0.018074384
0000c0 94 dc 95 3d 5d d0 1c 3c 18 ce c7 3c 36 dc 08 bd
       0.073174626 0.009571162 0.024390265 -0.033413135
0000d0 41 d4 54 3d 73 4d aa bc 6a 6d 2a bd 00 73 07 3d
       0.051960234 -0.020788884 -0.04160825 0.033068657
0000e0 8b 16 17 3d f5 b6 20 3d 82 47 68 3b ad 13 64 bd
       0.036886733 0.03923698 0.0035443013 -0.055682827
0000f0 89 dd 99 bc e8 3f 5b 3d 99 f0 02 bd 97 7b 35 3c
       -0.018782394 0.053527743 -0.031967733 0.011076829
000100 e7 98 a9 3b a4 9b ce 3c 72 07 52 bd a3 19 22 bd
       0.005175698 0.0252207 -0.05127663 -0.03957523
000110 10 ae a9 3c 0a d5 12 3d f5 c1 c0 3d b3 67 19 3c
       0.020712882 0.0358477 0.09411994 0.009363103
000120 ce 65 57 bd 85 c4 d8 bc 96 13 10 3d c8 98 19 3c
       -0.052587323 -0.026460895 0.03517493 0.009374805
000130 8f 40 5b 3d 89 2e 92 3d c8 34 57 bc a4 8f 3f bd
       0.053528365 0.07137782 -0.013135143 -0.046767846
000140 8f 93 b5 bd 43 7a 4a bd 79 ba 9e 3c 1b d3 03 3d
       -0.08866035 -0.049433004 0.019376026 0.032183748
000150 fc 8f 73 bd f7 b4 86 3d 2d 1e 24 3d 75 da 86 3c
       -0.059463486 0.06577485 0.04006784 0.01646159
000160 df f9 6a bd 5c 09 1f bd c2 82 98 3d 12 7f ef bc
       -0.057367202 -0.038827285 0.07446815 -0.029235397
000170 4e 55 a6 3c ea 0e 41 3c 02 9b 5f bd 12 e3 24 3a
       0.020304348 0.011783341 -0.054591186 0.00062899396
000180 2c dc 1c 3d eb 48 9c bd eb 0e 9f bd a8 9d 94 3c
       0.03829591 -0.076310955 -0.07766517 0.018141583
000190 c1 f3 8b bd 55 7f 5b bd f7 ca d1 3b dc 61 ae bc
       -0.06833602 -0.05358823 0.006402369 -0.021286897
0001a0 98 a9 73 bb 24 cf 9f bc 75 27 d3 bc 36 ae 40 bd
       -0.0037179943 -0.019507952 -0.02577565 -0.04704114
0001b0 fc a5 c3 3c d3 a2 38 3d e6 72 82 bc 07 96 36 3d
       0.023882858 0.045077156 -0.015923928 0.04457667
0001c0 8e fc 31 3d 3a 83 89 bd ad 69 07 bd e0 8b 16 bd
       0.043453746 -0.067144826 -0.033059765 -0.03675449
0001d0 d4 4a 34 bd bc 56 b5 3d 0c 74 8d bd 72 f4 0e 3d
       -0.044016674 0.08854434 -0.069069 0.03490109
0001e0 d6 b4 83 bd 50 eb 5f bb 1f 87 0d bd 21 2d 0c 3d
       -0.06430976 -0.0034167357 -0.03455269 0.034222726
0001f0 c5 94 9e bd bb d9 b0 bc b7 c7 12 3c b4 cd 89 3b
       -0.07743219 -0.021588197 0.008958749 0.00420543
000200 5c 66 42 bd b2 ae 92 3b e9 7f 29 3d c0 5d 30 bd
       -0.0474609 0.0044763917 0.04138175 -0.043058157
000210 ff 81 aa 3c fa 1c 08 bd ce f1 91 bd 53 8f 66 bd
       0.02081394 -0.03323076 -0.07126199 -0.05628903
000220 4c 3c ce bc f0 5b 67 bd 78 2c 22 3d e1 4f 7d 3c
       -0.025175236 -0.056484163 0.03959319 0.015460939
000230 e8 2e 89 3d 87 20 6f 3c b6 28 9b bd 11 00 a8 bd
       0.066984 0.0145951575 -0.07576124 -0.08203138
000240 1c 89 69 bc 9c 5c b6 3c ce e2 8f bd 57 02 80 3d
       -0.014253881 0.022260956 -0.070256814 0.06250446
000250 1e 95 74 bd d6 01 87 3d e9 37 a2 bc da 93 36 bc
       -0.05971252 0.06592147 -0.01980205 -0.011143649
000260 d2 9d 05 bd 94 4d 0f 3d 17 35 1e bd 3e 67 05 3d
       -0.032621212 0.034986094 -0.03862485 0.032569163
000270 c7 5d eb bb b7 cd 8b bd c8 f9 1b 3d 45 e4 8b bd
       -0.00718281 -0.06826346 0.038080007 -0.06830648
000280 6a 75 c1 3c ab 22 8f 3c 40 c4 31 bd 89 05 b1 bd
       0.023615558 0.017472586 -0.04340005 -0.08643634
000290 a6 a5 87 bc c6 29 3a 3d a1 ab 25 3d ef d2 92 bc
       -0.01655848 0.045449995 0.04044688 -0.017922847
0002a0 de 0f a8 3d 8a e7 76 bd d1 98 7d bd f3 cb 40 bb
       0.082061514 -0.060279407 -0.061913315 -0.0029418438
0002b0 2c 6a 6a 3d 71 ab 73 bc 3b 91 95 3d a1 25 96 bc
       0.05723016 -0.014872418 0.07303091 -0.01832849
0002c0 44 f9 be 3c e5 31 6d bc a8 a4 5a bd 50 a9 18 bd
       0.023312218 -0.014477228 -0.053379685 -0.037270844
0002d0 75 64 45 3d ca d4 92 3c 75 7f 82 3c ca 2b da bc
       0.048191506 0.017923731 0.015929917 -0.026632208
0002e0 84 57 ed 3b e6 1b 5f 3c e6 45 b9 bc 78 4e ba 3c
       0.0072430987 0.013617491 -0.022616338 0.022742495
0002f0 1e 78 0c bc 7e ba a2 ba 83 1a 90 3d 00 88 e1 bb
       -0.00857356 -0.0012415198 0.07036307 -0.0068826675
000300 27 eb fd 3c e2 45 30 bb be 42 3d 3d 71 07 02 3d
       0.030995918 -0.0026897122 0.04620623 0.031745378
000310 bc fb 4f bd 6f 17 b2 bd fd c8 77 bd bb 07 5e bc
       -0.050777182 -0.08695876 -0.06049441 -0.013551648
000320 60 ba af 3c 08 88 41 3c 1d 9e 29 3d 8e de f8 bc
       0.021451175 0.0118122175 0.041410554 -0.03037956
000330 f1 5a 43 bd 4f 1c b8 bb 1f eb 40 3d d0 41 c2 3d
       -0.04769415 -0.005618609 0.04709923 0.09485209
000340 bf 20 6f bd 0c 13 81 bd c7 ad a9 3c 2e 81 c3 bc
       -0.05838084 -0.06302461 0.020712746 -0.023865309
000350 ef bc b0 3c 6f 13 88 bd c7 7e 3b 3d c3 48 2f 3d
       0.021574466 -0.06644332 0.0457752 0.042794
000360 c6 fc 9f bc b9 a1 4b bd 71 e2 07 3d b8 f3 b4 bb
       -0.019529711 -0.049714778 0.033174936 -0.0055222176
000370 23 df 37 bc 95 70 ab 3c 0c 7b 50 3c 1d de 0a 3c
       -0.0112226335 0.020927707 0.012724649 0.0084758075
000380 dd ae 31 3d e0 a0 48 bc be 65 b7 bd 24 6c 72 3d
       0.043379653 -0.012245387 -0.08954953 0.059185162
000390 8a 16 b1 3c 57 88 20 bd 9a 8a 58 3d 57 75 26 bd
       0.021617193 -0.039192524 0.052866556 -0.040639248
0003a0 16 da 83 bd 7f f5 1d 3c 24 fa 08 bb 15 3d bd 3c
       -0.06438081 0.00964105 -0.0020901049 0.023100415
0003b0 ea 6b 12 3d 6e 0b 2e 3d ad f2 c9 bc aa 36 3f 3d
       0.035747446 0.04249137 -0.02465185 0.04668299
0003c0 63 86 f7 bc 96 7d fd 3c ec a6 79 3d c0 bf 0c bd
       -0.030215448 0.030943673 0.060950205 -0.034362555
0003d0 14 54 e9 bc 3c 10 8c 3c 40 bd 64 3d 5d 3b 6a bd
       -0.028482474 0.017097585 0.055844545 -0.05718552
0003e0 79 de 5c 3b 2b 59 71 bb da 63 d5 3d 02 1a 48 bc
       0.003370194 -0.003682683 0.10419436 -0.012213232
0003f0 70 91 bc 3a 0f b0 00 bd db 43 80 3d 83 34 80 3c
       0.0014386605 -0.031417903 0.062629424 0.01565004

model.0.bias f4 [64]
000000 64 26 05 3d b4 4d f8 3c 38 c7 ba bc af 24 30 3d
       0.032507315 0.03031049 -0.022800073 0.043003734
000010 fd 5b 85 bc d2 be a4 3d 4a 9d 88 3d 35 11 c2 bc
       -0.016279215 0.080442086 0.066706255 -0.023689846
000020 90 f6 9c bd 58 aa 9f ba b2 48 35 bc 16 74 4e bb
       -0.076642156 -0.0012181504 -0.011064695 -0.0031502298
000030 07 08 66 bd 21 88 91 bb 34 e9 e9 bc 79 e2 59 3d
       -0.05616 -0.0044412767 -0.028553583 0.053194497
000040 e5 ee 17 3d 06 57 26 bd 54 8a cf 3c f8 fe d2 3d
       0.037093062 -0.040610336 0.025334515 0.10302538
000050 7f c0 32 3d ff c0 6a bd 55 a0 6e 3d 11 03 1b bd
       0.04364061 -0.05731296 0.058258373 -0.03784472
000060 a7 ab 11 bc 01 5b a8 3d 4f 6a d0 3c 64 38 85 bd
       -0.008891023 0.082204826 0.025441317 -0.06504896
000070 68 a4 0f 3d b4 79 2f bd c4 b7 7b 3d 27 93 33 3c
       0.0350689 -0.042840675 0.06145455 0.010960377
000080 54 f4 dd bc 93 9d 5a 3d 2e 40 4a 3d b0 a7 4f bd
       -0.027094044 0.05337293 0.049377613 -0.05069703
000090 be de a4 3a 65 f6 c2 bb 96 ad 8c bc fa 4c 43 3d
       0.0012578589 -0.0059497827 -0.017172616 0.047680832
0000a0 da 40 95 3c 50 f2 f1 3c 03 a1 e7 bc 75 d7 8f bc
       0.0182194 0.029534489 -0.028275019 -0.017558793
0000b0 d5 96 ba 3b c0 ce 3e bd d4 28 2c bc 53 95 61 3d
       0.00569425 -0.04658389 -0.010507781 0.055074047
0000c0 80 3f 3a bd f5 6b 1f bd c7 dd d0 3b 97 a3 5d 3c
       -0.045470715 -0.038921315 0.006374094 0.013527772
0000d0 7a 93 ca 3c 65 12 ee 3c a5 f3 6e bd 73 99 ae bd
       0.024728525 0.029061506 -0.058337826 -0.08525362
0000e0 47 49 cb 3d e3 df e5 bc 9f a3 34 3d 25 5d 33 3c
       0.09926086 -0.02806086 0.044101354 0.0109475
0000f0 26 07 d8 3b 14 09 8b 3d 07 8a 3d bd 80 7e e3 bc
       0.006592649 0.06788841 -0.04627421 -0.02777028

model.2.weight f4 [32, 64]
000000 1b 29 c1 3d f7 58 0b bc 60 7f 9e bd 2c c3 9b bc
       0.09431668 -0.008505098 -0.077391386 -0.019013964
000010 d1 39 55 bd 60 08 aa bd 73 3b 40 bd 44 dd d2 bd
       -0.05205709 -0.08302379 -0.046931695 -0.10296109
000020 b3 b8 d5 3d 80 0f 88 bd 5b 9f 8f 3d ef 8a 6c bd
       0.10435619 -0.066435814 0.070128165 -0.057749685
000030 ce 9a 52 3d 62 6a 82 3d 95 84 9b bd 8f ac 37 3d
       0.051417165 0.06367947 -0.075936474 0.0448423
000040 d2 39 08 3e 81 c9 fc bc ab 0c 91 bd bc c4 8a bc
       0.13303307 -0.030857803 -0.07082494 -0.016939513
000050 e4 9a ff bc be 1f 3d be ae dc 93 bd 62 70 2b be
       -0.031201787 -0.1846914 -0.07219826 -0.1674209
000060 fd 6e 9c bc e2 9b 0e bd c5 e9 16 be 6d a5 1f bd
       -0.019095892 -0.03481663 -0.14737613 -0.03897612
000070 79 39 a1 bd d3 6b 5b 3d 29 f2 1d 3e 4d 1b 08 be
       -0.0787229 0.053569626 0.15424408 -0.13291664
000080 64 61 14 be 6b f5 a2 bd de fa 85 3c 84 50 88 bd
       -0.14490277 -0.07956966 0.016354974 -0.06655982
000090 15 3f b5 3d 9d 2f b3 3d cd 2c 02 be 7e 26 a9 3c
       0.088499226 0.08749316 -0.12712403 0.020648237
0000a0 3f 8d 67 3c 26 9a ef 3d 67 a0 25 3d 22 1a 38 3d
       0.014132797 0.11699323 0.040436175 0.044946797
0000b0 f6 75 13 3e 77 77 2b bd aa fe 88 3d 68 b5 80 3b
       0.14400467 -0.041861977 0.06689198 0.0039278753
0000c0 b8 1c 16 bd be f7 22 3d 45 91 33 3b b3 40 f2 bc
       -0.036648482 0.039787047 0.002739982 -0.029571867
0000d0 50 ec f7 3c 3e 60 0a 3e 1b 3b e5 b9 0c 6c 8b 3c
       0.03026405 0.13513276 -0.0004372232 0.017019294
0000e0 31 df 2c bd e1 e0 4e bd 88 38 15 be 45 c7 db bd
       -0.04220504 -0.05050743 -0.14572346 -0.10731367
0000f0 c3 8b ca bd fe 67 62 bb 27 be 05 3d 27 3f 9a 3d
       -0.09889939 -0.0034546847 0.032652047 0.075315766
000100 31 60 13 3d da ec 90 bd 37 81 b3 3d 3e 9d 8c 3c
       0.035980407 -0.07076426 0.0876488 0.017164823
000110 c9 ee fd bc f3 a3 35 3d 71 39 d3 3d 3a 5d 0d 3b
       -0.03099765 0.044345807 0.103136905 0.002157046
000120 f3 98 1b be f0 61 8b 3d a0 5b 9d 3d 3b 78 45 3d
       -0.15195064 0.068057895 0.07683492 0.048210364
000130 19 bb 3b bd 5f ef 63 3c 9a 93 89 bd 9c b1 8d 39
       -0.045832727 0.013912051 -0.06717606 0.00027025945
000140 08 49 02 3d 28 e0 ec bd 88 f1 a4 bd 5a 66 c9 3d
       0.03180793 -0.11566192 -0.08053881 0.09833975
000150 e2 4d d4 bc 9a e8 50 bd 7b 79 56 3c a6 50 ac bc
       -0.025916044 -0.051003076 0.013090487 -0.02103455
000160 50 35 75 bd df 7c 1d 3e 1e 83 45 bd e4 84 8f 3d
       -0.059865296 0.15379666 -0.048220746 0.07007769
000170 cb b7 92 3d 26 a9 3d 3c 90 a8 ba 3c 98 b6 85 3d
       0.07163962 0.011575973 0.022785455 0.065289676
000180 89 f3 a7 bd fc 50 69 3d cc 03 a9 bc ed 20 05 be
       -0.082007475 0.056962 -0.020631693 -0.13000841
000190 ea 7b 06 3e ad 88 2b 3d 6b 72 ef bc 00 2e 90 3d
       0.13133207 0.04187839 -0.029229363 0.07040024
0001a0 a0 ba ad 3d 40 b7 03 3e df f5 70 3d 59 cb df 3d
       0.084828615 0.12862873 0.05882823 0.10927457
0001b0 53 1e b9 3d 8a 7a f9 bd 48 e5 1a 3d 6f 0d eb bd
       0.09038987 -0.121815756 0.037816316 -0.11477172
0001c0 bc 13 cf bd 67 1c f5 3d 9a 61 f1 3d 6c a8 c3 3c
       -0.10111186 0.11968308 0.11786194 0.02388402
0001d0 4e 35 af bd b8 4e a8 3d 56 54 95 3c e9 2a 1a be
       -0.08555089 0.082181394 0.018228691 -0.15055431
0001e0 89 04 e4 3d 16 d9 51 3d 70 79 14 bd b4 48 60 bd
       0.111336775 0.05123242 -0.036248624 -0.054756835
0001f0 e8 c4 4f 3d 2c 30 da bc 32 d2 c6 3d 00 c5 0b 3e
       0.050724894 -0.026634298 0.0970806 0.13649368
000200 4b bb 90 3d 00 fa 17 bd 9d ab 82 3c 88 db 9d bd
       0.07066973 -0.037103653 0.015950972 -0.07707888
000210 a4 ec 3a bc 1d 68 99 3d d9 75 12 be ae 95 12 be
       -0.011408959 0.07490561 -0.14302768 -0.14314911
000220 9e 2e 8e bd 7a 89 01 3d 72 25 bc 3c b1 f3 c7 bd
       -0.06942485 0.03162525 0.022967074 -0.09763277
000230 e1 4a 83 bd 81 f5 da bd f6 73 ef bd 53 a4 68 3d
       -0.064107664 -0.106913574 -0.1169204 0.056797337
000240 71 75 4b 3c b4 3d ba 3c a5 c5 98 bd 37 74 0f be
       0.012418137 0.0227345 -0.07459573 -0.14009176
000250 ff bd 5c bd 72 7a 57 bd 8f 0e 8c bc 70 8f 50 bb
       -0.053892132 -0.052607007 -0.017096786 -0.0031823777
000260 95 83 08 bc 47 75 93 3d 2c ca db 3d 30 04 38 3d
       -0.008332153 0.07200103 0.107319206 0.04492587
000270 09 2c 06 bd 27 54 7d bd d8 ff 0f be 51 6c da bd
       -0.03275684 -0.061847832 -0.1406244 -0.10665191
000280 48 22 15 3d 09 7e 45 bd f8 04 56 3d db f9 3a bd
       0.036409646 -0.0482159 0.052250832 -0.045648437
000290 03 64 9c 3d af 20 71 3d 6c ed 0d be 81 6d e4 3c
       0.07636263 0.05886906 -0.138601 0.027884247
0002a0 72 b4 10 3d fc 54 85 3d 8e 72 dc 3d 7e bb 87 bc
       0.035328336 0.0651035 0.10764037 -0.016568895
0002b0 4d e6 0b be 65 cc c8 bd db 7a ac 3c 9c 78 e6 bd
       -0.13662072 -0.0980461 0.021054676 -0.11253473
0002c0 aa 86 6f bd d6 21 e5 bd 0a 12 08 be 3e 62 c0 3d
       -0.058478035 -0.11188094 -0.13288131 0.09393738
0002d0 8a bc 1d bd 4f 8c b1 bc a1 8d 22 3d 39 04 46 3d
       -0.038509883 -0.02167335 0.03968585 0.04834387
0002e0 cb ca 97 bd 88 29 96 3a e0 54 91 3d b5 9b 58 bd
       -0.074117266 0.0011456469 0.07096267 -0.05288287
0002f0 c4 29 b6 bd 90 68 3c bb 7c 3f 7f bd 26 bb 36 bd
       -0.08894685 -0.0028748848 -0.062316403 -0.044612072
000300 8b 98 7d 3d 7e 58 16 3e 92 f4 ed 3d f0 f6 04 be
       0.061913054 0.14682195 0.11618914 -0.12984824
000310 45 ec 00 3d 9e 76 19 be 43 69 02 3e b8 f7 c1 bd
       0.031475324 -0.14986655 0.12735467 -0.09471077
000320 36 8d ca 3d 8c 73 0e 3c fd a1 c7 bd 62 b0 4b bd
       0.09890215 0.008694541 -0.09747694 -0.04972876
000330 21 51 37 3d 7b 1f 07 bd 88 69 d4 bd 16 45 8f bd
       0.044755105 -0.032989006 -0.10371691 -0.06995599
000340 73 4a de bd b1 48 11 bd a7 42 3e bd 53 18 48 be
       -0.10854044 -0.035469715 -0.046450283 -0.19540529
000350 f8 c6 4b bd f8 67 e1 bd 35 3b ab 3d 6a a5 d7 bd
       -0.0497503 -0.110061586 0.08360902 -0.10529597
000360 13 79 cd bd 10 b8 39 be da ef 29 3e 96 c3 33 3c
       -0.10032859 -0.1813662 0.16595402 0.010971924
000370 9f 6d 2e 3e d0 3e d7 bd 45 1c 18 bd 5a 86 ef 3d
       0.17034005 -0.105100274 -0.037136335 0.116955474
000380 76 45 d5 bc 4a 99 a7 bc 09 17 f2 bd 6d c3 6b 3d
       -0.026034098 -0.020458836 -0.118208 0.05755942
000390 68 89 1a 3e cc 47 b5 bd 32 22 34 be 2e ab 30 bd
       0.15091479 -0.08851585 -0.1759117 -0.043132
0003a0 89 cc 7c bd cb 70 8d bd 58 25 18 be 8d 74 0b be
       -0.061718497 -0.06906279 -0.14857996 -0.1361868
0003b0 1d 20 83 3d 47 d3 34 3e 50 04 af bb f4 e9 31 3d
       0.064026095 0.17658721 -0.0053410903 0.043436006
0003c0 65 b7 5d 3d 7a 2a 0d bb 41 97 4c be 99 b1 c2 3d
       0.054129977 -0.002154021 -0.19979574 0.0950653
0003d0 53 a5 00 3e b1 c1 0e 3d e4 c6 0e 3e fb 49 5f 3d
       0.12563066 0.034852687 0.13943058 0.054513913
0003e0 d9 e5 19 be 4d 99 1b 3d 20 09 79 3d 84 a2 a7 bb
       -0.15029086 0.037987996 0.060799718 -0.005115809
0003f0 72 1a 55 bc cb 51 08 bd fa 01 93 3d e3 83 f7 bd
       -0.013006793 -0.03328113 0.071781114 -0.12085702

model.2.bias f4 [32]
000000 29 dd 45 3d a3 44 6e bd a8 4d ca 3c 21 04 60 bd
       0.048306618 -0.058170926 0.024695233 -0.054691438
000010 2a ba 8c bc a4 c8 48 bc 4b 25 92 bd 75 e4 de bd
       -0.017178614 -0.012254868 -0.07136019 -0.108834185
000020 ad 4b 51 3c 75 e0 60 3d 9e bd 90 bd 02 e1 d3 3c
       0.01277439 0.05490156 -0.070674166 0.025864128
000030 58 40 ec bd 78 42 04 bc aa 58 c3 bd 4b 03 00 3e
       -0.1153571 -0.008072488 -0.09538396 0.12501256
000040 2d da 46 bb e9 4c b7 3d 8d a6 0d 3e a4 9a 12 3e
       -0.0030342445 0.08950216 0.13833065 0.14316803
000050 4e cc d0 bd 19 38 02 3e c0 60 cb bd 43 2e ea 3d
       -0.10195218 0.12716712 -0.09930563 0.11434605
000060 1c 82 a6 bd fb 17 f8 3b 13 6b a8 3d b7 89 c6 bc
       -0.08130285 0.007571218 0.08223548 -0.02423559
000070 67 20 b8 3d 8b 9c ba bd ed 76 17 3d ed 29 c8 3d
       0.08990555 -0.091118895 0.03697865 0.09773622

model.4.weight f4 [1, 32]
000000 d7 ba c3 3d 6f cc a0 bd 63 d4 b1 3d 4a ca 30 3e
       0.09557121 -0.078514926 0.08683088 0.17264667
000010 d0 0f 16 be 0f c6 e4 3d 09 bf 60 be 6a 75 01 bd
       -0.1465447 0.11170589 -0.21947874 -0.031606115
000020 90 88 12 3e 0b cf 57 be 68 76 53 be 97 c4 56 3e
       0.14309907 -0.21075074 -0.20650637 0.2097343
000030 65 b7 82 be d3 54 02 be 42 68 2f be db 26 c1 bd
       -0.25530544 -0.1272767 -0.17129615 -0.09431239
000040 60 59 29 be 57 0b 01 be cf 96 2e 3e c9 8c 92 bd
       -0.16538 -0.12601982 0.17049716 -0.07155759
000050 77 ae 42 3c 13 63 32 be 1a 23 4c 3e c5 9e aa 3d
       0.011882416 -0.17420606 0.19935265 0.08331064
000060 4a 78 42 bd aa ff de 3d 50 c8 70 3e 3a 72 da bd
       -0.047477998 0.10888608 0.23513913 -0.10666318
000070 f4 3c 16 bd 9d 35 17 3e b8 df 37 3e a4 22 c4 bc
       -0.036679223 0.14766546 0.17956436 -0.0239423
